best_model_4_dim1.pt (torch, 21842 bytes, 11 tensors)

model.0.weight f4 [32, 1]
1.1548878 -0.8771567 -0.6509945 -0.6552988 -1.0741668 -0.5093067 -1.0602479 -0.39388624
-0.51029646 -0.9615798 0.95733315 -0.7443882 0.52396095 0.8935326 0.23752128 0.8521191
-0.53174746 0.457923 0.7331581 0.98614377 -0.9475279 0.60250986 1.1901156 0.8327051
-0.82419986 0.89372814 0.95217204 0.468669 -0.16690385 -0.73643947 -0.29870304 -1.1412967
00000000: 5dd3 933f 578d 60bf 93a7 26bf aac1 27bf
00000010: 4c7e 89bf ed61 02bf 34b6 87bf 75ab c9be
00000020: caa2 02bf 182a 76bf c913 753f 3a90 3ebf
00000030: 4e22 063f 8dbe 643f c738 733e 7a24 5a3f
00000040: 9a20 08bf e274 ea3e 40b0 3b3f eb73 7c3f
00000050: 3091 72bf 163e 1a3f b555 983f 292c 553f
00000060: c3fe 52bf 5ecb 643f 8cc1 733f 62f5 ef3e
00000070: d8e8 2abe 4c87 3cbf 9bef 98be 0316 92bf

model.0.bias f4 [32]
0.8216719 0.29147044 0.34478807 -0.32547554 0.38938248 0.10658947 -0.66291046 1.0959085
-0.7326766 0.8926318 1.2400931 -0.4583417 0.22337635 0.030721739 -0.33918682 0.14922476
-0.35661325 0.4990133 1.0495598 0.6038093 -0.13487375 0.80198026 0.5108546 -0.6658968
-0.20970397 1.0166472 0.056532953 -0.32901463 0.63965803 0.79126734 0.59389836 1.259241
00000000: 1759 523f 9d3b 953e 1088 b03e bba4 a6be
00000010: 245d c73e 944b da3d 80b4 29bf bb46 8c3f
00000020: b290 3bbf 8583 643f 5fbb 9e3f c3ab eabe
00000030: c5bc 643e 28ac fb3c e5a9 adbe 60ce 183e
00000040: 0396 b6be ac7e ff3e fa57 863f 3f93 1a3f
00000050: 581c 0abe 944e 4d3f 5ec7 023f 3678 2abf
00000060: a3bc 56be 7f21 823f 198f 673d 9b74 a8be
00000070: a1c0 233f 7f90 4a3f b909 183f cf2e a13f

model.2.weight f4 [32, 32]
-0.6597894 0.42369908 0.23947433 0.4844974 0.5598934 0.5534487 0.24942143 0.3068734
-0.07166589 0.27951607 -0.3280974 0.5584343 -0.3284501 -0.20657009 -0.1001108 -0.09034092
0.4382294 -0.17621209 -0.37743533 -0.6231277 0.48601025 -0.12932928 -0.38999403 -0.053319838
0.61113274 -0.12624723 -0.15892565 -0.07885759 0.19263749 0.3225295 0.342837 0.21052171
0.17748187 0.14457738 -0.11550414 0.23753077 0.21989073 -0.17606366 0.54539925 -0.035579547
-0.05445808 -0.02642079 0.012519903 0.10860958 0.10055884 0.16507752 0.019647658 0.3798402
0.19799851 0.021028636 0.1891863 0.21971881 0.12799129 0.2039116 0.2785674 0.6866849
0.16055146 0.016567493 0.43588114 0.2565359 -0.18056343 0.10546593 -0.02162419 -0.112757504
0.18114042 0.12608346 0.14355655 0.12857546 0.27365175 -0.004513977 0.5230291 -0.09267401
0.20057762 -0.102599785 0.15691383 0.32904732 -0.015420487 0.30435085 -0.017610455 0.06444882
0.09174087 0.09872097 0.025458345 -0.003079013 0.23131678 0.18335107 0.1661312 0.5468439
0.33161318 0.20240583 0.31628343 0.050217394 0.037810236 0.0392268 -0.15351963 0.13230066
0.1594963 -0.10269841 -0.0328261 -0.43330616 0.23265737 0.15688586 -0.6357869 0.060975485
-0.23248893 0.045844782 0.0053290925 -0.36762562 -0.04061692 -0.17435989 -0.33451664 0.060616933
-0.35772154 0.102153145 0.031050066 -0.04501267 -0.22049789 0.036981646 -0.008982873 -0.5858514
-0.17171016 0.24248582 0.07139153 -0.27509567 0.36058614 0.20063451 0.30311525 0.23901124
0.06660733 -0.08907027 0.17393516 0.09569146 0.03861853 0.15067743 0.18652111 -0.10630088
-0.09105497 0.109398276 -0.10695034 0.054012552 -0.18488897 -0.15600859 0.20958446 -0.05806102
0.14161476 0.11175841 -0.17343019 -0.19539718 -0.024553096 -0.15343483 0.07320105 0.26306492
-0.024398385 -0.1331432 0.107170224 0.20905367 -0.1329575 -0.11129678 -0.035682533 -0.14084603
0.1931951 -0.040292047 -0.1143088 0.32705167 0.17150848 -0.17142153 0.4342605 0.03175091
0.13988069 -0.018395307 0.040210422 0.15120542 0.25287095 0.2543541 0.23293817 0.38800007
0.23524374 0.0065266076 0.14392099 0.2343301 0.29568446 0.13470161 0.33068025 0.73013556
0.06485718 -0.078971446 0.42312193 0.36159796 -0.218373 0.021371583 0.052152276 0.017331416
-0.45161095 0.09649791 0.13325353 0.4237785 0.25937167 0.2668161 0.35148555 0.102350816
-0.03812046 0.1616174 -0.1927674 0.44084555 -0.33257154 -0.17855349 -0.11527968 -0.3191622
0.26648688 0.046815343 -0.22468428 -0.18963228 0.31678706 0.04462025 -0.40438336 0.079216346
0.2979435 -0.075288475 -0.3246143 -0.18515049 0.1867775 0.32008573 0.02156542 0.3215107
0.15290856 0.01795709 0.112570114 -0.37135413 -0.032443155 0.08881845 -0.49641275 0.08804295
-0.45836338 0.17495301 0.28534254 -0.35527164 0.13650432 -0.16609268 -0.4146185 -0.16827293
-0.16632654 0.046367463 0.15297927 0.010295847 -0.07962824 0.17848103 -0.12746857 -0.8057767
-0.33982265 0.13209927 -0.070421286 -0.25381583 0.23974562 0.27594241 0.1633813 0.1769873
00000000: f5e7 28bf 16ef d83e c238 753e 0b10 f83e
00000010: 2d55 0f3f d0ae 0d3f 5568 7f3e 831e 9d3e
00000020: 91c5 92bd bb1c 8f3e 62fc a7be 8df5 0e3f
00000030: 9d2a a8be 1c87 53be e406 cdbd a904 b9bd
00000040: 9b5f e03e f170 34be 343f c1be 4c85 1fbf
00000050: 56d6 f83e e56e 04be 4cad c7be e765 5abd
00000060: 3273 1c3f f446 01be 68bd 22be 1780 a1bd
00000070: c342 453e 9622 a53e 5588 af3e 0193 573e
00000080: cfbd 353e 180c 143e 6f8d ecbd 443b 733e
00000090: 092b 613e 084a 34be 499f 0b3f dcbb 11bd
000000a0: 700f 5fbd 6a70 d8bc 4720 4d3c b36e de3d
000000b0: cbf1 cd3d 150a 293e 20f4 a03c 6a7a c23e
000000c0: 1fc0 4a3e 3f44 ac3c 0eba 413e f8fd 603e
000000d0: 2610 033e 34ce 503e 63a0 8e3e 95ca 2f3f
000000e0: 9a67 243e 8db8 873c d02b df3e ac58 833e
000000f0: 9fe5 38be 86fe d73d 3725 b1bc 68ed e6bd
00000100: e07c 393e 061c 013e 7d00 133e 49a9 033e
00000110: 151c 8c3e fce9 93bb 3ce5 053f dfcb bdbd
00000120: 3864 4d3e d61f d2bd 05ae 203e e478 a83e
00000130: 36a6 7cbc e0d3 9b3e cd43 90bc befd 833d
00000140: a3e2 bb3d 382e ca3d 058e d03c 44c9 49bb
00000150: 4ede 6c3e 62c0 3b3e 4c1e 2a3e f6fd 0b3f
00000160: 34c9 a93e 7943 4f3e e7ef a13e c1b0 4d3d
00000170: e8de 1a3d 48ac 203d 4034 1dbe d379 073e
00000180: 0053 233e 8b53 d2bd a974 06bd 4eda ddbe
00000190: bc3d 6e3e b0a6 203e eec2 22bf 6ec1 793d
000001a0: 9411 6ebe bdc7 3b3d ab9f ae3b 6d39 bcbe
000001b0: ed5d 26bd 668b 32be c445 abbe 7649 783d
000001c0: 4727 b7be ab35 d13d b55c fe3c 355f 38bd
000001d0: 33ca 61be 117a 173d e62c 13bc 5bfa 15bf
000001e0: cad4 2fbe 344e 783e b935 923d 57d9 8cbe
000001f0: bf9e b83e 2273 4d3e ec31 9b3e 5dbf 743e
00000200: 6d69 883d 796a b6bd 0f1c 323e e2f9 c33d
00000210: 772e 1e3d 2f4b 1a3e 64ff 3e3e 47b4 d9bd
00000220: 077b babd 340c e03d c808 dbbd 443c 5d3d
00000230: 8953 3dbe b7c0 1fbe 4f9d 563e 64d1 6dbd
00000240: 7603 113e 98e1 e43d af97 31be 3316 48be
00000250: 9323 c9bc 051e 1dbe 6fea 953d 72b0 863e
00000260: 1fdf c7bc b156 08be 107c db3d 2a12 563e
00000270: 0326 08be 91ef e3bd d927 12bd f139 10be
00000280: f0d4 453e 4609 25bd bb1a eabd 5173 a73e
00000290: eb9f 2f3e 2089 2fbe 6457 de3e 3e0d 023d
000002a0: e23c 0f3e c1b1 96bc afb3 243d 98d5 1a3e
000002b0: 4d78 813e b33a 823e 5887 6e3e f2a7 c63e
000002c0: bce3 703e 27dd d53b 0660 133e 3bf4 6f3e
000002d0: f463 973e 38ef 093e ec4e a93e 2aea 3a3f
000002e0: d7d3 843d c8bb a1bd 70a3 d83e 5e23 b93e
000002f0: 2c9d 5fbe 7513 af3c a09d 553d 9dfa 8d3c
00000300: 8d39 e7be b2a0 c53d 9d73 083e 7ff9 d83e
00000310: 5dcc 843e 1f9c 883e eaf5 b33e 4e9d d13d
00000320: 3324 1cbd 087f 253e d164 45be 82b6 e13e
00000330: d146 aabe bad6 36be c117 ecbd 3a69 a3be
00000340: f870 883e 72c1 3f3d a313 66be f72e 42be
00000350: ea31 a23e b9c3 363d 560b cfbe 2e3c a23d
00000360: 0d8c 983e d830 9abd d833 a6be 1798 3dbe
00000370: 9a42 3f3e 47e2 a33e f7a9 b03c 0d9d a43e
00000380: 1094 1c3e bf1a 933c 298b e63d 2122 bebe
00000390: 1de3 04bd 73e6 b53d d029 febe dd4f b43d
000003a0: 9bae eabe e226 333e 6b18 923e 2ae6 b5be
000003b0: cac7 0b3e 3314 2abe e048 d4be bd4f 2cbe
000003c0: 8151 2abe cfeb 3d3d 99a6 1c3e eaaf 283c
000003d0: 2114 a3bd bbc3 363e 1f87 02be 6247 4ebf
000003e0: 3cfd adbe 0845 073e 0939 90bd 26f4 81be
000003f0: e07f 753e 5348 8d3e 6d4d 273e 293c 353e

model.2.bias f4 [32]
0.2033763 0.0923008 -0.079646386 0.25974932 0.07269711 -0.16868106 -0.00567501 0.20700222
0.2374854 0.14147407 0.32147443 0.09467949 -0.06746824 -0.10977459 0.13522857 0.027832093
-0.06551345 0.20399581 0.29812297 0.18212162 -0.05445735 0.07362015 0.39593783 0.10636312
0.24546507 -0.05798413 -0.11651679 -0.16637379 0.36853534 0.2681908 0.040208504 0.14471555
00000000: e041 503e 3408 bd3d a51d a3bd ddfd 843e
00000010: 39e2 943d baba 2cbe 6ff5 b9bb 64f8 533e
00000020: 5f2f 733e 94de 103e 4c98 a43e 52e7 c13d
00000030: ca2c 8abd 80d1 e0bd 5c79 0a3e 2100 e43c
00000040: ea2b 86bd 47e4 503e 93a3 983e 177e 3a3e
00000050: ac0e 5fbd 29c6 963d 5db8 ca3e e8d4 d93d
00000060: 325b 7b3e c480 6dbd 5ba0 eebd e45d 2abe
00000070: aab0 bc3e 4e50 893e acb1 243d 5030 143e

model.4.weight f4 [32, 32]
0.18930143 0.063156515 0.16158074 -0.21032962 -0.047267452 0.23677841 -0.021903386 -0.113600954
-0.037844904 -0.10243334 -0.13812828 0.21289621 0.17082514 0.080795005 0.14732909 0.044022597
0.09187058 0.055930406 -0.11022216 0.031920288 0.14712557 -0.2281681 0.15716821 0.26807296
-0.03920199 0.19575316 0.1271621 0.3927738 -0.13219348 -0.21140909 -0.008481417 -0.08709768
0.24817707 0.14413232 -0.0153696835 0.20807795 0.0065084705 -0.13019733 0.21273692 -0.027542287
-0.04228434 0.047918644 0.07871504 0.14993241 0.1712212 -0.1251509 0.17017084 0.04148822
0.011440872 0.0854245 -0.16760059 0.35619858 0.10517368 0.0024357615 -0.08626883 0.12903357
0.15908529 0.101292975 0.20439273 -0.13058732 0.14596638 -0.0541477 -0.062254854 0.118715055
0.03517674 0.21416049 0.30854848 -0.044876557 0.18522541 0.29640844 0.16869447 -0.20932236
-0.13638122 -0.22022128 -0.2399177 0.22695571 0.24643682 0.073939666 0.12455134 0.024435919
-0.042815868 -0.24207467 0.044760764 -0.08195348 0.30626467 -0.010274599 0.13660674 0.18823417
-0.2064986 0.061678406 0.32352218 0.14652744 -0.20555566 -0.17140774 0.14877646 -0.22523233
0.4794181 0.3732818 0.40229592 -0.14177462 -0.1663522 0.55814636 0.5621116 -0.23441625
0.0346521 -0.24785271 -0.22000368 0.4589784 0.5130801 0.4510131 0.54283744 0.37040925
0.21882412 -0.23285154 -0.08342467 0.4470161 0.39972457 -0.17376892 0.18873 0.51298714
-0.24797647 0.5040539 0.33554974 0.5669048 -0.060068898 -0.18515289 0.17798309 -0.28330705
-0.7371043 -0.37332088 -0.29309058 0.39101484 -0.44789162 -0.6884564 -0.87960464 0.30830994
0.38176134 0.21096145 0.5209658 -0.8633924 -0.64665675 -0.6994153 -0.7349791 -0.19443268
-0.12508455 0.6137443 0.46161762 -0.68758464 -0.72213715 0.5585141 0.14764018 -0.75187784
0.5637479 -0.39848766 -0.8845222 -0.36931545 0.3765679 0.45651305 -0.07924483 0.25451568
0.0696199 -0.008569773 0.02397537 0.1227167 0.08951059 -0.014741886 0.018166242 0.20014739
0.17336911 0.036484495 0.18258548 0.30739447 0.27714506 -0.08868756 0.16284195 0.03499182
0.22140245 0.086892836 -0.07435829 0.30159685 -0.042456858 0.06618987 -0.0067685433 0.20079471
0.12182869 0.15862764 0.19392005 0.09061529 0.12221421 -0.11696781 0.01790549 0.054207236
0.45972082 0.30585667 0.22460058 -0.21345103 0.040044576 0.2036982 0.49015507 0.06253149
-0.19464765 -0.2836184 0.042131323 0.30889916 0.20315906 0.39589745 0.27978116 0.10253001
0.4825135 -0.2609217 -0.07330676 0.28438327 0.30038476 -0.2941582 0.18631917 0.33597177
-0.25465775 0.48010287 0.42970276 0.4946876 -0.27150157 -0.2276589 0.30437145 -0.02482209
0.13266352 0.27023318 0.28724372 0.49996686 -0.24812482 0.0028248332 0.21142156 0.66093844
0.5078596 0.4877755 0.39217922 0.010324437 0.05264453 -0.15816619 0.06505246 0.15785372
0.022014162 0.44880718 0.4496528 -0.0268291 -0.17866133 0.5582661 0.45953712 0.17789212
0.6438252 0.08601661 -0.15333766 0.04034719 0.46199536 0.6042412 0.23993073 0.6305256
00000000: 3cd8 413e 3458 813d 6c75 253e a660 57be
00000010: 849b 41bd 0a76 723e bb6e b3bc 9ea7 e8bd
00000020: 4203 1bbd 92c8 d1bd 8071 0dbe 7701 5a3e
00000030: c9ec 2e3e da77 a53d 70dd 163e 0a51 343d
00000040: a526 bc3d 4817 653d 28bc e1bd d9be 023d
00000050: 16a8 163e e6a4 69be b4f0 203e dc40 893e
00000060: 4492 20bd 8473 483e c836 023e a619 c93e
00000070: ba5d 07be a07b 58be a4f5 0abc 4560 b2bd
00000080: 2122 7e3e 6c97 133e 20d1 7bbc 6312 553e
00000090: 0245 d53b 7352 05be b5d7 593e 5da0 e1bc
000000a0: 5832 2dbd 5746 443d 5a35 a13d e287 193e
000000b0: 9c54 2f3e 8f27 00be 4441 2e3e 8def 293d
000000c0: 7f72 3b3c 0af3 ae3d 7d9f 2bbe a95f b63e
000000d0: 4c65 d73d 4ca1 1f3b b6ad b0bd 6021 043e
000000e0: 41e7 223e b172 cf3d 544c 513e afb8 05be
000000f0: 3678 153e fbc9 5dbd f2fe 7ebd e120 f33d
00000100: 7c15 103d e34c 5b3e 11fa 9d3e 7bd0 37bd
00000110: bbab 3d3e d9c2 973e 3ebe 2c3e 9a58 56be
00000120: 85a7 0bbe b081 61be fcac 75be 1467 683e
00000130: ef59 7c3e ae6d 973d c614 ff3d d62d c83c
00000140: b15f 2fbd 6ce2 77be 1057 373d 3ad7 a7bd
00000150: b9ce 9c3e cb56 28bc a3e2 0b3e 75c0 403e
00000160: 5e74 53be 7fa2 7c3d b3a4 a53e 4a0b 163e
00000170: 2f7d 52be 8385 2fbe db58 183e 4ea3 66be
00000180: 4a76 f53e cb1e bf3e bbf9 cd3e 5e2d 11be
00000190: 3b58 2abe aee2 0e3f 8ce6 0f3f d00a 70be
000001a0: 5cef 0d3d 1acd 7dbe a548 61be 38ff ea3e
000001b0: 3859 033f 30eb e63e 65f7 0a3f 48a6 bd3e
000001c0: 6e13 603e a270 6ebe 8eda aabd 4bdf e43e
000001d0: b3a8 cc3e 7bf0 31be 7042 413e 2053 033f
000001e0: 8bed 7dbe ad09 013f 2dcd ab3e ac20 113f
000001f0: ce0a 76bd b898 3dbe 3341 363e 9f0d 91be
00000200: deb2 3cbf ea23 bfbe f80f 96be 1933 c83e
00000210: 0d52 e5be ae3e 30bf c52d 61bf cdda 9d3e
00000220: 3976 c33e 4706 583e 045e 053f 4907 5dbf
00000230: 4c8b 25bf e20c 33bf 9727 3cbf 5c19 47be
00000240: 2a16 00be 591e 1d3f 2559 ec3e 8c05 30bf
00000250: fbdd 38bf c8fa 0e3f fd2e 173e 117b 40bf
00000260: c851 103f 9306 ccbe 0c70 62bf ea16 bdbe
00000270: 82cd c03e 14bc e93e 1d4b a2bd e14f 823e
00000280: e194 8e3d 3c68 0cbc ff67 c43c e552 fb3d
00000290: 5451 b73d f487 71bc 5fd1 943c 70f3 4c3e
000002a0: ac87 313e c470 153d b0f7 3a3e cf62 9d3e
000002b0: f5e5 8d3e d3a1 b5bd 0ac0 263e 9553 0f3d
000002c0: 53b7 623e dff4 b13d 2949 98bd e76a 9a3e
000002d0: 3ee7 2dbd 8e8e 873d a8ca ddbb 219d 4d3e
000002e0: 5281 f93d 496f 223e fa92 463e 8294 b93d
000002f0: 724b fa3d d28c efbd 89ae 923c 6808 5e3d
00000300: 8760 eb3e 3f99 9c3e b2fd 653e e892 5abe
00000310: c805 243d 4396 503e 9bf5 fa3e 8310 803d
00000320: b751 47be 6e36 91be e591 2c3d 0828 9e3e
00000330: ee08 503e 12b3 ca3e 7a3f 8f3e 41fb d13d
00000340: 020c f73e 8797 85be db21 96bd af9a 913e
00000350: 08cc 993e e79b 96be 74ca 3e3e 7e04 ac3e
00000360: 8062 82be 0bd0 f53e 0002 dc3e b147 fd3e
00000370: 4102 8bbe 6a1f 69be 93d6 9b3e b257 cbbc
00000380: f2d8 073e 015c 8a3e 9c11 933e a8fb ff3e
00000390: 6f14 7ebe d620 393b e57e 583e 4333 293f
000003a0: 1603 023f b6bd f93e b7cb c83e d427 293c
000003b0: caa1 573d 51f6 21be 393a 853d 68a4 213e
000003c0: 0b57 b43c 0eca e53e e438 e63e b3c8 dbbc
000003d0: fff2 36be 87ea 0e3f 7348 eb3e 5a29 363e
000003e0: bad1 243f 7a29 b03d 8c04 1dbe 1843 253d
000003f0: a88a ec3e 8daf 1a3f 67b0 753e 206a 213f

model.4.bias f4 [32]
-0.17961766 0.26590893 0.07565247 -0.1707945 0.27508017 0.18564889 0.01909404 0.2965199
0.026106121 -0.16037828 -0.013906669 0.21163134 -0.06413531 -0.025163846 -0.07523075 0.297146
0.163047 -0.16846506 0.03815342 0.19989069 -0.004786582 0.13948421 0.16553906 0.13457568
0.012813357 0.28062633 0.23055339 -0.14083718 0.11994246 0.16637896 -0.17965896 0.5777809
00000000: b1ed 37be 3725 883e afef 9a3d c1e4 2ebe
00000010: 4fd7 8c3e be1a 3e3e 1b6b 9c3c 75d1 973e
00000020: 81dc d53c 343a 24be ccd8 63bc e3b5 583e
00000030: 6059 83bd 6924 cebc 9412 9abd 8523 983e
00000040: cbf5 263e 1b82 2cbe c346 1c3d 25b0 4c3e
00000050: c3d8 9cbb f3d4 0e3e 1283 293e 35ce 093e
00000060: 1def 513c 41ae 8f3e 3016 6c3e 9f37 10be
00000070: 64a4 f53d 3f5f 2a3e 85f8 37be 73e9 133f

model.6.weight f4 [32, 32]
0.08797329 0.0021456575 -0.12718524 -0.033428166 0.15053737 0.123283155 -0.15262294 0.08378975
-0.075366795 -0.16118969 -0.24580191 0.008524195 -0.108229175 0.16663861 0.11825975 0.24919964
0.19844687 -0.15591402 -0.04416423 0.043886144 -0.28798696 0.2054747 0.21076235 0.18964049
0.23757999 0.045836803 0.2641074 -0.18865563 0.21317813 0.14657712 0.053344037 0.18341523
-0.23617317 0.012273052 -0.38710663 -0.22507644 -0.0047367825 0.06355559 0.07484034 0.019899683
-0.027078837 -0.11905817 -0.30683658 -0.2002518 -0.025526667 -0.055049133 -0.11818123 0.08435904
0.08403203 0.036421467 -0.052361786 0.020276628 -0.33100212 0.060748525 0.0017296908 0.24789216
-0.00430101 0.011007578 0.14856824 0.05607926 0.26474705 0.20678382 -0.19587038 0.061012123
0.14508569 -0.071054146 -0.15034017 -0.0123456735 0.13390458 -0.053892065 0.072071195 0.014478939
0.10974564 0.009014036 0.183317 -0.105818376 0.16783163 0.04382191 -0.082402326 0.0837804
0.17196847 0.21331994 -0.060875237 -0.04197578 -0.14515984 0.17472826 -0.05904746 0.19032677
0.14934477 -0.03565402 0.21622843 0.036384452 -0.12030744 0.080234155 0.011158301 0.11004111
0.13634367 0.22761485 -0.039331395 0.28210455 -0.99247044 0.2078339 0.2331806 -0.2073546
0.3036773 0.117697865 -0.0029356822 -0.45349333 0.172285 0.24678306 0.34306678 0.09878875
0.10262823 0.3228138 0.29307038 -0.21506539 0.30564 0.26159042 0.091285214 -0.16106096
0.036986377 -0.021554727 0.03685769 0.05214047 0.031194707 0.13091604 -0.052761063 -0.11265416
0.06694516 -0.35875553 0.17266801 -0.009993342 0.43966985 0.0049544717 0.03421111 0.0105417585
0.124192216 0.033779554 0.037815675 0.4234198 0.12263851 0.08144228 0.07193144 -0.24949816
0.020305488 -0.049104743 -0.0013251563 -0.23432791 0.27096462 -0.13782455 0.013941405 -0.16803917
0.109916076 0.00441404 -0.25795314 0.10903154 -0.008438282 -0.19120097 0.11151943 -0.09868274
0.101229906 0.14139576 0.2571192 0.20107722 0.008004279 0.09886588 0.33420196 -0.15284044
0.049135305 0.26185024 0.009666528 -0.0625093 0.054366615 0.16740978 0.18771996 0.010765848
-0.16364768 0.32009402 0.12427906 0.007837402 0.2578884 0.18527882 0.036641065 -0.26799077
0.032530274 -0.29986572 -0.030404191 0.07371939 -0.17289132 -0.10446586 -0.037905928 0.044173066
0.44357058 -0.37464884 0.39213267 0.55834043 0.23179218 -0.14926426 0.4946204 -0.31519452
0.22316222 0.41693416 0.25397125 0.32170174 0.4407758 0.3535223 0.48685583 -0.31692272
-0.30399203 0.15763766 0.055959877 -0.2903134 0.5638468 -0.028358012 -0.203179 -0.32632628
0.3157628 -0.4074264 -0.16846813 0.26612282 -0.2770231 -0.2605628 0.18415657 -0.28767553
0.18848768 -0.20294434 0.28488147 0.4705104 0.05419843 -0.004693228 0.30493286 -0.38115013
0.1483272 0.24755394 0.38558197 0.24601932 0.35649163 0.27142242 0.39106706 -0.14554076
-0.19255126 0.44185826 0.3850478 -0.2282453 0.18163982 0.14878881 -0.13778031 -0.04402623
0.273448 -0.18573311 -0.18342564 0.17340352 -0.0813114 -0.21096763 0.26980743 -0.18699916
00000000: 572b b43d 299e 0c3b d93c 02be f9eb 08bd
00000010: 7826 1a3e e17b fc3d 3049 1cbe f699 ab3d
00000020: e859 9abd e90e 25be 7fb3 7bbe 11a9 0b3c
00000030: 42a7 ddbd 50a3 2a3e 2b32 f23d 312e 7f3e
00000040: a835 4b3e eda7 1fbe 8de5 34bd f5c1 333d
00000050: 0773 93be f667 523e 16d2 573e 1e31 423e
00000060: 2b48 733e 5fbf 3b3d 1639 873e f12e 41be
00000070: 5e4b 5a3e 5018 163e 477f 5a3d 34d1 3b3e
00000080: 61d7 71be e914 493c d732 c6be 707a 66be
00000090: 0337 9bbb 6f29 823d e445 993d a904 a33c
000000a0: 70d4 ddbc c5d4 f3bd af19 9dbe cf0e 4dbe
000000b0: 4d1d d1bc 337b 61bd 0009 f2bd 6fc4 ac3d
000000c0: fc18 ac3d ad2e 153d 5079 56bd 2c1b a63c
000000d0: 1c79 a9be 72d3 783d cbb6 e23a 71d7 7d3e
000000e0: 7def 8cbb 2159 343c 4622 183e 5eb3 653d
000000f0: ed8c 873e 23bf 533e 3f92 48be d9e7 793d
00000100: 5891 143e d684 91bd c6f2 19be 8245 4abc
00000110: 481e 093e edbd 5cbd 109a 933d 1239 6d3c
00000120: 52c2 e03d 9baf 133c 74b7 3b3e 4eb7 d8bd
00000130: 0edc 2b3e 9a7e 333d 8dc2 a8bd 0f95 ab3d
00000140: 8118 303e 8b70 5a3e 5058 79bd ccee 2bbd
00000150: c8a4 14be f7eb 323e c0db 71bd 05e5 423e
00000160: d6ed 183e f309 12bd fc6a 5d3e dd07 153d
00000170: bf63 f6bd ce51 a43d 4ed1 363c 3c5d e13d
00000180: ad9d 0b3e de13 693e f519 21bd 0270 903e
00000190: 8b12 7ebf 69d2 543e e5c6 6e3e c454 54be
000001a0: 977b 9b3e 940b f13d 9364 40bb 4730 e8be
000001b0: 7b6b 303e b3b4 7c3e 73a6 af3e c251 ca3d
000001c0: c02e d23d da47 a53e 520d 963e 1a3a 5cbe
000001d0: d97c 9c3e 2eef 853e bef3 ba3d 2aed 24be
000001e0: 077f 173d 8a93 b0bc 17f8 163d 3f91 553d
000001f0: 0b8c ff3c db0e 063e fc1b 58bd 39b7 e6bd
00000200: 8b1a 893d ceae b7be e2cf 303e 1dbb 23bc
00000210: 681c e13e 1f59 a23b f320 0c3d 57b7 2c3c
00000220: 7d58 fe3d 6e5c 0a3d 9ce4 1a3d 7bca d83e
00000230: e629 fb3d 36cb a63d ca50 933d 727c 7fbe
00000240: b257 a63c 0e22 49bd deb0 adba a8f3 6fbe
00000250: e0bb 8a3e e121 0dbe 7e6a 643c 7612 2cbe
00000260: ae1b e13d a7a3 903b 6f12 84be ee4b df3d
00000270: b840 0abc 30ca 43be 4d64 e43d 2d1a cabd
00000280: a051 cf3d 0dca 103e 21a5 833e 30e7 4d3e
00000290: 6124 033c 327a ca3d 851c ab3e 3482 1cbe
000002a0: 1a42 493d 3c11 863e 5b60 1e3c e004 80bd
000002b0: 87af 5e3d 786d 2b3e a939 403e 3d63 303c
000002c0: 4293 27be 5de3 a33e 0586 fe3d 7268 003c
000002d0: f309 843e bbb9 3d3e f114 163d 1636 89be
000002e0: 773e 053d 0088 99be 3612 f9bc 31fa 963d
000002f0: 6c0a 31be 32f2 d5bd 3f43 1bbd d1ee 343d
00000300: af1b e33e f9d1 bfbe 9dc5 c83e 66ef 0e3f
00000310: ee5a 6d3e bbd8 18be e33e fd3e 2d61 a1be
00000320: a384 643e 6578 d53e 8508 823e 17b6 a43e
00000330: 5ead e13e e000 b53e 2b45 f93e b243 a2be
00000340: d8a4 9bbe c46b 213e 2f36 653d f5a3 94be
00000350: 4458 103f 104f e8bc 280e 50be 3d14 a7be
00000360: a9ab a13e 319a d0be e982 2cbe 4041 883e
00000370: f9d5 8dbe 7d68 85be 8a93 3c3e 354a 93be
00000380: ea02 413e a4d0 4fbe fcdb 913e bde6 f03e
00000390: 2cff 5d3d a6c9 99bb 2920 9c3e 1c26 c3be
000003a0: 16e3 173e c87e 7d3e 006b c53e 7dec 7b3e
000003b0: 1286 b63e e1f7 8a3e f139 c83e a308 15be
000003c0: 282c 45be 3f3b e23e fc24 c53e 23b9 69be
000003d0: caff 393e 185c 183e 4816 0dbe d954 34bd
000003e0: 6001 8c3e d230 3ebe eed3 3bbe b190 313e
000003f0: 9786 a6bd e607 58be 3324 8a3e b57c 3fbe

model.6.bias f4 [32]
-0.017930247 0.17109513 0.23210886 0.08981931 -0.20453185 -0.17709337 -0.066046394 -0.0034266016
-0.042319752 -0.26233214 -0.17739335 0.13298273 0.13423085 -0.04877896 -0.18548617 0.1958585
-0.039330322 -0.18045872 -0.075436324 0.16581692 0.11716251 0.019275537 0.038391467 -0.04215582
-0.1168837 -0.053126138 -0.04411501 -0.23233338 0.14823842 0.16815783 0.105661854 -0.25388473
00000000: 74e2 92bc 9033 2f3e f2ad 6d3e 30f3 b73d
00000010: cc70 51be f757 35be 5543 87bd d690 60bb
00000020: 7a57 2dbd 6650 86be 9aa6 35be a02c 083e
00000030: d073 093e 72cc 47bd 16f0 3dbe 218f 483e
00000040: d518 21bd 2cca 38be 5c7e 9abd e9cb 293e
00000050: e6f2 ef3d bbe7 9d3c 5f40 1d3d 95ab 2cbd
00000060: b960 efbd cb9a 59bd f1b1 34bd cde8 6dbe
00000070: d0cb 173e 9131 2c3e 3e65 d83d 2efd 81be

model.8.weight f4 [32, 32]
0.22922756 -0.0594539 0.20272006 0.22366211 -0.14323829 0.13828823 0.10510031 0.22330052
-0.15225948 0.034310784 -0.106530674 0.10486067 0.110561535 0.04080015 -0.15036635 -0.18376513
-0.11789324 0.37545273 0.08533348 0.056932915 0.024700012 -0.11386295 -0.13282967 0.0023155543
0.04327685 -0.04072963 0.0410752 0.20177177 -0.030363262 0.0036930374 -0.02901762 -0.04036175
0.26523203 0.064175576 -0.08000292 -0.081529796 -0.0041585374 0.11821971 -0.4436912 -0.11701034
-0.112041146 -0.11147467 -0.08537085 -0.456293 0.29160804 -0.38729012 0.16789591 0.02396508
-0.08068373 -0.5022871 0.0045076786 -0.03112552 0.11201793 -0.0012029307 0.2750008 -0.44742417
-0.038352415 0.25065827 0.44415027 -0.53970015 -0.081732415 -0.0053692497 -0.05337677 -0.2585862
0.035160065 0.20884572 -0.018516501 0.15239471 -0.31737605 0.09018033 0.11081334 0.14703126
0.06823085 -0.021227797 -0.08712542 0.090605944 0.176058 0.25122792 -0.14369456 -0.17988111
0.13531686 0.39650023 -0.21655595 0.06911318 0.008020038 0.11901572 -0.031833798 -0.019130053
-0.11806986 0.04366793 -0.14663616 0.1525533 0.23880585 0.25148046 0.15242536 -0.09848444
0.04333012 -0.06673713 0.04554252 -0.5324985 0.75289446 -0.14928025 0.064486586 0.001589935
0.6396266 0.061573498 0.062490765 -0.2742135 -0.088510916 -0.10447462 0.059140466 0.22510292
0.10707761 0.18779998 0.0964516 0.095026605 -0.030763598 -0.13924897 -0.2413248 -0.08107328
-0.060724527 -0.2229841 -0.04117274 0.046826582 0.024412729 -0.368563 0.16669874 -0.043061186
-0.044956267 0.10256071 0.037790604 0.19499466 -0.038109582 -0.06521943 0.14033012 0.007949274
0.027002702 0.11426566 0.047471017 -0.28927472 0.14591539 0.13623494 -0.20536627 -0.023006199
-0.07212055 0.5444789 -0.14772062 -0.054755062 0.025957862 0.06355585 -0.15830062 -0.06547767
0.119283274 0.23883843 -0.0019953693 -0.09976637 0.0750288 0.19279593 -2.3242931 0.014692396
-0.06403548 -0.014342568 0.05366569 0.14287819 -0.35687402 -0.17087175 0.1835161 -0.034534227
0.09384288 -0.08628751 -0.12410079 0.23970856 0.093263626 0.029782036 -0.098039575 -0.08083274
-0.11531503 0.18600619 -0.010627881 -0.0939957 -0.075071275 -0.14434105 0.16989072 0.119695134
-0.06617612 0.16539231 0.11191499 0.092850715 0.17676647 0.034181055 0.12964115 -0.019395558
0.1355051 -0.015344583 0.02391356 0.0980575 -0.22058414 -0.047847886 0.035584886 0.2547257
-0.036667503 0.09187678 0.06477792 -0.5595745 0.109278105 0.18559901 -0.006017909 0.048720323
-0.09830354 0.43556958 -0.03707336 0.15761712 -0.07522773 0.027311068 0.0070377174 0.10363134
-0.082210004 0.17751312 -0.1219279 0.026941944 -0.056621987 0.2200825 -0.7285488 0.05998707
-0.115434624 0.14784469 0.0045217364 0.2706316 -0.19738626 0.29461324 -0.31642523 0.00069885014
-0.00058480044 0.063812375 0.1340777 -0.09038798 0.2045297 -0.12909716 -0.030070828 -0.22938627
0.052822065 -0.18347539 0.051028866 0.05359812 0.19255294 0.0697783 0.1123828 -0.23152475
-0.012231646 -0.06481516 0.33095124 -0.36260414 0.19966514 -0.025270402 -0.6243175 -0.20888823
00000000: a1ba 6a3e ef85 73bd d995 4f3e ae07 653e
00000010: 0fad 12be 6e9b 0d3e d53e d73d e4a8 643e
00000020: e9e9 1bbe 7789 0c3d c12c dabd 31c1 d63d
00000030: 166e e23d 0f1e 273d a3f9 19be ed2c 3cbe
00000040: 0372 f1bd 573b c03e 52c3 ae3d 7d32 693d
00000050: ae57 ca3c fa30 e9bd 8004 08be 8ec0 173b
00000060: 1143 313d 1dd4 26bd 783e 283d 429d 4e3e
00000070: 60bc f8bc e306 723b 5cb6 edbc 5d52 25bd
00000080: 7ecc 873e 7c6e 833d 92d8 a3bd 18f9 a6bd
00000090: 5744 88bb 2d1d f23d 7e2b e3be 1ea3 efbd
000000a0: d475 e5bd d54c e4bd ead6 aebd 3c9f e9be
000000b0: a64d 953e e44a c6be e8ec 2b3e 6a52 c43c
000000c0: 833d a5bd e395 00bf 26b5 933b f2fa febc
000000d0: a869 e53d a8ab 9dba e8cc 8c3e c814 e5be
000000e0: 6c17 1dbd 4856 803e aa67 e33e ca29 0abf
000000f0: 5363 a7bd 88f0 afbb 9aa1 5abd 6965 84be
00000100: 0004 103d a7db 553e ebaf 97bc 5c0d 1c3e
00000110: 1d7f a2be 77b0 b83d 1bf2 e23d 5d8f 163e
00000120: 9ebc 8b3d ebe5 adbc d06e b2bd 9c8f b93d
00000130: 8c48 343e f2a0 803e ab24 13be c132 38be
00000140: 8190 0a3e 1402 cb3e d8c0 5dbe 368b 8d3d
00000150: 7a66 033c 84be f33d 2864 02bd a1b6 9cbc
00000160: 9cce f1bd 25dd 323d ca27 16be ef36 1c3e
00000170: 8589 743e 0cc2 803e 6515 1c3e 36b2 c9bd
00000180: ed7a 313d 7aad 88bd cb8a 3a3d d251 08bf
00000190: b1bd 403f ecdc 18be 8b11 843d 5e65 d03a
000001a0: 92be 233f 7e34 7c3d 51f6 7f3d b665 8cbe
000001b0: 3645 b5bd caf6 d5bd 463d 723d 6181 663e
000001c0: 824b db3d a34e 403e 6b88 c53d 4f9d c23d
000001d0: f103 fcbc 4897 0ebe d91d 77be bf09 a6bd
000001e0: 48ba 78bd f255 64be bfa4 28bd 3bcd 3f3d
000001f0: 34fd c73c 4ab4 bcbe 13b3 2a3e ed60 30bd
00000200: 1024 38bd 590b d23d 52ca 1a3d aeac 473e
00000210: cb18 1cbd c491 85bd b3b2 0f3e ac3d 023c
00000220: c534 dd3c 1d04 ea3d f870 423d d11b 94be
00000230: d86a 153e 2c81 0b3e 894b 52be 7f77 bcbc
00000240: f0b3 93bd f862 0b3f 1344 17be d846 60bd
00000250: 95a5 d43c 9229 823d 8f19 22be 2819 86bd
00000260: ca4a f43d 1092 743e bec4 02bb 5052 ccbd
00000270: b3a8 993d 4c6c 453e 38c1 14c0 60b8 703c
00000280: 0925 83bd 17fd 6abc 8ed0 5b3d a94e 123e
00000290: 31b8 b6be 01f9 2ebe a5eb 3b3e c373 0dbd
000002a0: b230 c03d 82b7 b0bd 8e28 febd 2976 753e
000002b0: 0001 bf3d 75f9 f33c f9c8 c8bd a38b a5bd
000002c0: 492a ecbd 6878 3e3e 9020 2ebc d180 c0bd
000002d0: f8be 99bd 24ce 13be d5f7 2d3e b922 f53d
000002e0: 5887 87bd 9a5c 293e b033 e53d 8428 be3d
000002f0: 4502 353e 6f01 0c3d a6c0 043e 6fe3 9ebc
00000300: d9c1 0a3e d967 7bbc 5fe6 c33c 5fd2 c83d
00000310: cfe0 61be 25fc 43bd 75c1 113d 686b 823e
00000320: aa30 16bd e529 bc3d 49aa 843d 4640 0fbf
00000330: 33cd df3d ab0d 3e3e e131 c5bb f68e 473d
00000340: 5e53 c9bd fa02 df3e 3cda 17bd 6266 213e
00000350: ff10 9abd 76bb df3c a79c e63b ab3c d43d
00000360: b85d a8bd 00c6 353e 56b5 f9bd 5ab5 dc3c
00000370: 75ec 67bd 4f5d 613e 2d82 3abf 00b5 753d
00000380: fd68 ecbd 9964 173e 132b 943b 3a90 8a3e
00000390: a01f 4abe 8cd7 963e 7d02 a2be 0a33 373a
000003a0: 4b4d 19ba 10b0 823d aa4b 093e 551d b9bd
000003b0: 3c70 513e 0c32 04be 1957 f6bc 3ce4 6abe
000003c0: f35b 583d f9e0 3bbe a503 513d b489 5b3d
000003d0: 992c 453e ede7 8e3d f428 e63d d314 6dbe
000003e0: 3e67 48bc d0bd 84bd 7172 a93e 40a7 b9be
000003f0: 0575 4c3e e003 cfbc 46d3 1fbf cce6 55be

model.8.bias f4 [32]
0.216451 0.18250614 0.18414144 0.018946288 -0.0722233 -0.058545023 0.11120259 0.043909203
0.0011571792 -0.07267467 -0.11434842 -0.058752522 0.2224235 0.14974163 -0.009582052 -0.06579769
0.05089696 -0.061551776 -0.17685212 -0.102132306 0.20789902 -0.067606725 0.040186696 0.037179958
0.21507883 -0.05371735 0.13497618 0.00046474207 -0.17029205 0.054017846 0.11079167 -0.12306068
00000000: 55a5 5d3e e4e2 3a3e 938f 3c3e 3f35 9b3c
00000010: cfe9 93bd e8cc 6fbd 2fbe e33d 23da 333d
00000020: 7eac 973a 75d6 94bd 812f eabd 7ca6 70bd
00000030: fcc2 633e df55 193e 0afe 1cbc f0c0 86bd
00000040: 5579 503d b71d 7cbd b918 35be be2a d1bd
00000050: 7be3 543e 6575 8abd ce9a 243d 034a 183d
00000060: a03d 5c3e b906 5cbd 3237 0a3e a0a8 f339
00000070: 0a61 2ebe d141 5d3d bee6 e23d 3d07 fcbd

model.10.weight f4 [1, 32]
0.2176464 -0.7067057 0.23477219 -0.50794876 0.047310285 0.07032713 0.10983101 -0.49221653
0.26849157 -0.62233424 -0.34394777 -0.24752702 0.18850906 0.14896342 0.11220628 -0.36907676
0.11319896 -0.69540936 -0.11224436 -0.3048124 0.23572847 -0.9834089 -0.2913881 0.2697613
0.24496475 -0.37784222 0.3736627 0.07586598 -0.4090787 0.16011368 -0.413234 -0.35731858
00000000: b3de 5e3e aaea 34bf 1f68 703e ee08 02bf
00000010: 6ec8 413d ac07 903d 15ef e03d ce03 fcbe
00000020: ba77 893e 4c51 1fbf ec19 b0be b977 7dbe
00000030: 8508 413e de89 183e 68cc e53d a1f7 bcbe
00000040: dbd4 e73d 5906 32bf 5fe0 e5bd 5f10 9cbe
00000050: ce62 713e b0c0 7bbf d230 95be 271e 8a3e
00000060: 0ad8 7a3e 8974 c1be b850 bf3e 9f5f 9b3d
00000070: c372 d1be d7f4 233e 6893 d3be 76f2 b6be
