best_model_0_dim4.pt (torch, 2976 bytes, 3 tensors)

model.0.weight f4 [32, 4]
000000 bc 49 ff 3e 91 6c 94 3e 77 24 33 3f a6 74 64 3f
       0.49860942 0.2898908 0.69977516 0.8924049
000010 c9 c2 d8 3f e9 c9 c6 3f 8d ed 9c 3d ed ca d3 3f
       1.6934444 1.5530368 0.07662497 1.6546303
000020 9a 7a 9a be 77 8b 60 3f 4c b8 fa be d7 f6 03 3f
       -0.30171663 0.87712806 -0.48968732 0.5154852
000030 06 4e 08 3d a4 43 76 bc dc 1c 66 bf a9 c9 8d bf
       0.033277534 -0.015030775 -0.89887786 -1.1077167
000040 c6 8a a6 40 87 5f af 40 e8 72 b0 40 c5 ac ab c0
       5.20444 5.480411 5.5140266 -5.36484
000050 ea 76 aa 3e ed a9 d7 bd bb f4 6b 3f 11 06 86 3f
       0.3329385 -0.10530458 0.92170304 1.0470601
000060 38 26 1e bf e1 82 6c 3f 63 b2 b9 bf e0 0b 96 3f
       -0.6177707 0.92387205 -1.4507564 1.1722374
000070 f4 9b d6 3f 8a b0 52 bf 3e 76 17 3f a3 c6 94 be
       1.6766343 -0.8230063 0.591648 -0.29057798
000080 b4 41 6d 3e 10 c6 f6 3e 3e 3b 82 3e 7b ca 3b 3f
       0.23169595 0.48197985 0.25435823 0.73355836
000090 30 13 f3 3d 61 03 5c 3e 76 d1 50 3e a8 de 5b bf
       0.11868894 0.21485664 0.20392403 -0.8588662
0000a0 6b 2f 95 be f4 d3 7d 3f 7f 5c 07 bf 44 1c f8 3e
       -0.2913774 0.9915154 -0.5287551 0.48459065
0000b0 7f 35 22 3e 99 20 b5 c0 df 46 18 3d 61 c2 c3 bd
       0.1584072 -5.660229 0.037176963 -0.09558559
0000c0 48 43 99 40 a4 ae 9a c0 e6 72 a2 c0 63 80 a7 40
       4.789463 -4.8338184 -5.0765257 5.234422
0000d0 72 b0 ef be b0 0e ac bd d7 27 01 bf 87 fa 66 bf
       -0.46814305 -0.08401239 -0.50451416 -0.90226024
0000e0 cc 29 06 40 4a 95 16 c0 6d ab 02 c0 fd cc 1c c0
       2.096301 -2.352862 -2.041713 -2.4500115
0000f0 92 db 78 40 01 44 70 c0 0c a0 78 c0 45 15 7f c0
       3.8884015 -3.7541506 -3.8847685 -3.9856732
000100 96 61 27 40 4e b0 2d c0 11 e6 36 c0 0d b9 b6 bf
       2.6153312 -2.7138858 -2.8577921 -1.4275223
000110 ab 21 a0 bf 9c 35 26 bf 33 6a 4c 3e b7 cc 67 3f
       -1.2510275 -0.6492555 0.19962387 0.90546745
000120 e4 2d 21 3e de a9 aa be 62 8e 03 bf 27 6f 71 bf
       0.15740162 -0.33332723 -0.51389134 -0.9431023
000130 6a 4f 5b bf 29 66 f5 be c4 f2 dd bf 25 7e 71 bf
       -0.8566805 -0.47929505 -1.7339711 -0.94333106
000140 1c 2e 81 3e 53 bc f9 3e 9f 97 83 3e 3e df 3c 3f
       0.2523049 0.48776492 0.25701615 0.7377814
000150 52 41 34 3e 9e ca ca 3e 65 4f 8f 3e e2 d3 2b 3f
       0.17603043 0.3960771 0.2799026 0.6712018
000160 34 7a b6 bb d1 9f 39 c0 ae 2e 4b 40 d8 a6 47 40
       -0.005568767 -2.9003794 3.174724 3.1195583
000170 e0 3c 2c bf 36 ae 15 bf 80 15 ba 3f 89 62 38 bf
       -0.6728039 -0.5846895 1.4537811 -0.7202535
000180 e2 5f 49 bf 63 e1 52 bf bb db 70 bf b5 c3 ff bd
       -0.7866193 -0.8237516 -0.9408528 -0.124885
000190 47 4e 0a c0 91 f3 b6 bf 1f 27 cc 3f 52 cd 67 3e
       -2.1610277 -1.429308 1.5949439 0.22636917
0001a0 54 91 8b 3b 87 bc a9 3d 2f e4 d7 3d 43 97 e9 3f
       0.004259268 0.08287912 0.105415694 1.8249286
0001b0 b4 4b c5 bf 1f f0 57 3f 61 04 9a be 48 2f 8f bf
       -1.5413728 0.8435077 -0.30081466 -1.1186304
0001c0 e9 b0 a8 bf fd 61 97 3f 1d 3e d9 3f a4 1b 77 3f
       -1.3178989 1.1826779 1.697208 0.9652655
0001d0 83 99 aa bf 8b 60 b6 3e 29 4b bd 3f fe 16 ce 3f
       -1.3328098 0.3562053 1.4788562 1.6100767
0001e0 57 7f 9c be f1 c9 23 3f b4 fa d9 be 21 a6 0e 3f
       -0.30565903 0.63980013 -0.42574084 0.5572224
0001f0 4f 1f 4a 40 0a fa c8 bf 99 f8 47 c0 24 cc 48 c0
       3.158161 -1.5701306 -3.1245482 -3.1374598

model.0.bias f4 [32]
000000 6b 95 6a bf 51 92 87 3d 4a d1 0a 3f c3 86 08 bf
       -0.91634244 0.066197045 0.542256 -0.5333063
000010 5a fd c1 c0 2e 10 50 bf 52 84 e6 bf f8 11 f4 bf
       -6.0621767 -0.8127469 -1.8009131 -1.9067984
000020 a9 56 3e bd aa 34 86 3e 8c 80 17 3f 4c ae 95 c0
       -0.046469364 0.26212054 0.5918052 -4.6775265
000030 1c 2e b4 c0 be ba e7 3e e5 74 e2 3c 3d 99 34 3c
       -5.6306286 0.4525966 0.02764363 0.011022863
000040 ed 93 f5 3f a6 81 bd bf 75 73 04 bf bf b0 07 3e
       1.9185768 -1.480519 -0.51738673 0.13251017
000050 b0 a5 69 bd 5a 5b d0 bd 92 0b 52 bd 54 2a c4 bf
       -0.057042778 -0.10173674 -0.051280566 -1.5325418
000060 0f 94 98 bf 18 8a d8 3f 38 70 e4 bd b6 36 c7 bf
       -1.1920184 1.6917143 -0.111542165 -1.5563571
000070 e8 1a 8f be e6 60 1b 3e ec fe d5 3e 2e 85 0b bd
       -0.27950215 0.15173683 0.41796052 -0.034062557

model.2.weight f4 [1, 32]
000000 0f bd c2 3f da 06 28 bf fd fb b3 3e ae 00 a8 3f
       1.5213946 -0.65635455 0.3515319 1.3125207
000010 fc a5 61 3e 20 bf f5 3f b9 81 00 40 74 fc 28 40
       0.22035974 1.9198952 2.0079176 2.6404085
000020 dc 2f f0 3f 37 89 ff 3d b7 b2 08 3f d9 00 9b 3f
       1.8764606 0.124773435 0.533977 1.2109634
000030 6e f6 6d 3e 0e 93 e6 3e cc 8d 01 c0 2c 27 c2 3f
       0.23238537 0.4503407 -2.0242796 1.5168204
000040 99 a5 da 3e 93 19 2b 40 a4 9e af 3f cb 44 92 bf
       0.42704466 2.673436 1.3720288 -1.1427244
000050 0d eb bf 3f 1c 2d af 3f 3e 9c 73 be 0c 6a 03 40
       1.4993607 1.3685641 -0.2379007 2.0533476
000060 88 b9 c6 3f 42 bc 14 3f 6e e9 c3 bf 13 50 b2 3f
       1.552537 0.5809976 -1.5305612 1.3930687
000070 71 05 9c bf 79 c2 37 3f 9f 18 e1 3e a7 f0 22 bf
       -1.218916 0.71781117 0.43964097 -0.63648456
