best_model_0_dim1.pt (torch, 2592 bytes, 3 tensors)

model.0.weight f4 [32, 1]
000000 65 fd 0f bf a0 57 db bf 7d 1d 41 c1 fe f8 42 3f
       -0.56246024 -1.7136116 -12.069699 0.7616118
000010 0d f7 26 be 3f cd 80 c0 51 ee 88 bd 3a 15 9e be
       -0.1630518 -4.0250545 -0.0668608 -0.3087557
000020 76 e5 d3 be 82 78 97 be 1c 20 b5 3b 64 d5 a8 be
       -0.41386002 -0.29584128 0.0055275094 -0.32975304
000030 8a 44 d7 bf 8e 07 2f bf 46 02 bc 3f fd 8d 64 be
       -1.6817791 -0.683709 1.4688194 -0.22319789
000040 e0 1c 49 3e f8 6f ef be c6 84 f1 3d 2d ff 23 3f
       0.19639921 -0.46765113 0.11792903 0.6406124
000050 dd 1a 7c 40 97 b2 ae bf 36 45 97 3e 20 c5 43 3f
       3.9391396 -1.3648251 0.2954499 0.76472664
000060 ce 97 cb 3e 0d 67 fe 3e 7d d9 63 3f df 4e 26 be
       0.39764255 0.49687997 0.89003736 -0.16241024
000070 3e b2 13 3e 1b be 6f c0 15 5e 6c be dd 74 14 41
       0.14423463 -3.745978 -0.23082764 9.278531

model.0.bias f4 [32]
000000 9a 14 f5 3e 49 a7 9c 3e 86 34 46 c1 bf 5b 03 bf
       0.4786728 0.30596378 -12.387823 -0.5131187
000010 b2 d2 7b bf cb 59 74 c0 23 93 5d be 67 6d 33 3f
       -0.9836837 -3.8179805 -0.2163816 0.7008881
000020 76 70 05 3e 0e ef 24 bf 3d 2b 48 bf d9 c2 f1 3e
       0.13031182 -0.6442727 -0.78190976 0.4721897
000030 03 33 9d bf c1 9e 1e be 3a 3a 49 3f 35 e4 fa be
       -1.2281193 -0.15490247 0.7860447 -0.49002233
000040 2b 76 0b be 13 19 65 bd 85 97 50 be c9 88 0a bf
       -0.13619296 -0.055932116 -0.203703 -0.5411497
000050 01 6c 52 c0 25 1f 82 bf 8d 2f 15 bf 31 28 67 3f
       -3.287842 -1.0165755 -0.5827568 0.902957
000060 80 e7 cc be 58 d7 2e bf 5c 21 c3 3e 19 c1 7c 3e
       -0.4002037 -0.6829734 0.3811139 0.24683036
000070 c0 68 04 3f 09 61 41 3e e1 53 07 3f 04 3a 1a c1
       0.51722336 0.18884672 0.52862364 -9.639164

model.2.weight f4 [1, 32]
000000 75 23 4b bd 31 c2 da 3e 76 26 ee c0 a6 87 5e 3c
       -0.04959436 0.4272628 -7.442195 0.013582146
000010 49 c5 30 3e d0 16 5d c0 f2 71 8c bd f6 a2 53 be
       0.17262758 -3.4545174 -0.06857671 -0.20667633
000020 2f 16 f2 bc 3b 61 e6 3d 1a 5c 92 3d fe d1 c8 bc
       -0.029551594 0.11249014 0.07146473 -0.024514195
000030 90 f0 83 bf c6 81 06 be e2 c2 bd bd 62 e9 2b 3e
       -1.0307789 -0.13135442 -0.092656866 0.16788247
000040 19 57 af 3c 18 f4 cb bd 99 92 d6 bb bd 95 18 be
       0.021403836 -0.099586666 -0.0065482375 -0.1490087
000050 9b 61 00 c0 68 31 05 bf 42 76 b2 3d 51 a5 a1 3d
       -2.0059574 -0.5202851 0.08713962 0.0789286
000060 71 3b 44 be 9f d5 4e bc 09 93 21 be bb 6e b9 3c
       -0.191633 -0.012624173 -0.15778746 0.022635808
000070 56 5e e4 3d 43 1e a6 be 88 f3 f9 3d aa 3d cf c0
       0.11150806 -0.32444963 0.12204653 -6.4762774
