best_model_5_dim1.pt (torch, 26656 bytes, 13 tensors)

model.0.weight f4 [32, 1]
0	0x3f802ba4	1.0013318
1	0x3f6ff073	0.9372627
2	0xbf916441	-1.135872
3	0xbf5125c5	-0.81698257
4	0xbf058ffc	-0.5217283
5	0x3f312824	0.69201875
6	0x3f7b9739	0.9827762
7	0xbeb60e09	-0.35557583
8	0xbe9556c1	-0.2916775
9	0xbf9321fb	-1.1494745
10	0x3f345f23	0.7045767
11	0x3f5bc36e	0.8584508
12	0xbf803d58	-1.0018721
13	0x3f2d7f72	0.6777259
14	0x3edb0182	0.42774588
15	0xbf68a3c0	-0.9087486
16	0xbf1fd930	-0.62440777
17	0xbf3ddc6c	-0.7416446
18	0xbf2a6e96	-0.6657499
19	0xbf9086fb	-1.1291193
20	0xbf4bfc9b	-0.7968232
21	0x3f18af3d	0.5964239
22	0x3f2a4f7c	0.66527534
23	0xbeb45d1f	-0.35227296
24	0x3e847ea4	0.2587787
25	0x3fa7887e	1.3088529
26	0x3f6347e3	0.88781565
27	0xbf38a6e8	-0.7212968
28	0x3f9e63b5	1.2374178
29	0xbe242aaa	-0.160319
30	0x3eee58ec	0.46552217
31	0xbe81e526	-0.2537014

model.0.bias f4 [32]
0	0x3f80e276	1.006911
1	0x3c2515b9	0.01007598
2	0xbe57ac69	-0.21061863
3	0x3f0f376d	0.5594395
4	0x3f0666cf	0.52500623
5	0x3f421461	0.75812346
6	0x3f8314f3	1.0240768
7	0xbdec7ab7	-0.115468435
8	0x3f227772	0.6346351
9	0xbee71de2	-0.45139986
10	0x3ed28a65	0.41121212
11	0xbf332fc1	-0.6999474
12	0xbe45821f	-0.19287919
13	0xbec86690	-0.3914075
14	0x3f3d8df5	0.74044734
15	0x3f6c6a1b	0.92349404
16	0xbf2391d1	-0.63894373
17	0x3f61f637	0.8826632
18	0x3f6062d1	0.8765078
19	0xbd92a142	-0.07159664
20	0x3df539f8	0.11973947
21	0xbe31a136	-0.17346653
22	0xbee9abbd	-0.45638838
23	0x3f819f9f	1.0126837
24	0x3f7a49d5	0.9776891
25	0xbebcb2b8	-0.36855102
26	0x3e55e834	0.2088936
27	0x3f4b7226	0.7947105
28	0x3ea5ff03	0.3242112
29	0x3f56b259	0.83865887
30	0x3f117ddd	0.5683268
31	0xbec9d44b	-0.3941978

model.2.weight f4 [32, 32]
0	0x3e0d78ce	0.13815615
1	0x3e995036	0.2994401
2	0xbde4cc48	-0.11171776
3	0xbe72e5f9	-0.2372054
4	0xbec00958	-0.3750713
5	0x3eaaf9b6	0.3339364
6	0x3e6aa9fa	0.22916403
7	0xbe7a5221	-0.24445392
8	0xbd9d5cd9	-0.07683725
9	0xbcbd38e3	-0.023098415
10	0x3dc6aaed	0.0970057
11	0xbd922a47	-0.0713697
12	0xbe2b6413	-0.16737394
13	0x3ea6b0fa	0.32556897
14	0x3dfbf695	0.12302891
15	0xbe2855e2	-0.16439012
16	0xbd021e13	-0.031766962
17	0xbdfe4686	-0.12415795
18	0x3db7c173	0.089724444
19	0xbdc51218	-0.09622592
20	0xbe049fb4	-0.12951547
21	0x3e98ae03	0.2982026
22	0x3d25efe3	0.040511977
23	0xbe0d7aea	-0.13816419
24	0x3dd01108	0.101594985
25	0x3e94abff	0.29037473
26	0x3e2235c5	0.15840824
27	0xbea7e7fa	-0.32794172
28	0x3e6ed041	0.2332163
29	0x3ddd2aa1	0.107991464
30	0xbd18fd54	-0.037350968
31	0xbdf41e22	-0.1191981
32	0x3e8eeeb0	0.2791648
33	0x3e964f57	0.29357406
34	0x3e9e7c1e	0.3095407
35	0xbce1152b	-0.027475914
36	0xbc29978a	-0.010351071
37	0x3e587b4b	0.21140783
38	0xbdb36417	-0.08759325
39	0x3d765515	0.060139734
40	0xbe08f1d3	-0.13373499
41	0x3ed4a882	0.4153481
42	0x3e91a04d	0.28442612
43	0x3ee57f4b	0.4482368
44	0x3f03d45b	0.51495904
45	0x3ece1e32	0.40257412
46	0xbe49bf63	-0.19701914
47	0x3d4c871f	0.04993355
48	0x3da3425f	0.07971644
49	0x3df57103	0.11984446
50	0x3d943e19	0.07238407
51	0x3ea29b09	0.31758907
52	0x3ec62e06	0.38706988
53	0x3ea5ed20	0.32407475
54	0x3e552772	0.20815828
55	0xbcb71c0b	-0.02235224
56	0xbaa17d9b	-0.0012320759
57	0x3ee2bf7c	0.44286716
58	0x3e937ca6	0.28806037
59	0x3e4f7190	0.20258164
60	0x3ea8ac5e	0.32944006
61	0x3e0745c4	0.13210207
62	0xbdb048d5	-0.086076416
63	0x3e1fae08	0.15593731
64	0x3e2afb8c	0.1669752
65	0xbceb8653	-0.028750574
66	0x3eead641	0.45866588
67	0x3b2e62a3	0.0026609085
68	0x3cb7a485	0.022417316
69	0xbd3d1550	-0.046162903
70	0x3e1c1186	0.1524106
71	0x3e8a1323	0.26967725
72	0xbe29ff53	-0.16601305
73	0x3ee5c294	0.44875014
74	0xbd2f3abc	-0.042780623
75	0x3e82c3eb	0.255401
76	0x3e9575a5	0.29191318
77	0xbdb13e35	-0.08654443
78	0xbe41a425	-0.18910272
79	0x3e4d4310	0.20045114
80	0x3e8aae17	0.27085945
81	0x3df5595d	0.11979935
82	0x3e2ccb9f	0.1687455
83	0x3e9ba808	0.30401635
84	0xbd53e8cd	-0.051735688
85	0x3e3bc7e1	0.18337967
86	0x3e5f858a	0.21828285
87	0x3e33164d	0.17488976
88	0x3e0fca46	0.14042005
89	0x3e982f3a	0.2972353
90	0x3e55d70c	0.20882815
91	0x3dc20230	0.094730735
92	0x3dbc4e40	0.091946125
93	0xbdd3bd73	-0.10338869
94	0x3d034063	0.032043826
95	0x3e014ba5	0.12626512
96	0x3e4362aa	0.19080606
97	0x3e113458	0.14180124
98	0x3eb4d419	0.35318068
99	0x3d37937e	0.044818394
100	0xbdfb8645	-0.12281469
101	0xbe0b1bd1	-0.1358483
102	0x3d848704	0.06471065
103	0x3e8763ef	0.2644343
104	0x3d5c4a67	0.053781893
105	0x3d3ac558	0.045598358
106	0xbc1823f6	-0.0092859175
107	0xbcb1946e	-0.021677222
108	0x3e308cd9	0.17241229
109	0xbd25d833	-0.040489387
110	0xbda39894	-0.07988086
111	0x3dfc2087	0.123108916
112	0x39ffcbeb	0.0004878932
113	0x3da2a91f	0.079424135
114	0x3d7f5fc0	0.062347174
115	0x3e7abf5e	0.24487063
116	0x3dc9acf6	0.09847443
117	0x3dfe1919	0.12407131
118	0x3e79f695	0.2441047
119	0x3e0fc829	0.14041199
120	0x3e1bf317	0.1522945
121	0x3ea96403	0.33084115
122	0x3e890e49	0.2676871
123	0x3e32055f	0.17384861
124	0x3e0800a6	0.13281497
125	0x3e1dddc2	0.15416625
126	0x3d6cbdca	0.057798184
127	0x3dc777b3	0.09739628
128	0xbd0a3673	-0.033743333
129	0xbe3f9263	-0.18708186
130	0xbe696bc8	-0.22795022
131	0x3ba43508	0.0050112046
132	0xbce3048a	-0.027712125
133	0x3e8ce637	0.2751939
134	0x3e1a270f	0.15053962
135	0xbd0f0c9e	-0.034924142
136	0x3e223410	0.15840173
137	0xbe59d680	-0.21273232
138	0x3df0ccd9	0.117578216
139	0xbea344a7	-0.31888315
140	0xbe51ee74	-0.20501119
141	0xbe85f555	-0.26163736
142	0x3e9a1f36	0.30101937
143	0x3bcb6fcb	0.006208395
144	0xbeafbb8c	-0.34322774
145	0x3d470a65	0.048593897
146	0x3cd85a0f	0.02641013
147	0xbe336978	-0.17520702
148	0xbd755a2a	-0.05990044
149	0xbef08fa4	-0.4698459
150	0xbea0dd95	-0.31419054
151	0x3e852d04	0.26010907
152	0x3de04b28	0.10951835
153	0xbeb20e1c	-0.3477639
154	0xbda32cfb	-0.07967564
155	0x3e8bfae6	0.27339858
156	0x3e326605	0.1742173
157	0x3e3279cc	0.17429274
158	0x3d9e774c	0.07737598
159	0xbe6a3ace	-0.22873995
160	0x3e4e9da6	0.20177326
161	0x3e8fba2d	0.28071728
162	0x3e942d0a	0.28940612
163	0x3edea7df	0.4348745
164	0x3e732f3b	0.23748486
165	0x3e2a9003	0.16656499
166	0x3e771f7b	0.24133103
167	0x3def0dc1	0.11672545
168	0x3e906e11	0.28208974
169	0x3ea62f35	0.3245789
170	0x3ea92f0f	0.33043715
171	0xbe07474e	-0.13210794
172	0x3ec7b5a3	0.39005765
173	0xbeafd024	-0.34338486
174	0x3e52ec84	0.20598036
175	0x3e8a94ca	0.27066642
176	0xbe9a85cf	-0.30180213
177	0x3ec57ec4	0.38573277
178	0x3e8ad048	0.2711203
179	0x3e89712e	0.26844162
180	0x3e0503da	0.1298975
181	0x3d2f48cb	0.04279403
182	0xbe2d9a9b	-0.16953509
183	0x3edb14ee	0.42789406
184	0x3e716dc7	0.23577033
185	0x3eb5f845	0.35540977
186	0x3c421632	0.011846112
187	0x3e8be2f7	0.27321598
188	0x3df8235e	0.12116121
189	0x3ed27247	0.41102812
190	0x3ed4abb9	0.41537264
191	0xbedf2af9	-0.43587473
192	0xbe0e7871	-0.13913132
193	0xbe8a2e73	-0.26988563
194	0x3eaefb33	0.34176025
195	0x3e837c69	0.25680855
196	0x3e30f10e	0.17279455
197	0xbe160931	-0.14651944
198	0xbe9c6f90	-0.30553865
199	0x3eac7835	0.3368546
200	0x3d82f8a5	0.063950814
201	0x3ed54790	0.4165616
202	0xbea479e1	-0.32124236
203	0x3e19f82c	0.15036076
204	0x3ed23b0d	0.41060677
205	0x3d8616dc	0.06547329
206	0xbdf6a5d4	-0.12043348
207	0x3dcd5678	0.10026258
208	0x3e00755b	0.12544768
209	0x3d70f443	0.058826696
210	0x3cc9dc43	0.024641162
211	0x3e33cfdf	0.17559765
212	0x3e9766ca	0.2957061
213	0xbe2558f6	-0.16147217
214	0x3de4bfaa	0.111693695
215	0x3a994651	0.001169393
216	0xbd71dc6f	-0.059048112
217	0x3d15f185	0.036607284
218	0xbcdf1d55	-0.027235666
219	0x3e811062	0.25207812
220	0xbe1d0fce	-0.1533806
221	0x3dca446b	0.09876331
222	0xbe9ab0e4	-0.30213082
223	0x3e6634fe	0.22481152
224	0x3d6eb25b	0.05827556
225	0x3d14f73f	0.036368605
226	0x3eb1a406	0.34695452
227	0x3e33dd3d	0.17564864
228	0x3dcff905	0.101549186
229	0x3dc15486	0.0943995
230	0x3e00ff8e	0.12597486
231	0x3ded28a2	0.11580016
232	0xbc5d9a7b	-0.013525601
233	0x3ec438ea	0.38324672
234	0x3d721f0c	0.05911164
235	0xbc16013e	-0.00915557
236	0x3efd3eb0	0.4946189
237	0x3dd2b64f	0.10288679
238	0xbd802427	-0.062568955
239	0x3d4f2f9b	0.05058251
240	0xbd27201a	-0.0408021
241	0x3d20f785	0.039298553
242	0x3dc7cb93	0.097556256
243	0x3e4286bd	0.18996711
244	0x3d5762ab	0.05258433
245	0x3e2ce676	0.16884789
246	0xbd165d93	-0.036710333
247	0x3d6bf8d7	0.05761036
248	0xbddab5bc	-0.10679194
249	0x3e56cef0	0.20977378
250	0xbd948a33	-0.07252922
251	0x3d746393	0.059665274
252	0x3e644c12	0.22294644
253	0xbe2fc51e	-0.17165038
254	0x3e1e072c	0.15432423
255	0x3d3eff71	0.046630327

model.2.bias f4 [32]
0	0xbd6176b8	-0.05504486
1	0xbe07a93d	-0.13248153
2	0x3bdb65a4	0.006695466
3	0x3dc394b0	0.09549844
4	0x3da01904	0.07817271
5	0x3ea3bfb8	0.31982207
6	0xbc457144	-0.01205093
7	0xbe219256	-0.15778479
8	0xbda266eb	-0.07929786
9	0x3d7c5738	0.061606616
10	0x3e7216b2	0.2364147
11	0x3de6b428	0.11264831
12	0xbe125408	-0.14289868
13	0xbd9b24dd	-0.075753905
14	0x3dbba729	0.09162743
15	0x3e3df3b3	0.18549995
16	0x3dfd6de8	0.123744786
17	0x3e8bd91b	0.27314076
18	0x3e4673b9	0.19380082
19	0xbe3cb8b0	-0.18429828
20	0x3d0b733a	0.034045435
21	0x3e40d11b	0.18829767
22	0xbc672d20	-0.01410988
23	0x3d01ff51	0.03173763
24	0x3d13d477	0.036091294
25	0xbdb0633b	-0.08612677
26	0x3dd64741	0.10462809
27	0x3d9488d0	0.072526574
28	0xba809da0	-0.0009812601
29	0x3e4854db	0.1956362
30	0x3d5aa84d	0.05338316
31	0xbd8c02c8	-0.06836468

model.4.weight f4 [32, 32]
0	0x3d177710	0.03697878
1	0xbc9b66d2	-0.018969927
2	0x3c825227	0.015908314
3	0xbd9d69e1	-0.076862104
4	0x3eb1527d	0.34633246
5	0x3e822a8d	0.2542309
6	0x3e281177	0.16412912
7	0xbc6fa003	-0.014625552
8	0xbe467644	-0.19381052
9	0xbd0ce49b	-0.034397703
10	0x3e796c1e	0.2435765
11	0x3d46eac6	0.04856374
12	0xbd1c2efc	-0.038130745
13	0xbe0fbf47	-0.1403781
14	0xbda9e55d	-0.08295701
15	0x3dab40d9	0.08361978
16	0x3ce22553	0.027605688
17	0x3d9710f1	0.07376278
18	0x3ea25140	0.31702614
19	0xbd1be487	-0.038059738
20	0xbda210f3	-0.07913389
21	0x3d06318d	0.0327621
22	0x3d156eef	0.036482748
23	0x3e1225aa	0.1427218
24	0xbb807065	-0.0039196485
25	0x3e2963a8	0.16541922
26	0xbd17fea0	-0.037108064
27	0xbcac0a4c	-0.021001004
28	0x3c0994cd	0.008397293
29	0x3e936459	0.28787497
30	0x3e22750a	0.1586496
31	0xbcca1ed1	-0.024672898
32	0xbd0bd0d9	-0.03413472
33	0x3e9b48c8	0.30328965
34	0x3e51fd1e	0.20506713
35	0x3dcd1c76	0.10015194
36	0xbe4bcd90	-0.19902635
37	0x3e291bc1	0.16514494
38	0xbd4230ca	-0.04740981
39	0x3e796dc9	0.24358286
40	0x3ce6d2fb	0.028176775
41	0x3dd194a4	0.10233429
42	0xbdfb095c	-0.122576445
43	0x3bc17d4c	0.005904829
44	0x3d9c635e	0.0763614
45	0x3e8649f4	0.26228297
46	0x3e533529	0.20625748
47	0x3d275c8c	0.040859744
48	0x3e3376f7	0.1752585
49	0xbcfee996	-0.031117242
50	0xbe134ab0	-0.1438396
51	0xbe1068af	-0.14102434
52	0x3e63164c	0.22176474
53	0xbe0e4ffd	-0.138977
54	0x3e89dea1	0.26927665
55	0x3d7d90ae	0.061905555
56	0xbe62bb50	-0.22141767
57	0x3e871b12	0.2638784
58	0x3e823a19	0.2543495
59	0xbe1405a6	-0.1445528
60	0x3e219adc	0.1578173
61	0xbe8355f9	-0.2565153
62	0x3db771ea	0.08957274
63	0x3e9bbe3c	0.30418575
64	0xbda30aa5	-0.07961015
65	0xbda49bb8	-0.080375135
66	0xbcf0c10b	-0.029388925
67	0xbda705ee	-0.08155428
68	0x3dac8a8c	0.08424863
69	0xbd085ebb	-0.033293467
70	0x3d878bab	0.066184364
71	0xbca060dc	-0.019577436
72	0xbd999805	-0.074996985
73	0xbe08a75d	-0.13345094
74	0x3e4191c7	0.18903266
75	0x3e2b01e3	0.16699938
76	0xbdb6792d	-0.08909831
77	0xbd235f90	-0.039886057
78	0xbe0e1610	-0.13875604
79	0x3e27263d	0.1632318
80	0x3d5f5499	0.054524038
81	0x3de39e39	0.11114163
82	0x3e22e92e	0.15909263
83	0x3db829f6	0.089923784
84	0x3d4024f5	0.046910245
85	0x3d58cc1b	0.052929025
86	0x3e26eb1a	0.16300622
87	0x3ce9332a	0.02846678
88	0x3df734d4	0.12070623
89	0x3de50b37	0.1118378
90	0xbd222c93	-0.03959329
91	0x3d215722	0.039389737
92	0xbda167a0	-0.07881093
93	0x3e31c93c	0.17361921
94	0x3e0960bf	0.13415812
95	0x3e6cdc75	0.23130973
96	0x3dccd21f	0.10001015
97	0x3ef25f50	0.47338343
98	0x3eb79aa4	0.3586017
99	0x3dd4b0b2	0.103852645
100	0xbe894530	-0.26810598
101	0x3dd7b8f7	0.10533326
102	0x3eaa334b	0.33242258
103	0x3d0e9ec0	0.034819365
104	0x3b8ae6e7	0.0042389515
105	0x3cea7b50	0.028623253
106	0xbe9e9daa	-0.30979663
107	0x3e7fa706	0.24966058
108	0x3ec4d498	0.38443446
109	0x3e44eba5	0.19230516
110	0x3ecb9100	0.39759064
111	0x3e0703ea	0.13185087
112	0x3e1cbab5	0.15305598
113	0x3d5bdd94	0.05367811
114	0xbe5fe519	-0.21864738
115	0xbddd6ecd	-0.10812149
116	0x3e61350c	0.21992892
117	0xbde305b0	-0.11085069
118	0x3e8f5501	0.2799454
119	0x3e8cb57c	0.27482212
120	0xbdb765df	-0.08954977
121	0x3eee69b4	0.4656502
122	0x3e1b3b07	0.15159236
123	0xbd65625f	-0.056002017
124	0xbdacb488	-0.08432871
125	0xbe8cccf5	-0.2750012
126	0x3e4bd81c	0.19906658
127	0x3f0c5f6b	0.54833096
128	0x3dccdb40	0.10002756
129	0xbe0f00c3	-0.13965134
130	0x3e458748	0.19289887
131	0xbc840079	-0.016113507
132	0x3e062a34	0.13102037
133	0x3ea457b0	0.3209815
134	0xbc1e2434	-0.009652186
135	0x3c85a46a	0.01631375
136	0xbe8f204f	-0.27954337
137	0xbe366d46	-0.17815122
138	0x3e8d7cbd	0.2763423
139	0x3da6d784	0.08146575
140	0xbe436473	-0.19081287
141	0x3c6be107	0.014396912
142	0x3e14cf9e	0.14532325
143	0x3e1fd26f	0.15607618
144	0x3d980217	0.074222736
145	0x3c2fe63f	0.010736047
146	0x3dba960b	0.0911065
147	0xbe93c723	-0.28862867
148	0x3d8c8c1d	0.06862662
149	0x3d333f34	0.043761447
150	0xbd87784c	-0.06614742
151	0xbc66fa1f	-0.014097719
152	0x3d0741e0	0.033021808
153	0x3e4e8830	0.20169139
154	0x3e155ab5	0.14585383
155	0xbdffa0a6	-0.12481813
156	0x3e063621	0.13106586
157	0x3e61e65d	0.22060533
158	0xbdbe7272	-0.092991725
159	0xbe7324be	-0.23744485
160	0x3eaea587	0.34110662
161	0x3ec13a4a	0.37739784
162	0x3df91fc8	0.12164265
163	0x3e9daccc	0.30795896
164	0x3de1645f	0.110054724
165	0x3e87d329	0.2652829
166	0x3e15787e	0.14596745
167	0x3de29d0b	0.1106511
168	0xbe9a77aa	-0.3016942
169	0x3e683ea1	0.22680141
170	0x3e0ce90c	0.13760775
171	0x3d561b3f	0.052272078
172	0x3e427eb8	0.18993652
173	0x3d3114c6	0.0432327
174	0x3d9a15d5	0.075236954
175	0x3db6892f	0.089128844
176	0x3daa108a	0.08303936
177	0x3d4818e1	0.04885185
178	0x3e68db1c	0.22739834
179	0xbe4ee041	-0.20202734
180	0x3e71af4a	0.23602024
181	0x3e9cdcea	0.30637294
182	0x3e2e7e35	0.17040332
183	0x3eb6a4a5	0.3567249
184	0x3ea02f32	0.31286007
185	0x3e84b2e6	0.2591774
186	0x3e869b2a	0.26290256
187	0x3d158673	0.036505174
188	0xbcf71f70	-0.030166358
189	0x3dc7ff3e	0.097654805
190	0x3e8fb0f2	0.28064686
191	0x3ea7c928	0.32770658
192	0x3e47018d	0.19434185
193	0x3e051e83	0.1299992
194	0xbdc4ed03	-0.09615519
195	0x3d662413	0.056186747
196	0xbdb1caac	-0.08681235
197	0xbbbe0e82	-0.0058000693
198	0x3e268d6e	0.16264889
199	0x3df2b54c	0.11850986
200	0x3dbe42e8	0.09290105
201	0x3e2aec91	0.16691805
202	0xbe52242e	-0.20521614
203	0x3da9d9f4	0.082935244
204	0x3e313517	0.17305408
205	0xbc427c14	-0.011870403
206	0xbd86c6d3	-0.065808915
207	0x3dcc5c1e	0.099785075
208	0xbe4d95d9	-0.20076694
209	0x3e0e5407	0.13899241
210	0xbcf33547	-0.02968849
211	0x3e4cfaee	0.20017597
212	0x3d02c3cc	0.031925008
213	0x3af73263	0.0018859621
214	0xbd45b2c3	-0.048266184
215	0x3d939fa0	0.072081804
216	0x3d13d249	0.036089215
217	0x3da11a07	0.078662924
218	0x3e2be646	0.16787061
219	0x3ca040f5	0.019562224
220	0xbdfc66ee	-0.1232432
221	0xbe19e421	-0.1502843
222	0xbddb7cff	-0.107172005
223	0x3e3efa35	0.18650134
224	0xbdf64131	-0.12024153
225	0x3df9d3c3	0.121985935
226	0xbc97fc1f	-0.018552838
227	0x3db2e7d8	0.08735627
228	0x3d336e8d	0.0438066
229	0xbe10fba5	-0.14158495
230	0xbda6ae12	-0.0813867
231	0x3e0b9940	0.13632679
232	0xbbcff017	-0.0063457596
233	0xbdd28e3a	-0.10281034
234	0xbe60a268	-0.21936953
235	0xbe3cae9b	-0.18425982
236	0xbd1664f1	-0.03671736
237	0x3d6d6e2f	0.057966407
238	0x3e1b5345	0.15168484
239	0x3d003cce	0.031307988
240	0x3d0249f7	0.03180882
241	0xbd473840	-0.04863763
242	0xbe423d9c	-0.18968815
243	0x3e012581	0.12611963
244	0x3e098a56	0.13431677
245	0xbc94f84d	-0.018184805
246	0x3e48c067	0.19604646
247	0x3e48c8bd	0.19607826
248	0xbdbd8df8	-0.09255594
249	0xbdc6f77d	-0.097151734
250	0x3e236c81	0.1595936
251	0x3d75386d	0.059868265
252	0xbd8f4da4	-0.06997231
253	0xbdecf462	-0.1157005
254	0x3d3e52ce	0.046465687
255	0xbc4b58e4	-0.01241133

model.4.bias f4 [32]
0	0x3c23870a	0.009980926
1	0xbd9c879b	-0.07643052
2	0x3df7d32a	0.12100823
3	0x3df65768	0.1202839
4	0x3e55e45d	0.20887895
5	0x3cab5d0c	0.020918392
6	0xbe413958	-0.18869531
7	0x3cb19f3f	0.02168238
8	0xbe0262d6	-0.12733015
9	0x3e0efe8c	0.1396429
10	0x3e5ec80a	0.21755996
11	0x3e17df8d	0.14831372
12	0x3e7e9d70	0.24864745
13	0x3ebad8e7	0.36493608
14	0x3e77c679	0.24196805
15	0xbcec8556	-0.028872173
16	0x3e202295	0.15638192
17	0x3e87e6fb	0.26543412
18	0x3e47b618	0.19503057
19	0x3d2b5038	0.04182455
20	0xbe85bfbc	-0.26122844
21	0xbc2f12df	-0.010685652
22	0x3e0d1311	0.13776805
23	0x38f0ce6e	0.00011482542
24	0xbc5ff0a1	-0.01366821
25	0x3dc8d2a2	0.098058
26	0x3e941118	0.28919291
27	0x3e46e33a	0.19422618
28	0x3dc044d8	0.09388131
29	0xbe7198f5	-0.23593505
30	0x3d3f2cc5	0.046673555
31	0xbe0cf3db	-0.13764898

model.6.weight f4 [32, 32]
0	0xbdb80fa5	-0.08987359
1	0xba227625	-0.00061974145
2	0x3d0eab21	0.03483117
3	0xbc143eff	-0.009048223
4	0x3dbbdd60	0.09173083
5	0x3e2fc90c	0.17166537
6	0x3e4434e8	0.19160807
7	0xbe140213	-0.14453916
8	0x3e7116ca	0.2354385
9	0x3bef2b16	0.0072988374
10	0x3e1f2ea5	0.15545137
11	0xbce1b61a	-0.027552653
12	0xbdef0cd1	-0.116723664
13	0xbf823517	-1.0172452
14	0xbe06a479	-0.13148679
15	0x3d6b17ae	0.05739563
16	0x3d529aeb	0.051417273
17	0xbd98c812	-0.074600354
18	0xbdbe2496	-0.09284322
19	0x3e803cbc	0.25046337
20	0xbea947d3	-0.3306261
21	0x3e1efca7	0.15526067
22	0xbd0d0a75	-0.0344338
23	0x3e51be16	0.20482668
24	0xbdd656ee	-0.10465799
25	0x3e369c2a	0.1783301
26	0x3e21ea81	0.15812112
27	0xbf174e36	-0.59103715
28	0x3e6bd676	0.23031029
29	0x3eb0a5aa	0.34501392
30	0xbd8441db	-0.064578734
31	0xbe6944aa	-0.227801
32	0x3ccf6f4c	0.025321625
33	0x3e22b2d3	0.15888529
34	0xbe3774a9	-0.17915596
35	0x3c871135	0.016487697
36	0x3d4375ce	0.04771977
37	0x3e29b937	0.1657456
38	0x3dd3cbc1	0.10341597
39	0x3e2b41d1	0.16724326
40	0x3e7e1672	0.2481325
41	0xbe5ce4bb	-0.21571629
42	0xbea32d77	-0.31870624
43	0x3e5549ca	0.2082893
44	0x3d3b426d	0.045717645
45	0x3ca6c67c	0.020358317
46	0xbe376c5c	-0.1791243
47	0xbcf93330	-0.030419916
48	0x3d4fca24	0.050729886
49	0xbe7490c0	-0.23883343
50	0xbe24c57c	-0.1609096
51	0xbe42a44a	-0.19007984
52	0x3f10f8d1	0.56629664
53	0xbddc2478	-0.10749143
54	0x3e15b09f	0.14618157
55	0x3cb07742	0.021541242
56	0xbe243fc8	-0.16039956
57	0x3d8095a6	0.06278543
58	0x3e1c9fb7	0.15295301
59	0x3efac714	0.4898001
60	0xbd82293c	-0.06355521
61	0x3d1149f3	0.035470914
62	0xbbb16f88	-0.005414907
63	0x3eb11106	0.345833
64	0x3e36b094	0.17840797
65	0xbd35b9aa	-0.044366516
66	0x3e1090f6	0.14117798
67	0x3dcb46da	0.09925623
68	0x3e3a139d	0.18171544
69	0x3d59b717	0.053153124
70	0x3e00c69b	0.12575762
71	0xbe5b61b5	-0.21423991
72	0x3c62dd96	0.0138467755
73	0x3e2b313c	0.16718
74	0xbdf4e91b	-0.11958524
75	0xbd4f0143	-0.050538313
76	0xbe04f80d	-0.12985249
77	0xbf846985	-1.0344702
78	0xbd72af4c	-0.059249207
79	0x3deb5cbe	0.114922985
80	0x3e6bc5bf	0.23024653
81	0xbdc06ec6	-0.09396128
82	0x3d9d0653	0.07667222
83	0x3e777cdf	0.24168728
84	0xbc86d77d	-0.016460175
85	0xbc00c022	-0.007858308
86	0x3e3663ec	0.17811555
87	0x3da9c084	0.082886726
88	0xbd378e92	-0.0448137
89	0xbe01a78e	-0.12661573
90	0x3c976c79	0.018484341
91	0xbf37d835	-0.7181428
92	0xbd11efef	-0.03562921
93	0x3e2f9d46	0.17149839
94	0xbc4f5bb0	-0.012656137
95	0xbe02c381	-0.12769891
96	0xbdf94c1f	-0.12172722
97	0x3de30f53	0.11086907
98	0x3d8a14c0	0.06742239
99	0x3ebd6dbb	0.3699778
100	0xbeb334f6	-0.35001343
101	0x3de0d9b2	0.10979022
102	0x3dbcd9f1	0.092212565
103	0x3e487e8c	0.19579524
104	0x3e52ebc4	0.2059775
105	0xbe9315af	-0.2872748
106	0xbee5237b	-0.44753632
107	0x3e1d9921	0.15390445
108	0xbe642c2c	-0.22282475
109	0x3e31dbd8	0.1736902
110	0xbe0f2c72	-0.13981798
111	0x3b2235ce	0.0024751308
112	0x3eb15f4a	0.34643012
113	0xbd749462	-0.05971182
114	0xbd95c447	-0.073128276
115	0xbe02da77	-0.1277865
116	0x3f0107b8	0.504024
117	0xbdd2a1c1	-0.10284758
118	0x3e81b9d6	0.25337094
119	0x3db28be8	0.08718091
120	0xbeb85fa8	-0.3601048
121	0x3e00fe39	0.12596978
122	0xbe598184	-0.21240813
123	0xbcc51b73	-0.02406094
124	0xbc23f81f	-0.010007887
125	0x3e8164e8	0.25272298
126	0xbecd8a90	-0.40144777
127	0x3da70740	0.0815568
128	0x3dfe7655	0.12424914
129	0xbe072221	-0.13196613
130	0x3d0825b7	0.033239093
131	0x3e0b5388	0.13606083
132	0x3cfc12f3	0.030770754
133	0x3d5eea17	0.054422464
134	0x3d128e69	0.035780344
135	0xbdbb19ab	-0.09135755
136	0x3d8c0d1d	0.06838439
137	0xbd2f6aee	-0.042826585
138	0x3b78e07e	0.0037975605
139	0x3e2b10ae	0.16705582
140	0xbe2dd25d	-0.16974778
141	0x3ede1532	0.43375546
142	0x3c0a9199	0.008457565
143	0xbe2e7a8c	-0.17038935
144	0xbe13e573	-0.14442997
145	0x3cb38d3e	0.021917935
146	0xbd0ce697	-0.034399595
147	0x3e13330b	0.1437494
148	0x3cf27865	0.029598424
149	0xbdb3fcdc	-0.087884635
150	0xbdc36e7c	-0.095425576
151	0x3d9f5520	0.07779908
152	0xbdd34780	-0.10316372
153	0x3c8838f1	0.016628714
154	0xbd8bcb27	-0.068258576
155	0x3f57c232	0.84280694
156	0xbda22edc	-0.07919094
157	0x3df3b97a	0.11900611
158	0x3da0e3d2	0.07855953
159	0x3e1564c9	0.14589228
160	0xbe54b658	-0.20772684
161	0x3dfafb08	0.12254912
162	0xbdb8f499	-0.09031028
163	0x3ec1a8e7	0.37824175
164	0xbe0a8145	-0.13525875
165	0x3df1aa91	0.11800111
166	0x3e6c089a	0.23050156
167	0xbd248974	-0.040170148
168	0x3dc4a203	0.09601214
169	0xbe0823c5	-0.13294895
170	0xbe0e126e	-0.13874218
171	0x3e744404	0.23854071
172	0xbe7a559e	-0.24446723
173	0x3b979ae4	0.0046266187
174	0x3c9b6512	0.018969093
175	0xbde3c3e0	-0.111213446
176	0x3ea7fbbe	0.32809252
177	0x3da4ead2	0.08052601
178	0xbdce5754	-0.1007525
179	0x3dfa5a29	0.12224228
180	0x3eff2b9b	0.49837956
181	0x3dda6fa2	0.106658235
182	0x3d31dcbc	0.0434234
183	0x3e4b6b2d	0.19865103
184	0xbdab15d5	-0.083537735
185	0x3e875fa3	0.26440153
186	0xbd3f11a4	-0.046647683
187	0x3ed1a742	0.4094792
188	0x3e600f76	0.21880898
189	0xbbbb2f01	-0.0057123904
190	0xbe62d1ae	-0.22150299
191	0x3e1f8147	0.15576659
192	0xbe5cd43c	-0.21565336
193	0x3e920e01	0.2852631
194	0xbd5bf09e	-0.053696267
195	0x3eb0e9d2	0.3455339
196	0xbe77c95e	-0.24197909
197	0xbde36a1d	-0.11104224
198	0x3dba9a68	0.09111482
199	0x3e8c7fc5	0.2744123
200	0x3eb56b05	0.35433212
201	0xbe0806f2	-0.132839
202	0xbec6b2b6	-0.3880822
203	0x3e692205	0.22766884
204	0xbec01c97	-0.37521812
205	0x3e34aa9e	0.1764321
206	0xbe2c2ead	-0.1681468
207	0xbe3cc0d9	-0.1843294
208	0x3eb157ce	0.34637302
209	0xbeed1c07	-0.46310446
210	0xbdcb2386	-0.09918885
211	0xbde5aee9	-0.11215002
212	0x3f1444ba	0.5791737
213	0xbd8acfbe	-0.06777905
214	0x3c0667a6	0.008203423
215	0x3d322abe	0.043497793
216	0xbe5cd990	-0.21567369
217	0x3e0c3867	0.13693391
218	0x3d6079f1	0.054803792
219	0x3dc26289	0.0949145
220	0xbd65164c	-0.055929467
221	0x3e6af032	0.2294319
222	0xbeb004d8	-0.34378695
223	0x3c45cb84	0.012072448
224	0x3db83c5b	0.08995887
225	0x3da56ce9	0.080774136
226	0x3dba343d	0.09091995
227	0x3db5894e	0.088640794
228	0x3d7285bf	0.05920958
229	0x3e7c0a99	0.24613418
230	0xbdb791cf	-0.08963358
231	0xbe511c90	-0.20421052
232	0xbc502684	-0.012704495
233	0x3e35966f	0.17733167
234	0x3df4ef9e	0.11959766
235	0x3dde979c	0.10868761
236	0x3da1caef	0.07900035
237	0xbf9a6399	-1.2061645
238	0xbe76a6cc	-0.24087065
239	0x3e4469b2	0.19180945
240	0x3e4613af	0.19343446
241	0x3db71d39	0.08941121
242	0x3c7fa83e	0.015604077
243	0xbd80844c	-0.062752336
244	0xbe53bffe	-0.20678708
245	0xbe172b40	-0.14762592
246	0x3d1f7b2f	0.038935836
247	0x3e80a452	0.25125366
248	0x3d948c00	0.072532654
249	0x3e64b717	0.22335468
250	0xbc13b73c	-0.009015854
251	0xbf612255	-0.8794301
252	0xbd64ee11	-0.0558911
253	0x3eb727c6	0.35772532
254	0xbd8d5132	-0.069002524
255	0xbee0be06	-0.43894976

model.6.bias f4 [32]
0	0xbd0b6fb9	-0.034042094
1	0x3e0cf488	0.13765156
2	0x3d2d16a6	0.042257927
3	0xbd9264a9	-0.07148106
4	0xbd58656e	-0.052831106
5	0x3d98b818	0.07456988
6	0xbc1c385c	-0.0095349215
7	0x3ccc4a85	0.024937877
8	0xbe4190c3	-0.18902878
9	0x3da7d663	0.08195188
10	0x3dc9e9cd	0.09859047
11	0xbb512c4a	-0.0031917267
12	0xbd4b1026	-0.049575947
13	0x3d60be00	0.054868698
14	0x3e2b8eb5	0.16753657
15	0x3d89f31c	0.067358226
16	0x3e4e89cb	0.20169751
17	0xbda48a1a	-0.08034153
18	0x3e84810d	0.25879708
19	0x3e0a9319	0.13532676
20	0x3c0954e6	0.008382058
21	0x3cf37265	0.029717634
22	0x3ded4dc9	0.11587102
23	0x3d6faa05	0.058511753
24	0xbd15cd64	-0.03657283
25	0x3e1b20fe	0.15149304
26	0x3d55cc25	0.05219664
27	0xbccc6cf5	-0.024954299
28	0x3dc681c5	0.0969272
29	0xbcccb7f3	-0.024990058
30	0x3e15d461	0.14631797
31	0x3e985e11	0.29759267

model.8.weight f4 [32, 32]
0	0xbda7f18e	-0.0820037
1	0x3e3ba8bc	0.18326086
2	0xbe399ed1	-0.1812699
3	0x3eb73277	0.3578069
4	0x3d323cf4	0.04351516
5	0x3de21184	0.11038497
6	0x3e97d4e1	0.296546
7	0xbe2c6fda	-0.16839543
8	0x3e0e1ed5	0.13878949
9	0x3e9e045a	0.30862695
10	0x3e2eff1e	0.17089507
11	0xbc836fef	-0.016044585
12	0x3e435cd0	0.19078374
13	0x3cf0adde	0.029379781
14	0x3db08e37	0.08620875
15	0x3e3ca43e	0.18422028
16	0x3ec84eef	0.39122722
17	0xbd9a73f3	-0.07541647
18	0xbe098606	-0.13430032
19	0x3e17fba5	0.14842089
20	0xbd1e02e2	-0.038576968
21	0xbca7ae3d	-0.020468825
22	0x3e8def68	0.27721715
23	0xbe92261c	-0.285447
24	0xbd23f277	-0.040026154
25	0xbefdc46e	-0.49563926
26	0x3ea7ced9	0.32775
27	0x3ea546c3	0.3228055
28	0xbe0a9c63	-0.1353622
29	0x3df107c2	0.11769058
30	0x3e16e95c	0.14737457
31	0xbec8f5b8	-0.3924997
32	0xbd985e95	-0.07439915
33	0x3e65be4c	0.22435874
34	0xbd9c04e5	-0.07618121
35	0x3ea804ea	0.3281625
36	0xbde74f9c	-0.11294481
37	0x3e0e9c74	0.1392687
38	0x3e0884c0	0.1333189
39	0xbe99309b	-0.29919896
40	0x3dbab019	0.09115619
41	0x3e63fb97	0.22263943
42	0x3dfa9113	0.12234702
43	0x3e41a13c	0.18909162
44	0x3e0063de	0.12538096
45	0xbdc9a227	-0.09845381
46	0x3ec2b129	0.38025787
47	0xbdca6d2c	-0.09884104
48	0x3eadc0de	0.33936208
49	0xbdee0452	-0.11621918
50	0x3e670036	0.22558674
51	0x3e388fbf	0.18023585
52	0x3e5b433b	0.21412365
53	0x3d4dcc82	0.050243862
54	0x3de682a6	0.11255388
55	0xbde10eed	-0.10989175
56	0x3e3b6351	0.18299605
57	0x3f35595e	0.7083949
58	0x3e96825f	0.2939634
59	0x3e07027a	0.13184538
60	0xbe57e398	-0.21082914
61	0x3e0fb799	0.1403488
62	0xbda9bb98	-0.08287734
63	0xbe89ad3a	-0.26889974
64	0x3e3d80b2	0.18506125
65	0xbd18f117	-0.037339296
66	0x3e04e602	0.12978366
67	0x3e8ba78b	0.27276263
68	0x3db8acd0	0.09017336
69	0x3db1aee5	0.086759366
70	0x3d7c7966	0.061639212
71	0x3e2421e7	0.16028558
72	0x3e805ab4	0.250692
73	0xbd35b00c	-0.044357345
74	0x3e0e23dc	0.13880867
75	0x3e07011e	0.1318402
76	0x3e38abc7	0.18034278
77	0xbb9ccaff	-0.004784941
78	0xbf2ac242	-0.66702664
79	0x3d80ef55	0.06295649
80	0xbe5756ba	-0.21029177
81	0xbbb086bc	-0.0053871553
82	0xbef41e27	-0.47679254
83	0x3dd4b531	0.10386122
84	0x3e02d1c4	0.12775332
85	0xbc903f13	-0.017608201
86	0xbd54e4a8	-0.051975876
87	0xbd276d36	-0.040875636
88	0x3e5afafe	0.21384808
89	0xbee20fd2	-0.44152695
90	0x3dcc019a	0.09961243
91	0x3d43232d	0.047640968
92	0x3e0d8ff2	0.13824442
93	0xbdc5f6f1	-0.09666241
94	0x3d06f700	0.0329504
95	0x3b4b4b19	0.0031020103
96	0x3e348089	0.17627157
97	0xbe38dc49	-0.18052782
98	0x3e70fd9c	0.23534244
99	0xbf01c61c	-0.50692916
100	0x3e3d620b	0.18494432
101	0xbe83bc02	-0.25729376
102	0xbef56dab	-0.47935233
103	0x3eb9e20c	0.36305273
104	0xbebc6acb	-0.36800227
105	0xbe02c99a	-0.12772217
106	0xbe496ccb	-0.19670407
107	0xbd449f31	-0.04800338
108	0xbf2a9ed3	-0.66648597
109	0xbdc7c61e	-0.09754585
110	0xbe3e7d9e	-0.18602607
111	0xbdcbb4f4	-0.099466234
112	0xbf0a26f0	-0.53965664
113	0x3df461fd	0.11932752
114	0x3d6bba1b	0.05755053
115	0xbee03448	-0.43789887
116	0x3d70f34f	0.058825787
117	0x3a77f177	0.00094582833
118	0xbecd438f	-0.40090606
119	0x3eab9173	0.33509406
120	0x3e9a7216	0.30165166
121	0xbe810e89	-0.25206402
122	0xbe969d15	-0.2941672
123	0xbe82622b	-0.2546552
124	0x3ed7000a	0.41992217
125	0x3eb93ddc	0.36180007
126	0x3d937989	0.07200915
127	0x3e585db6	0.21129498
128	0x3e700243	0.23438363
129	0x3e32021e	0.1738362
130	0xbc60d96b	-0.0137237115
131	0xbed889ab	-0.42292532
132	0x3e0250a8	0.1272608
133	0xbd405c47	-0.046963003
134	0xbe463009	-0.19354261
135	0x3e8bba67	0.2729065
136	0xbe302fa7	-0.17205678
137	0x3dbf92d3	0.09354176
138	0x3e75fb8d	0.2402174
139	0x3cf02f83	0.02931953
140	0xbef3c5e0	-0.47611904
141	0x3ecd1514	0.40055144
142	0xbe587311	-0.21137644
143	0x3e6cb04d	0.23114128
144	0xbea731bf	-0.3265514
145	0x3bc5a773	0.0060319244
146	0xbeac405c	-0.33642852
147	0x3d96e21f	0.07367348
148	0xbe2cf450	-0.16890073
149	0x3d8ef13c	0.069796056
150	0xbd1965fc	-0.037450776
151	0xbe7cda0f	-0.24692558
152	0x3e82a937	0.25519726
153	0xbf00ee7c	-0.503639
154	0xbdd52846	-0.10408072
155	0x3df48cf0	0.11940944
156	0x3cb63b82	0.022245172
157	0x3f110dc0	0.56661606
158	0x3ea45959	0.32099417
159	0xbd70df0d	-0.058806468
160	0xbcbea03d	-0.023269767
161	0xbd10207b	-0.035187226
162	0xbe1a4419	-0.1506504
163	0x3e6c9f2a	0.23107591
164	0x3d89c706	0.06727414
165	0xbddf2718	-0.108961284
166	0x3d0c27a6	0.0342175
167	0xbd085f5f	-0.033294078
168	0x3dffe924	0.1249564
169	0x3e302d41	0.17204763
170	0x3e1bd0fc	0.1521644
171	0x3d9e6d37	0.07735675
172	0x3e4c5e4c	0.19957846
173	0x3de9dff2	0.11419667
174	0xbdef8e93	-0.11697116
175	0xbd82f1f1	-0.06393803
176	0xbdf79f43	-0.12090924
177	0x3d44d762	0.048056968
178	0xbdad67b3	-0.08467045
179	0xbd05ca5c	-0.032663688
180	0x3df7c30a	0.120977476
181	0xbc586006	-0.0132064875
182	0x3e3bb30e	0.18330023
183	0xbe2753b4	-0.16340524
184	0x3d881fcb	0.06646689
185	0xbcc35bc0	-0.02384746
186	0x3e55d00c	0.20880145
187	0xbde8eed3	-0.11373677
188	0x3e0c9784	0.13729674
189	0xbc93684c	-0.017994069
190	0xbe159e57	-0.14611183
191	0xbe2d953a	-0.16951457
192	0xbdfa531b	-0.12222882
193	0x3dfe647d	0.1242151
194	0x3d601817	0.054710474
195	0x3e09f291	0.13471438
196	0xbc7ae4be	-0.015313325
197	0x3e093275	0.13398154
198	0xbcca1751	-0.024669321
199	0xbe70428a	-0.23462883
200	0xbd739ac6	-0.059473775
201	0x3d9c6b60	0.07637668
202	0x3ccfdd1f	0.025373993
203	0x3de36c0e	0.11104594
204	0x3e0e6c8d	0.13908596
205	0x3e17211f	0.14758728
206	0xbe926fd2	-0.28600937
207	0x3e943b61	0.28951553
208	0xbd6e1666	-0.05812683
209	0xbe0fef73	-0.14056186
210	0xbe0d6d5e	-0.13811252
211	0xbdace7b1	-0.08442629
212	0xbe04123b	-0.1289758
213	0x3d1633eb	0.036670607
214	0xbdf62fd3	-0.120208405
215	0xbe42405d	-0.18969865
216	0x3e7015cc	0.23445815
217	0xbe42c69d	-0.19021077
218	0x3e25b1fa	0.16181174
219	0xbdd1f2d5	-0.10251395
220	0x3dccfc0f	0.10009014
221	0x3de2a644	0.11066869
222	0x3e594798	0.21218717
223	0x3d5a20ec	0.053254053
224	0xbd5b2cb3	-0.053509425
225	0x3e48fdb1	0.19628026
226	0xbe30cbf9	-0.1726531
227	0xbe5773ad	-0.2104022
228	0xbdd671cf	-0.10470926
229	0x3e4e63f9	0.20155324
230	0xbe97b00a	-0.29626495
231	0x3e735eef	0.23766683
232	0xbea4dbe6	-0.3219902
233	0xbd8f22c8	-0.06989056
234	0x3c5197f7	0.012792579
235	0x3e18b2e7	0.14911996
236	0xbefa21a3	-0.48853788
237	0x3e2a7215	0.16645081
238	0xbe1fad9e	-0.15593573
239	0x3d522f83	0.051314842
240	0xbe1b7f85	-0.15185364
241	0xbd6b6fad	-0.05747955
242	0xbef65ac7	-0.48116133
243	0xbceba990	-0.028767377
244	0xbe4010de	-0.18756434
245	0x3d729439	0.059223387
246	0x3e0449c9	0.12918772
247	0xbe832f14	-0.25621855
248	0x3e14af64	0.14520031
249	0xbef058ef	-0.4694285
250	0xbe0445a9	-0.12917198
251	0x3e9973de	0.29971212
252	0x3dd36e13	0.10323729
253	0x3ec77d4d	0.38962784
254	0x3dbc9350	0.09207785
255	0xbed978bb	-0.42474923

model.8.bias f4 [32]
0	0xbd157cd2	-0.03649599
1	0x3cea0852	0.02856842
2	0xbd86a229	-0.06573898
3	0x3e68e173	0.22742252
4	0x3d969296	0.07352178
5	0xbd444f56	-0.047927223
6	0x3dda427a	0.10657211
7	0x3c900ba3	0.017583674
8	0x3d48096a	0.048837103
9	0xbd51f148	-0.051255494
10	0xbd94f0ca	-0.07272489
11	0x3e238dd0	0.15972066
12	0xbdbdadf4	-0.092616946
13	0x3c9576a2	0.018245045
14	0x3d00e395	0.03146704
15	0x3b8fc185	0.004387083
16	0xbd33fc77	-0.04394194
17	0xbe2e6238	-0.17029655
18	0xbe27f4de	-0.16402003
19	0xbe229f83	-0.15881161
20	0xbdb12d6c	-0.08651242
21	0xbdab7672	-0.08372201
22	0x3d53b57e	0.051686756
23	0xbdfda3a5	-0.12384728
24	0x3e86097d	0.26179114
25	0x3db1363e	0.08652924
26	0xbc5479a1	-0.012968452
27	0x3e5a1bc7	0.21299659
28	0xbe3ec282	-0.18628886
29	0x3e2c73ff	0.16841124
30	0x3d086a7c	0.033304676
31	0x3d6d618a	0.05795435

model.10.weight f4 [32, 32]
0	0x3d26e709	0.040747676
1	0x3db06b5b	0.086142264
2	0x3e5c7963	0.2153068
3	0xbed20ea0	-0.41026783
4	0xbe6573d0	-0.2240746
5	0xbc49de79	-0.012321108
6	0xbd203453	-0.0391124
7	0xbd7690ac	-0.060196564
8	0xbee418de	-0.44550222
9	0x3dac50fd	0.08413885
10	0xbe08a976	-0.13345894
11	0xbe151275	-0.14557822
12	0x3a07d0e8	0.0005180971
13	0x3e2d18dc	0.16904014
14	0xbd014ea0	-0.031569123
15	0x3e84e633	0.25956878
16	0xbca36cb0	-0.019949287
17	0x3e4ce38c	0.20008677
18	0xb9e7d104	-0.00044215482
19	0x3e4659d7	0.19370209
20	0xbeb5f8f6	-0.35541505
21	0xbdd0cbf9	-0.10195155
22	0xbe14ff97	-0.14550625
23	0x3e4da0b7	0.20080839
24	0xbe84b488	-0.25918984
25	0x3c0d2320	0.0086143315
26	0xbe11cf63	-0.14239268
27	0xbe3f7194	-0.1869567
28	0x3df7f1cd	0.12106667
29	0xbe89810f	-0.26856276
30	0xbe90b32e	-0.28261703
31	0xbdb45caf	-0.088067405
32	0x3ddcc083	0.10778906
33	0xbddebea0	-0.108762026
34	0x3e82cca4	0.25546753
35	0x3e4bb1d9	0.19892062
36	0x3d7f987c	0.06240128
37	0x3e48deeb	0.19616286
38	0x3da3c766	0.079970166
39	0x3d90e77c	0.07075402
40	0x3d1d6c1b	0.038433176
41	0xbd56aa5f	-0.052408572
42	0xbe2ebd52	-0.17064407
43	0x3e3937cd	0.18087693
44	0xbdd80a36	-0.105488226
45	0x3e1ff284	0.15619856
46	0x3b669515	0.0035184075
47	0x3e227dd7	0.15868317
48	0x3e598d7a	0.21245375
49	0x3e408901	0.18802263
50	0x3db9daf8	0.09074968
51	0x3d75601e	0.059906118
52	0x3e67ed60	0.22649145
53	0x3b0a7784	0.0021128366
54	0x3badcbb1	0.005303823
55	0xbd875eb4	-0.0660986
56	0x3e60a745	0.21938808
57	0xbc790712	-0.01519944
58	0xbe9f156c	-0.3107103
59	0x3e8d2807	0.275696
60	0xbcbeb9ee	-0.023282018
61	0xbec6120b	-0.3868564
62	0xbe112a11	-0.14176203
63	0x3d541c38	0.051784724
64	0x3e0e10c8	0.13873589
65	0x3c8cc5c8	0.017184153
66	0xbd469fa6	-0.048492096
67	0x3e347b15	0.17625077
68	0x3dca2c6d	0.09871755
69	0x3e115696	0.14193186
70	0x3e256c4f	0.16154598
71	0x3e486a12	0.19571713
72	0xbd06d90e	-0.032921843
73	0x3ddcbbbc	0.10777995
74	0xbd93aeff	-0.07211112
75	0x3e09ce14	0.13457519
76	0xbded84c8	-0.11597592
77	0x3ddb24f3	0.10700407
78	0xbe247110	-0.16058755
79	0x3df76474	0.12079707
80	0x3d247499	0.04015026
81	0x3e80b648	0.2513907
82	0xbd515e8f	-0.05111557
83	0xbcad1d0a	-0.021132011
84	0xbceb6170	-0.028732985
85	0x3d5eccf4	0.054394677
86	0xbc0e1bd2	-0.008673625
87	0x3e71bb7b	0.23606674
88	0x3e3e60bb	0.18591587
89	0xbb9580ad	-0.0045624585
90	0xbe83a755	-0.25713602
91	0x3ed64249	0.41847447
92	0xbcecd884	-0.028911836
93	0xbf03857e	-0.5137557
94	0x3caeecbe	0.021353122
95	0xbace9d4b	-0.001576343
96	0x3e0cccff	0.13750075
97	0x3c71aa8b	0.014750133
98	0xbe056c68	-0.13029635
99	0xbde9a94c	-0.11409244
100	0x3deebaaa	0.11656697
101	0xbdb3c78a	-0.087782934
102	0x3e39086c	0.18069619
103	0xbdd81252	-0.10550369
104	0xbb7c4420	-0.0038492754
105	0x3e39ef30	0.18157649
106	0xbd6aa9c0	-0.057290792
107	0x3e4164e4	0.18886143
108	0x3e0431cd	0.12909622
109	0x3e718070	0.23584151
110	0x3e321b46	0.17393216
111	0x3ca6ceb5	0.020362237
112	0x3d71a668	0.058996588
113	0x3dd36cb6	0.10323469
114	0xbdaba851	-0.08381713
115	0x3d8143d0	0.06311762
116	0xbdf256c4	-0.118329555
117	0x3e65a4e7	0.22426187
118	0x3e0edcb1	0.13951375
119	0xbc9d603b	-0.019210925
120	0x3bbcf6e0	0.0057667345
121	0x3dea7503	0.114480995
122	0xbef61f9a	-0.48070985
123	0x3cb37e0e	0.021910693
124	0xbceb972f	-0.028758613
125	0xbde334f1	-0.11094082
126	0xbe858676	-0.26079148
127	0xbd971d14	-0.07378593
128	0x3ecb256f	0.39676997
129	0x3e0f655a	0.14003506
130	0xbe04b096	-0.12957987
131	0x3e90343a	0.28164846
132	0x3aa43247	0.0012527191
133	0x3df63768	0.12022287
134	0x3e188c14	0.14897186
135	0xbe3f5a26	-0.18686733
136	0x3e2f31cb	0.17108838
137	0x3e88c075	0.26709333
138	0x3e803ae8	0.25044942
139	0xbddfedec	-0.10934052
140	0x3e02d63e	0.1277704
141	0x3e3f97f7	0.18710314
142	0xbdc78a95	-0.09743229
143	0x3ebe8d99	0.37217405
144	0x3e86887d	0.26276007
145	0xbe2d8100	-0.16943741
146	0x3dd64ed9	0.10464258
147	0x3e3b3747	0.18282805
148	0xbd3cdf7c	-0.04611157
149	0x3ec83c75	0.39108625
150	0x3e113a3d	0.14182372
151	0x3cc75987	0.024334682
152	0x3e869e99	0.26292875
153	0x3e8e9d8c	0.27854574
154	0x3c1b2243	0.009468618
155	0x3e18cb31	0.14921261
156	0xbd807a34	-0.062733084
157	0xbc592b58	-0.013254963
158	0xbee0d9f3	-0.43916282
159	0xbe2329be	-0.15933892
160	0xbcad396b	-0.021145543
161	0xbd57a3d8	-0.052646488
162	0x3da7e5cb	0.081981264
163	0xbe8fd560	-0.2809248
164	0xbc899712	-0.016795669
165	0x3e49feda	0.19726124
166	0x3de7a30a	0.11310394
167	0x3ddca28f	0.10773193
168	0xbee164a1	-0.44022086
169	0x3e613c04	0.2199555
170	0xbd16689a	-0.03672085
171	0xbe3339f8	-0.17502582
172	0xbd9a3a10	-0.07530606
173	0x3e54e01d	0.20788617
174	0x3ca67364	0.020318694
175	0x3d9ce79f	0.07661366
176	0xbd0d6c4d	-0.03452711
177	0x3e6a4ea1	0.22881557
178	0xbdba6216	-0.0910074
179	0x3decfdb8	0.115718305
180	0xbe53d381	-0.20686151
181	0x3d117f63	0.035521876
182	0x3e39cd9d	0.18144841
183	0xbcb861e4	-0.022507615
184	0xbe697deb	-0.2280194
185	0xbd6f963a	-0.058492877
186	0xb9f211bb	-0.00046171047
187	0x3e33dad0	0.17563939
188	0x3d499027	0.04920974
189	0xbe61ecb8	-0.22062957
190	0xbda53886	-0.080674216
191	0xbe444a42	-0.19168952
192	0xbe118ffb	-0.1421508
193	0xbc08914f	-0.0083354255
194	0xbeaa2dce	-0.3323807
195	0x3db5e2ef	0.08881175
196	0xbe4b27bc	-0.19839376
197	0xbbb78938	-0.0056010745
198	0x3e71f403	0.2362824
199	0xbed8a522	-0.42313486
200	0x3e8efb5a	0.2792614
201	0xbd075fc4	-0.033050314
202	0x3ef2d9a8	0.47431684
203	0x3e983cb6	0.2973382
204	0xbeb151de	-0.34632772
205	0x3da8fd8b	0.082514845
206	0xbeaf1d16	-0.34201878
207	0xbda84eab	-0.0821813
208	0x3ce00df7	0.027350409
209	0xbec45601	-0.38346866
210	0xbe293c86	-0.16526994
211	0x3e471370	0.19441009
212	0xbe8832a3	-0.26601133
213	0x3e091c11	0.13389613
214	0xbdb41ec4	-0.087949306
215	0xbd621d9f	-0.05520403
216	0x3e2302fa	0.15919104
217	0xbe7d6403	-0.24745183
218	0xbebc892e	-0.3682341
219	0x3e073b7f	0.1320629
220	0xbee3e9e2	-0.44514376
221	0xbe978a1d	-0.2959756
222	0xbee237da	-0.44183236
223	0xbe216531	-0.15761258
224	0xbeec95dd	-0.46208087
225	0xbeaa29ac	-0.33234918
226	0x3d89463a	0.06702848
227	0xbe7b1dec	-0.24523133
228	0x3e8640b9	0.26221254
229	0xbe1ebad8	-0.15500963
230	0x3e17876f	0.14797758
231	0x3e7540a6	0.23950443
232	0x3d270ce1	0.040783767
233	0xbe57cfbd	-0.2107534
234	0xbe83437e	-0.2563743
235	0x3d873031	0.06600989
236	0x3e231639	0.15926446
237	0xbd2614ec	-0.040547296
238	0x3d9ae9a6	0.07564096
239	0xbf0169e3	-0.50552195
240	0xbe689407	-0.22712718
241	0x3e5a0242	0.21289924
242	0xbdf07489	-0.11740977
243	0xbd07ddcc	-0.033170506
244	0x3e835e01	0.25657657
245	0xbee4c42d	-0.4468092
246	0xbdd0f413	-0.102028035
247	0x3d6105df	0.05493724
248	0xbdb4f04f	-0.08834898
249	0x3d2237c9	0.039603982
250	0x3c58fc11	0.013243691
251	0xbe8f7f42	-0.28026778
252	0xbd01e0b5	-0.031708438
253	0xbcd4bace	-0.025967982
254	0xbe45ee5a	-0.19329205
255	0xbeac03dc	-0.33596694

model.10.bias f4 [32]
0	0xbc563aa3	-0.0130755035
1	0x3da48864	0.08033827
2	0x3e127e5c	0.14306015
3	0x3d9b6f9c	0.07589647
4	0x3d78e250	0.060762703
5	0xbddaba61	-0.1068008
6	0xbe1bb6b6	-0.15206417
7	0xbe11bbad	-0.14231749
8	0xbdbf8728	-0.09351951
9	0x3df638d7	0.1202256
10	0xbccf4826	-0.025302958
11	0x3d03730f	0.03209215
12	0xbde04af8	-0.10951799
13	0x3e35d93a	0.17758647
14	0x3e2cad0f	0.16862892
15	0x3dd098c5	0.101853885
16	0x3de29e6b	0.11065372
17	0x3e1d6a6d	0.1537263
18	0x3e1fcbc5	0.15605076
19	0x3e0f1f3f	0.13976763
20	0xbd33ee30	-0.043928325
21	0x3d643e37	0.055723395
22	0x3dbfce82	0.0936556
23	0xbe28f475	-0.16499503
24	0xbdddab38	-0.10823673
25	0x3de18004	0.11010745
26	0xbe211604	-0.15731055
27	0xbd06dff0	-0.032928407
28	0x3e2e53a2	0.17024091
29	0xbc082da6	-0.008311665
30	0xbdcc86b8	-0.09986633
31	0xbe28d5cf	-0.16487812

model.12.weight f4 [1, 32]
0	0x3e5e75ab	0.21724574
1	0x3db3f8a4	0.08787659
2	0x3d756ce8	0.059918314
3	0xbd23d2d7	-0.039995994
4	0xbe7e7d9b	-0.24852602
5	0x3e1ba291	0.15198733
6	0xbf115fb8	-0.5678668
7	0xbe821306	-0.2540514
8	0xbe274e23	-0.163384
9	0x3e32d9ba	0.17465869
10	0x3dc7ed3a	0.09762044
11	0xbdec6f8a	-0.11544712
12	0xbe1bcdde	-0.15215251
13	0xbe971ca0	-0.29514027
14	0xbedce5a7	-0.4314396
15	0x3dd410b2	0.10354747
16	0xbe0189d3	-0.12650232
17	0xbdfc2307	-0.123113684
18	0x3e64bb18	0.22336996
19	0xbecf66d7	-0.40508148
20	0x3e52ff47	0.20605193
21	0xbe3c6481	-0.18397714
22	0x3e6adcd5	0.22935803
23	0x3d0f4896	0.034981333
24	0xbd977ef0	-0.07397258
25	0xbe82b1fe	-0.25526422
26	0xbddb329a	-0.10703011
27	0xbe774b9c	-0.24149936
28	0xbe85d023	-0.26135358
29	0xbf85b613	-1.044619
30	0x3e48a45b	0.19593947
31	0x3dcb2368	0.099188626
