best_model_5_dim3.pt (torch, 27040 bytes, 13 tensors)

model.0.weight f4 [32, 3]
0.45805866 0.0074640713 -0.005298653 -0.19931106 0.42051473 0.28370342 0.006477274 1.004592
0.6430515 -0.050043296 0.0012013526 -0.56284964 -0.64867216 -0.01234231 -0.0083170915 0.12370889
-0.22150819 0.9695811 0.1900696 0.34563237 -0.14647764 0.0043165926 0.0073989555 0.7629968
-0.24276543 -0.486052 0.18201637 -0.015596106 -0.13463154 0.93327665 -0.102092974 0.44729906
0.26106122 -0.37271857 0.041836087 0.33336377 0.21773916 0.8321348 -0.0011276788 0.009099161
-0.8761278 0.73513126 -0.109769344 -0.4781683 0.20432062 -0.18082502 -0.5923725 -0.28939396
-0.0025056563 -0.38417098 -0.779085 -0.03248266 -0.31172615 0.7096679 0.022281174 -0.43351814
-0.50937647 0.2392707 -0.011118394 0.332374 0.11371098 0.23383097 0.6415789 0.01478124
0.4955233 -0.40941685 0.007214578 -0.529594 0.38983336 0.0016882877 -0.755691 -0.069617786
0.27725634 0.08410549 0.6144218 -0.090144545 0.42190763 -0.5509341 -0.04106578 -0.40538442
-0.43105233 -0.012035581 0.088447966 -0.59795666 0.028497037 -0.72996473 -0.49556005 0.830471
-0.00767813 -0.0020265384 -0.76417816 -0.0016317453 -0.003956458 -0.8669952 0.0040710177 0.0035200594
00000000: aa86 ea3e 2b95 f43b 53a0 adbb 3318 4cbe
00000010: b54d d73e 9341 913e 503f d43b 7896 803f
00000020: 069f 243f 33fa 4cbd b476 9d3a ea16 10bf
00000030: 610f 26bf 6637 4abc 6944 08bc 165b fd3d
00000040: 0bd3 62be 7836 783f 9ba1 423e baf6 b03e
00000050: 3cfe 15be 3472 8d3b f072 f23b c253 433f
00000060: 8097 78be cfdb f8be 8062 3a3e cf86 7fbc
00000070: dadc 09be 38eb 6e3f 1f16 d1bd 6204 e53e
00000080: d1a9 853e f8d4 bebe 515c 2b3d a8ae aa3e
00000090: 04f7 5e3e c906 553f 9fce 93ba a614 153c
000000a0: e949 60bf 9031 3c3f c0ce e0bd 7ad2 f4be
000000b0: 6d39 513e 322a 39be b9a5 17bf 722b 94be
000000c0: f035 24bb 0fb2 c4be 1d72 47bf 8a0c 05bd
000000d0: 929a 9fbe ccac 353f 0287 b63c 17f6 ddbe
000000e0: 7f66 02bf 6103 753e ed29 36bc ed2c aa3e
000000f0: 4de1 e83d 6371 6f3e 843e 243f 042d 723c
00000100: 3bb5 fd3e 169f d1be 4468 ec3b 7993 07bf
00000110: 3d98 c73e 8949 dd3a f774 41bf c593 8ebd
00000120: 8bf4 8d3e 803f ac3d bf4a 1d3f b49d b8bd
00000130: 4704 d83e 040a 0dbf 9734 28bd 8c8e cfbe
00000140: e4b2 dcbe e330 45bc 3524 b53d b013 19bf
00000150: 9e72 e93c f8de 3abf 0cba fdbe bf99 543f
00000160: d398 fbbb accf 04bb 2ea1 43bf 49e0 d5ba
00000170: 2da5 81bb 66f3 5dbf 2c66 853b ccb0 663b

model.0.bias f4 [32]
-0.28416145 0.153025 0.06471252 -0.29585716 -0.36418217 -0.04731129 0.4574383 -0.3252499
0.12055632 -0.040866636 0.60697556 0.3791773 -0.19147801 -0.058807444 0.55641186 0.26815554
-0.040391397 0.19760773 0.4150017 0.19475225 0.5111322 0.07197101 0.6603964 -0.15909407
-0.01935881 0.041022867 0.5529027 0.31213182 0.01751572 -0.59108555 -0.2544346 -0.376888
00000000: 9c7d 91be 96b2 1c3e ff87 843d 977a 97be
00000010: 1676 babe 7cc9 41bd 5a35 ea3e 2887 a6be
00000020: 3be6 f63d c663 27bd c062 1b3f 8723 c23e
00000030: d012 44be 13e0 70bd 0271 0e3f af4b 893e
00000040: 7371 25bd ae59 4a3e 1a7b d43e 226d 473e
00000050: 8fd9 023f 8965 933d bd0f 293f 8ee9 22be
00000060: 5e96 9ebc 9807 283d 088b 0d3f becf 9f3e
00000070: 217d 8f3c 6251 17bf 4045 82be 77f7 c0be

model.2.weight f4 [32, 32]
-0.6071751 0.053885255 0.074873544 0.19586264 -0.62620634 0.11066585 -0.09285277 -0.0066321343
-0.096684344 0.09348711 -0.028441185 0.012348006 -0.0616386 0.050159674 -0.09148652 -0.0056069107
0.19919182 -0.0044101193 0.039257567 0.13242745 0.007493738 -0.046072282 -0.002159473 -0.23153245
-0.012487112 -0.0004925642 0.106010936 0.09887212 0.27791157 0.9132767 -0.20290318 0.05472717
0.020071553 0.1476381 0.020000298 -0.22929874 -0.34877405 0.15222351 -0.0077097067 0.03979969
0.08191262 0.04720033 -0.076930024 -0.0510415 -0.09689647 -0.22211699 0.09968678 -0.16723378
-0.13205424 0.23739526 -0.36272344 0.11241093 -0.07327667 -0.8023414 0.04557908 0.5517055
0.07557252 -0.335384 0.10499932 0.014152764 -1.3777002 -0.014535526 0.2983786 -0.7260205
0.16832769 -0.003993057 -0.40395644 -0.20058654 0.3642693 0.28998256 -0.21192075 0.2535902
0.21624091 -0.27998853 0.025424594 0.1486778 -0.055494897 0.08157192 0.07084264 0.017046759
0.5945059 0.14603385 -0.09954588 0.076636635 -0.059532348 0.018356537 0.12277809 -0.08222273
0.4491068 0.18320431 -0.2309186 0.082399726 -0.39616153 -0.14669679 -0.16712418 0.124059685
-0.02752441 -0.0126771405 -0.4624297 0.18583162 -0.16104624 0.015423503 0.117662 -0.6866824
0.10240193 -0.31610388 -0.12909496 -0.0697348 -0.0624174 0.47924948 -0.124192685 -0.119775444
0.17002536 0.22137094 0.0008090846 -0.18499479 -0.15848696 0.27956066 -0.008171467 0.20504528
-0.08392683 0.1684019 -0.05740111 0.018750874 0.11570166 0.034408838 0.11258533 -0.27575147
-0.18744811 0.113448195 -0.1136474 0.49430516 0.6812621 0.3451847 -0.25334045 -0.5237121
0.114486836 0.10258504 -0.027442176 0.20488332 -0.032270797 -0.0036654293 0.13003962 -0.043263268
0.06797045 -0.05584652 -0.01591533 0.20140316 -0.13213395 -0.36728004 0.047596283 -0.019483445
0.34422752 -0.68729883 -0.049368132 -0.21270972 0.15970711 0.08829665 -0.12746468 0.1412596
-0.0553643 0.10258836 0.19999725 0.020427437 0.3392132 0.055885367 -0.22025165 -0.76906127
0.28704536 -0.22818711 0.046753027 -0.051055487 -1.8734148 0.08014698 -0.1246385 0.113618195
0.007856485 -0.06779606 0.09510392 0.0826852 0.04190779 -0.089535095 -0.058625273 0.086486794
0.29259014 0.32784438 0.07717919 -0.20206855 -0.13016962 -0.055467103 -0.2590808 0.62081873
0.654577 -0.017397521 -0.16743772 -0.17041871 0.2483262 0.006391543 -0.06303488 -0.15377039
0.021838883 -0.1400674 0.15713309 -0.041506812 -0.12896399 -0.019529069 0.0239609 -0.11853847
0.02850755 0.17832647 0.035657845 -0.043193113 0.16667344 -0.07377204 -0.008573276 -0.010751128
0.24512047 0.043272577 0.08245293 -0.036486756 0.10907785 -0.65850514 0.3687346 -0.54880136
0.3097221 0.12119744 -0.13516378 0.43547076 -0.0257279 -0.10070155 -0.031038312 0.0049071927
0.09880538 -0.36572292 -0.07416004 -0.06843017 -0.19156887 0.24060865 0.028832166 -0.13283792
-0.17877734 -0.021527592 0.07340635 0.08267477 0.17346077 0.11228267 0.09950398 0.039708186
-0.14480227 -0.13557048 0.062337708 0.12567075 -0.10835083 0.3001704 -0.09307444 -0.30505714
00000000: d46f 1bbf c9b6 5c3d 4d57 993d 3790 483e
00000010: 0f4f 20bf c7a4 e23d 9829 bebd 6052 d9bb
00000020: 7102 c6bd 2c76 bf3d 7dfd e8bc 4a4f 4a3c
00000030: c278 7cbd 3b74 4d3d 495d bbbd 2dba b7bb
00000040: f1f8 4b3e c382 90bb 8bcc 203d 109b 073e
00000050: 088e f53b 4ab6 3cbd f285 0dbb d816 6dbe
00000060: be96 4cbc 6d1f 01ba 431c d93d 777d ca3d
00000070: 6d4a 8e3e 80cc 693f dac5 4fbe 9929 603d
00000080: 196d a43c 712e 173e aad7 a33c 4acd 6abe
00000090: 8392 b2be 7be0 1b3e b5a1 fcbb 0005 233d
000000a0: cec1 a73d 2255 413d 7d8d 9dbd e410 51bd
000000b0: a871 c6bd a372 63be 9528 cc3d 553f 2bbe
000000c0: 3a39 07be be17 733e e3b6 b9be b437 e63d
000000d0: 1412 96bd 3f66 4dbf 21b1 3a3d 923c 0d3f
000000e0: c4c5 9a3d 74b7 abbe e209 d73d ffe0 673c
000000f0: 7b58 b0bf 6a26 6ebc 14c5 983e 7bdc 39bf
00000100: 185e 2c3e 31d8 82bb 61d3 cebe 8f66 4dbe
00000110: 8181 ba3e 9878 943e c101 59be 93d6 813e
00000120: 426e 5d3e a85a 8fbe 3d47 d03c fe3e 183e
00000130: 9e4e 63bd 2e0f a73d f215 913d a5a5 8b3c
00000140: 8a31 183f e689 153e b6de cbbd abf3 9c3d
00000150: 31d8 73bd 7360 963c 1473 fb3d 6464 a8bd
00000160: 54f1 e53e e999 3b3e ed75 6cbe 30c1 a83d
00000170: afd5 cabe af37 16be 9a22 2bbe 0113 fe3d
00000180: df7a e1bc c8b3 4fbc 96c3 ecbe a54a 3e3e
00000190: 4ee9 24be dcb2 7c3c c6f8 f03d 6bca 2fbf
000001a0: 1ab8 d13d 5ed8 a1be 7831 04be 1ed1 8ebd
000001b0: 63a9 7fbd 3060 f53e bc58 febd d44c f5bd
000001c0: 211b 2e3e 10af 623e c018 543a 466f 3dbe
000001d0: 684a 22be 9322 8f3e 9ee1 05bc 64f7 513e
000001e0: d4e1 abbd 8c71 2c3e 6d1d 6bbd 6f9b 993c
000001f0: fef4 ec3d 48f0 0c3d 2393 e63d 4c2f 8dbe
00000200: 66f2 3fbe 8757 e83d f8bf e8bd 9115 fd3e
00000210: 3167 2e3f 0dbc b03e d7b5 81be ff11 06bf
00000220: 1378 ea3d 1b18 d23d 6ace e0bc efcc 513e
00000230: 622e 04bd b337 70bb 1b29 053e d334 31bd
00000240: 1734 8b3d 52bf 64bd de60 82bc a13c 4e3e
00000250: 1f4e 07be 210c bcbe 52f4 423d bf9b 9fbc
00000260: 973e b03e d1f2 2fbf 3d36 4abd 94d0 59be
00000270: 438a 233e e0d4 b43d 1a86 02be 5ba6 103e
00000280: adc5 62bd d919 d23d 14cc 4c3e 7157 a73c
00000290: 5aad ad3e 0ee8 643d a689 61be 33e1 44bf
000002a0: 9cf7 923e e2a9 69be 1a80 3f3d 8f1f 51bd
000002b0: 0ecc efbf 1a24 a43d 7842 ffbd a8b0 e83d
000002c0: 7db8 003c a9d8 8abd d8c5 c23d dc56 a93d
000002d0: 81a7 2b3d 2d5e b7bd 0e21 70bd fd1f b13d
000002e0: 60ce 953e 38db a73e 2010 9e3d 0feb 4ebe
000002f0: 2f4b 05be 7931 63bd 3da6 84be faed 1e3f
00000300: 5c92 273f 3f85 8ebc cb74 2bbe 3e82 2ebe
00000310: 3949 7e3e 2670 d13b 6e18 81bd fc75 1dbe
00000320: 75e7 b23c d46d 0fbe 7fe7 203e 0c03 2abd
00000330: 230f 04be 6dfb 9fbc a649 c43c 4cc4 f2bd
00000340: aa88 e93c 379b 363e f60d 123d 43eb 30bd
00000350: 71ac 2a3e cc15 97bd ed76 0cbc 8025 30bc
00000360: dc00 7b3e 963e 313d 15dd a83d 2373 15bd
00000370: 3564 df3d cb93 28bf c8ca bc3e 3f7e 0cbf
00000380: e593 9e3e 5d36 f83d 6068 0abe 06f6 de3e
00000390: 51c3 d2bc 9d3c cebd 0f44 febc 84cc a03b
000003a0: 7a5a ca3d 0940 bbbe 38e1 97bd 1e25 8cbd
000003b0: a12a 44be 1d62 763e 6f31 ec3c aa06 08be
000003c0: 6811 37be a25a b0bc 1256 963d 6451 a93d
000003d0: b39f 313e 75f4 e53d bec8 cb3d 0da5 223d
000003e0: 0c47 14be fdd2 0abe d355 7f3d d5af 003e
000003f0: 0ae7 ddbd efaf 993e d09d bebd 7330 9cbe

model.2.bias f4 [32]
-0.013683762 -0.0993949 -0.08571487 0.07991014 -0.12802412 0.02216825 0.13977438 0.1930844
0.053723175 -0.16518594 -0.050509468 -7.4996315e-05 0.13102223 0.017549204 0.044514414 -0.13704225
-0.063058704 -0.14097531 0.07629124 0.03784966 -0.027901351 -0.11852334 0.013787343 -0.008781379
0.16664504 0.07743883 0.1308378 0.12943709 -0.044842012 -0.03265234 -0.055065073 -0.2608641
00000000: dc31 60bc 8e8f cbbd 478b afbd eda7 a33d
00000010: c118 03be 319a b53c 0421 0f3e ebb7 453e
00000020: d50c 5c3d 8126 29be 04e3 4ebd 5747 9db8
00000030: b12a 063e 59c3 8f3c bf54 363d ce54 0cbe
00000040: ec24 81bd d55b 10be 953e 9c3d 3f08 1b3d
00000050: 6091 e4bc 5dbc f2bd 4fe4 613c c6df 0fbc
00000060: ffa4 2a3e 4098 9e3d 58fa 053e 288b 043e
00000070: 42ac 37bd 76be 05bd ea8b 61bd fb8f 85be

model.4.weight f4 [32, 32]
-0.114102595 -0.54259884 -0.0061465236 -0.6296048 -0.3005246 -0.35884887 0.26828054 -0.09887711
0.16328812 -0.044309154 0.119235605 1.3402354 0.18053274 0.19002406 0.24122295 -0.2826334
0.12227025 0.15804772 -0.16970618 -0.09654897 0.015453175 -0.26742843 -0.33505985 -0.13128068
0.051068984 0.03998224 -0.3511784 -0.022696316 -0.12300744 0.0668865 -0.018403174 0.023053216
0.15769081 0.8172539 -0.097292565 0.41764164 0.055710137 -0.08059988 -0.13926005 0.1441973
0.09378825 0.23115781 0.2032351 0.21045768 -0.1493086 0.17477292 -0.025706433 0.19908164
0.26789194 0.13270783 -0.021798892 0.13369778 -0.17346038 -0.19542126 -0.008782795 -0.6406258
0.02977791 0.08901813 0.42288563 0.072298944 -0.36124632 -0.6526211 -0.02968642 0.30146936
-0.094994485 0.30866176 0.18828185 0.2603904 -0.11551435 0.05609796 -0.029656293 0.4302248
-0.014673097 0.15075292 0.31462666 -1.4883437 0.13757345 -0.20865108 0.042942677 -0.123320796
0.00077215175 0.18880533 0.13307321 -0.39208344 0.38981646 -0.04348195 0.05175752 -1.2564735
-0.37627238 -0.20673952 -0.053663958 -0.023967553 -0.8181834 0.6806678 0.23725763 -0.554862
0.1588398 -0.07991968 0.06745667 0.12070329 0.11119239 1.0253454 -0.07436435 -0.1938738
-0.07183495 -0.2172098 0.20987366 0.023410387 -0.16359764 0.13201177 -0.27658105 -0.13826449
-0.29839322 0.13747238 0.022849163 -0.12549776 0.88249415 0.14721377 1.3773652 -0.19952838
0.11570167 -0.0033575115 0.190971 -0.0073460126 0.18628733 0.07930772 -0.64727294 -0.27928966
0.11867136 0.31583217 -0.5339316 0.28993666 -0.08097719 -0.23354195 0.12222022 0.14698198
-0.07490308 -0.13594384 0.46380565 0.3156788 -0.10515141 -0.18784733 -0.11157741 0.027624244
0.21491 -0.70456845 0.10615505 0.018947197 -0.60555196 -0.1188407 0.051342353 0.18496588
-0.058390416 -0.2848337 0.32679394 0.13566202 -0.02687386 -0.16590817 0.0070766825 -0.08946398
-0.3663723 -0.108616374 -0.027079195 0.2464861 -0.0068378146 0.07585193 -0.10577479 0.10249358
0.12732497 0.0070855427 -0.18448007 0.041992404 -0.15329921 -0.053560175 -0.009883117 0.16490676
-0.06883024 0.49376664 -0.008596927 -0.09483374 -1.1546246 1.1807977 -0.2605772 -1.0789745
0.25160083 0.2438075 -0.044431195 0.09480429 0.07174599 -0.038206164 0.037003495 0.3714015
0.04377664 0.415153 0.3355624 -0.049577948 0.122695334 0.36359763 -0.10516174 0.086469285
-0.17169046 -0.049029805 0.100492574 -0.10249567 -0.14456782 0.025892328 0.36888477 -0.045787036
0.029879661 0.16044846 -0.02880132 -0.14593035 0.13938288 0.06044809 0.3426862 0.075148396
-0.14390129 -0.033638895 0.2489128 0.16094185 0.070462406 0.58758956 0.0333314 0.34898958
0.10977523 -0.2150195 -0.11263592 0.06743759 0.2251132 0.25093746 -0.04122966 -0.018143693
-0.29215693 -0.12522605 -0.08428092 0.28963447 -0.14290258 0.0043768496 -0.027694786 -0.7430547
-0.110983476 -0.009245047 0.095496766 -0.13180502 0.4660667 0.071230315 0.397629 0.29632288
-0.041195557 0.24812895 -0.110173084 -0.25886673 0.23371114 0.13070111 0.123668045 0.104176626
00000000: 9fae e9bd c2e7 0abf c768 c9bb c82d 21bf
00000010: 5cde 99be 0abb b7be 115c 893e 1580 cabd
00000020: 0035 273e 847d 35bd cc31 f43d d58c ab3f
00000030: 93dd 383e ab95 423e 2603 773e 53b5 90be
00000040: d368 fa3d 43d7 213e 75c7 2dbe 77bb c5bd
00000050: 502f 7d3c 61ec 88be f78c abbe 716e 06be
00000060: b62d 513d 6bc4 233d a8cd b3be a0ed b9bc
00000070: 53eb fbbd cafb 883d 41c2 96bc 19da bc3c
00000080: b379 213e 8d37 513f 5341 c7bd 20d5 d53e
00000090: 5030 643d 8d11 a5bd 309a 0ebe 75a8 133e
000000a0: 0e14 c03d a2b4 6c3e dd1c 503e 3882 573e
000000b0: 5be4 18be acf7 323e 4c96 d2bc 0fdc 4b3e
000000c0: 2229 893e 90e4 073e 9793 b2bc 12e8 083e
000000d0: 999f 31be 831c 48be b6e5 0fbc 0d00 24bf
000000e0: cef0 f33c 234f b63d 7784 d83e 7811 943d
000000f0: 47f5 b8be 2d12 27bf ef30 f3bc 315a 9a3e
00000100: 788c c2bd ea08 9e3e f5cc 403e e451 853e
00000110: ca92 ecbd f9c6 653d c1f1 f2bc 6d46 dc3e
00000120: 6e67 70bc f95e 1a3e bf16 a13e 0c82 bebf
00000130: 0ee0 0c3e a1a8 55be a9e4 2f3d 9d8f fcbd
00000140: 3a6a 4a3a 2f56 413e 5844 083e 29bf c8be
00000150: 0696 c73e 211a 32bd b1ff 533d 20d4 a0bf
00000160: c6a6 c0be 86b3 53be bdce 5bbd 9a57 c4bc
00000170: 7874 51bf 3f40 2e3f aaf3 723e 700b 0ebf
00000180: e7a6 223e eeac a3bd b926 8a3d 4933 f73d
00000190: d6b8 e33d 853e 833f 564c 98bd da86 46be
000001a0: 341e 93bd 3f6c 5ebe 1fe9 563e 24c7 bf3c
000001b0: 2486 27be 182e 073e 089c 8dbe 3595 0dbe
000001c0: ffc6 98be 8fc5 0c3e 2b2e bb3c 7c82 00be
000001d0: 23eb 613f 35bf 163e 814d b03f 2b51 4cbe
000001e0: fff4 ec3d b209 5cbb e78d 433e d2b6 f0bb
000001f0: 1bc2 3e3e 166c a23d aeb3 25bf 0eff 8ebe
00000200: f809 f33d c1b4 a13e beaf 08bf 9472 943e
00000210: 5ed7 a5bd 9f25 6fbe 984e fa3d 7282 163e
00000220: c966 99bd dd34 0bbe ef77 ed3e a7a0 a13e
00000230: 9f59 d7bd 0d5b 40be b282 e4bd 3d4c e23c
00000240: 5e11 5c3e 995e 34bf d267 d93d 2737 9b3c
00000250: 7405 1bbf c162 f3bd 5c4c 523d b267 3d3e
00000260: ca2a 6fbd b9d5 91be 8951 a73e fcea 0a3e
00000270: 9226 dcbc d5e3 29be 84e3 e73b e438 b7bd
00000280: 2695 bbbe 4372 debd 30d5 ddbc da66 7c3e
00000290: bf0f e0bb 4258 9b3d 74a0 d8bd 27e8 d13d
000002a0: 7a61 023e d72d e83b 58e8 3cbe 3a00 2c3d
000002b0: 78fa 1cbe ea61 5bbd ccec 21bc 51dd 283e
000002c0: def6 8cbd fbce fc3e 20da 0cbc 3138 c2bd
000002d0: bdca 93bf 6124 973f 606a 85be d61b 8abf
000002e0: d3d1 803e aca8 793e 7cfd 35bd c028 c23d
000002f0: 90ef 923d 117e 1cbd fa90 173d 5628 be3e
00000300: 224f 333d ef8e d43e d6ce ab3e 3f12 4bbd
00000310: b147 fb3d 7829 ba3e 0a5f d7bd cf16 b13d
00000320: a0cf 2fbe 7ad3 48bd 0dcf cd3d 40e9 d1bd
00000330: 9609 14be 261c d43c 77de bc3e 308b 3bbd
00000340: 31c6 f43c 9a4c 243e bff0 ebbc c46e 15be
00000350: 63ba 0e3e 6b98 773d 9174 af3e 67e7 993d
00000360: dc5a 13be f0c8 09bd ffe2 7e3e f1cd 243e
00000370: 984e 903d 456c 163f 8286 083d c3ae b23e
00000380: d6d1 e03d 122e 5cbe a9ad e6bd b81c 8a3d
00000390: 1384 663e e07a 803e 6fe0 28bd 15a2 94bc
000003a0: 9895 95be 423b 00be 7a9b acbd f84a 943e
000003b0: 0e55 12be ad6b 8f3b 2de0 e2bc d538 3ebf
000003c0: 4e4b e3bd 8a78 17bc cf93 c33d e5f7 06be
000003d0: 4ba0 ee3e 33e1 913d 0796 cb3e a2b7 973e
000003e0: acbc 28bd 8415 7e3e 6da2 e1bd 2e8a 84be
000003f0: f951 6f3e 83d6 053e ac45 fd3d 8e5a d53d

model.4.bias f4 [32]
-0.05177878 -0.098594494 -0.1536178 -0.034284253 0.07513634 -0.1580209 -0.00935355 0.09280048
0.051478706 -0.004295435 -0.15032288 -0.115149125 -0.020785222 -0.045487713 -0.116808176 -0.09477172
0.13523716 0.10045148 0.19562867 0.19164371 -0.08377422 0.022816896 0.11726454 0.08142554
-0.085443504 0.12162086 0.026267568 -0.1369018 0.03856228 0.02554356 0.054908466 -0.16953939
00000000: fc15 54bd e9eb c9bd fc4d 1dbe a56d 0cbd
00000010: 15e1 993d 3bd0 21be a23f 19bc 2e0e be3d
00000020: 56db 523d b8c0 8cbb 3eee 19be 4ed3 ebbd
00000030: c545 aabc 5351 3abd 2039 efbd ad17 c2bd
00000040: 9c7b 0a3e 81b9 cd3d e252 483e 403e 443e
00000050: d191 abbd 80ea ba3c 6428 f03d 6fc2 a63d
00000060: 01fd aebd 5c14 f93d 152f d73c fc2f 0cbe
00000070: 7bf3 1d3d ba40 d13c b3e7 603d bc9b 2dbe

model.6.weight f4 [32, 32]
-0.012397625 -0.015914088 0.61944854 0.044831682 -0.4668241 -0.8279669 -0.18111427 -0.40479994
0.31521055 -0.19268784 -0.06446858 0.28449798 -0.20681077 -0.020764615 -0.2715956 0.020360198
-0.114764936 -0.28557432 -0.11894552 -0.12785497 -0.3854174 -0.2477541 0.1541941 0.06106142
0.27739093 -0.24831499 0.007227429 -0.3480774 -0.43381357 -0.13836186 -0.26792333 0.07739222
0.13963346 -0.06292635 -0.5505305 -0.073720105 0.08230643 0.44968188 0.12616213 0.042756528
-0.022992032 0.024675403 -0.00080935477 0.009482523 0.026924942 0.17810115 0.46657637 0.5453442
0.06778986 0.35621542 -0.002029088 -0.13643876 0.5129781 0.023892911 0.03889967 -0.121643886
-0.22468382 -0.060870297 0.21222109 0.41883314 -0.025022741 0.170967 0.054741368 -0.03329903
0.474753 -0.2579286 0.31715667 -0.427975 -0.084252775 0.50707513 -0.045918304 -0.22945058
-0.33196598 0.42888469 0.16567133 -0.22065419 0.22586216 0.4695324 0.148917 0.5936337
0.03202725 0.06697523 0.24645205 0.15731916 0.57362974 0.11264438 -0.27840623 -0.11570733
-0.051056698 0.008603685 0.094254985 0.19455464 0.10282629 0.040276285 -0.07859981 -0.37287426
0.5323598 -0.07165125 -1.4417726 -0.0067095747 -0.07517525 -0.122499496 -0.08263334 -0.11863297
-0.5782079 0.34095287 0.18603532 -0.30751666 0.16889678 0.39285478 -0.25201038 0.40684533
0.10010006 -0.0969836 0.06466695 -0.13979451 0.41737378 -0.06942216 -0.24940571 -0.31322703
0.01637647 0.25198773 -0.03443594 0.3811823 0.069820404 -0.21182461 -0.003092296 -0.16360158
-0.7237191 0.27997977 -0.45151684 0.23846425 -0.8323575 -0.28302997 0.05033786 0.1341789
0.12842523 -0.40183914 -0.10370356 0.10696231 0.014340497 -0.04667259 0.21412684 0.48320365
-0.10916251 0.16661114 -0.09211942 -0.05815254 -0.24490373 0.05917755 0.15534522 0.06923626
-0.08559894 0.064733155 0.0042773327 -0.015346408 -0.16249713 0.06496495 0.017346507 0.1819852
-0.15075696 -0.13577853 0.12031575 0.22145793 -0.22897702 0.56071544 -0.3429059 -0.018836364
0.058934864 -0.28504407 -0.023699412 0.02320158 -0.5688842 0.04117409 -0.24145171 -0.20531632
0.056613535 -0.37639862 -0.12858257 0.14657459 -0.038827024 -0.055094678 0.2928957 0.06565911
0.17263843 0.16391633 -0.2468302 0.11551783 -0.04382503 -0.34770504 -0.00803739 -0.065903544
-0.07979181 -0.017750807 -0.0026006487 -0.11428683 0.3271231 -0.096962824 0.21860465 0.046075437
-0.25247413 -0.2215611 0.04071589 0.22541454 0.066945486 0.04443084 0.32388526 0.019947747
-0.00928622 0.23975462 -0.13016953 -0.15537994 0.05355395 -0.06712653 0.07687396 0.12966287
-0.051813792 -0.18211316 -0.26819107 -0.0031919677 -0.010669352 0.18858947 -0.07233125 0.18893757
0.4797418 -0.12504214 -0.38929453 -0.26136565 0.12943575 -0.11999733 1.5233017 -0.25704688
0.20449442 0.29003963 0.0635218 0.17671406 -0.33509672 -0.1281815 -0.44902128 0.18725036
0.13846862 0.050101973 0.4732592 0.15107019 0.03730762 0.07741244 -0.14584324 -0.3295617
0.23547952 0.09868866 0.117140256 0.49662063 -0.19853492 -1.1789855 -1.7317995 0.49074206
00000000: 681f 4bbc 435e 82bc 2e94 1e3f 6da1 373d
00000010: 9203 efbe a4f5 53bf 0576 39be f041 cfbe
00000020: 4763 a13e f64f 45be 1a08 84bd b8a9 913e
00000030: 34c6 53be 8e1a aabc 940e 8bbe 6eca a63c
00000040: e109 ebbd cc36 92be b599 f3bd 6aec 02be
00000050: 6e55 c5be 40b3 7dbe 0fe5 1d3e 8a1b 7a3d
00000060: 2f06 8e3e 4946 7ebe 12d4 ec3b 3337 b2be
00000070: d01c debe bbae 0dbe 3f2d 89be d07f 9e3d
00000080: 13fc 0e3e 88df 80bd 91ef 0cbf 91fa 96bd
00000090: 4690 a83d b43c e63e a530 013e 7821 2f3d
000000a0: c959 bcbc 1224 ca3c e12a 54ba 965c 1b3c
000000b0: b291 dc3c 2660 363e 19e3 ee3e ad9b 0b3f
000000c0: 69d5 8a3d de61 b63e 73fa 04bb 9ab6 0bbe
000000d0: 8852 033f 11bb c33c 4355 1f3d 6e20 f9bd
000000e0: 8413 66be 2253 79bd 7c50 593e 4c71 d63e
000000f0: 7efc ccbc f911 2f3e 7c38 603d 9064 08bd
00000100: d312 f33e 380f 84be 5c62 a23e 8a1f dbbe
00000110: b88c acbd adcf 013f d514 3cbd 18f5 6abe
00000120: 72f7 a9be c696 db3e bfa5 293e 2cf3 61be
00000130: 6948 673e 8d66 f03e b37d 183e 61f8 173f
00000140: 012f 033d 4f2a 893d ed5d 7c3e 4618 213e
00000150: 66d9 123f 19b2 e63d 438b 8ebe f7f7 ecbd
00000160: d420 51bd 78f6 0c3c c208 c13d 5539 473e
00000170: 9796 d23d bff8 243d f0f8 a0bd 60e9 bebe
00000180: bb48 083f e4bd 92bd 018c b8bf fedb dbbb
00000190: 7bf5 99bd 04e1 fabd ab3b a9bd d8f5 f2bd
000001a0: 6f05 14bf 6091 ae3e 0b80 3e3e d372 9dbe
000001b0: 47f3 2c3e 4324 c93e 8107 81be 084e d03e
000001c0: 4301 cd3d 569f c6bd 1b70 843d 4b26 0fbe
000001d0: 04b2 d53e 352d 8ebd 3664 7fbe 4b5f a0be
000001e0: f227 863c 8904 813e b30c 0dbd 542a c33e
000001f0: 00fe 8e3d 8de8 58be 1ea8 4abb 2c87 27be
00000200: a845 39bf 8259 8f3e 372d e7be f92f 743e
00000210: 6215 55bf 4ee9 90be 122f 4e3d 3266 093e
00000220: e781 033e dcbd cdbe 8862 d4bd 0e0f db3d
00000230: 67f4 6a3c c22b 3fbd 1144 5b3e 7866 f73e
00000240: 9890 dfbd 1c9c 2a3e 1ba9 bcbd 5c31 6ebd
00000250: 0bc8 7abe 2964 723d d112 1f3e becb 8d3d
00000260: 7f4e afbd d192 843d de28 8c3b 806f 7bbc
00000270: a665 26be 580c 853d 431a 8e3c 545a 3a3e
00000280: 0860 1abe 8709 0bbe 1b68 f63d dec5 623e
00000290: f478 6abe 0c8b 0f3f 5d91 afbe b84e 9abc
000002a0: af65 713d 4cf1 91be 4525 c2bc 3d11 be3c
000002b0: 65a2 11bf 2aa6 283d 1e3f 77be 713e 52be
000002c0: 98e3 673d 52b7 c0be 26ab 03be a617 163e
000002d0: 1609 1fbd f5aa 61bd 6df6 953e 4978 863d
000002e0: 21c8 303e afd9 273e 0ec1 7cbe 9d94 ec3d
000002f0: e081 33bd 6506 b2be 42af 03bc 70f8 86bd
00000300: e369 a3bd 246a 91bc a56f 2abb 370f eabd
00000310: ae7c a73e 7294 c6bd e6d9 5f3e 99b9 3c3d
00000320: 4a44 81be eae0 62be b4c5 263d 12d3 663e
00000330: b71a 893d 1dfd 353d 4ad4 a53e 7569 a33c
00000340: 3b25 18bc 3c82 753e 294b 05be eb1b 1fbe
00000350: 635b 5b3d a279 89bd 1870 9d3d 58c6 043e
00000360: b33a 54bd df7b 3abe 5750 89be 5530 51bb
00000370: 81ce 2ebc 991d 413e 6822 94bd da78 413e
00000380: b8a0 f53e 0c0b 00be 9d51 c7be b8d1 85be
00000390: ce8a 043e 29c1 f5bd 8dfb c23f a69b 83be
000003a0: fc66 513e 1380 943e b817 823d 88f4 343e
000003b0: cc91 abbe 0342 03be 1ee6 e5be 8fbe 3f3e
000003c0: b8ca 0d3e ba37 4d3d 084f f23e 25b2 1a3e
000003d0: e0cf 183d 6a8a 9e3d ee57 15be 50bc a8be
000003e0: 8b21 713e 481d ca3d 3be7 ef3d 0f45 fe3e
000003f0: bd4c 4bbe ffe8 96bf 9bab ddbf 8b42 fb3e

model.6.bias f4 [32]
-0.206229 0.008376312 0.15169291 0.13831256 -0.06506016 -0.13602425 -0.044473488 -0.25328684
0.15790014 0.122048795 0.030854963 -0.095587075 0.17134303 -0.14583194 0.01843201 0.020220982
-0.051221058 -0.17926922 0.10591481 0.17181338 -0.08531306 0.03186998 0.029222624 -0.20752041
-0.14795928 0.1754476 -0.053466655 0.1343462 0.18069856 -0.1236149 0.011396663 -0.027359217
00000000: b22d 53be cd3c 093c 6355 1b3e cfa1 0d3e
00000010: 433e 85bd f149 0bbe d529 36bd d0ae 81be
00000020: 93b0 213e b8f4 f93d 8cc3 fc3c 28c3 c3bd
00000030: 8c74 2f3e f854 15be bafe 963c 79a6 a53c
00000040: 2ccd 51bd 5a92 37be dde9 d83d d9ef 2f3e
00000050: 9db8 aebd 198a 023d 4964 ef3c 3b80 54be
00000060: a382 17be 89a8 333e daff 5abd 0d92 093e
00000070: 0b09 393e cf29 fdbd 12b9 3a3c 7020 e0bc

model.8.weight f4 [32, 32]
0.03232898 0.19953077 -0.006989033 0.16687955 -0.2556696 -0.24025317 0.23520221 -0.03545474
-0.15929286 -0.19737431 0.4554266 -0.22324465 -0.19980751 -0.19130245 -1.1799251 -0.019856347
-0.36560848 0.25835243 0.18664497 0.081134915 0.17703392 0.00403802 -0.30403483 0.02184071
-0.22047831 0.18640807 -0.090086736 0.17379175 -0.25851214 -0.3310187 -0.10535903 0.04884545
0.008932671 -0.39183837 0.06076722 -0.08247625 0.24231717 0.5954707 -0.08555107 -0.3466866
0.096344605 -0.05842675 -0.29038283 0.3700339 0.27730376 0.69384426 -0.100862645 -0.2581239
0.16238293 -0.12855758 -0.3091515 0.19671547 0.0008625815 0.041182477 0.23008491 -0.025412306
-0.045342453 0.22572218 0.3182162 0.2086164 -0.053565927 0.4529793 0.2424412 0.45366693
0.020803342 -0.054143235 -0.040201217 0.08395764 0.07236478 0.69253594 -0.30876735 -0.3207069
0.1585791 -0.18877186 -0.30936417 0.29731598 0.23355666 0.6862222 -0.015506523 -0.00020996013
-0.076980926 -0.043808315 -0.025577608 0.32584268 -0.053824376 0.0004606081 0.16530386 0.07374155
0.07264089 0.10744668 0.16139325 0.15958108 0.02315216 0.35227257 0.07046509 0.20500098
0.40378296 -0.25407422 -0.14783455 -0.027995756 -0.1743174 0.5742485 0.003593785 0.84260327
-0.2708149 -0.104649454 0.013116633 0.46178868 -0.08980029 0.85005045 0.3907095 -0.30769354
0.15743123 0.12992519 -0.10505162 0.29937643 0.41778824 0.14611612 0.15745538 0.17184158
0.6441292 -0.058011558 0.060092 -0.120413266 0.15328555 0.3634789 0.31408578 0.09180167
0.03960102 0.3399722 0.39622122 0.153931 -0.3497546 -0.52673537 0.14645748 0.41805652
0.20217714 0.07346552 0.24655637 -0.034214612 -0.012509358 -0.6281161 0.14046499 -0.0031512084
0.102489024 -0.019503549 0.13981023 -0.015163098 0.3214654 0.31523696 0.121042415 -0.04091969
0.12951417 -0.28757668 -0.26764393 -0.12707971 0.22084765 -0.3184561 0.08557462 -0.19588321
0.13808183 -0.13828851 -0.381637 -0.23997252 0.17913795 0.5822999 -0.1876323 -0.41866955
0.03713181 -0.066419706 -0.016259931 0.41025627 -0.12603532 0.70677125 -0.20355694 -0.15263066
-0.148703 0.024065379 -0.11131882 0.19045119 -0.35100058 -0.22567682 0.011532225 -0.069981195
-0.08559549 0.11572167 0.09547355 0.012355826 -0.012875598 0.07145788 -0.09235252 0.14032774
-0.04262344 -0.1379912 -0.28232887 -0.17663586 0.2754626 0.354472 -0.16086604 -0.16454853
-0.14958455 0.0379774 -0.36040837 0.19129415 -0.09735339 0.85283494 0.058399875 -0.21177377
-0.23279579 -0.013396269 -0.18725117 -0.08266784 -0.0022836677 0.05814613 -0.052211598 -0.10759698
0.044180237 -0.04569077 0.16273682 0.29034963 -0.022404255 0.37122846 0.045745157 0.24682328
-0.057236373 0.2428969 -0.038870808 0.22775915 0.0015073582 -0.15458764 0.19477257 0.37265772
-0.26267993 0.060333285 0.26452434 -0.099791475 -0.31052086 -0.2854318 -0.15356779 0.23148146
-0.38242814 -0.08351157 -0.037988342 0.1861901 0.034788568 0.045236055 -0.008696253 -0.078529365
-0.27079025 -0.0052564587 0.08467746 -0.034161758 -0.24695073 -0.46882242 -0.23906913 0.58623207
00000000: 646b 043d cb51 4c3e 4204 e5bb 79e2 2a3e
00000010: 20e7 82be ed04 76be d9d8 703e fd38 11bd
00000020: ab1d 23be 7e1c 4abe ad2d e93e 3f9a 64be
00000030: 579a 4cbe cae4 43be c907 97bf c7a9 a2bc
00000040: 0931 bbbe c546 843e dc1f 3f3e 102a a63d
00000050: 6148 353e 5e51 843b 74aa 9bbe 4aeb b23c
00000060: 11c5 61be c2e1 3e3e 657f b8bd 77f6 313e
00000070: b45b 84be 487b a9be 7ac6 d7bd 2b12 483d
00000080: 565a 123c 0a9f c8be 0ce7 783d 4fe9 a8bd
00000090: fe21 783e c570 183f 6635 afbd e880 b1be
000000a0: 5250 c53d e350 6fbd 0fad 94be 1575 bd3e
000000b0: c2fa 8d3e c79f 313f 1391 cebd d128 84be
000000c0: b647 263e 99a4 03be 1b49 9ebe c86f 493e
000000d0: dd1e 623a f5ae 283d 619b 6b3e 782d d0bc
000000e0: 02b9 39bd b723 673e 3ced a23e 8a9f 553e
000000f0: f267 5bbd e7ec e73e 8242 783e 0847 e83e
00000100: c56b aa3c 4cc5 5dbd 08aa 24bd fcf1 ab3d
00000110: fc33 943d 094a 313f c116 9ebe b233 a4be
00000120: 8f62 223e 694d 41be fb64 9ebe cd39 983e
00000130: 7a29 6f3e 42ac 2f3f 120f 7ebc be28 5cb9
00000140: 2da8 9dbd 5970 33bd 2288 d1bc dad4 a63e
00000150: f376 5cbd c67d f139 6a45 293e cf05 973d
00000160: bfc4 943d 010d dc3d 4644 253e 3969 233e
00000170: 99a9 bd3c 125d b43e 0050 903d c7eb 513e
00000180: a4bc ce3e 0416 82be f161 17be 5b57 e5bc
00000190: 4380 32be f301 133f b585 6b3b d9b4 573f
000001a0: 40a8 8abe 7452 d6bd 25e7 563c 916f ec3e
000001b0: 37e9 b7bd e89c 593f 130b c83e 028a 9dbe
000001c0: a735 213e 1c0b 053e 4e25 d7bd de47 993e
000001d0: 57e8 d53e 779f 153e fc3b 213e 3df7 2f3e
000001e0: a7e5 243f 879d 6dbd 0723 763d 3b9b f6bd
000001f0: e3f6 1c3e e819 ba3e dacf a03e 8402 bc3d
00000200: ae34 223d d610 ae3e 82dd ca3e 17a0 1d3e
00000210: 0913 b3be 21d8 06bf f3f8 153e 810b d63e
00000220: 8607 4f3e 1775 963d 4679 7c3e 9f24 0cbd
00000230: 0df4 4cbc 37cc 20bf 0ed6 0f3e 8184 4ebb
00000240: c4e5 d13d e8c5 9fbc 6a2a 0f3e a56e 78bc
00000250: 1d97 a43e bd66 a13e 16e5 f73d 689b 27bd
00000260: 5d9f 043e 403d 93be a008 89be 2f21 02be
00000270: e325 623e ae0c a3be bf41 af3d 9c95 48be
00000280: 5365 0d3e 819b 0dbe ed65 c3be 5bbb 75be
00000290: f06f 373e 9b11 153f af22 40be db5b d6be
000002a0: 8617 183d 0e07 88bd 8c33 85bc 1c0d d23e
000002b0: 670f 01be f6ee 343f 3b71 50be 364b 1cbe
000002c0: 9945 18be c224 c53c 1ffb e3bd a305 433e
000002d0: 59b6 b3be d317 67be a8f1 3c3c 4d52 8fbd
000002e0: b04c afbd 7cff ec3d a387 c33d 1770 4a3c
000002f0: 2cf4 52bc 8258 923d 5123 bdbd 13b2 0f3e
00000300: eb95 2ebd 914d 0dbe 698d 90be 08e0 34be
00000310: 6f09 8d3e 5b7d b53e 11ba 24be 697f 28be
00000320: b12c 19be 318e 1b3d 7287 b8be 9de2 433e
00000330: 3761 c7bd 6453 5a3f b534 6f3d 39db 58be
00000340: 0562 6ebe 067c 5bbc c5be 3fbe c24d a9bd
00000350: 96a9 15bb a32a 6e3d d4db 55bd ce5b dcbd
00000360: 56f6 343d 3f26 3bbd 7ba4 263e b5a8 943e
00000370: 2189 b7bc a811 be3e 465f 3b3d 3ebf 7c3e
00000380: b070 6abd f7b9 783e ff36 1fbd b239 693e
00000390: 8c92 c53a 394c 1ebe 7672 473e fecc be3e
000003a0: fc7d 86be 0920 773d bc6f 873e 795f ccbd
000003b0: 97fc 9ebe 1e24 92be e040 1dbe 7a09 6d3e
000003c0: 9fcd c3be 1d08 abbd aa99 1bbd 9ea8 3e3e
000003d0: 757e 0e3d 7149 393d bb7a 0ebc 01d4 a0bd
000003e0: 05a5 8abe 5f3e acbb 606b ad3d 33ed 0bbd
000003f0: a7e0 7cbe 7e09 f0be 8ace 74be 4e13 163f

model.8.bias f4 [32]
-0.081020914 0.017538605 0.014969973 -0.12249272 0.100820504 -0.08805941 -0.15357319 0.019762592
-0.024149956 -0.099639885 0.19698642 0.25225678 -0.019786336 -0.18648967 0.20255415 0.28143466
0.06873437 -0.03747731 0.088796265 0.023866251 0.16712518 -0.020937117 0.25252596 -0.05011393
0.21956189 -0.18153247 0.13977544 0.16458623 0.10077847 0.02868795 0.003115217 0.018082602
00000000: 4bee a5bd 1fad 8f3c 9e44 753c 77dd fabd
00000010: fb7a ce3d 7e58 b4bd 4a42 1dbe 29e5 a13c
00000020: 21d6 c5bc ff0f ccbd cfb6 493e cd27 813e
00000030: f416 a2bc 26f7 3ebe 5b6a 4f3e 3418 903e
00000040: 9bc4 8c3d cf81 19bd d1da b53d 2883 c33c
00000050: dd22 2b3e 5184 abbc 154b 813e 4444 4dbd
00000060: d5d4 603e a6e3 39be 4b21 0f3e 4b89 283e
00000070: f164 ce3d fe02 eb3c ab28 4c3b f721 943c

model.10.weight f4 [32, 32]
0.36435807 -0.08223496 -0.16016671 0.07994776 0.24009852 -0.32380772 -0.15855876 0.29394844
0.26563177 -0.34029654 0.21965684 -0.28720266 -0.30318013 -1.0307478 -0.4066798 0.15018304
0.26242644 -0.7712444 0.30462384 0.35770348 -0.40187314 0.40885705 -0.3349441 0.26440114
-0.46498233 -0.31134725 -0.095858045 0.1331243 0.40092206 0.3414201 0.39088923 0.18232147
0.31943488 -0.39105842 -0.28736556 -0.20081607 -0.033792656 -0.069826655 -0.007154834 0.07227933
0.21126398 -0.25320652 -0.18508865 -0.096945055 -2.796569 -0.10761351 0.09272084 0.102252804
0.16423248 -0.3125313 0.16627006 0.27769232 -0.050183643 0.1384206 -0.15540165 0.15391526
-0.017673582 -0.360418 0.029955823 0.24582924 0.21798114 0.34502175 0.34704703 0.21963608
-0.10266626 0.17537832 0.038577326 -0.25088027 -0.21020843 0.1468811 0.09438863 -0.26474085
-0.38009727 0.4035583 -0.044686634 0.37291175 0.8238236 -0.023530105 0.414505 -0.009815888
-0.20030507 0.2983312 -0.07740922 -0.33640945 0.43893588 -0.1267295 0.23832808 -0.25777003
0.16350037 0.17728783 0.12468176 -0.1307538 -0.3064824 -0.08622428 -0.14434983 -0.37511933
-0.5569272 0.36926228 0.31188112 -0.16366531 -0.04457615 0.16668913 0.018606769 -0.4845852
-0.27100286 -1.0593998 0.048364393 0.05921051 0.023299009 0.18014291 0.02912936 0.055469178
-0.33968043 -0.5689208 -0.18019342 -0.3592678 0.3273119 -0.17315932 0.2258237 -0.07302641
0.16822387 -0.45710382 0.069382936 -0.17983733 -0.37340772 -0.21126123 -0.56958866 -0.40487343
-0.31650513 0.022097122 0.06835419 -0.7484731 -0.1899257 0.21590266 0.14094995 -0.3583982
-0.35559762 0.21528544 0.10456051 0.17870307 0.95512956 -0.04675848 0.01258944 0.0851999
-0.35089296 0.4900807 -0.03174219 -0.27039132 0.36972255 -0.13610621 0.3742419 -0.3456381
0.31353435 0.12601148 0.23477212 -0.12370726 -0.27166274 -0.25893533 -0.19126904 -0.32404727
0.37000403 -0.3956035 -0.1645834 0.1837273 0.14597297 -0.29679644 -0.39309415 0.20117335
0.20001501 -0.5105532 -0.107336335 -0.14639655 -0.6578424 -0.24059588 -0.13571288 0.08161489
0.18879919 -0.4936008 0.39799362 0.42785814 -0.27346936 0.105786145 -0.13246417 0.29920343
-0.1446932 -0.50199574 -0.39458695 0.21039644 0.3217601 0.25527048 0.11481222 0.33656168
0.4045285 -0.08859181 -0.26024067 -0.073038965 0.38024628 -0.28174174 -0.23232496 0.22523037
0.27433157 -0.117182374 0.18613869 -0.18796697 -0.53047365 -1.0940433 -0.24881123 0.1002957
0.49586987 -0.6639778 0.46222368 0.34157556 -0.31924915 0.102827445 -0.44200724 0.0691843
-0.5480781 -0.28272536 0.12879701 0.21366052 0.3563561 0.34199467 0.54145604 0.1308364
-0.11934334 0.18836476 0.11005938 0.38308161 0.111828886 -0.17246161 0.26748285 -1.0380795
-0.73626024 0.07750433 0.07850459 0.18151096 0.094265856 1.0225568 -0.5918007 -0.35762748
-0.05983531 -0.1424854 -0.13859212 0.06278528 -0.43394145 -0.25992236 -0.51379627 -0.35076207
0.38509762 0.35871476 0.19939856 -0.60121226 -0.08639247 -0.3306374 -0.33955532 -0.3352853
00000000: 248d ba3e cd6a a8bd be02 24be a7bb a33d
00000010: 63dc 753e 20ca a5be 3a5d 22be 6980 963e
00000020: e300 883e 593b aebe b9ed 603e 3a0c 93be
00000030: 6d3a 9bbe 8bef 83bf 5638 d0be 95c9 193e
00000040: c25c 863e 4670 45bf a8f7 9b3e e924 b73e
00000050: 51c2 cdbe b655 d13e cb7d abbe 965f 873e
00000060: 2a12 eebe e868 9fbe 3951 c4bd bd51 083e
00000070: a845 cd3e 9ece ae3e a222 c83e 7bb2 3a3e
00000080: f88c a33e cf38 c8be 9421 93be baa2 4dbe
00000090: 2b6a 0abd 4701 8fbd 1973 eabb 2f07 943d
000000a0: 9655 583e 49a4 81be e187 3dbe 218b c6bd
000000b0: fdfa 32c0 7964 dcbd 6ce4 bd3d eb69 d13d
000000c0: 8f2c 283e 1a04 a0be b342 2a3e b02d 8e3e
000000d0: 5d8d 4dbd 21be 0d3e 9c21 1fbe f69b 1d3e
000000e0: 30c8 90bc b588 b8be ea65 f53c a9ba 7b3e
000000f0: 7336 5f3e b1a6 b03e 26b0 b13e 48e8 603e
00000100: b042 d2bd 6096 333e 4203 1e3d 6173 80be
00000110: e140 57be 0068 163e d34e c13d 1d8c 87be
00000120: 1c9c c2be 329f ce3e 5509 37bd 4aee be3e
00000130: 1ae6 523f 35c2 c0bc 003a d43e d1d2 20bc
00000140: c61c 4dbe debe 983e ba88 9ebd dc3d acbe
00000150: 34bc e03e 61c5 01be 470c 743e 6ffa 83be
00000160: a46c 273e f18a 353e 2759 ff3d 53e4 05be
00000170: 43eb 9cbe 5b96 b0bd 71d0 13be a40f c0be
00000180: c892 0ebf f20f bd3e e2ae 9f3e e197 27be
00000190: 7b95 36bd 8eb0 2a3e 396d 983c 8d1b f8be
000001a0: e3c0 8abe 6a9a 87bf be19 463d b886 723d
000001b0: 90dd be3c 6277 383e b2a0 ee3c a633 633d
000001c0: 98ea adbe cba4 11bf a084 38be f3f1 b7be
000001d0: 6d95 a73e ad50 31be 543e 673e df8e 95bd
000001e0: e142 2c3e 8309 eabe a418 8e3d 4727 38be
000001f0: 4c2f bfbe dd54 58be 90d0 11bf 924b cfbe
00000200: f60c a2be 0605 b53c 48fd 8b3d ef9b 3fbf
00000210: e27b 42be 9615 5d3e 2f55 103e f87f b7be
00000220: e410 b6be c973 5c3e d223 d63d f0fd 363e
00000230: 5f83 743f d285 3fbd f043 4e3c 497d ae3d
00000240: 3ea8 b3be dceb fa3e 1904 02bd bb70 8abe
00000250: 464c bd3e 6d5f 0bbe a29c bf3e 7af7 b0be
00000260: 9387 a03e 2709 013e 1a68 703e 3b5a fdbd
00000270: 6117 8bbe 2c93 84be 08dc 43be 86e9 a5be
00000280: 2b71 bd3e 8b8c cabe 8d88 28be 0223 3c3e
00000290: f079 153e b4f5 97be a343 c9be 6300 4e3e
000002a0: bcd0 4c3e 9db3 02bf 27d3 dbbd fae8 15be
000002b0: 5c68 28bf c45e 76be 51f8 0abe b525 a73d
000002c0: 9354 413e 3eb9 fcbe d2c5 cb3e 3910 db3e
000002d0: 2d04 8cbe 68a6 d83d b0a4 07be 3131 993e
000002e0: 742a 14be cb82 00bf 4d07 cabe 2a72 573e
000002f0: bdbd a43e d0b2 823e ab22 eb3d d051 ac3e
00000300: 5c1e cf3e 9f6f b5bd 443e 85be 7495 95bd
00000310: a4af c23e 7440 90be 98e6 6dbe caa2 663e
00000320: 3075 8c3e 50fd efbd 249b 3e3e 6a7a 40be
00000330: 1fcd 07bf 9c09 8cbf 5fc8 7ebe d567 cd3d
00000340: a8e2 fd3e 73fa 29bf 95a8 ec3e fee2 ae3e
00000350: a074 a3be 3297 d23d c64e e2be 80b0 8d3d
00000360: d94e 0cbf 61c1 90be 5de3 033e d3c9 5a3e
00000370: 4f74 b63e ed19 af3e dd9c 0a3f faf9 053e
00000380: 486a f4bd b1e2 403e d066 e13d 4623 c43e
00000390: 8b06 e53d c799 30be 83f3 883e cadf 84bf
000003a0: 8d7b 3cbf 97ba 9e3d 04c7 a03d 02de 393e
000003b0: 750e c13d 24e3 823f 4080 17bf f31a b7be
000003c0: df15 75bd b1e7 11be 18eb 0dbe 9295 803d
000003d0: 932d debe 8b14 85be 2788 03bf 1697 b3be
000003e0: 842b c53e 76a9 b73e 232f 4c3e 0ce9 19bf
000003f0: 89ee b0bd 4e49 a9be 32da adbe 84aa abbe

model.10.bias f4 [32]
0.14920229 -0.007062708 0.09632409 0.06263266 -0.008783725 0.2302284 0.06623125 -0.121449634
-0.036713954 0.06330107 0.03931599 0.043261692 0.090035625 0.23609136 -0.014469556 -0.05000346
0.04956604 0.15789194 -0.01700972 -0.19136135 0.082779266 0.09449011 0.15606363 0.11324536
0.0419908 -0.009640185 -0.025200143 0.053527292 0.23861286 -0.15795758 -0.02531687 0.26953185
00000000: 7cc8 183e 4a6e e7bb 9145 c53d 8d45 803d
00000010: 9de9 0fbc fec0 6b3e 40a4 873d 96ba f8bd
00000020: 5f61 16bd fea3 813d ce09 213d 2c33 313d
00000030: 9964 b83d efc1 713e b711 6dbc 6ed0 4cbd
00000040: c305 4b3d 6dae 213e f857 8bbc 3bf4 43be
00000050: 2d88 a93d 0884 c13d 25cf 1f3e 2fed e73d
00000060: 8cfe 2b3d def1 1dbc 8870 cebc 6f3f 5b3d
00000070: ee56 743e a2bf 21be 5365 cfbc 1400 8a3e

model.12.weight f4 [1, 32]
-0.4768946 -0.40757623 0.45359826 0.855228 0.74741644 -0.55946875 -0.5111989 0.46806395
-0.62518656 0.5356498 0.85022295 -0.329909 0.6141314 -0.7213987 -0.49585918 -1.2357146
-0.5908722 0.90001905 0.8431097 0.61212337 0.7260321 0.9684172 -0.65623593 0.75562835
0.8376787 -0.4471825 0.7711369 -0.50553423 -0.70919627 1.6424365 -0.37309912 0.7641118
00000000: 872b f4be d5ad d0be 083e e83e 39f0 5a3f
00000010: af56 3f3f 5839 0fbf eedd 02bf 14a6 ef3e
00000020: 3a0c 20bf 5820 093f 36a8 593f d5e9 a8be
00000030: b737 1d3f 96ad 38bf 41e1 fdbe e52b 9ebf
00000040: 6743 17bf a667 663f 0ad6 573f 1eb4 1c3f
00000050: 3ddd 393f 31ea 773f 14ff 27bf dc70 413f
00000060: 1c72 563f 1bf5 e4be 3a69 453f b16a 01bf
00000070: e38d 35bf 5c3b d23f d906 bfbe d59c 433f
