best_model_0_dim1.pt (torch, 2592 bytes, 3 tensors)

model.0.weight f4 [32, 1]
000000 7a ab b4 be ec 6e 63 bf 50 20 10 c1 92 c4 e8 3d
       -0.35287076 -0.8884113 -9.007889 0.11365618
000010 13 79 31 c0 ff 04 51 bf 6d ee 1d 3c 1a f6 37 be
       -2.7730148 -0.8164825 0.009639365 -0.17964974
000020 8c 1b 3c bf 2a dd 29 41 45 c5 8b bf 66 a5 93 be
       -0.73479533 10.616495 -1.0919577 -0.28837126
000030 07 cf b7 bd 59 80 a4 bf 35 7f 67 3f 2d c6 39 bf
       -0.08975034 -1.2851669 0.9042848 -0.7256802
000040 3d 98 4b 3f c9 72 7c be 05 66 13 3f 82 87 b7 3f
       0.7952917 -0.24653162 0.57577544 1.4338229
000050 f0 90 9f 3d 02 da 24 c0 c0 96 94 3f 75 51 7a 3f
       0.077913165 -2.5758061 1.1608505 0.97780544
000060 64 d7 ab 3d 17 18 6f 40 19 72 c4 3f 0f 4f 47 be
       0.08390692 3.7358453 1.534732 -0.19463752
000070 fb 79 89 3e 3e dc 16 c0 83 ee a4 be 98 34 a1 3e
       0.26850876 -2.3571925 -0.3221322 0.31485438

model.0.bias f4 [32]
000000 58 4a 03 3f 3c 1a 0e bf ef 18 17 c1 5b 21 31 bf
       0.51285315 -0.5550878 -9.443587 -0.6919152
000010 e8 54 34 c0 0b 98 0c bf 1a dc 4b be aa 63 3d 3f
       -2.8176823 -0.549195 -0.19908181 0.739802
000020 f9 57 c7 3d 84 f3 30 c1 fa c5 84 bf 33 2e f3 3e
       0.09733576 -11.059452 -1.0372918 0.47496185
000030 4e 68 4b bf 45 4f ec bd 66 1a c8 3e 53 95 d0 be
       -0.7945603 -0.11538557 0.3908264 -0.40738925
000040 fe e3 2a be a9 3b c0 bc 1a ac 86 be 26 4a 17 bf
       -0.16688535 -0.023465948 -0.26303178 -0.59097517
000050 5d 91 6f bf a1 3f 28 c0 1d 27 08 bf 09 b4 77 3f
       -0.9358118 -2.6288836 -0.5318468 0.96759087
000060 11 83 f0 be 15 d9 6d c0 5c 1c cd 3e d2 83 74 3e
       -0.46974996 -3.7163746 0.400607 0.2387841
000070 d1 ea 00 3f 7a 58 17 40 14 31 02 3f 21 42 87 bf
       0.503583 2.3647752 0.5085614 -1.0567056

model.2.weight f4 [1, 32]
000000 22 40 4e bc 8c 24 b4 3e 80 a2 77 40 d5 bf c5 bc
       -0.012588533 0.35184133 3.8692932 -0.024139324
000010 00 af ff 3f 64 02 1e 3e d3 cf 85 bd 3f 13 61 be
       1.9975281 0.154306 -0.0653378 -0.21979998
000020 6f 0d 3c 3e 2b 71 97 40 0f 2a 8e 3e 55 2e a0 bb
       0.183645 4.7325644 0.27766463 -0.0048883357
000030 76 d6 77 bd 59 4d 08 be 9b 91 b5 3c 6f 08 bc 3e
       -0.06050726 -0.13310756 0.022164157 0.36725184
000040 9e 3d 19 3f 95 b3 0f 3d b7 6d 07 3e 96 0f 5e 3f
       0.59859645 0.035083372 0.13225447 0.8674253
000050 2d 59 af bc 77 4c 95 3f 6c e4 46 3f c9 57 1b 3e
       -0.021404827 1.166396 0.77692294 0.15170206
000060 bf b9 a4 bd 5c f6 37 40 01 36 3c be 4f 83 95 3c
       -0.08043241 2.8744116 -0.18379976 0.01825109
000070 c9 ed 07 3e 10 53 6a 3e 73 56 eb 3d ee 76 65 bc
       0.13274302 0.22883248 0.11491098 -0.014005406
