best_model_2_dim3.pt (torch, 12472 bytes, 7 tensors)

model.0.weight f4 [32, 3]
2.6896863 0.07528284 3.660031 0.44594902 -0.88686144 -2.2564905 2.2291167 0.111908644
0.2767486 -0.9230643 -1.3682783 0.7591104 -0.50219804 -1.0673765 1.0482576 1.295087
1.0935817 -1.2471623 2.0049736 -0.08812351 -1.6047904 -2.7047484 -0.0537374 -2.1374874
0.22844572 0.14689542 -2.1045673 -2.0578008 0.0031514552 2.3220737 2.6064246 -0.018032258
-2.918223 -3.641269 -0.055071726 -2.120933 -0.35560167 -1.5579927 -0.054026704 2.1571362
-2.4070644 -0.70861185 -0.8036055 0.40323216 -1.3770839 0.34815732 0.76705825 -0.8225228
1.5985004 -0.39290836 -0.7783234 0.67559445 -1.1732789 -0.46902892 1.9401922 -0.22531693
3.4706051 0.01612876 6.0184975 0.11869748 -0.04376525 -4.9668417 0.1600044 -0.96306545
0.012422767 0.33414447 -1.0711318 0.43289107 1.2531745 0.8663411 1.4310511 -0.58943754
-0.5029614 0.06939977 1.7208714 -0.0113564 0.9051274 -1.1545165 1.0829679 0.33188266
-0.65616214 -1.259165 0.06286762 1.389442 0.32159522 1.3115828 1.2475044 1.9896896
0.13746047 -2.3741024 -1.1134855 1.2408268 0.8905466 -3.028353 -0.001818504 1.5534449
00000000: d223 2c40 e42d 9a3d f33d 6a40 6e53 e43e
00000010: 5a09 63bf 576a 10c0 d9a9 0e40 5c30 e53d
00000020: feb1 8d3e f14d 6cbf be23 afbf 0f55 423f
00000030: 0d90 00bf cb9f 88bf 4e2d 863f 69c5 a53f
00000040: 7cfa 8b3f 04a3 9fbf 7d51 0040 197a b4bd
00000050: c669 cdbf 991a 2dc0 bf1b 5cbd 98cc 08c0
00000060: aded 693e c16b 163e 3bb1 06c0 02b3 03c0
00000070: a588 4e3b db9c 1440 a9cf 2640 63b8 93bc
00000080: 2ac4 3ac0 8d0a 69c0 e492 61bd 5ebd 07c0
00000090: 6c11 b6be 4e6c c7bf 1b4b 5dbd 850e 0a40
000000a0: 580d 1ac0 9667 35bf 17b9 4dbf 7274 ce3e
000000b0: 4944 b0bf ad41 b23e ee5d 443f db90 52bf
000000c0: a99b cc3f 492b c9be 3440 47bf c2f3 2c3f
000000d0: 012e 96bf 8f24 f0be 3858 f83f 7bb9 66be
000000e0: 651e 5e40 7620 843c 8897 c040 aa17 f33d
000000f0: 3143 33bd 5ef0 9ec0 32d8 233e 758b 76bf
00000100: dc88 4b3c fc14 ab3e d91a 89bf e6a3 dd3e
00000110: 0668 a03f 88c8 5d3f af2c b73f 61e5 16bf
00000120: 14c2 00bf 7721 8e3d 8445 dc3f 3210 3abc
00000130: 6eb6 673f 32c7 93bf b19e 8a3f 86ec a93e
00000140: 3efa 27bf 522c a1bf bdc0 803d 3cd9 b13f
00000150: 21a8 a43e f2e1 a73f 39ae 9f3f 26ae fe3f
00000160: 70c2 0c3e 4bf1 17c0 b186 8ebf 6ad3 9e3f
00000170: ddfa 633f 89d0 41c0 de5a eeba 48d7 c63f

model.0.bias f4 [32]
-0.57427377 0.80481035 -0.47052005 -0.49862784 0.50162417 1.6730177 -0.2845742 -0.15636644
-0.46595916 -0.3540113 -0.20453407 -0.3622033 1.3240867 -0.90850973 0.9910653 1.2486762
0.3094593 0.5071521 0.2486385 -0.038050648 -0.03044946 1.2937813 2.5317237 -0.4635549
1.1998749 -0.4895603 1.129491 -0.24081798 0.15666941 -0.19967042 -1.1313443 0.054457746
00000000: 9b03 13bf 0d08 4e3f 01e8 f0be 264c ffbe
00000010: 716a 003f 7225 d63f b6b3 91be 861e 20be
00000020: 3392 eebe f840 b5be 6171 51be b672 b9be
00000030: ac7b a93f 1894 68bf 75b6 7d3f 9fd4 9f3f
00000040: 7371 9e3e b8d4 013f 179b 7e3e ffda 1bbd
00000050: 2571 f9bc a09a a53f c307 2240 1157 edbe
00000060: 8095 993f a6a7 fabe 2993 903f fd98 76be
00000070: f26d 203e 6776 4cbe e4cf 90bf 160f 5f3d

model.2.weight f4 [32, 32]
-0.9990331 0.023706567 -0.06764596 0.32211283 0.011144252 -0.17746697 0.57621783 0.048856396
0.2120967 0.3770546 0.19294836 -0.035523094 -0.1369728 0.0016139819 -0.066536024 0.14153607
-0.12626119 0.03326492 -0.10812728 0.14971179 0.16977161 -0.07523201 0.02664622 -0.13536565
-0.12237938 0.2457518 0.12094057 0.16649105 0.083930746 0.37757692 0.49408385 0.0024092698
0.2308227 0.09520042 -0.022566477 -0.08179721 0.022929111 0.045824867 0.13907541 0.12977946
-0.4881524 0.32808393 -0.22386365 0.79290646 0.12253002 -0.4538779 -0.09480904 -0.049996562
0.5189972 -0.046067268 0.57136166 -0.117537364 -0.43388534 0.24793231 -0.017789116 0.668162
-0.036818955 0.82161367 -0.25173485 -0.38503787 -0.21269202 0.15977487 -0.106090695 -0.042361632
-0.14223778 0.11463177 0.557289 0.36023808 -0.040624905 -0.11650734 0.37521556 -0.2836355
0.111564055 0.081538826 0.84262323 -1.0819497 -0.14945234 -0.34766713 -0.107158855 -0.26908502
0.015715642 -0.09314631 0.260361 0.43644622 0.37649184 -0.10784743 -0.19093573 0.33811805
-0.10087638 -1.0208985 0.25049463 0.061072327 0.066252895 0.24508095 0.8133489 0.8198269
0.06529879 -0.26094422 -2.7319129 -1.028353 -1.2617828 0.14473549 0.75589776 -1.4003481
-0.44154653 1.3980203 0.4600567 0.19739166 -0.22962096 1.882445 -0.563748 -0.5585945
0.41228643 -0.028737398 -1.8196025 0.43426517 1.3298149 -0.8380264 -0.89468676 -2.3850305
-0.2668365 -0.7886167 0.30532488 0.16506132 -0.7448863 0.4271532 -0.5124729 1.766084
0.48624855 0.2586737 -0.6622282 0.13374974 -0.14473239 0.22077589 0.12641698 0.07348087
-0.49216512 -0.15400532 -0.032953676 0.8491209 0.06288528 0.05176409 -0.022562413 0.23292254
0.51179725 0.019312697 0.24672319 0.05156931 0.19630495 -0.12581539 -0.09594273 -0.44313085
0.009223599 -0.46307173 0.25170156 0.59896904 -0.30763158 0.15366073 0.5674904 -0.31775588
-0.97214496 -0.11827757 -0.29557657 0.7027542 0.37930918 0.03424627 0.47987953 -0.08414837
0.033602443 0.27742776 -0.497747 -1.753598 0.0699149 0.33211386 -0.09722068 0.082256414
0.022889309 0.16656828 -0.64750075 0.36513278 0.18105659 0.14781332 -0.092097946 -0.4190165
0.020233203 -0.18423644 -0.31719106 0.5005546 0.39372757 0.4643703 0.2559038 0.7255967
1.4095628 -0.6724127 1.5459294 0.06677709 0.032574594 -0.6127924 -0.87174773 0.6430687
2.1613228 1.1662128 -0.28495562 2.1279087 -0.28538457 -0.094060585 -0.021875761 -0.20813078
-2.0319767 -0.25868928 1.211559 0.36336926 0.46384546 0.033022188 -0.023454819 -0.68013823
0.20959897 0.39721784 -0.67275375 1.0637583 0.095679685 -0.0340542 -0.038219806 1.1256261
0.17582075 0.33762455 0.0127472 -0.07531576 0.5296876 0.12536116 -0.7364679 0.23838384
-0.41100338 -1.0723928 -0.2966486 0.18145266 0.25639486 -0.057546597 0.26224834 0.27514586
0.34957156 0.43842 0.40587184 -0.34921488 -0.9424803 0.35469905 0.21611291 -0.020442955
0.16459028 -0.2281585 0.33003548 -0.92295283 -0.21770464 -0.6318241 -0.46069086 0.01470493
00000000: a2c0 7fbf 4634 c23c f789 8abd f9eb a43e
00000010: 6196 363c e7b9 35be 0383 133f a51d 483d
00000020: e12f 593e 4d0d c13e 4194 453e aa80 11bd
00000030: 9942 0cbe 3f8c d33a 0a44 88bd d5ee 103e
00000040: 9d4a 01be cc40 083d d671 ddbd 0c4e 193e
00000050: 9cd8 2d3e 3d13 9abd 2c49 da3c 4b9d 0abe
00000060: 0aa2 fabd 5ca6 7b3e b1af f73d a17c 2a3e
00000070: e2e3 ab3d c351 c13e 8ff8 fc3e d7e4 1d3b
00000080: c95c 6c3e 70f8 c23d 55dd b8bc 4c85 a7bd
00000090: d5d5 bb3c dbb2 3b3d c969 0e3e e8e4 043e
000000a0: 1def f9be 9efa a73e 833c 65be ebfb 4a3f
000000b0: 05f1 fa3d af62 e8be 3e2b c2bd 32c9 4cbd
000000c0: 00dd 043f 08b1 3cbd c244 123f 6eb7 f0bd
000000d0: 3826 debe f8e1 7d3e 7bba 91bc aa0c 2b3f
000000e0: 79cf 16bd 4655 523f 64e3 80be af23 c5be
000000f0: f0cb 59be 069c 233e 1446 d9bd 6483 2dbd
00000100: c8a6 11be 10c4 ea3d 7eaa 0e3f 2071 b83e
00000110: 4d66 26bd 669b eebd 411c c03e ac38 91be
00000120: b27b e43d d4fd a63d 28b6 573f 547d 8abf
00000130: 090a 19be 6d01 b2be 1a76 dbbd 83c5 89be
00000140: 17be 803c 7ec3 bebd 094e 853e e175 df3e
00000150: 8ac3 c03e 1ddf dcbd a884 43be cf1d ad3e
00000160: 4798 cebd cdac 82bf d540 803e fa26 7a3d
00000170: 99af 873d 80f6 7a3e a237 503f 2de0 513f
00000180: 5fbb 853d 7b9a 85be a9d7 2ec0 12a1 83bf
00000190: 1982 a1bf 8a35 143e 8482 413f 9b3e b3bf
000001a0: 6312 e2be 54f2 b23f 8d8c eb3e 0a21 4a3e
000001b0: c221 6bbe f5f3 f03f ca51 10bf 0d00 0fbf
000001c0: 3517 d33e b16a ebbc bce8 e8bf 0158 de3e
000001d0: 6037 aa3f e688 56bf 310a 65bf 57a4 18c0
000001e0: cb9e 88be c9e2 49bf 8b53 9c3e d605 293e
000001f0: deb0 3ebf d3b3 da3e 6d31 03bf 0a0f e23f
00000200: 92f5 f83e e170 843e ca87 29bf b1f5 083e
00000210: ba34 14be 1313 623e 7473 013e 237d 963d
00000220: 11fd fbbe 92b3 1dbe 6ffa 06bd fd5f 593f
00000230: ffc9 803d 9506 543d cfd4 b8bc 3f83 6e3e
00000240: 2505 033f a935 9e3c 01a5 7c3e 573a 533d
00000250: 2a04 493e c0d5 00be 9f7d c4bd 0ce2 e2be
00000260: 941e 173c bd17 edbe 07df 803e 0956 193f
00000270: e381 9dbe 3d59 1d3e 0d47 113f e6b0 a2be
00000280: 7ede 78bf 833b f2bd d055 97be b3e7 333f
00000290: d034 c23e d145 0c3d c5b2 f53e fb55 acbd
000002a0: b7a2 093d 030b 8e3e b2d8 febe e675 e0bf
000002b0: 8b2f 8f3d d40a aa3e a31b c7bd 0d76 a83d
000002c0: 5c82 bb3c e090 2a3e 9cc2 25bf aff2 ba3e
000002d0: e666 393e 605c 173e d99d bcbd 5589 d6be
000002e0: 1ac0 a53c 7aa8 3cbe de66 a2be 5924 003f
000002f0: a996 c93e f2c1 ed3e d305 833e b5c0 393f
00000300: 8e6c b43f 3d23 2cbf 04e1 c53f 6dc2 883d
00000310: f06c 053d f6df 1cbf dc2a 5fbf 26a0 243f
00000320: 1d53 0a40 7646 953f b4e5 91be a82f 0840
00000330: ed1d 92be d6a2 c0bd cc34 b3bc 3c20 55be
00000340: e80b 02c0 ec72 84be 5e14 9b3f 890b ba3e
00000350: 277d ed3e 4642 073d 5224 c0bc 8a1d 2ebf
00000360: 1da1 563e 2360 cb3e 9739 2cbf 3b29 883f
00000370: b6f3 c33d 6b7c 0bbd 5f8c 1cbd 8414 903f
00000380: 5b0a 343e 20dd ac3e a2d9 503c 263f 9abd
00000390: 9b99 073f ad5e 003e 2989 3cbf e51a 743e
000003a0: 096f d2be 2b44 89bf 53e2 97be bace 393e
000003b0: 3046 833e fbb5 6bbd 6a45 863e ebdf 8c3e
000003c0: 0bfb b23e 9678 e03e 6fce cf3e 4bcc b2be
000003d0: 6446 71bf 1d9b b53e b44c 5d3e fc77 a7bc
000003e0: 5b8a 283e 62a2 69be 69fa a83e a346 6cbf
000003f0: f7ed 5ebe 39bf 21bf acdf ebbe f2ec 703c

model.2.bias f4 [32]
-0.08438732 -0.096196614 -0.17264004 -0.4468617 0.097053625 0.18897472 -0.037332844 0.20992035
-0.9831706 0.27438036 0.81457573 -0.018972863 -0.57337373 0.14773887 -0.121141665 -0.1833993
0.079907894 -0.07039217 -0.044201676 -0.13086517 -0.32591954 0.06154434 -0.2376556 -0.15176043
-0.20230605 -0.0029501407 0.18204623 0.36144164 0.28326342 0.20875701 0.2622668 0.3634964
00000000: 42d3 acbd bb02 c5bd 8dc8 30be 0fcb e4be
00000010: 0dc4 c63d 9782 413e 53ea 18bd 5cf5 563e
00000020: 12b1 7bbf 957b 8c3e 0988 503f fa6c 9bbc
00000030: 9fc8 12bf dc48 173e 1f19 f8bd 07cd 3bbe
00000040: c0a6 a33d c529 90bd d10c 35bd 8501 06be
00000050: edde a6be eb15 7c3d fd5b 73be 1667 1bbe
00000060: 5129 4fbe 2657 41bb 546a 3a3e e10e b93e
00000070: e707 913e 66c4 553e d647 863e 331c ba3e

model.4.weight f4 [32, 32]
0.2568516 -0.4063116 0.09958973 0.3694202 -0.07129306 0.05617496 0.031455643 0.2720981
-0.079712585 0.07568414 -0.22203992 -0.18346651 -3.012084 0.16529664 0.42146465 -0.34670886
0.24084094 0.30011004 0.68585885 -0.5979643 0.08998105 -1.4488322 -0.33074176 0.3652449
0.28990299 -0.811885 0.06441694 0.2314754 -0.19773951 -0.0870853 -0.5522469 -0.7225584
0.21267931 0.06071231 0.25767103 0.11013454 -0.09468441 0.19487943 0.068812504 -0.6152297
0.37047857 -0.163134 -0.2851625 -0.13436669 0.047056805 -0.10835008 0.059177294 0.24256337
-0.022073282 -0.09628736 0.1491212 0.48461115 0.63010675 0.006961024 -0.022275662 0.19693565
-0.08093925 -0.14104348 0.14253417 0.22862145 0.012939617 -0.085231714 -1.2057191 -0.45017987
0.30539742 -0.14882845 0.01976864 0.008998713 -0.14006756 0.43739283 0.13137113 -0.047847595
-0.28163812 -0.0013887712 -0.13774028 -0.25300738 0.29114425 0.067531355 0.14367075 0.18230405
0.19005533 0.17569552 -0.23947436 0.52649415 0.10317823 0.018137267 0.08852608 0.2824407
0.077917226 -0.7644066 -0.18124035 0.12700902 -0.116972335 0.08002654 -0.14451358 -0.20338392
0.042380285 -0.1615657 0.18027335 -0.6000544 -0.30653504 -0.20722443 0.5200653 -1.6064078
0.6012262 0.08776602 0.28285268 0.3614674 -0.0773284 -0.09185434 0.081699856 0.21292101
0.34344342 0.27791563 -2.565574 0.1200369 -0.29040703 0.09818558 0.27475825 -0.20542164
0.14633006 -0.105793245 0.09873337 0.08253715 -0.9049942 0.16081442 -2.3746004 -0.35659778
-0.38428238 -0.10071997 -0.2976975 0.2785441 0.037306648 -0.57844967 -0.08270868 -0.09436899
0.27774063 0.23118657 0.33508402 0.2433309 0.19666162 0.07897447 0.054825906 0.042025626
0.009018468 0.09789828 0.09431808 0.01494567 0.25550103 0.65983015 -0.0987691 -0.621083
-0.63897204 -0.08686976 -0.09289161 -0.053397007 0.15962638 0.14887701 0.14280896 0.081373625
-0.044035602 -0.05785652 0.07055018 0.5974558 0.05565541 -0.36399895 0.08209905 -0.02756217
-0.04769592 0.27053702 0.18223414 -0.07597414 0.11901691 0.22170874 -0.10388365 -0.027642597
-0.59639037 -0.15678471 -0.34326166 0.16336764 -0.5314934 -0.79752326 -0.48067 0.038278263
0.013617765 -0.034727722 0.26157004 0.3148126 0.055806726 0.016879587 -0.02776358 0.07435477
0.39027306 -0.09727555 0.18512443 -0.6194828 0.4924211 0.43730232 0.31595266 -0.25602996
-0.07032796 -0.48063958 -1.0637883 -0.09670198 1.042192 -0.15395904 0.35848984 0.5424029
-0.37887126 0.19000821 0.28302947 -0.20891991 0.81340003 -0.35165006 0.21291173 -0.18536928
-0.0027266121 -0.4114826 -0.081084736 -0.05093741 0.25906426 -0.054541368 0.09617986 -0.6831341
0.5519187 0.00611207 0.28083012 0.15264575 -0.21090743 0.29406768 0.39881516 0.01651492
0.46019086 -0.03580067 0.13534337 0.10787903 -0.88318264 0.019197993 0.30610278 0.07553645
0.14102307 0.08611392 0.66908634 0.29072666 0.1923235 -0.4315409 -0.26714548 0.32229504
-0.031510755 -0.21449317 -0.08927579 0.10734573 -0.10661561 0.24264127 -0.22182353 -0.106172115
00000000: 0e82 833e 1308 d0be b3f5 cb3d a524 bd3e
00000010: 1902 92bd b717 663d a2d7 003d 7150 8b3e
00000020: 5a40 a3bd 4900 9b3d 6f5e 63be a5de 3bbe
00000030: fcc5 40c0 8643 293e 37ca d73e d383 b1be
00000040: 029f 763e 06a8 993e 7294 2f3f 3014 19bf
00000050: fc47 b83d 5573 b9bf fc56 a9be 6101 bb3e
00000060: 2a6e 943e b2d7 4fbf 07ed 833d e307 6d3e
00000070: 3a7c 4abe c759 b2bd 0e60 0dbf 96f9 38bf
00000080: 9bc8 593e 79ad 783d 75ed 833e 388e e13d
00000090: e6e9 c1bd 798e 473e 92ed 8c3d b27f 1dbf
000000a0: 5eaf bd3e 990c 27be d200 92be 6c97 09be
000000b0: a3be 403d a6e6 ddbd e463 723d 8862 783e
000000c0: 07d3 b4bc 4f32 c5bd 3ab3 183e f41e f83e
000000d0: ad4e 213f 4d19 e43b 737b b6bc 80a9 493e
000000e0: 7ac3 a5bd b46d 10be 7af4 113e be1b 6a3e
000000f0: b000 543c f78d aebd 0155 9abf fa7d e6be
00000100: 0d5d 9c3e 7c66 18be d8f1 a13c 576f 133c
00000110: df6d 0fbe f4f1 df3e 2786 063e d7fb 43bd
00000120: df32 90be 6e07 b6ba ca0b 0dbe 2f8a 81be
00000130: dc10 953e e14d 8a3d 6d1e 133e eaad 3a3e
00000140: dd9d 423e 87e9 333e c438 75be 52c8 063f
00000150: 1c4f d33d 9b94 943c 294d b53d 119c 903e
00000160: 1193 9f3d 27b0 43bf 1297 39be a70e 023e
00000170: 318f efbd f4e4 a33d 5efb 13be e043 50be
00000180: f396 2d3d 7b71 25be 9499 383e 2a9d 19bf
00000190: 29f2 9cbe a432 54be 0023 053f c59e cdbf
000001a0: f6e9 193f acbe b33d 11d2 903e 4112 b93e
000001b0: 5a5e 9ebd 211e bcbd 4152 a73d f707 5a3e
000001c0: d1d7 af3e f54a 8e3e 5d32 24c0 e8d5 f53d
000001d0: 3bb0 94be 8515 c93d 1dad 8c3e 0d5a 52be
000001e0: 8cd7 153e 21aa d8bd b934 ca3d 3d09 a93d
000001f0: b3ad 67bf 89ac 243e 74f9 17c0 fc93 b6be
00000200: a9c0 c4be 4646 cebd cf6b 98be 559d 8e3e
00000210: dbce 183d 4715 14bf 2b63 a9bd 8744 c1bd
00000220: 0534 8e3e 2cbc 6c3e 2290 ab3e bc2b 793e
00000230: aa61 493e 5ebd a13d 2191 603d 1023 2c3d
00000240: 32c2 133c e57e c83d d629 c13d afde 743c
00000250: 08d1 823e a1ea 283f 7447 cabd 4cff 1ebf
00000260: ac93 23bf c6e8 b1bd f53d bebd d2b6 5abd
00000270: 1975 233e 3773 183e 833c 123e 37a7 a63d
00000280: ad5e 34bd f5fa 6cbd 9d7c 903d ddf2 183f
00000290: edf6 633d 125e babe 8c23 a83d 0fca e1bc
000002a0: cc5c 43bd d483 8a3e 969b 3a3e 5498 9bbd
000002b0: 23bf f33d 9e07 633e f3c0 d4bd ba72 e2bc
000002c0: 0aad 18bf 2c8c 20be febf afbe d949 273e
000002d0: f40f 08bf 7c2a 4cbf 611a f6be abc9 1c3d
000002e0: 0c1d 5f3c a83e 0ebd 82ec 853e 1e2f a13e
000002f0: 9895 643d 0f47 8a3c 7370 e3bc 5047 983d
00000300: dfd1 c73e 6738 c7bd 4291 3d3e 6d96 1ebf
00000310: 9e1e fc3e 17e6 df3e 8cc4 a13e 5c16 83be
00000320: 1b08 90bd 6416 f6be 372a 88bf b00b c6bd
00000330: 8c66 853f 70a7 1dbe fb8b b73e ebda 0a3f
00000340: 6afb c1be 8391 423e 3de9 903e 1aef 55be
00000350: fc3a 503f 7a0b b4be 8805 5a3e 72d1 3dbe
00000360: f6b0 32bb d9ad d2be c10f a6bd bfa3 50bd
00000370: 12a4 843e c566 5fbd f2f9 c43d e0e1 2ebf
00000380: 8b4a 0d3f c247 c83b f7c8 8f3e 2b4f 1c3e
00000390: 1ef8 57be 0a90 963e 8031 cc3e 4c4a 873c
000003a0: 239e eb3e b9a3 12bd 7497 0a3e aeef dc3d
000003b0: 4218 62bf 1c45 9d3c 81b9 9c3e dbb2 9a3d
000003c0: 5a68 103e 7f5c b03d 3e49 2b3f 20da 943e
000003d0: 74f0 443e eef2 dcbe 4bc7 88be db03 a53e
000003e0: 6c11 01bd 19a4 5bbe 3ad6 b6bd 14d8 db3d
000003f0: 4959 dabd f476 783e b525 63be c470 d9bd

model.4.bias f4 [32]
0.20573837 0.094945505 -0.036897693 0.19448556 -0.023412613 0.2489237 -0.2611002 0.058906652
-0.24691202 0.13894583 -0.06130163 0.15176609 -0.08495957 -0.18332097 0.23969331 0.03306764
0.20680784 0.047200453 0.06969229 0.1867882 -0.119972855 0.29844007 -0.1850315 -0.025696145
0.005585347 -0.005625988 0.0041543115 -0.033209864 0.032717288 0.21777429 0.32568008 -0.17730138
00000000: 14ad 523e ca72 c23d 0922 17bd 3927 473e
00000010: cfcb bfbc dbe5 7e3e edae 85be 1a48 713d
00000020: 81d6 7cbe d147 0e3e 6b17 7bbd 9268 1b3e
00000030: 48ff adbd 7eb8 3bbe 2a72 753e ef71 073d
00000040: 6fc5 533e 4355 413d d5ba 8e3d 6845 3f3e
00000050: 54b4 f5bd 23cd 983e e678 3dbe b980 d2bc
00000060: 4905 b73b 355a b8bb e420 883b 1107 08bd
00000070: 9002 063d 3900 5f3e 8abf a63e 7e8e 35be

model.6.weight f4 [1, 32]
-0.51140875 0.9132059 0.38338923 -0.9181645 -0.18839705 -0.32429898 1.1104648 0.21864924
0.28775793 -1.2343191 -0.14599027 -0.4838292 -0.89879525 0.3904949 0.5232414 0.6559408
-0.19298057 -0.23306525 -0.80421764 1.8862617 0.36666664 -0.31874716 -1.2384223 -0.3367973
-1.9796419 -0.6959781 0.46579558 -0.8993709 -0.16438386 -0.31589308 -0.9076605 0.65523815
00000000: afeb 02bf ddc7 693f 984b c43e d40c 6bbf
00000010: 28eb 40be 840a a6be b623 8e3f 96e5 5f3e
00000020: 0255 933e 2bfe 9dbf 797e 15be 76b8 f7be
00000030: 7217 66bf f3ee c73e 26f3 053f bceb 273f
00000040: b39c 45be a8a8 6ebe 35e1 4dbf 0671 f13f
00000050: bbbb bb3e d432 a3be 9f84 9ebf b270 acbe
00000060: e864 fdbf 9f2b 32bf c27c ee3e 2c3d 66bf
00000070: 3e54 28be bdbc a1be 705c 68bf b0bd 273f
