best_model_1_dim3.pt (torch, 7660 bytes, 5 tensors)

model.0.weight f4 [32, 3]
-1.7178859 -1.8395356 -2.0974717 1.3973904 -0.08457555 -2.754018 -3.7340384 -2.6917975
3.8995898 3.4024389 2.4473367 0.08241283 0.38815692 -2.622265 -4.3623967 4.219397
4.812298 -0.7283073 -3.099163 2.4792497 -3.656566 1.4450679 4.093251 2.3891103
-3.041302 -0.23330203 1.8243785 5.8856034 -5.9627066 5.507803 0.9981013 -1.2451885
0.8425476 -1.5196066 1.9045553 2.2305384 -3.3731053 -1.8525544 -2.3207762 1.8010733
-2.2270088 -1.6914369 -5.52443 -5.8744364 -0.69420254 -5.653882 5.072674 -4.454437
-3.992386 -2.6863484 2.4430432 4.0160627 -1.0622185 2.7095864 0.24577983 -1.9139867
-2.1364405 -2.865781 4.255254 -2.6639924 3.5414164 0.15546001 -2.7844205 -1.8923641
-2.0982952 -1.896871 0.05090252 2.5529227 3.8294003 -4.365686 4.20337 -3.7788095
-1.1524209 -0.52474344 -0.12423155 4.7285876 -2.6092985 5.062137 -2.1948361 2.507045
4.74736 -4.585695 4.5433216 1.7669686 -3.0002553 3.248707 -3.0698385 0.965263
-1.6021732 -0.06351003 1.3758938 -4.313731 3.478188 2.648588 5.174712 -4.5142813
00000000: afe3 dbbf e775 ebbf fa3c 06c0 b0dd b23f
00000010: f235 adbd d541 30c0 7cfa 6ec0 6946 2cc0
00000020: e192 7940 8fc1 5940 2aa1 1c40 0fc8 a83d
00000030: 81bc c63e 31d3 27c0 c198 8bc0 4d05 8740
00000040: 58fe 9940 5972 3abf b058 46c0 07ac 1e40
00000050: 2d05 6ac0 fcf7 b83f eafb 8240 2fe7 1840
00000060: b1a4 42c0 bae6 6ebe 3c85 e93f dd56 bc40
00000070: 7ece bec0 ec3f b040 9183 7f3f 5662 9fbf
00000080: 33b1 573f 7882 c2bf 78c8 f33f 24c1 0e40
00000090: f5e0 57c0 8120 edbf 9987 14c0 9289 e63f
000000a0: 5087 0ec0 0181 d8bf 21c8 b0c0 62fb bbc0
000000b0: 42b7 31bf 9aec b4c0 5853 a240 bf8a 8ec0
000000c0: 4183 7fc0 22ed 2bc0 d25a 1c40 9683 8040
000000d0: c7f6 87bf dd69 2d40 b5ad 7b3e 84fd f4bf
000000e0: 71bb 08c0 f568 37c0 0a2b 8840 da7e 2ac0
000000f0: 91a6 6240 e930 1f3e f233 32c0 fd38 f2bf
00000100: 784a 06c0 abcc f2bf 297f 503d 1663 2340
00000110: e514 7540 b3b3 8bc0 0282 8640 04d8 71c0
00000120: 8782 93bf 9655 06bf 1c6d febd 9750 9740
00000130: bffe 26c0 07fd a140 3278 0cc0 6d73 2040
00000140: 60ea 9740 03be 92c0 e462 9140 072c e23f
00000150: 2f04 40c0 d1ea 4f40 3c78 44c0 7a1b 773f
00000160: 0314 cdbf 8c11 82bd 4a1d b03f 160a 8ac0
00000170: a29a 5e40 7782 2940 3e97 a540 fe74 90c0

model.0.bias f4 [32]
0.25014284 0.041496675 0.35887173 -0.5676385 -1.0227739 -0.89536995 -1.0127593 0.443501
-0.14627221 0.28181586 2.9406338 0.8134122 0.12046797 -0.35002193 -1.9567058 0.4151037
-2.7761035 1.2776775 -0.15354347 0.987353 -0.03849072 0.09860478 -0.7092471 0.11991529
2.632404 -0.55364954 -0.52515876 0.015401689 0.3047412 4.660895 -0.14862916 0.26246238
00000000: b912 803e 6bf8 293d 09be b73e c250 11bf
00000010: 41ea 82bf f736 65bf 19a2 81bf 9012 e33e
00000020: 62c8 15be 2b4a 903e 5833 3c40 c83b 503f
00000030: e9b7 f63d 1336 b3be 5675 fabf 7988 d43e
00000040: aeab 31c0 f08a a33f 803a 1dbe 2bc3 7c3f
00000050: 72a8 1dbd 4ef1 c93d 3891 35bf 2696 f53d
00000060: 4f79 2840 fabb 0dbf ce70 06bf 5e57 7c3c
00000070: 0a07 9c3e 0d26 9540 3e32 18be 7861 863e

model.2.weight f4 [32, 32]
0.24978659 0.29674712 -0.04329029 0.21438184 0.133432 0.48416704 -0.14617606 0.11957044
-0.15903133 0.25320986 0.13279915 -0.000854482 -0.04226693 -0.17147967 -0.046847392 0.022588616
0.331222 -0.1183952 -0.048201676 -0.2612494 -0.26438317 0.18537894 -0.15885071 -0.043972995
-0.07569127 0.105110295 -0.1030127 0.036448535 -0.12495344 0.1757866 0.11977782 0.45048925
-0.05125145 -0.1679292 -0.42373636 0.36001334 0.20910533 0.5430146 0.43117797 0.21053177
-0.09865578 0.13370112 0.060365506 -0.62428725 0.22568965 0.18506408 0.76684755 0.29894486
-1.2584009 0.25913185 0.12321281 -0.1838491 -0.07988299 0.3302932 0.70969373 0.07521594
0.04502368 0.47044367 -1.1760573 -0.99818224 0.17052987 -0.043509312 0.15181197 -0.0392897
-0.37144205 -0.7202105 -0.38902912 -1.911646 -1.0943369 -2.0843654 -0.12600738 -0.00046921987
-0.36924383 0.5165616 0.46189559 -0.6676492 0.086366296 0.47887698 -2.6285117 0.3548742
-1.2804868 0.6262946 -0.14844026 0.40240848 -0.2772946 -0.11558854 -0.62845147 0.38398898
0.48604897 0.13024989 -1.1271167 0.8711544 0.18727344 0.4500014 0.013611735 0.22471803
0.6774157 -0.55499357 0.15521643 0.4410266 -0.14637126 1.3644973 -0.000748514 0.32474402
0.60482246 -1.0814313 -0.04999048 0.31101072 -0.2045123 1.8042912 0.5985047 -0.0328101
1.3599643 -0.6772607 -0.14382008 -0.16059363 -0.20791061 0.250727 -0.10670781 -0.15598091
-0.2103742 -0.14943685 0.44339997 0.2094069 0.11555357 -0.3325527 -0.6624451 0.14480694
0.23272102 0.60504967 0.1599165 0.22452664 -0.1604152 0.4961454 0.20498505 0.2065109
0.05767351 -0.5093195 0.2404944 -0.009916567 0.21241868 -0.40618128 0.051342376 -0.017633628
0.05572934 0.21939084 -0.008092741 -0.06837095 0.22320963 0.321719 -0.3771407 0.030434234
0.50606984 -0.77015465 -0.029893111 -0.20710671 0.07700332 0.43455213 -0.5157913 0.49420154
-0.28404963 -0.47621447 0.4578148 -0.8557468 -0.25196078 -0.7659934 0.10002011 -0.039523214
0.19031669 0.59022146 0.22524682 0.6383856 0.073108524 0.1348102 -1.4147154 0.038114335
-0.5851782 0.7209744 -0.6498362 0.18429875 -0.20226131 0.060556754 0.21940584 0.35440663
0.33162558 0.54549205 -0.80553555 0.37868163 0.33650807 0.3320693 0.87690616 -0.083949655
-0.104504034 0.13002189 0.737732 -1.3985608 -0.59208435 -2.0780103 -1.1437913 -1.1980736
0.06395098 0.15125234 0.35788867 -0.1929085 -0.33504832 0.97052497 -0.15741123 -0.02098684
1.2545292 0.22892153 -0.17439352 -0.11030997 0.29953402 -0.080934145 -1.5102208 0.29204893
0.32158786 0.21379162 -0.43108475 0.06253825 0.022259966 0.3074177 0.12768118 0.59068877
1.5451082 1.1015726 1.1488304 1.1411756 1.1500396 1.0565195 -2.110946 1.1327937
0.8495004 -1.6639421 -0.37320986 0.86684334 0.58934265 0.739489 1.2199906 -1.639257
1.0190377 -0.5736867 0.8842394 -0.7569023 1.4882039 0.67463106 1.0696713 -2.0350547
-0.36115327 -1.649131 1.0390046 0.6111293 -1.0449193 -0.34879103 -1.8920174 0.52625346
00000000: 0ec8 7f3e 3def 973e 2951 31bd ea86 5b3e
00000010: 66a2 083e bee4 f73e 2daf 15be 59e1 f43d
00000020: 1cd9 22be b9a4 813e 80fc 073e 51ff 5fba
00000030: 1720 2dbd 5e98 2fbe 0de3 3fbd c30b b93c
00000040: ee95 a93e 2f79 f2bd 1f6f 45bd 7bc2 85be
00000050: 3b5d 87be fad3 3d3e c3a9 22be 071d 34bd
00000060: 0604 9bbd 1144 d73d 53f8 d2bd 0f4b 153d
00000070: 97e7 ffbd 6701 343e 134e f53d 87a6 e63e
00000080: 0aed 51bd a2f5 2bbe f9f3 d8be ab53 b83e
00000090: b51f 563e 0103 0b3f 5cc3 dc3e a495 573e
000000a0: 0b0c cabd f2e8 083e d241 773d 4ad1 1fbf
000000b0: 301b 673e 7081 3d3e 1f50 443f 4d0f 993e
000000c0: 4813 a1bf eeac 843e ff56 fc3d f042 3cbe
000000d0: b199 a3bd 311c a93e 7dae 353f d10a 9a3d
000000e0: c06a 383d fedd f03e 0c89 96bf df88 7fbf
000000f0: 629f 2e3e d236 32bd 9974 1b3e 3dee 20bd
00000100: a72d bebe b75f 38bf d32e c7be d1b0 f4bf
00000110: 3b13 8cbf 3e66 05c0 1408 01be a001 f6b9
00000120: 870d bdbe 623d 043f 947d ec3e 0feb 2abf
00000130: d0e0 b03d 5d2f f53e 8939 28c0 12b2 b53e
00000140: fee6 a3bf d854 203f b900 18be 7c08 ce3e
00000150: 8ff9 8dbe afb9 ecbd 32e2 20bf 349a c43e
00000160: 69db f83e 3a60 053e 5c45 90bf fa03 5f3f
00000170: 9cc4 3f3e 9566 e63e c103 5f3c 7c1c 663e
00000180: 1e6b 2d3f 0f14 0ebf 0ef1 1e3e 3dce e13e
00000190: 59e2 15be d9a7 ae3f ed37 44ba d944 a63e
000001a0: a5d5 1a3f 576c 8abf d1c2 4cbd cc3c 9f3e
000001b0: ac6b 51be 04f3 e63f 9b37 193f e263 06bd
000001c0: 4f13 ae3f f560 2dbf 9245 13be a872 24be
000001d0: 85e6 54be 4a5f 803e a089 dabd 76b9 1fbe
000001e0: 566c 57be f905 19be 5205 e33e c36e 563e
000001f0: 5aa7 ec3d 5944 aabe 0196 29bf 4548 143e
00000200: 6b4e 6e3e 89e4 1a3f 27c1 233e 50ea 653e
00000210: e243 24be c506 fe3e 9ae7 513e 9877 533e
00000220: 0f3b 6c3d c362 02bf 2a44 763e 1979 22bc
00000230: 4884 593e fef6 cfbe 624c 523d 6674 90bc
00000240: 7344 643d fea7 603e 6a97 04bc 1206 8cbd
00000250: 1191 643e 5ab8 a43e 9618 c1be 3751 f93c
00000260: cb8d 013f db28 45bf 66e2 f4bc c813 54be
00000270: ebb3 9d3d 9e7d de3e e60a 04bf fc07 fd3e
00000280: f46e 91be 62d2 f3be b466 ea3e 3912 5bbf
00000290: 0101 81be 2518 44bf 58d7 cc3d 18e3 21bd
000002a0: 61e2 423e c118 173f 1aa7 663e 3d6d 233f
000002b0: ecb9 953d af0b 0a3e 6515 b5bf c71d 1c3d
000002c0: 3dce 15bf c791 383f aa5b 26bf d0b8 3c3e
000002d0: 971d 4fbe 5c0a 783d edab 603e c974 b53e
000002e0: d4ca a93e 5ea5 0b3f 9437 4ebf 8fe2 c13e
000002f0: c94a ac3e fd04 aa3e ec7c 603f cced abbd
00000300: 3606 d6bd 7524 053e 01dc 3c3f 0a04 b3bf
00000310: d792 17bf 1ffe 04c0 c167 92bf 7a5a 99bf
00000320: bbf8 823d e5e1 1a3e 2f3d b73e ce89 45be
00000330: 748b abbe 5374 783f 6930 21be 98ec abbc
00000340: 6a94 a03f 686a 6a3e 3794 32be 32ea e1bd
00000350: 865c 993e cdc0 a5bd ea4e c1bf 7087 953e
00000360: 2aa7 a43e 31ec 5a3e 24b7 dcbe 0e14 803d
00000370: 885a b63c da65 9d3e dbbe 023e 6137 173f
00000380: 1bc6 c53f 5500 8d3f e00c 933f 0b12 923f
00000390: 7f34 933f 083c 873f bd19 07c0 62ff 903f
000003a0: dc78 593f 0efc d4bf 5d15 bfbe 72e9 5d3f
000003b0: 29df 163f 274f 3d3f a728 9c3f 2cd3 d1bf
000003c0: d46f 823f 22dd 12bf 835d 623f 59c4 41bf
000003d0: 777d be3f 9fb4 2c3f fdea 883f 563e 02c0
000003e0: 15e9 b8be b916 d3bf 1afe 843f f872 1c3f
000003f0: eabf 85bf bd94 b2be a02d f2bf 8cb8 063f

model.2.bias f4 [32]
0.15347841 -0.21653198 0.57148284 -0.12539507 0.3495858 0.43576244 0.27451697 -0.3015498
-0.02008482 0.31564805 0.022238187 0.029742634 0.13257074 0.021905597 0.15181014 -0.26857173
0.18164554 -0.2744356 0.064851366 0.113448456 0.50819355 0.03624029 0.1467898 -0.17430538
-0.66862667 -0.057385974 0.16882072 0.33303607 0.19302765 0.20295508 0.22136231 -0.34699816
00000000: 7229 1d3e 8fba 5dbe b34c 123f 9167 00be
00000010: e9fc b23e 411c df3e 7d8d 8c3e bc64 9abe
00000020: ec88 a4bc 9f9c a13e dc2c b63c d3a6 f33c
00000030: a0c0 073e 5e73 b33c 1e74 1b3e 3c82 89be
00000040: 4a01 3a3e d382 8cbe cbd0 843d aa57 e83d
00000050: f918 023f b370 143d 1150 163e 1c7d 32be
00000060: 1e2b 2bbf 8e0d 6bbd 57df 2c3e b483 aa3e
00000070: 0aa9 453e 75d3 4f3e cdac 623e bea9 b1be

model.4.weight f4 [1, 32]
-0.19877364 0.42667398 -0.64202094 0.6630952 -0.41980976 0.35048234 -0.54831636 1.3683063
0.6537551 0.57616764 -0.82444847 -0.51064175 -1.4076066 -0.37684697 0.8413459 -0.7036502
0.66533935 0.9488296 0.67440367 -0.4168684 0.77188903 -0.29593283 0.93472147 -0.4243963
-0.97949404 0.7609089 0.09415512 0.75360346 -1.3180492 1.0237764 0.4509294 -0.77934206
00000000: 518b 4bbe 0375 da3e 7c5b 24bf 9bc0 293f
00000010: 4ef1 d6be 6c72 b33e 765e 0cbf a924 af3f
00000020: 7f5c 273f b97f 133f 0e0f 53bf 6bb9 02bf
00000030: 742c b4bf 16f2 c0be 7262 573f 6b22 34bf
00000040: ae53 2a3f 7fe6 723f b8a5 2c3f c66f d5be
00000050: 859a 453f 8284 97be e849 6f3f 794a d9be
00000060: 1fc0 7abf edca 423f 66d4 c03d 28ec 403f
00000070: d6b5 a8bf 1b0b 833f 38e0 e63e f682 47bf
