best_model_5_dim3.pt (torch, 27040 bytes, 13 tensors)

model.0.weight f4 [32, 3]
0.25635952 -0.8071413 -0.9751839 -0.30390754 0.14788115 -0.21521758 -0.8026904 -0.92699474
0.6297046 0.4422849 -0.13466544 -0.39306867 0.463873 -0.45322034 -0.6004032 -1.0143921
0.834705 -0.35108238 0.36677712 0.7235013 -0.53292704 -0.62060297 -0.5189658 -0.72511286
0.65170044 0.5691526 -1.100173 0.64463675 -0.6411333 0.39256984 0.8649957 -0.58396703
0.6859997 -0.84019 0.43234956 0.6956797 0.013498632 0.124558315 0.121302895 -0.6720459
-0.74406755 0.9480338 0.9439142 -0.9834725 0.6217884 -0.9173873 0.94039464 0.8827933
0.7849374 -0.73519355 -0.48074242 0.32289016 0.8622307 -0.3617792 0.5925945 0.9336295
-0.6466491 -0.87524956 0.5795234 0.634566 -0.48748854 -0.11288539 0.46848783 -0.36951178
-0.9310681 0.84186673 0.053994495 -0.67542577 -0.9542148 -0.871192 -0.8398638 -0.37212306
0.8494294 1.0262128 0.4715129 -0.8035755 -0.15812525 -1.0465157 0.7883493 -0.33084938
0.8066144 -0.13930596 0.19249979 -0.1510733 -0.1485585 0.07420268 -0.10742548 -0.0759512
0.93508744 -0.82235175 0.6202117 0.51815265 0.90047884 -1.0502981 -0.30163 -1.0210155
00000000: 8e41 833e d0a0 4ebf a7a5 79bf c599 9bbe
00000010: 286e 173e ff61 5cbe 1e7d 4dbf 874f 6dbf
00000020: 5234 213f 2b73 e23e bde5 09be 4c40 c9be
00000030: c380 ed3e 7f0c e8be 06b4 19bf 9ad7 81bf
00000040: 3aaf 553f 12c1 b3be 36ca bb3e 6237 393f
00000050: e86d 08bf d6df 1ebf f1da 04bf ffa0 39bf
00000060: d7d5 263f fcb3 113f 78d2 8cbf ea06 253f
00000070: 5021 24bf eafe c83e 5c70 5d3f dd7e 15bf
00000080: ad9d 2f3f b116 57bf ec5c dd3e 1118 323f
00000090: 5e29 5d3c 6e18 ff3d a76d f83d 330b 2cbf
000000a0: 367b 3ebf 58b2 723f 5ca4 713f dbc4 7bbf
000000b0: 862d 1f3f e5d9 6abf b4bd 703f befe 613f
000000c0: a8f1 483f a535 3cbf df23 f6be dc51 a53e
000000d0: 27bb 5c3f 203b b9be 46b4 173f 5802 6f3f
000000e0: cc8a 25bf 5b10 60bf a55b 143f eb72 223f
000000f0: 1998 f9be 7530 e7bd a3dd ef3e a630 bdbe
00000100: 7b5a 6ebf 9484 573f 5529 5d3d b4e8 2cbf
00000110: 6c47 74bf 7006 5fbf 5001 57bf ea86 bebe
00000120: 3574 593f f15a 833f 246a f13e 20b7 4dbf
00000130: 96eb 21be 3af4 85bf 42d1 493f 1765 a9be
00000140: 487e 4e3f 39a6 0ebe aa1e 453e f6b2 1abe
00000150: b81f 18be 93f7 973d e401 dcbd 4e8c 9bbd
00000160: e461 6f3f a585 52bf 32c6 1e3f a7a5 043f
00000170: c885 663f 2b70 86bf 3f6f 9abe a3b0 82bf

model.0.bias f4 [32]
-0.5389899 0.23476662 -0.49443153 -0.10716722 0.54380643 -0.4796238 -0.5385496 -0.3909943
-0.24784458 -0.3064296 -0.0014899917 0.13926543 0.36305004 0.04270848 0.10817521 -0.13401882
-0.12353328 -0.4066891 0.19077325 -0.37132564 -0.47433773 0.7581007 0.08562934 -0.33881652
-0.23683041 0.09940902 -0.4126923 0.35922083 0.13625625 -0.31911364 -0.39014328 -0.44234484
00000000: 3efb 09bf a966 703e 2126 fdbe 7d7a dbbd
00000010: e636 0b3f 4091 f5be 63de 09bf 6830 c8be
00000020: f8ca 7dbe 57e4 9cbe d34b c3ba 999b 0e3e
00000030: b2e1 b93e 16ef 2e3d f78a dd3d 3b3c 09be
00000040: 04ff fcbd 8e39 d0be 105a 433e 651e bebe
00000050: 65dc f2be e312 423f 6f5e af3d 5c79 adbe
00000060: ac83 72be f596 cb3d 684c d3be cbeb b73e
00000070: c286 0b3e dd62 a3be dcc0 c7be 067b e2be

model.2.weight f4 [32, 32]
-0.43021542 0.17583328 -0.020098263 -0.660318 0.31020558 -0.15840188 -0.054189574 -0.107087836
0.2901303 -0.36881366 0.3629191 0.31617078 0.3831608 0.43398494 0.4505572 0.28441292
0.564657 -0.086019516 0.1944034 -0.07414116 -0.27532437 0.13699198 0.24533242 0.320123
0.38716406 0.22307901 -0.41558644 0.08468901 0.24371949 0.115666516 0.18740621 0.13863702
0.067690425 0.1535325 0.49373543 -0.10566498 -0.009254498 0.12105855 0.28170055 -0.008312144
0.65773267 0.114211924 0.45265582 0.16277783 0.21816924 0.37916738 0.24818727 0.39299798
0.6527309 0.06296824 0.26952606 0.23291925 -0.14479305 0.2512414 0.28444484 0.28288257
0.70881 0.22310361 0.4682095 -0.09303619 0.11522614 0.46691918 0.42021602 0.35141245
-0.007125357 0.06696935 0.39698005 0.33803704 -0.120687835 0.69341266 0.06599727 -0.044175163
0.37173992 0.26862344 0.12349991 0.16388229 0.13247506 0.27098733 0.18597372 0.19160376
0.1929878 0.22842553 0.16711 0.4081987 0.12279667 0.21171746 -0.11511319 -0.1304886
-0.09337414 0.11265444 0.56565183 -0.18701243 0.055028904 0.82216907 0.15509078 0.20848563
0.25528798 -0.044455998 0.045809843 0.015604895 -0.027116789 -0.227153 -0.095223844 -0.28197837
0.18211411 -0.05313395 0.2746583 0.09525125 0.13016862 0.17847647 0.27429202 0.23258829
0.54751605 -0.08283501 0.3038914 -0.012423584 -0.2454151 0.18219112 0.04295093 0.2040453
0.36359358 0.115394734 0.24353668 -0.04813052 -0.069872245 -0.2110018 -0.035077363 0.24952266
-0.45918974 0.5857988 -0.41923675 -0.28715536 0.4317527 -0.1648936 -0.5043546 -0.3450839
0.29194483 -0.40201205 0.14086266 0.6284614 0.24914947 0.3047621 0.44394588 0.45423198
0.46207413 -0.14668456 0.5619883 0.084437 -0.33632535 0.33584046 0.4759426 0.25400403
0.6651807 0.64581436 -0.46549946 0.33566815 0.6297754 0.2351067 0.28128234 0.07764843
-1.2407274 -0.2213608 -1.2897028 -0.48697913 -0.077299446 -0.768186 -0.18280208 -0.6188485
-1.4893179 -0.8418115 -0.58381337 -0.58181816 -0.077080935 -0.4100192 -0.51767164 -0.80596256
-0.8776691 -0.26906028 -0.17913692 -1.0414101 -0.085454755 -0.21494095 -0.41129905 -0.6660893
-1.8807422 -0.47752032 -0.89214194 0.09502484 -0.12795275 -1.5214465 -0.6129052 -0.9468322
-0.39280874 -0.0817635 0.5630575 0.7092285 0.0148298815 -0.11075458 0.40432194 -0.1727885
0.103235036 0.3143067 0.04819161 -0.111275285 0.046643335 0.09836456 -0.18412498 -0.3885641
-0.1861047 0.3155558 -0.02187468 -0.046890363 0.066883564 0.14134717 -0.27984697 -0.0051643313
-0.179398 -0.1176858 0.03111181 -0.20021854 -0.24834645 0.3072008 -0.23489006 -0.34861964
-0.03895139 0.223344 0.09103156 -0.44877374 0.19974263 0.011767508 -0.08463804 -0.04785391
0.29336134 -0.16048795 0.056230918 0.3485863 0.0031809774 0.2195339 0.08816651 0.59494424
0.06856158 0.0638145 0.28752747 -0.020294081 -0.30529344 0.22542621 0.1802104 0.23677506
0.29711482 0.3740663 -0.42469746 0.2682655 0.11280169 0.23327215 -0.38648704 0.29972878
00000000: 3245 dcbe a40d 343e 1da5 a4bc 9a0a 29bf
00000010: 44d3 9e3e 1a34 22be e3f5 5dbd de50 dbbd
00000020: f58b 943e 25d5 bcbe 88d0 b93e 23e1 a13e
00000030: a72d c43e 4633 de3e 6faf e63e 929e 913e
00000040: 5c8d 103f 002b b0bd af11 473e 52d7 97bd
00000050: 51f7 8cbe a047 0c3e 6c38 7b3e 29e7 a33e
00000060: 5e3a c63e d36e 643e bfc7 d4be 6f71 ad3d
00000070: 9a91 793e 91e2 ec3d 6ae7 3f3e ddf6 0d3e
00000080: 47a1 8a3d a037 1d3e e4ca fc3e e266 d8bd
00000090: 2ea0 17bc 8ced f73d 0e3b 903e a92f 08bc
000000a0: 2b61 283f f1e7 e93d 81c2 e73e 3baf 263e
000000b0: c267 5f3e 3a22 c23e ce24 7e3e 0837 c93e
000000c0: 5f19 273f 7ef5 803d 52ff 893e 6282 6e3e
000000d0: a144 14be b6a2 803e c1a2 913e fcd5 903e
000000e0: 9274 353f 4675 643e 28b9 ef3e c289 bebd
000000f0: affb eb3d 0810 ef3e 8e26 d73e 55ec b33e
00000100: d47b e9bb 3a27 893d f840 cb3e 3113 ad3e
00000110: 2f2b f7bd 7e83 313f 9429 873d 04f1 34bd
00000120: b254 be3e 0389 893e 85ed fc3d c2d0 273e
00000130: 8ba7 073e dabe 8a3e e56f 3e3e c733 443e
00000140: 989e 453e 62e8 693e e21e 2b3e 6cff d03e
00000150: d27c fb3d 76cc 583e 77c0 ebbd ce9e 05be
00000160: f13a bfbd 5fb7 e63d 8fce 103f 3080 3fbe
00000170: fd65 613d ac79 523f 1ed0 1e3e 427d 553e
00000180: 1bb5 823e 7e17 36bd 1aa3 3b3d acab 7f3c
00000190: 0724 debc cc9a 68be b804 c3bd 785f 90be
000001a0: 1f7c 3a3e fca2 59bd 03a0 8c3e 1613 c33d
000001b0: ec4a 053e 89c2 363e 0170 8c3e a02b 6e3e
000001c0: 032a 0c3f 67a5 a9bd a797 9b3e 4a8c 4bbc
000001d0: 194e 7bbe 4f90 3a3e 50ed 2f3d 40f1 503e
000001e0: f028 ba3e 1354 ec3d ae61 793e 8224 45bd
000001f0: 2e19 8fbd db10 58be 48ad 0fbd de82 7f3e
00000200: eb1a ebbe e9f6 153f 33a6 d6be 0706 93be
00000210: b10e dd3e ded9 28be 621d 01bf d6ae b0be
00000220: cb79 953e 86d4 cdbe 4d3e 103e d9e2 203f
00000230: 0a21 7f3e c709 9c3e e04c e33e 1891 e83e
00000240: fb94 ec3e 7a34 16be 77de 0f3f 4eed ac3d
00000250: d632 acbe 48f3 ab3e c0ae f33e d10c 823e
00000260: 4849 2a3f 1754 253f f255 eebe b2dc ab3e
00000270: f638 213f d0bf 703e 3d04 903e 2406 9f3d
00000280: 28d0 9ebf 68ac 62be fb14 a5bf 5455 f9be
00000290: 2c4f 9ebd d6a7 44bf 7830 3bbe db6c 1ebf
000002a0: f8a1 bebf f580 57bf cb74 15bf 09f2 14bf
000002b0: 9cdc 9dbd 09ee d1be 2186 04bf 9053 4ebf
000002c0: ecae 60bf 45c2 89be ab6f 37be ed4c 85bf
000002d0: e702 afbd 7b19 5cbe ca95 d2be d484 2abf
000002e0: 29bc f0bf 8b7d f4be 6a63 64bf 629c c23d
000002f0: 0c06 03be c2be c2bf 5be7 1cbf 9863 72bf
00000300: 3a1e c9be 9f73 a7bd 8924 103f 0090 353f
00000310: 08f9 723c 4cd3 e2bd 4903 cf3e 78ef 30be
00000320: e46c d33d cfec a03e 9164 453d 4ce4 e3bd
00000330: 150d 3f3d 5c73 c93d 428b 3cbe e0f1 c6be
00000340: 3b92 3ebe 8890 a13e 8732 b3bc 1c10 40bd
00000350: 40fa 883d 50bd 103e 1a48 8fbe 8d39 a9bb
00000360: 1cb4 37be 4105 f1bd 32de fe3c 1706 4dbe
00000370: 884e 7ebe 6c49 9d3e 0587 70be 467e b2be
00000380: 7e8b 1fbd 4ab4 643e c16e ba3d acc5 e5be
00000390: 5589 4c3e 82cc 403c b556 adbd 7602 44bd
000003a0: 7533 963e f456 24be 6452 663d e779 b23e
000003b0: f277 503b 7fcd 603e a590 b43d 444e 183f
000003c0: 036a 8c3d 2db1 823d cd36 933e c63f a6bc
000003d0: 6c4f 9cbe 21d6 663e 1389 383e 2975 723e
000003e0: 6f1f 983e 9e85 bf3e f271 d9be 185a 893e
000003f0: 9304 e73d e5de 6e3e a1e1 c5be 0d76 993e

model.2.bias f4 [32]
0.34306392 0.08786866 0.029518466 0.2734279 0.5683243 0.013107501 -0.24183497 0.09117139
0.21565504 -0.1301594 -0.072925255 0.3065536 0.3465032 0.10259264 0.15945782 0.1606635
0.14841916 -0.1863611 0.291485 0.24325174 0.028214952 -0.007343595 0.06101765 -0.036392264
-0.16203023 0.29274148 0.13478176 0.021303963 -0.033100553 0.104564846 0.14173755 -0.30879903
00000000: 13a6 af3e 7cf4 b33d b6d0 f13c befe 8b3e
00000010: b47d 113f d8c0 563c 96a3 77be 11b8 ba3d
00000020: add4 5c3e 8148 05be d659 95bd 98f4 9c3e
00000030: de68 b13e 171c d23d e948 233e f984 243e
00000040: 31fb 173e 72d5 3ebe 863d 953e fc16 793e
00000050: 0b23 e73c 8aa2 f0bb a5ed 793d 0e10 15bd
00000060: 41eb 25be 36e2 953e 3b04 0a3e a685 ae3c
00000070: 7294 07bd 1826 d63d a623 113e e81a 9ebe

model.4.weight f4 [32, 32]
0.09670011 0.17722392 0.11779444 0.2187809 -0.035629354 -0.14880078 0.07683723 0.15781921
-0.17519507 0.08681459 0.10952891 0.22251235 0.24360853 -0.13016056 -0.015767207 -0.38627908
0.18265983 -0.016121592 0.109168075 -0.0004745015 0.34791473 0.19600052 0.18414934 0.2775378
0.4042278 -0.12187447 0.24756624 -0.11389393 0.25950608 -0.11406995 -0.3711061 0.93481886
0.2662309 0.3437157 0.36812362 0.19385803 0.2771087 -0.12294797 0.101358846 0.2567318
-0.15018757 0.16188838 0.17817114 0.34132898 0.065073706 0.054243397 0.25304392 -0.5217568
0.30015737 -0.14692599 -0.0045815487 -0.08027587 0.17894332 -0.11415495 0.076936096 0.26116097
0.5977237 0.078593545 0.08946424 -0.26920137 0.38247228 -0.07713351 -0.4830237 0.6740548
0.11326907 0.24702407 0.23824395 -0.13544133 0.032369826 -0.038153984 0.07271981 -0.014491756
-0.006093313 0.09016526 0.2450084 0.042092543 -0.0399975 0.107387535 -0.042463858 -0.10598564
0.29506606 0.18930238 0.13852772 0.0671004 0.01659592 0.07250935 0.024677005 0.23761031
0.30725142 0.019916613 0.1556544 -0.17749733 0.2315907 -0.0049766907 -0.19860163 0.7630232
0.15459262 0.16007055 0.31796005 -0.05410975 0.011133919 -0.16111323 -0.05269862 -0.02174049
-0.21165648 0.077520624 0.3930558 0.33056167 0.21826296 0.22601174 0.29317194 -0.43039948
0.18265204 -0.21598355 0.28090623 0.1066841 0.34132758 0.10647554 0.28816387 0.6311144
0.75080127 0.08382546 0.29155844 -0.27386189 0.20083548 0.1692203 -0.28957224 0.4667122
0.2992444 0.27085593 -0.00022705778 0.37262252 0.0699551 -0.6333282 -0.22217774 0.3815845
0.018459916 -0.47719935 -0.2684235 0.43995336 0.49681634 0.50796753 0.6722088 -0.44170624
0.107917614 -0.49654105 0.3634373 0.16922651 0.19144464 -0.43264037 0.17423722 -0.18249337
-0.2187698 0.02454274 0.22087862 -0.08864604 -0.08181482 0.49285048 -0.4316251 -0.6529805
0.19440581 0.20286326 0.25206596 0.0945528 0.21846323 -0.19468193 0.04326436 0.2535087
-0.10146355 0.54584664 0.21397926 0.13028978 0.13688684 -0.12825459 0.23906791 -0.33564863
0.35337064 -0.037341423 0.3053499 0.058140572 0.27384877 0.035616864 0.19805297 0.95838714
0.7078733 0.083854236 0.41477188 -0.21284798 0.4431539 0.20572728 -0.106392264 0.39283356
-0.12526584 -0.54852897 -0.8696036 -0.18134111 -0.104710914 1.4360013 -0.19630674 -0.16653715
0.52896845 -1.2307303 -0.78825873 -0.45885307 -0.33431977 -0.03933924 -0.35662252 0.9513747
-0.87992686 -0.20579919 -0.30987185 0.1370344 -0.84683514 -0.24026074 -0.46917132 -1.9799957
-2.0614743 0.12837064 -0.9655862 1.4801743 -1.0858374 -0.17131966 1.2124256 -0.55881196
0.102639385 0.16724516 0.3042499 -0.10898646 0.05862616 -0.32061067 0.16884804 0.15341665
-0.16195928 0.3550547 0.32966763 0.09780467 0.1498172 -0.14996304 0.09298749 -0.29144707
0.14061105 0.092061184 -0.016979815 -0.071494885 0.14904523 0.24819376 0.11057997 0.21017896
0.3369939 0.08429759 0.13301013 -0.07736053 0.2880155 0.18820028 -0.29281178 0.36302197
00000000: b50a c63d 307a 353e 363e f13d 1a08 603e
00000010: 16f0 11bd 3b5f 18be d65c 9d3d 5c9b 213e
00000020: 5666 33be d9cb b13d b150 e03d 47da 633e
00000030: 8474 793e cf48 05be 3b2a 81bc 5fc6 c5be
00000040: 2e0b 3b3e 6e11 84bc 8393 df3d 83c6 f8b9
00000050: e121 b23e 5cb4 483e a591 3c3e 6f19 8e3e
00000060: f2f6 ce3e 5299 f9bd 0182 7d3e 3941 e9bd
00000070: fbdd 843e 829d e9bd 9e01 bebe 4a50 6f3f
00000080: 6b4f 883e 81fb af3e b37a bc3e b882 463e
00000090: 31e1 8d3e 25cc fbbd 3a95 cf3d 5a72 833e
000000a0: c5ca 19be 11c6 253e 7f72 363e acc2 ae3e
000000b0: 5d45 853d 532e 5e3d f98e 813e db91 05bf
000000c0: 3aae 993e c473 16be d120 96bb ad67 a4bd
000000d0: eb3c 373e 12ca e9bd ac90 9d3d e4b6 853e
000000e0: 6c04 193f a7f5 a03d 0739 b73d c3d4 89be
000000f0: 68d3 c33e 2cf8 9dbd e24e f7be db8e 2c3f
00000100: 9df9 e73d e1f3 7c3e 39f6 733e 22b1 0abe
00000110: 3996 043d 5a47 1cbd 20ee 943d d56e 6dbc
00000120: 6aaa c7bb 90a8 b83d 7be3 7a3e 3b69 2c3d
00000130: 6bd4 23bd ffed db3d 95ee 2dbd 000f d9bd
00000140: e612 973e 7cd8 413e 36da 0d3e ef6b 893d
00000150: 2bf4 873c c87f 943d 6e27 ca3c 1e50 733e
00000160: 0f50 9d3e 2a28 a33c de63 1f3e dcc1 35be
00000170: 1d26 6d3e 8213 a3bb 3a5e 4bbe 7d55 433f
00000180: 874d 1e3e 89e9 233e a9cb a23e 2fa2 5dbd
00000190: 0a6b 363c defa 24be 82da 57bd 1d19 b2bc
000001a0: 7abc 58be 22c3 9e3d 9c3e c93e 613f a93e
000001b0: 5380 5f3e 9f6f 673e a21a 963e 525d dcbe
000001c0: 2309 3b3e cb2a 5dbe f1d2 8f3e 327d da3d
000001d0: 7dc2 ae3e d90f da3d 378a 933e b790 213f
000001e0: 8334 403f afac ab3d 2647 953e a037 8cbe
000001f0: d1a7 4d3e 1648 2d3e d042 94be e7f4 ee3e
00000200: 9036 993e a1ad 8a3e 5c16 6eb9 61c8 be3e
00000210: 9f44 8f3d cc21 22bf 9082 63be 0b5f c33e
00000220: 4039 973c 7953 f4be ce6e 89be 9141 e13e
00000230: b65e fe3e 290a 023f e015 2c3f 5227 e2be
00000240: e903 dd3d a13a febe 7414 ba3e b749 2d3e
00000250: 100a 443e 0a83 ddbe 3e6b 323e 8bdf 3abe
00000260: 3105 60be db0d c93c 012e 623e 0e8c b5bd
00000270: 878e a7bd e656 fc3e f7fd dcbe bb29 27bf
00000280: 5112 473e 63bb 4f3e ca0e 813e e6a4 c13d
00000290: d3b4 5f3e b35a 47be f835 313d e4cb 813e
000002a0: 1fcc cfbd 9bbc 0b3f 611d 5b3e af6a 053e
000002b0: 102c 0c3e 2c55 03be 38ce 743e 23da abbe
000002c0: ffec b43e 52f3 18bd d256 9c3e cf24 6e3d
000002d0: e835 8c3e fde2 113d 66ce 4a3e dc58 753f
000002e0: 2f37 353f c5bb ab3d fb5c d43e d2f4 59be
000002f0: 11e5 e23e 2caa 523e 30e4 d9bd 7b21 c93e
00000300: b045 00be 656c 0cbf 579e 5ebf 7cb1 39be
00000310: ad72 d6bd e4ce b73f a204 49be b788 2abe
00000320: 7a6a 073f 9288 9dbf 53cb 49bf caee eabe
00000330: f62b abbe 2f22 21bd 3a97 b6be 4b8d 733f
00000340: e342 61bf 06bd 52be 86a7 9ebe bf52 0c3e
00000350: 30ca 58bf e906 76be 3937 f0be 8070 fdbf
00000360: 32ef 03c0 9873 033e a830 77bf 5a76 bd3f
00000370: b8fc 8abf 6c6e 2fbe c330 9b3f 4d0e 0fbf
00000380: 9934 d23d 5142 2b3e a5c6 9b3e 4b34 dfbd
00000390: fc21 703d 1527 a4be 80e6 2c3e 4119 1d3e
000003a0: a7d8 25be bbc9 b53e 32ca a83e d14d c83d
000003b0: ae69 193e e98f 19be 3a70 be3d 8d38 95be
000003c0: 58fc 0f3e 938a bc3d 4119 8bbc e96b 92bd
000003d0: 509f 183e 8126 7e3e c077 e23d 2739 573e
000003e0: 778a ac3e 37a4 ac3d cf33 083e 336f 9ebd
000003f0: c576 933e 93b7 403e 6deb 95be 04de b93e

model.4.bias f4 [32]
0.07176746 -0.13726994 0.14436623 0.14066091 0.17167556 0.0023241646 0.07541097 -0.082769446
0.26688072 0.029926153 -0.38152868 0.19660193 0.12575296 0.0139769735 0.40706897 0.29443914
-0.28808227 -0.5901022 -0.116397 0.08063233 0.14306082 0.12535313 -0.13679251 0.10693468
0.011645166 0.08934098 -0.075212196 -0.14036207 0.043197863 0.12935083 0.20568167 0.026396694
00000000: d1fa 923d 7e90 0cbe bed4 133e 6a09 103e
00000010: b8cb 2f3e 0351 183b 1171 9a3d 0783 a9bd
00000020: 97a4 883e b127 f53c ba57 c3be 0452 493e
00000030: 62c5 003e adff 643c 586b d03e bac0 963e
00000040: 857f 93be f010 17bf 8d61 eebd 9022 a53d
00000050: 897e 123e 925c 003e 5613 0cbe 9200 db3d
00000060: 5ecb 3e3c 67f8 b63d da08 9abd 13bb 0fbe
00000070: 3ef0 303d 8b74 043e 379e 523e e13d d83c

model.6.weight f4 [32, 32]
-0.14353214 0.1839939 0.04209533 0.00999239 0.28444597 0.11444966 -0.9501032 -0.09509509
0.4120869 0.0909643 -0.8276072 0.21384662 0.27554426 -0.08088779 0.024876803 0.1910045
-1.3840063 -0.4796111 -0.63908005 0.2428343 0.42748109 0.2526241 0.0017167754 0.015958894
-0.06311066 0.20000549 0.26652542 0.061781492 0.11365263 -0.28872564 0.16071251 0.10565069
0.20242766 0.19876812 0.084999554 -0.119107015 -0.39247838 0.2128927 -0.23405012 0.15870288
-0.15626788 -0.003449196 -0.0070096264 -0.0874769 -0.005353379 0.087969914 -0.04739592 -0.11292874
-0.11641272 -0.11061288 0.032088015 -0.21181014 -0.099997066 0.150817 -0.04584353 0.03871896
0.2977863 0.06421906 0.05071031 -0.13793147 0.031563155 -0.06051191 -0.24069868 0.14224657
0.001900872 0.16795269 -0.10145589 -0.09605819 0.59596515 -0.03628311 -0.4464157 0.052210957
0.012957182 -0.06938637 0.024711061 -0.05779478 -0.061950147 0.20075914 -0.069352664 0.008976618
0.0041922196 0.031374663 -0.24995628 -0.100261085 -0.094082884 0.12788196 0.11968523 -0.015646659
0.18694319 -0.19073482 0.17131521 -0.017281571 0.07616343 -0.33121377 -0.0915012 0.08641781
0.0006061141 0.016612705 0.058856554 -0.08442999 0.36863753 0.11950383 -0.72529334 -0.41099504
0.2987085 -0.0065324404 -1.3145283 0.012737421 0.37995538 -0.15390065 0.06372931 0.24220157
-0.60526574 -0.81179476 -0.35133383 0.20871745 0.34996104 -0.11121516 -0.26709738 0.023963854
-0.030563066 0.07159226 -0.30154175 -0.17582887 -0.03353281 -0.133337 0.19563036 0.19902006
0.10655475 0.26923266 0.028581241 -0.14847533 -0.10360108 -0.050680965 -0.19613266 -0.013832405
-0.058997925 0.12419462 0.004133971 -0.049610175 -0.21278267 0.1362709 -0.13869679 -0.12858735
0.110750556 -0.14466697 -0.124312736 -0.029907238 -0.13208085 0.07535099 -0.002736625 0.039280277
0.05676117 -0.102567695 0.23896952 -0.060536005 0.07685245 -0.030959481 -0.24579732 0.119354144
-0.09094147 -0.15820757 0.17953792 0.06913686 0.6618683 0.05442096 -0.62521917 -0.008127122
0.3070389 -0.11675457 -2.0532615 0.14171426 0.16059391 0.015486152 -0.05364272 0.058728453
-1.1124051 -1.4343154 -0.6127444 0.2587885 0.44647264 0.07081942 -0.025355116 0.12453487
-0.1341695 0.29250818 -0.08269299 0.00999433 0.16101712 -0.18968458 0.25826532 0.07759346
-0.11280963 -0.047996115 0.11488319 0.22279052 0.61411715 0.20226976 -0.51978856 -0.0036524194
0.02293152 0.037459962 -1.1225928 0.1876879 -0.0047268486 0.06573717 0.10421393 0.26569295
-0.34759125 -0.65914553 -0.17691542 0.12787665 0.18964836 -0.021178368 -0.11609193 -0.009737486
0.013207083 0.08561171 0.11718223 0.20275259 0.039446604 -0.07794794 0.0874608 0.15945506
0.061776455 0.1138865 -0.10704235 0.21013883 0.52876854 0.043010477 -0.37609476 0.1651466
-0.19944893 0.10696472 -0.15378945 -0.33799893 0.10514495 0.106421754 -0.06240246 0.021224769
-0.07124808 -0.12866193 -0.1406534 -0.12384789 -0.026082909 -0.10845462 0.058199864 0.1617734
0.060120363 -0.31859556 0.022673965 0.21867296 0.07851609 -0.6091404 -0.06180599 0.036498632
00000000: 17fa 12be e668 3c3e 276c 2c3d 1fb7 233c
00000010: e7a2 913e 9564 ea3d f739 73bf 37c1 c2bd
00000020: 0efd d23e 7e4b ba3d 11de 53bf 9cfa 5a3e
00000030: 2314 8d3e 7fa8 a5bd 70ca cb3c af96 433e
00000040: 1e27 b1bf 968f f5be c09a 23bf 8ea9 783e
00000050: cdde da3e f257 813e 6c05 e13a 3abc 823c
00000060: 2940 81bd 3dce 4c3e 0576 883e 970e 7d3d
00000070: b6c2 e83d d9d3 93be d291 243e 645f d83d
00000080: 3249 4f3e df89 4b3e 3f14 ae3d 61ee f3bd
00000090: edf2 c8be 8b00 5a3e d6aa 6fbe 0283 223e
000000a0: b004 20be e80b 62bb 02b1 e5bb 1727 b3bd
000000b0: 666b afbb 9229 b43d 3922 42bd 2f47 e7bd
000000c0: cb69 eebd 0189 e2bd b96e 033d c2e4 58be
000000d0: 43cb ccbd c66f 1a3e 6dc6 3bbd c697 1e3d
000000e0: 7277 983e 4885 833d 9db5 4f3d e83d 0dbe
000000f0: 5e48 013d 56db 77bd b779 76be 16a9 113e
00000100: ae26 f93a cafb 2b3e 1bc8 cfbd 28ba c4bd
00000110: 2c91 183f 999d 14bd 9990 e4be 28db 553d
00000120: 5c4a 543c 711a 8ebd da6e ca3c 38ba 6cbd
00000130: 70bf 7dbd ce93 4d3e c508 8ebd aa12 133c
00000140: e35e 893b b882 003d 8af4 7fbe af55 cdbd
00000150: 87ae c0bd 7df3 023e 881d f53d 6c2d 80bc
00000160: 096e 3f3e fd4f 43be 416d 2f3e 1592 8dbc
00000170: 93fb 9b3d da94 a9be fb64 bbbd d2fb b03d
00000180: a1e3 1e3a 5e17 883c 9213 713d a1e9 acbd
00000190: 0fbe bc3e 6dbe f43d d3ac 39bf f16d d2be
000001a0: 52f0 983e 150e d6bb 7742 a8bf 9eb0 503c
000001b0: 8389 c23e 2298 1dbe 8384 823d b003 783e
000001c0: b2f2 1abf c8d1 4fbf 07e2 b3be 07ba 553e
000001d0: 182e b33e c6c4 e3bd fdc0 88be d84f c43c
000001e0: 655f fabc f69e 923d ae63 9abe 7c0c 34be
000001f0: b359 09bd 7f89 08be 5353 483e eacb 4b3e
00000200: 6039 da3d ddd8 893e 3523 ea3c eb09 18be
00000210: ce2c d4bd d896 4fbd 00d7 48be 50a1 62bc
00000220: cfa7 71bd c059 fe3d 4376 873b 0a34 4bbd
00000230: b3e3 59be 998a 0b3e 8806 0ebe 67ac 03be
00000240: 30d1 e23d 9423 14be ad97 febd 0600 f5bc
00000250: 3440 07be 9f51 9a3d f358 33bb 5be4 203d
00000260: 677e 683d 030f d2bd 6db4 743e 9af4 77bd
00000270: d164 9d3d bd9e fdbc 4bb2 7bbe f26f f43d
00000280: 853f babd 2a01 22be cad8 373e a097 8d3d
00000290: 3370 293f 83e8 5e3d 5d0e 20bf 9f27 05bc
000002a0: 3434 9d3e 051d efbd a368 03c0 8b1d 113e
000002b0: bb72 243e a1b9 7d3c 78b8 5bbd 3f8d 703d
000002c0: 4a63 8ebf a697 b7bf d1dc 1cbf ed7f 843e
000002d0: 1098 e43e c609 913d 88b5 cfbc 230c ff3d
000002e0: bb63 09be a2c3 953e f15a a9bd 42bf 233c
000002f0: ace1 243e ad3c 42be 5a3b 843e 52e9 9e3d
00000300: bc08 e7bd 9397 44bd e147 eb3d 3323 643e
00000310: c836 1d3f ce1f 4f3e dd10 05bf 6e5d 6fbb
00000320: e2da bb3c 9e6f 193d 1fb1 8fbf 4231 403e
00000330: aee3 9abb 36a1 863d 1d6e d53d e808 883e
00000340: 7bf7 b1be c3bd 28bf 5129 35be 19f2 023e
00000350: 2e33 423e 427e adbc 9bc1 edbd fa89 1fbc
00000360: 8562 583c 3155 af3d 3dfd ef3d 609e 4f3e
00000370: c392 213d 2ba3 9fbd a61e b33d 3048 233e
00000380: 4f09 7d3d 533d e93d 0539 dbbd a22e 573e
00000390: 605d 073f c12b 303d 7e8f c0be 311c 293e
000003a0: 573c 4cbe 5210 db3d fb7a 1dbe 320e adbe
000003b0: 3c56 d73d a6f3 d93d b999 7fbd 91df ad3c
000003c0: 83ea 91bd f4bf 03be 7207 10be f6a3 fdbd
000003d0: d3ab d5bc 751d debd fb62 6e3d eda7 253e
000003e0: c540 763d f51e a3be c0be b93c ceeb 5f3e
000003f0: 0bcd a03d a0f0 1bbf 4728 7dbd 977f 153d

model.6.bias f4 [32]
0.2829031 -0.14144397 0.13504517 0.06666818 -0.16741751 0.25260213 -0.012681807 -0.15513293
0.24832751 0.058166616 -0.09300545 0.092802405 0.087033875 0.04886583 -0.28448763 -0.032913923
-0.1638439 -0.004484273 0.045684937 0.033538003 0.21369764 -0.12197727 -0.11982612 -0.117029175
-0.10250777 0.3705233 -0.07857559 0.10926359 0.12081395 0.07554578 0.047655262 0.21759902
00000000: add8 903e b0d6 10be 4849 0a3e 5489 883d
00000010: 7f6f 2bbe 1155 813e 5bc7 4fbc 2bdb 1ebe
00000020: 9149 7e3e 1e40 6e3d a479 bebd 300f be3d
00000030: d13e b23d 8927 483d 5da8 91be c0d0 06bd
00000040: b2c6 27be cff0 92bb 2120 3b3d 255f 093d
00000050: 8ed3 5a3e 38cf f9bd 6667 f5bd feac efbd
00000060: 98ef d1bd 3bb5 bd3e 3dec a0bd 97c5 df3d
00000070: 4e6d f73d bfb7 9a3d 2a32 433d 47d2 5e3e

model.8.weight f4 [32, 32]
0.04248497 -0.049591623 -0.0506035 -0.054083306 0.18904011 -0.21382476 0.09769571 0.16816464
0.07868198 0.08103934 0.03143876 0.002903792 0.06924237 -0.05969896 0.2160355 -0.04346921
-0.11608005 0.060735907 -0.096163645 0.13945957 -0.35074893 0.16308612 0.21157345 0.15623747
0.0012796739 -0.17284577 -0.07459621 0.018794324 0.1764317 0.04329443 0.16637838 -0.23260796
-0.010793294 -0.14154229 0.12835696 -0.142824 0.026995715 -0.25219405 0.010670143 0.26088953
-0.16891105 0.15011193 -0.023398971 -0.13827243 -0.21689461 -0.023921195 0.29764205 -0.08629946
-0.019242438 -0.24533401 -0.15452129 0.25528848 -0.043444656 -0.100240596 0.2067404 0.022382295
0.20732659 -0.218659 0.082170926 -0.13776857 -0.016609987 -0.117410034 0.23112984 -0.10565789
-0.06906988 0.2374118 -0.0734452 0.06039634 0.16682668 -0.068016425 0.13858633 0.0137247
-0.39042845 0.059091963 -0.023396328 -0.77409065 0.05196817 0.11123802 -0.08631897 -0.22079109
0.26967633 0.24129105 -0.052426323 -0.1456543 0.124756455 0.008119102 0.27189016 0.030008828
0.31293738 -0.71441025 -0.13868976 -0.04979435 0.21079075 0.16910858 0.16320072 0.25882483
0.40619203 -0.1456638 0.07868728 0.52378285 -0.076017946 0.43585262 0.28983685 0.04980547
0.03956944 0.15408036 0.15694076 -0.10422014 -0.13014406 -0.29683372 0.10517208 0.42263258
-0.26196006 -0.23822327 0.24608928 0.24386144 -0.21554494 0.2537777 -0.22507381 0.008218889
-0.3972211 0.037224606 0.051141288 -0.28380585 0.048404187 -0.054274056 0.18529023 -0.38755044
-0.10491253 0.38499925 -0.10602328 -0.22671448 0.24430208 -0.30882627 -0.036679097 -0.22506717
0.16453794 -0.03934147 -0.18525365 0.15941124 0.14576131 0.112470105 0.20498231 -0.25082308
0.23951308 0.49120772 -0.29606134 -0.17764927 -0.045762137 -0.17335579 0.22749746 0.022090882
0.19565295 -0.07848285 -0.16635682 0.26432526 0.23631226 0.13824636 -0.024316141 0.15664756
-0.01359836 0.33717105 0.023853214 -0.111433975 0.064918384 -0.1988475 0.16426452 0.17883779
-0.057924073 -0.055091705 0.093649544 -0.051898427 0.27603355 0.1488254 0.4039808 -0.24624717
0.33830872 0.20179039 -0.31215388 0.16023701 -0.12577629 0.019398598 0.2172047 0.11833903
0.35468292 -0.45144027 0.15452693 0.100941114 0.20719117 0.14379928 -0.0562392 0.008180545
0.023971787 0.22843099 -0.056903187 0.022986505 0.07367142 -0.2684631 -0.022173973 0.06358834
-0.07579207 -0.08992172 -0.14988148 -0.2406848 0.21018444 0.17034265 0.13684706 -0.123679325
0.19845322 0.21047868 -0.21340327 -0.09229742 0.09950584 -0.106657304 0.14237615 0.19234826
0.30013898 -0.14246225 0.16680941 0.16694677 0.30678567 0.064635895 0.10622017 -0.08064562
-0.17723045 0.051012356 0.22186452 0.021233778 -0.0019827401 -0.08005263 -0.013316066 0.13293982
-0.012454181 -0.039966635 -0.070962094 -0.12578231 0.027497217 0.078646906 0.29736137 -0.015225806
-0.07048772 -0.040976845 0.09544043 0.14881973 -0.24055801 -0.06166058 0.21862201 0.12258064
0.13774142 -0.19622727 -0.040364362 0.06237269 -0.120605916 0.113226004 -0.06591407 -0.08313394
00000000: b804 2e3d 9620 4bbd 9e45 4fbd 7586 5dbd
00000010: bb93 413e e1f4 5abe b014 c83d 5a33 2c3e
00000020: 0524 a13d f4f7 a53d eec5 003d 8c4d 3e3b
00000030: f2ce 8d3d e686 74bd 6938 5d3e c50c 32bd
00000040: 61bb edbd 37c6 783d 72f1 c4bd 7dce 0e3e
00000050: 5d95 b3be 0c00 273e b6a6 583e b7fc 1f3e
00000060: bbba a73a 7bfe 30be e6c5 98bd 8ef6 993c
00000070: 83aa 343e 8055 313d 185f 2a3e c830 6ebe
00000080: 5bd6 30bc 76f0 10be 0270 033e 7440 12be
00000090: 1e26 dd3c 941f 81be d3d1 2e3c 5093 853e
000000a0: 05f7 2cbe f1b6 193e 33af bfbc 4a97 0dbe
000000b0: 9f19 5ebe 62f6 c3bc 8a64 983e c5bd b0bd
000000c0: 51a2 9dbc d738 7bbe d43a 1ebe 2cb5 823e
000000d0: 06f3 31bd f14a cdbd c1b3 533e 135b b73c
000000e0: 6c4d 543e 25e8 5fbe 3b49 a83d 3413 0dbe
000000f0: ab11 88bc ac74 f0bd 4dad 6c3e 2a63 d8bd
00000100: 8274 8dbd 141c 733e 706a 96bd 2762 773d
00000110: 9dd4 2a3e 324c 8bbd 93e9 0d3e 90dd 603c
00000120: 3de6 c7be 6a0a 723d a8a9 bfbc ce2a 46bf
00000130: 93dc 543d c2d0 e33d 00c8 b0bd 0f17 62be
00000140: 0413 8a3e 0015 773e fcbc 56bd 6726 15be
00000150: 5080 ff3d fb05 053c 3035 8b3e 13d5 f53c
00000160: 5439 a03e 97e3 36bf b004 0ebe 29f5 4bbd
00000170: 88d9 573e cd2a 2d3e 171e 273e b084 843e
00000180: 67f8 cf3e e428 15be cc26 a13d a216 063f
00000190: 4caf 9bbd 1328 df3e 7f65 943e d200 4c3d
000001a0: 9113 223d 3ec7 1d3e 14b5 203e 5e71 d5bd
000001b0: 7c44 05be 97fa 97be 7664 d73d 4c63 d83e
000001c0: a11f 86be cdf0 73be d4fe 7b3e d0b6 793e
000001d0: d0b7 5cbe 27ef 813e c079 66be 85a8 063c
000001e0: 9060 cbbe d478 183d 8779 513d 004f 91be
000001f0: 7843 463d 794e 5ebd b9bc 3d3e 036d c6be
00000200: 61dc d6bd 9f1e c53e bc22 d9bd d727 68be
00000210: 532a 7a3e 7a1e 9ebe d23c 16bd 0278 66be
00000220: a27c 283e 8524 21bd 22b3 3dbe b33c 233e
00000230: 7442 153e ba56 e63d e2e6 513e e26b 80be
00000240: eb42 753e 947f fb3e 5a95 97be b1e9 35be
00000250: 1471 3bbd 2e84 31be 18f5 683e f0f7 b43c
00000260: 3f59 483e 9ebb a0bd 7159 2abe a455 873e
00000270: d7fb 713e 7490 0d3e a532 c7bc 3868 203e
00000280: a8cb 5ebc afa1 ac3e d167 c33c 7f37 e4bd
00000290: eef3 843d ae9e 4bbe f534 283e 4121 373e
000002a0: cb41 6dbd d7a7 61bd 55cb bf3d 7293 54bd
000002b0: 4554 8d3e b065 183e 92d6 ce3e 3828 7cbe
000002c0: cd36 ad3e 24a2 4e3e a2d2 9fbe 2c15 243e
000002d0: 80cb 00be cfe9 9e3c e96a 5e3e bc5b f23d
000002e0: 0099 b53e 2e23 e7be 4f3c 1e3e 37ba ce3d
000002f0: ec29 543e 1e40 133e 135b 66bd b107 063c
00000300: 7b60 c43c d0e9 693e 5113 69bd 324e bc3c
00000310: 0be1 963d ff73 89be 31a6 b5bc 9b3a 823d
00000320: df38 9bbd e128 b8bd 887a 19be 1476 76be
00000330: 973a 573e 4e6e 2e3e a321 0c3e 964b fdbd
00000340: 5237 4b3e b987 573e 6386 5abe 6e06 bdbd
00000350: b8c9 cb3d 256f dabd 0ecb 113e f1f6 443e
00000360: d1ab 993e a0e1 11be 16d0 2a3e 18f4 2a3e
00000370: 0313 9d3e d35f 843d f689 d93d 8829 a5bd
00000380: e67b 35be 55f2 503d 7430 633e 76f2 ad3c
00000390: dcf0 01bb a2f2 a3bd a12b 5abc 6021 083e
000003a0: 9f0c 4cbc 0eb4 23bd 9354 91bd 14cd 00be
000003b0: d841 e13c a111 a13d c03f 983e a975 79bc
000003c0: de5b 90bd 56d7 27bd 4676 c33d 3364 183e
000003d0: d754 76be ce8f 7cbd 73de 5f3e 8f0b fb3d
000003e0: 160c 0d3e cdef 48be 1a55 25bd 817a 7f3d
000003f0: 3c00 f7bd 09e3 e73d f5fd 86bd 2142 aabd

model.8.bias f4 [32]
0.0046870564 -0.08803386 -0.028266057 0.27039585 -0.009352644 0.012867779 -0.08841385 -0.12838347
0.18685555 -0.0066466485 0.013326801 -0.22038287 -0.069070905 -0.090991706 -0.026839592 -0.1529829
-0.04989694 0.24810036 -0.03848693 0.06937076 0.14219353 0.048422564 -0.15136448 -0.0672602
-0.058310732 0.13964733 0.020569822 -0.18263526 0.1544888 -0.14056899 0.1294263 -0.1301288
00000000: e195 993b 194b b4bd 388e e7bc 5371 8a3e
00000010: d53b 19bc 60d3 523c 5212 b5bd f576 03be
00000020: 1057 3f3e 21cc d9bb a858 5a3c 0cac 61be
00000030: 0c75 8dbd dc59 babd b4de dbbc 8da7 1cbe
00000040: bc60 4cbd 050e 7e3e 79a4 1dbd 4212 8e3d
00000050: 2e9b 113e bd56 463d 4aff 1abe b7bf 89bd
00000060: 3cd7 6ebd b6ff 0e3e 0b82 a83c bd04 3bbe
00000070: 5032 1e3e 51f1 0fbe 5488 043e 7c40 05be

model.10.weight f4 [32, 32]
0.11772298 0.12881824 0.1336988 0.019180097 0.25737265 0.06253061 -0.016742108 -0.059645467
0.07529011 0.0011218823 0.004846697 -0.0039331573 -0.05454759 0.146272 -0.017024351 0.008017246
0.10384233 0.29155502 0.08568503 0.1568924 0.037437245 0.032896753 -0.13316333 0.06875301
-0.039241657 -0.6290382 0.11716377 0.07989649 0.12502247 -0.020854225 0.015458005 -0.07367405
0.22031598 0.19905469 0.0999017 -0.37615135 -0.09493518 0.14989208 0.06569857 -0.018008409
-0.07699103 0.07466612 -0.034216218 0.18724078 -0.050964985 -0.10968588 0.03217355 -0.08334039
0.16044655 0.0054135313 -0.15519165 0.084340066 0.07246667 0.086532965 0.018625477 0.028331745
0.14039136 -1.0978652 0.099795654 0.098870054 -0.10532612 -0.14842838 0.113718264 0.18578462
0.062106814 0.10843778 0.03559764 -0.39798924 -0.17075399 0.13851216 0.20446426 -0.010867662
-0.33227348 0.16218965 -0.009933411 0.14379175 0.17668007 0.10793907 -0.12544706 0.10839053
0.3028448 0.04910496 0.04951536 0.06895679 -0.17529546 0.15531753 0.09076029 -0.13565396
0.00062581315 -0.68612015 0.21708946 -0.056718163 0.13184555 0.058837958 0.10794322 0.052626792
0.1558404 0.2607294 0.17296846 -0.19389659 0.09621021 0.23020527 0.18048409 0.17162307
-0.45154816 -0.08734734 -0.09211972 -0.052807577 -0.08644697 0.051617317 0.21937414 -0.1428977
0.20548892 0.07782266 0.07351964 -0.03626629 0.06281867 0.089838445 0.1167311 0.044634733
-0.18466501 -0.5204407 0.085046954 -0.1088436 0.059574604 0.03618407 -0.13388763 0.18881296
0.040541086 0.08837326 -0.081424125 0.19343132 -0.7208352 -0.38108405 -0.527424 0.097585455
-0.33405524 0.0838937 0.08975262 0.021269627 0.3692759 0.11371359 -0.042162728 0.5275061
-0.009063303 0.34135258 0.012024148 -1.0947077 -0.3144748 0.26057974 -0.22012194 0.1973161
-0.213006 -0.2877684 -0.61701626 -0.008427723 -0.62204504 -0.29369202 0.25432685 0.029065253
0.13438702 -0.058056116 0.051856246 -0.073403195 0.042367782 -0.14158542 -0.0040171016 -0.1517857
-0.10701095 -0.04950718 0.152616 0.0028731888 0.083347686 0.13284875 -0.08036354 0.008181444
-0.14519286 0.0127643775 0.19365522 0.09234958 0.36502004 0.0644916 -0.14698991 -0.059106525
0.12109595 -0.60209256 0.181187 0.030318612 -0.04564448 0.29606164 0.23999034 -0.15588482
0.027704611 0.045633815 0.19446568 -0.27480793 0.050947107 0.1189634 0.1377184 -0.006878531
-0.5908455 0.005165468 -0.022314798 0.20748432 -0.0146635445 0.09465668 -0.017672874 0.3541254
0.33747578 -0.19214459 0.16819084 0.100777805 -0.23219134 -0.055560555 0.026637483 0.09247304
-0.00795618 0.05168971 0.015546805 0.11200863 -0.13096659 0.12950462 0.14949542 -0.01456314
-0.07641557 -0.054652654 0.16737376 -0.051562488 0.20717931 0.04893723 -0.08147363 0.022906383
0.21366388 0.14546865 -0.006831591 0.042505503 -0.06173906 -0.3015281 0.16363098 0.08934229
0.015040046 -0.07187563 0.00602516 0.04304535 -0.015411353 0.0075161373 0.39009368 -0.17873724
0.10525739 0.17307927 0.12710026 -0.16842404 0.14768936 0.22529134 -0.038553353 -0.1225569
00000000: bf18 f13d eee8 033e 57e8 083e 941f 9d3c
00000010: 59c6 833e 0c10 803d bf26 89bc ce4e 74bd
00000020: b431 9a3d 200c 933a 0bd1 9e3b b7e1 80bb
00000030: 4b6d 5fbd 54c8 153e a776 8bbc c45a 033c
00000040: 4aab d43d b346 953e a27b af3d 67a8 203e
00000050: cc57 193d bfbe 063d f85b 08be 61ce 8c3d
00000060: dcbb 20bd a608 21bf 8ff3 ef3d c5a0 a33d
00000070: e405 003e 7bd6 aabc 9243 7d3c 6ce2 96bd
00000080: 839a 613e fed4 4b3e 4399 cc3d e996 c0be
00000090: 606d c2bd 4f7d 193e f98c 863d 5f86 93bc
000000a0: 79ad 9dbd 8dea 983d 4e26 0cbd 0cbc 3f3e
000000b0: a9c0 50bd fea2 e0bd 6ac8 033d 5eae aabd
000000c0: 1a4c 243e fe63 b13b 8fea 1ebe 7cba ac3d
000000d0: 6869 943d 3238 b13d 7594 983c fa17 e83c
000000e0: c1c2 0f3e d986 8cbf aa61 cc3d 627c ca3d
000000f0: 39b5 d7bd 9cfd 17be 1fe5 e83d 533e 3e3e
00000100: b763 7e3d a014 de3d d5ce 113d 3fc5 cbbe
00000110: 22da 2ebe 22d6 0d3e 145f 513e 470e 32bc
00000120: c01f aabe 0b15 263e bfbf 22bc 253e 133e
00000130: 9feb 343e 290f dd3d 3275 00be dbfb dd3d
00000140: 790e 9b3e 4822 493d 9ed0 4a3d 3839 8d3d
00000150: a780 33be 8f0b 1f3e 88e0 b93d dfe8 0abe
00000160: 9c0d 243a 92a5 2fbf b34c 5e3e 4e51 68bd
00000170: 8502 073e 1200 713d 5611 dd3d 318f 573d
00000180: a094 1f3e 537e 853e a51e 313e d48c 46be
00000190: dc09 c53d eeba 6b3e d2d0 383e f5bd 2f3e
000001a0: 5231 e7be 2ae3 b2bd 44a9 bcbd c24c 58bd
000001b0: 1c0b b1bd ae6c 533d 9da3 603e c653 12be
000001c0: b06b 523e 7d61 9f3d 7791 963d f68b 14bd
000001d0: 13a7 803d 38fd b73d b710 ef3d e9d2 363d
000001e0: d318 3dbe 9a3b 05bf 192d ae3d 65e9 debd
000001f0: 8004 743d bf35 143d d719 09be 2f58 413e
00000200: 690e 263d 0afd b43d b1c1 a6bd dc12 463e
00000210: a888 38bf 731d c3be 4205 07bf e2da c73d
00000220: 4a09 abbe 76d0 ab3d 39d0 b73d a43d ae3c
00000230: bb11 bd3e ace2 e83d d3b2 2cbd a40a 073f
00000240: 3f7e 14bc c4c5 ae3e ef00 453c 621f 8cbf
00000250: d702 a1be b56a 853e a567 61be 3b0d 4a3e
00000260: 3f1e 5abe 6156 93be c7f4 1dbf 6f14 0abc
00000270: 583e 1fbf cd5e 96be 2137 823e 411a ee3c
00000280: c09c 093e 40cc 6dbd 3767 543d 6a54 96bd
00000290: d789 2d3d c5fb 10be e4a1 83bb b66d 1bbe
000002a0: 8f28 dbbd 0ac8 4abd 5e47 1c3e 1c4c 3c3b
000002b0: 31b2 aa3d 8109 083e a495 a4bd 770b 063c
000002c0: 70ad 14be ae21 513c 8e4d 463e c721 bd3d
000002d0: e8e3 ba3e 2c14 843d 8684 16be af19 72bd
000002e0: 2701 f83d bd22 1abf 1689 393e bd5e f83c
000002f0: b5f5 3abd 6495 973e 07c0 753e 45a0 1fbe
00000300: c8f4 e23c 86ea 3a3d 0322 473e a0b3 8cbe
00000310: eaad 503d 15a3 f33d 0d06 0d3e 4d65 e1bb
00000320: a741 17bf 1643 a93b 86cd b6bc c576 543e
00000330: 5d3f 70bc 5ddb c13d b4c6 90bc ed4f b53e
00000340: a0c9 ac3e 8dc1 44be 383a 2c3e 9864 ce3d
00000350: 91c3 6dbe 7793 63bd da36 da3c 8162 bd3d
00000360: a35a 02bc 97b8 533d 07b8 7e3c c864 e53d
00000370: 1b1c 06be dc9c 043e 5415 193e 3d9a 6ebc
00000380: c47f 9cbd 76db 5fbd 0764 2b3e 3033 53bd
00000390: d026 543e 6872 483d a6db a6bd 2ba6 bb3c
000003a0: b4ca 5a3e bcf5 143e 8adb dfbb 401a 2e3d
000003b0: 19e2 7cbd e461 9abe e18e 273e 17f9 b63d
000003c0: 866a 763c 8833 93bd b56e c53b 5250 303d
000003d0: e67f 7cbc ee49 f63b 5cba c73e e506 37be
000003e0: 3091 d73d b13b 313e 9226 023e 5a77 2cbe
000003f0: e13b 173e c6b2 663e 1fea 1dbd 1dff fabd

model.10.bias f4 [32]
0.07668467 -0.19172502 -0.22321782 0.13842624 0.22487563 0.15849511 -0.15948197 0.110711865
0.09569757 -0.14074077 -0.03801546 -0.14845322 -0.048115257 -0.041713033 0.21368104 -0.08366966
0.08680961 0.020277036 0.079018906 -0.023954246 0.09653224 0.070708774 -0.09217491 -0.2224758
0.06519831 0.084555134 -0.09759819 0.021021703 0.15485598 0.1600409 0.09618361 -0.075134575
00000000: da0c 9d3d 9053 44be 3693 64be 9cbf 0d3e
00000010: cc45 663e 8b4c 223e 3e4f 23be e7bc e23d
00000020: 16fd c33d 591e 10be 19b6 1bbd 1f04 18be
00000030: 8114 45bd 49db 2abd 34cf 5a3e 005b abbd
00000040: 3dc9 b13d 071c a63c aad4 a13d b23b c4bc
00000050: b2b2 c53d c3cf 903d 33c6 bcbd b2d0 63be
00000060: b186 853d 3e2b ad3d 8fe1 c7bd b535 ac3c
00000070: 9192 1e3e c3e1 233e eafb c43d 28e0 99bd

model.12.weight f4 [1, 32]
0.1264031 -0.13179651 -0.24275763 -0.12882012 0.51994765 0.20562813 -0.2715518 0.17050642
-0.21222283 0.1755906 -0.17360166 -0.14223886 -0.18743214 -0.26045844 0.19917615 0.18434623
-0.19772679 0.17880592 0.6137503 0.29797703 -0.3116474 0.11509944 -0.26274326 -0.14272289
0.20809437 -0.16531338 0.09929264 -0.23242639 0.15558715 0.16523962 0.16499215 0.22748962
00000000: d06f 013e aaf5 06be 7595 78be 6ce9 03be
00000010: 4a1b 053f 2e90 523e d608 8bbe 3c99 2e3e
00000020: f150 59be 06ce 333e a2c4 31be 10a7 11be
00000030: 36ee 3fbe cf5a 85be d5f4 4b3e 42c5 3c3e
00000040: e478 4abe e618 373e bd1e 1d3f 7290 983e
00000050: 3f90 9fbe 41b9 eb3d 4986 86be f325 12be
00000060: b116 553e e947 29be f159 cb3d 2f01 6ebe
00000070: 3d52 1f3e 9334 293e b4f3 283e 0af3 683e
