best_model_0_dim2.pt (torch, 2720 bytes, 3 tensors)

model.0.weight f4 [32, 2]
000000 12 4f f7 3e fa 7b 7e 3f 1c 32 f3 3f 70 0a e8 bf
       0.48302513 0.99407923 1.8999667 -1.8128185
000010 a6 ad 64 3f 46 15 de 3e a8 15 79 40 29 26 00 41
       0.89327466 0.43375605 3.8919468 8.009316
000020 91 78 76 bf 74 46 09 be 5b 21 16 3d 88 18 3f bc
       -0.9627772 -0.13405782 0.036652904 -0.011663564
000030 83 05 64 40 91 59 55 c0 22 a3 07 bd f1 dc af 3f
       3.5628364 -3.3335917 -0.03311456 1.3739301
000040 76 8d 9c 3f 2c ae 1e 3d 5b 6e 8c bf c2 06 59 bd
       1.223067 0.038740322 -1.0971178 -0.05298496
000050 70 87 98 3f 64 98 ce bf 56 32 e0 bc 8a 6b 2e 3c
       1.1916332 -1.6140256 -0.027367752 0.0106457565
000060 a8 d3 67 be 2a 6c 91 3d 4a 99 4d bf df 5e 93 bf
       -0.22639334 0.07100709 -0.80312026 -1.1513327
000070 0c 89 4d bf 0d 82 e2 bd 14 b9 a3 3f 51 8b be 3a
       -0.8028724 -0.110599615 1.2790856 0.0014537369
000080 85 3d e8 bd 4b d5 19 3d 6e d1 c3 bf 7c a9 44 bf
       -0.11339859 0.037556928 -1.5298288 -0.7682111
000090 75 ae 4f 3d 85 73 90 bf a4 42 56 bf 87 76 30 be
       0.050703485 -1.1285254 -0.83695436 -0.17232715
0000a0 77 4a 26 3d f8 dc 8a bf 89 37 82 c0 f0 f1 00 c1
       0.04059836 -1.0848684 -4.069279 -8.059067
0000b0 60 d7 02 bd 37 52 40 3c 52 f8 ba bf 52 96 04 bf
       -0.03194368 0.011738352 -1.4607031 -0.5179187
0000c0 6b ca c4 be a8 7b f5 3d c5 ad 63 bf aa c6 29 be
       -0.38435683 0.11986476 -0.88937026 -0.1657969
0000d0 b1 66 86 3f 7c 78 1f 3f de 3b 67 bf 3b c4 ca bd
       1.0500089 0.6229322 -0.90325725 -0.09900709
0000e0 b7 1f 2c 3f 8e 78 03 3f f5 24 54 3f e4 93 22 40
       0.67235893 0.51355827 0.8286889 2.5402765
0000f0 9b 5a e6 bd 6c ff cf be 72 68 b3 be b5 d2 dd 3d
       -0.1124775 -0.4062456 -0.35040623 0.10831205

model.0.bias f4 [32]
000000 c3 0d 27 3f a9 3a 46 3f db bb a6 be 88 13 0d c1
       0.65255374 0.7743326 -0.32565197 -8.817268
000010 9b b0 0f bf a9 cc 57 bf f4 25 9f c0 31 97 35 be
       -0.56128854 -0.8429666 -4.973383 -0.17733456
000020 56 a8 0d 3f fb 98 04 3f ae ab 73 bd 95 b9 1f bf
       0.55334985 0.5179593 -0.0594899 -0.6239255
000030 f0 67 aa 3e d4 01 99 bf fa a1 f4 bd 45 95 f4 3e
       0.33282423 -1.1953683 -0.11944957 0.47770134
000040 5e 20 b3 be db 89 23 bb 8f cc 72 3d 0b 53 38 be
       -0.34985632 -0.0024953994 0.059277114 -0.18000428
000050 59 de c9 be ea b0 0e c1 3b e8 1c bf 09 10 76 3d
       -0.3942745 -8.918192 -0.61291856 0.060073886
000060 6e 81 29 3f 55 fd bf be b1 91 1d bf 67 cb 4b 3e
       0.6621312 -0.37497965 -0.6155043 0.1990181
000070 85 c8 a0 3e c7 58 9f 3b a1 9f 0b 3f ab 92 c6 3e
       0.31402984 0.004862878 0.5454045 0.38783774

model.2.weight f4 [1, 32]
000000 e1 47 de be 24 40 d6 3e f1 e0 2b bf b3 66 41 c0
       -0.43414214 0.4184581 -0.6714011 -3.0218933
000010 1f 43 aa be 8f 07 30 3e 70 bc 0c c0 aa f6 d6 bf
       -0.33254334 0.17190383 -2.1990013 -1.6794026
000020 e9 aa ef be 80 0d 0b bf c2 9e 01 3f c3 e7 5e 3d
       -0.46810082 -0.54317474 0.5063287 0.054420244
000030 10 72 86 3c 90 ed 06 bf 3d 42 60 bf b0 f6 b4 be
       0.016411811 -0.5270624 -0.8760107 -0.35344458
000040 fc 25 53 3e 6b cf 35 3f 14 17 14 c0 be 13 00 bf
       0.20619959 0.7101962 -2.3139086 -0.50030124
000050 b3 a9 42 bf 31 5a 43 c0 a1 c6 70 3d fd 98 4d 3f
       -0.7604019 -3.0523798 0.058783177 0.80311567
000060 3e 0c fd 3d 37 9d fc be 4f a9 94 bf 56 a2 0b bf
       0.12355851 -0.49338695 -1.1614169 -0.5454458
000070 cc 2b b2 be f4 31 8a 3f 03 45 04 bd 6c bd f0 3d
       -0.3479904 1.0796494 -0.032292377 0.11754879
