best_model_4_dim3.pt (torch, 22098 bytes, 11 tensors)

model.0.weight f4 [32, 3]
0	0x3f3a2be9	0.7272325
1	0x3f64b2fc	0.8933561
2	0xbf3baaf8	-0.7330775
3	0x3f764c62	0.962103
4	0xbf785cd6	-0.97016656
5	0xbf797bd1	-0.97454554
6	0x3fb59e39	1.4188911
7	0xbf8e7a30	-1.1131039
8	0xbfc2b37c	-1.5211024
9	0x3e3cd8ae	0.18442032
10	0x3e648f42	0.22320274
11	0x3e6536d7	0.22384201
12	0x3de9f62b	0.11423906
13	0xbfb642b4	-1.4239106
14	0x3fa7a517	1.3097256
15	0xbf22e5fe	-0.6363219
16	0xbf141575	-0.5784524
17	0x3efdac02	0.49545294
18	0xbfaf3e33	-1.3690857
19	0x3ec7aaa1	0.38997367
20	0x3faa0f53	1.3285927
21	0x3ea5395f	0.32270333
22	0xbf8e31fc	-1.1109004
23	0xbefe6074	-0.49682963
24	0x3fa908a0	1.3205757
25	0x3da43bfa	0.08019252
26	0x3f89b6d8	1.0758924
27	0xbf5f087f	-0.8712234
28	0xbf0a9224	-0.5412924
29	0xbf5b5bc2	-0.85686886
30	0xbeabae6e	-0.33531517
31	0x3ed962c4	0.42458165
32	0xbf63deb3	-0.8901169
33	0x3ee83f2c	0.45360696
34	0x3e266ac8	0.16251671
35	0xbd531330	-0.05153197
36	0x3f99c926	1.2014511
37	0x3f70d349	0.94072396
38	0x3f103ee5	0.5634597
39	0xbefbea87	-0.49202368
40	0xbf7aaae4	-0.9791701
41	0xbf9f54fb	-1.2447809
42	0xbf91f191	-1.1401845
43	0x3f9e2c56	1.235728
44	0x3f28d5dc	0.65951324
45	0xbfbfb719	-1.4977752
46	0xbe0117de	-0.12606761
47	0xbfd6293a	-1.6731331
48	0xbfa5dad6	-1.2957408
49	0xbfcb0131	-1.5859739
50	0x3ec605f7	0.38676426
51	0xbe88cad8	-0.26717257
52	0x3eb48103	0.35254678
53	0x3efb7dcb	0.4911941
54	0x3f4f3105	0.8093417
55	0xbe8e8a11	-0.2783971
56	0xbf809681	-1.004593
57	0xbf211ac5	-0.6293147
58	0x3fa3b6d8	1.2790174
59	0xbf62eba8	-0.8864083
60	0xbe9262f7	-0.2859113
61	0x3e4316bb	0.1905164
62	0x3ef81eef	0.484611
63	0xbf07d600	-0.53060913
64	0x3f30fcae	0.6913556
65	0x3e827f2f	0.25487658
66	0x3f4b80e5	0.7949355
67	0x3f2c757b	0.6736676
68	0xbf4cc1c5	-0.7998317
69	0x3f3cc1a6	0.73732984
70	0x3f5d9fe3	0.8657209
71	0xbf1214d7	-0.5706305
72	0x3f7327f6	0.9498285
73	0xbf5f4930	-0.8722105
74	0xbf0efd34	-0.5585511
75	0x3e9f1f93	0.31078777
76	0x3fb3b4a9	1.4039508
77	0x3f4ad3b5	0.7922929
78	0x3f26c363	0.65141886
79	0x3fa034e9	1.2516147
80	0xbfac7eb8	-1.3476171
81	0xbf467630	-0.7752409
82	0xbeb2e484	-0.3493997
83	0x3f349cea	0.7055193
84	0xbf0b951d	-0.54524404
85	0x3f8d310c	1.1030593
86	0x3f06397c	0.52431464
87	0x3f787fe9	0.97070175
88	0xbf29f9fa	-0.6639706
89	0x3f39a25c	0.72513366
90	0xbf3e43e9	-0.7432237
91	0x3f89a287	1.0752724
92	0x3f831a42	1.0242388
93	0xbecfc5e9	-0.4058068
94	0xbf28e83d	-0.6597937
95	0xbf1d8038	-0.6152377

model.0.bias f4 [32]
0	0xbe0f86d6	-0.1401628
1	0xbe1b8713	-0.15188245
2	0xbdf5a34d	-0.11994038
3	0xbeb1c7ee	-0.34722847
4	0xbe03b1f8	-0.12860858
5	0xbf54dfd8	-0.8315406
6	0xbe550e2a	-0.20806184
7	0xbeb12b90	-0.34603548
8	0xbe1f2d47	-0.15544616
9	0xbec8c4cb	-0.3921264
10	0x3e2a5e9c	0.16637653
11	0x3f5549ef	0.8331594
12	0xbe2434da	-0.16035786
13	0x3e5f58ef	0.21811269
14	0xbdcd0f70	-0.1001271
15	0xbe0f09f4	-0.1396864
16	0xbe0b8529	-0.13625015
17	0x3f3cc429	0.73736817
18	0xbe0ef23e	-0.13959596
19	0xbe5d4ae7	-0.21610604
20	0x3f1b50bd	0.6067007
21	0x3e84df5d	0.25951663
22	0xbf0f24ab	-0.55915326
23	0xbdd02bba	-0.1016459
24	0x3f336fbe	0.7009238
25	0xbdd5139d	-0.104041316
26	0xbd148aa2	-0.036265023
27	0x3e587d33	0.2114151
28	0xbe4d74e8	-0.20064127
29	0xbe6cf6f3	-0.23141079
30	0x3c819066	0.015815925
31	0xbf0be93e	-0.54652774

model.2.weight f4 [32, 32]
0	0xbdb06ba4	-0.08614281
1	0xbed4f5ff	-0.4159393
2	0xbebb9e68	-0.36644292
3	0x3d997a98	0.07494086
4	0xbe12f0a3	-0.14349608
5	0xbc089c4d	-0.008338046
6	0xbe868500	-0.26273346
7	0x3e17f963	0.14841227
8	0x3e80b6b5	0.25139394
9	0x3dce2ed7	0.10067528
10	0x3e075a82	0.1321812
11	0x3df97474	0.12180415
12	0x3d94fa8d	0.07274351
13	0xbdc15cc6	-0.09441523
14	0xbd26f742	-0.040763147
15	0x3e121645	0.14266308
16	0x3be1a4ed	0.0068861158
17	0x3d55290f	0.05204111
18	0xbe4490e7	-0.19195901
19	0x3e6fd640	0.23421574
20	0xbc827f1a	-0.015929747
21	0xbc9947aa	-0.01871093
22	0xbdc89300	-0.09793663
23	0x3dad89dd	0.08473561
24	0x3d6dad59	0.058026645
25	0x3e3ba09a	0.18322983
26	0x3e483b73	0.19553928
27	0x3c85b7b0	0.01632294
28	0x3d3eca07	0.046579387
29	0xbd5490d4	-0.05189593
30	0xbe04db75	-0.12974341
31	0x3d6a9057	0.05726656
32	0x3eedcfb6	0.46447533
33	0xbdd9b4a2	-0.10630156
34	0xbef2a622	-0.47392374
35	0xbd1fd43d	-0.039020766
36	0xbd9d19f6	-0.07670967
37	0x3e7530ee	0.23944446
38	0x3d3e19ee	0.046411447
39	0xbf148de9	-0.5802904
40	0xbe681fca	-0.22668377
41	0xbe4b0f5a	-0.19830075
42	0x3d874725	0.066053666
43	0x3d7a8f08	0.06117156
44	0xbe060747	-0.13088714
45	0xbd265fdd	-0.040618766
46	0xbf32aecc	-0.6979797
47	0xbeecf749	-0.46282414
48	0x3f1faa0d	0.6236885
49	0xbe0dad6e	-0.1383569
50	0x3d98a10d	0.07452593
51	0xbf24d3bb	-0.64385575
52	0x3d70136a	0.058612265
53	0xbe6b87f8	-0.23001087
54	0x3e89c726	0.2690975
55	0x3ee71336	0.45131844
56	0xbe7e3239	-0.24823846
57	0x3d8aa1af	0.0676912
58	0x3ef05019	0.4693611
59	0x3e883483	0.26602563
60	0xbf001571	-0.50032717
61	0xbf34b16d	-0.7058323
62	0x3bf732c8	0.0075438954
63	0x3d5fa1d6	0.0545977
64	0xbe3aa532	-0.1822708
65	0x3f09624c	0.53665614
66	0x3f165f69	0.58739334
67	0xbc40592a	-0.011740008
68	0xbd7d9232	-0.061907
69	0xbdbb1bde	-0.091361746
70	0x3efd58d9	0.49481848
71	0x3e817962	0.2528792
72	0xbe0ae167	-0.13562547
73	0xbbfa56be	-0.007639735
74	0xbe55f22a	-0.2089316
75	0xbe0858d0	-0.1331513
76	0xbe96ddab	-0.29465994
77	0xbe62df3c	-0.2215547
78	0x3eb1d02d	0.34729138
79	0xbe8ee475	-0.27908674
80	0xbf0df6cb	-0.554547
81	0xbce35f9c	-0.027755551
82	0x3df1580e	0.11784373
83	0xbebf9bc0	-0.37423515
84	0xbe1040f2	-0.14087275
85	0x3e3d41cd	0.18482132
86	0x3e1d4a8a	0.15360466
87	0x3d15802b	0.036499184
88	0x3e2a5b42	0.16636375
89	0xbda37875	-0.0798196
90	0xbec07470	-0.37588835
91	0xbd03fd0a	-0.03222374
92	0x3e746bbb	0.23869221
93	0xbec2ee27	-0.3807232
94	0x3ed67a33	0.41890106
95	0x3e0f8af1	0.14017846
96	0x3d52c659	0.05145869
97	0x3efacb7c	0.4898337
98	0xbced0583	-0.028933292
99	0xbd3e7651	-0.046499554
100	0x3e766f1f	0.24065827
101	0x3e019d28	0.12657607
102	0x3ebf61e4	0.37379372
103	0xbe0a3f11	-0.1350062
104	0x3dd7bdf2	0.10534276
105	0xbe39362d	-0.18087073
106	0x3e4d3159	0.20038356
107	0xbe240390	-0.16016984
108	0x3e926a3b	0.28596672
109	0x3e04b082	0.12957957
110	0x3eafddf5	0.34349027
111	0x3e76d794	0.24105674
112	0x3e3fbd50	0.1872456
113	0x3d3b9359	0.04579482
114	0x3e71a95c	0.23599762
115	0x3dd94fdf	0.10610937
116	0x3def781d	0.11692832
117	0xbe21d047	-0.15802108
118	0xbdacc399	-0.08435745
119	0x3e859494	0.2608992
120	0xbe04c896	-0.12967142
121	0x3e626919	0.22110404
122	0x3e0b7772	0.13619784
123	0x3e38ca44	0.18045908
124	0x3e59a215	0.21253236
125	0x3e7566e2	0.23965028
126	0x3debf0bf	0.11520528
127	0xbbc73f67	-0.006080556
128	0x3eebb0c7	0.46033308
129	0x3e2d09fa	0.16898337
130	0x3ee79bab	0.45235953
131	0xbe53cd28	-0.2068373
132	0x3ed41df1	0.41429093
133	0xbd6d3e94	-0.057921007
134	0x3f26c2c8	0.6514096
135	0x3d78ab17	0.06071004
136	0x3caf2418	0.021379516
137	0x3e0c9c92	0.13731602
138	0x3d944a75	0.07240764
139	0x3ea80990	0.32819796
140	0x3eea11bc	0.45716655
141	0x3e9773ed	0.29580632
142	0x3f38e34b	0.7222182
143	0x3e3461aa	0.17615381
144	0x3eff9b7a	0.49923307
145	0x3e5701a6	0.20996723
146	0x3e3d6dec	0.18498963
147	0x3ec139fa	0.37739545
148	0x3e8961c3	0.268324
149	0x3c7a25ec	0.01526783
150	0xbacbb25f	-0.001554083
151	0x3d201633	0.03908367
152	0x3dfed462	0.124428526
153	0x3ee26e59	0.44224814
154	0x3e997a7e	0.29976267
155	0x3e9d4781	0.30718616
156	0x3f1035f9	0.56332356
157	0x3da0a171	0.078432925
158	0x3e7430ba	0.23846713
159	0xbdc2b7ff	-0.09507751
160	0xbf08e50c	-0.534745
161	0xbe371c83	-0.1788197
162	0x3e4d3b11	0.20042063
163	0xbdf97cbb	-0.121819936
164	0x3eaace6c	0.33360612
165	0xbe094f33	-0.13409118
166	0xbda181e2	-0.07886101
167	0x3e7547bd	0.23953147
168	0x3fbb435c	1.4629931
169	0xbdc4d172	-0.09610261
170	0x3e9c6993	0.30549297
171	0x3ed11d8f	0.40842864
172	0x3eb14a81	0.34627154
173	0x3ef2b467	0.4740326
174	0xbd2827aa	-0.04105345
175	0x3fb1e07a	1.389663
176	0x3e31aabf	0.1735029
177	0x3e04748f	0.12935089
178	0xbe96b0a4	-0.2943164
179	0x3f1bad09	0.60810906
180	0x3d82583c	0.063644856
181	0x3e69fbd0	0.22849965
182	0xbf4fdadb	-0.8119332
183	0xbe81caf8	-0.25350165
184	0x3ec7a822	0.38995463
185	0x3f1d3e62	0.61423314
186	0xbe9268a7	-0.28595468
187	0x3d2a53a7	0.041583683
188	0x3e34a353	0.17640428
189	0x3f741243	0.95340365
190	0x3dc3a443	0.09552815
191	0x3e25b412	0.16181973
192	0xbd748e9b	-0.05970631
193	0xbe3a5900	-0.18198013
194	0xbd961986	-0.07329087
195	0xbdbcf963	-0.09227254
196	0x3d081dcc	0.03323154
197	0x3e62886c	0.22122353
198	0xbf2f15d5	-0.6839269
199	0x3f36461d	0.71200734
200	0xbedb5311	-0.42836812
201	0x3e2933bd	0.16523643
202	0x3d79ca4a	0.060983934
203	0xbe71d3a1	-0.23615886
204	0x3e93f44c	0.2889732
205	0x3e5ac3af	0.2136371
206	0xbe6d3403	-0.23164372
207	0xbe4c5c8e	-0.19957182
208	0x3d003987	0.031304862
209	0xbe7a96ea	-0.24471632
210	0xbe34ed1a	-0.17668572
211	0xbb09fff1	-0.0021057094
212	0xbe75e155	-0.24011739
213	0xbd246c5f	-0.040142413
214	0x3e2bc452	0.16774109
215	0x3e7c97a2	0.24667218
216	0xbe083e80	-0.13305092
217	0x3dfc7b52	0.12328209
218	0x3e19af9c	0.15008396
219	0x3e6eac81	0.23307993
220	0x3db769e0	0.08955741
221	0xbf04c78e	-0.51866996
222	0xbedbda8d	-0.4294018
223	0x3d6c4c87	0.05769017
224	0x3e3cbadf	0.1843066
225	0x3e31e7d8	0.17373598
226	0x3eb458d8	0.35224032
227	0xbe553e65	-0.20824583
228	0x3e7f370a	0.2492334
229	0xbe1990f0	-0.14996696
230	0xbcbe4bd3	-0.023229515
231	0x3d9b095d	0.07570145
232	0xbec162c3	-0.37770662
233	0xbd445dd5	-0.047941048
234	0x3c22d6a4	0.00993887
235	0x3df844ea	0.12122519
236	0x3e9cb28f	0.3060498
237	0x3dc5660e	0.09638606
238	0x3e8a02f9	0.26955393
239	0xbe9dfa59	-0.30855063
240	0x3e2e344b	0.17012136
241	0x3d7bb396	0.061450563
242	0xbdb5144b	-0.08841761
243	0x3ea344f6	0.3188855
244	0x3d8a5590	0.06754601
245	0xbdeba2a9	-0.11505634
246	0xbdeb5a3d	-0.11491821
247	0x3dcf602c	0.10125765
248	0x3e359079	0.17730893
249	0xbe37e375	-0.17957862
250	0xbc0eaa00	-0.008707523
251	0x3e5bea5a	0.21476117
252	0x3e200363	0.15626292
253	0xbef83ffa	-0.4848631
254	0xbe2a3e7e	-0.16625401
255	0xbcff4bbf	-0.031164048

model.2.bias f4 [32]
0	0xbd32540c	-0.043537185
1	0xbe4030b1	-0.18768574
2	0x3d3caedf	0.046065208
3	0xbe0a8b4d	-0.13529702
4	0x3e8dfb63	0.27730855
5	0x3ea1baff	0.3158798
6	0xbe2b67c8	-0.16738808
7	0x3e1868ab	0.14883678
8	0xbdbb14c6	-0.091348216
9	0xbde54bb8	-0.11196083
10	0xbdc0b7c6	-0.09410052
11	0xbe4796c6	-0.19491109
12	0x3dbaab1d	0.091146685
13	0x3e1d38cb	0.15353696
14	0xbbbe1cee	-0.0058017885
15	0xbe745315	-0.23859818
16	0x3dc89dad	0.09795699
17	0xbd2cb819	-0.042167757
18	0xbddfc561	-0.10926319
19	0xbe21323a	-0.15741816
20	0x3e10106c	0.14068764
21	0xbe19127f	-0.14948462
22	0x3e11cbc9	0.14237894
23	0xbe006051	-0.12536742
24	0x3d92ab90	0.07161629
25	0x3e0319f9	0.12802877
26	0xbe2f87ba	-0.1714162
27	0xbb967941	-0.0045920913
28	0x3d1ae1ea	0.037813105
29	0x3ee3a25e	0.44459814
30	0xbc955532	-0.0182291
31	0xbe624938	-0.22098243

model.4.weight f4 [32, 32]
0	0x3e78fcdf	0.24315213
1	0xbecf4836	-0.4048478
2	0x3e889782	0.2667809
3	0xbdc9d7e2	-0.098556295
4	0x3d987751	0.07444633
5	0x3de4b2e2	0.11166932
6	0xbe5d6d00	-0.21623611
7	0x3d2d3b5f	0.04229295
8	0xbec70d23	-0.3887721
9	0x3e2e317c	0.17011064
10	0xbf8f98e4	-1.1218534
11	0xbf8c5122	-1.096226
12	0xbf389e9c	-0.7211702
13	0x3dfe576e	0.1241902
14	0x3dcad7bf	0.099044316
15	0xbe234a14	-0.15946227
16	0xbbd52b8a	-0.0065054344
17	0x3ea12981	0.31476977
18	0x3e9af74f	0.30266806
19	0xbe30f7cb	-0.17282026
20	0xbf27266c	-0.65293
21	0x3c7352c3	0.014851275
22	0xbe7bdf85	-0.24596985
23	0xbd91901e	-0.07107566
24	0x3d7c4c40	0.061596155
25	0x3d02f9ea	0.031976618
26	0xbcfd2d35	-0.030905345
27	0x3b7370e0	0.0037146136
28	0xbe8542d3	-0.26027545
29	0x3d07a4ac	0.033116028
30	0xbdfe2b4b	-0.12410601
31	0xbd88876e	-0.06666456
32	0xbec0a16c	-0.37623155
33	0xbe9f35bb	-0.3109568
34	0xbab913a4	-0.0014120233
35	0x3c867cca	0.016416926
36	0x3e689f10	0.22716928
37	0xbc7ed13a	-0.015552813
38	0xbdf759ed	-0.12077699
39	0x3e31d1a2	0.17365125
40	0xbde163bf	-0.11005353
41	0xbdefd756	-0.11710994
42	0xbe8a55de	-0.27018636
43	0xbecb0eb2	-0.3965965
44	0xbeced9fb	-0.4040068
45	0x3ee3302f	0.443727
46	0x3eb283cb	0.34866175
47	0xbf09d8bd	-0.5384634
48	0xbdac2944	-0.08406308
49	0x3e61eeef	0.22063802
50	0xbf2af664	-0.6678221
51	0xbe65fb20	-0.22459078
52	0xbebd6fd6	-0.36999387
53	0xbf186887	-0.59534496
54	0x3e006bed	0.1254117
55	0x3d267361	0.040637378
56	0xbef6ed93	-0.4822813
57	0x3dd485e1	0.10377098
58	0x3d307377	0.043078866
59	0x3d1a092d	0.037606407
60	0xbe884193	-0.2661253
61	0x3e1e9e4c	0.15490073
62	0xbf30dfd7	-0.6909155
63	0xbececade	-0.4038915
64	0x3d266aba	0.040629126
65	0x3b25d149	0.0025301746
66	0x3ea3e346	0.32009333
67	0x3e3c114d	0.18365975
68	0xbdf0e0e1	-0.11761642
69	0x3dc7ba95	0.097523846
70	0xbd037ad9	-0.03209958
71	0xbe4ed57b	-0.20198624
72	0x3ebf1a3c	0.37324703
73	0x3e208b67	0.15678178
74	0x3e98ed46	0.29868525
75	0x3ec2824c	0.37990034
76	0x3ead7dfd	0.33885184
77	0x3e9c7c2e	0.30563492
78	0x3e753d4d	0.23949166
79	0x3f0ee0ed	0.5581196
80	0x3e5574db	0.20845358
81	0x3e9fbc12	0.31198174
82	0x3e43c396	0.19117579
83	0x3e7e0969	0.24808277
84	0x3dd6ec61	0.104943044
85	0x3f6a088d	0.914193
86	0x3e6daba1	0.23210002
87	0x3ecfc7d9	0.4058216
88	0x3eafe1aa	0.34351856
89	0xbc879b8b	-0.01655366
90	0x3e2cdb1c	0.16880459
91	0xbe3c8569	-0.18410267
92	0x3d303636	0.04302045
93	0xbe95bc30	-0.29245138
94	0x3e5e48ad	0.21707411
95	0x3e2a2417	0.1661533
96	0x3dd32726	0.10310201
97	0x3e0bb91a	0.1364483
98	0x3e4e5a09	0.20151533
99	0x3e259b12	0.16172436
100	0x3e386d55	0.18010457
101	0xbc33918f	-0.010959997
102	0xbe7cc2a7	-0.24683629
103	0x3ee71049	0.45129612
104	0x3f61e578	0.88240767
105	0x3ec77ec8	0.38963914
106	0x3d3accc8	0.04560545
107	0xbdd030f2	-0.101655856
108	0x3e5eb131	0.2174728
109	0x3f021b71	0.5082312
110	0x3f011dc9	0.50436074
111	0xbdb48a99	-0.08815498
112	0x3e4216ac	0.18953961
113	0x3e99f9a5	0.30073276
114	0xbd2083e5	-0.039188284
115	0x3cd99f04	0.026565082
116	0xbe2c7203	-0.16840367
117	0xbe4983f6	-0.19679245
118	0xbd71632d	-0.058932472
119	0x3e7199e6	0.23593864
120	0xbec7aedc	-0.39000595
121	0x3dc71563	0.09720876
122	0x3e793cd2	0.24339607
123	0x3e722291	0.23645999
124	0x3f1b90ef	0.60768026
125	0x3e896597	0.2683532
126	0x3df32cea	0.11873801
127	0xbe1bce50	-0.1521542
128	0x3e425160	0.18976355
129	0x3d93c0cd	0.07214508
130	0x3e56c216	0.20972475
131	0xbd22eefa	-0.039778687
132	0xbcc0d3d9	-0.023538517
133	0x3e291052	0.16510132
134	0xbdbfc1a2	-0.093631044
135	0xbdb56dcc	-0.08858833
136	0x3e2d75f5	0.16939528
137	0x3dedee5a	0.116177276
138	0x3e9e7605	0.30949417
139	0x3eb1d756	0.347346
140	0x3e1a94ec	0.15095872
141	0xbd1307c3	-0.035896074
142	0x3dd4f2c8	0.10397869
143	0x3dec1098	0.115266025
144	0x3d3daedd	0.04630934
145	0x3e339cf1	0.17540337
146	0xbd307421	-0.0430795
147	0x3d948e53	0.07253709
148	0x3dc4f15a	0.09616347
149	0x3e2a940a	0.16658035
150	0x3e7339d4	0.23752528
151	0x3dce8a33	0.10084953
152	0x3f075633	0.52865905
153	0x3eb83b32	0.35982662
154	0xbe43940a	-0.19099441
155	0xbe01d2b9	-0.1267804
156	0x3d4b5749	0.04964379
157	0xbd7f272b	-0.062293213
158	0x3e087cfb	0.13328926
159	0x3d3bbafe	0.045832627
160	0x3e82a32c	0.25515115
161	0x3e4df44d	0.20112725
162	0xbec24ff1	-0.37951615
163	0x3ef99e9e	0.48753828
164	0xbd3aed0a	-0.045636214
165	0x3e6b0d3a	0.22954264
166	0xbcf17dba	-0.029478896
167	0xbe0df9fb	-0.13864891
168	0xbe6933f9	-0.22773732
169	0xbe7247c4	-0.23660189
170	0x3ed62068	0.418216
171	0x3edc7dd5	0.43064752
172	0xbe42359a	-0.1896576
173	0xbe80e6b6	-0.25176018
174	0xbedc60ac	-0.43042505
175	0xbdbfba0b	-0.09361657
176	0x3e495341	0.19660665
177	0xbe96dc10	-0.2946477
178	0x3e62d852	0.22152832
179	0xbe60e73c	-0.21963209
180	0xbd5bbb23	-0.053645264
181	0x3e354e55	0.17705663
182	0xbce4ca1a	-0.0279284
183	0xbec7bb96	-0.39010304
184	0x3e9a425e	0.3012876
185	0x3de76779	0.11299033
186	0xbdfe0114	-0.124025494
187	0x3e9d19bf	0.30683705
188	0xbee7eeee	-0.45299476
189	0xbe5f8afb	-0.2183036
190	0xbcd98c57	-0.026556177
191	0x3e225b6a	0.15855184
192	0x3e0125fe	0.12612149
193	0x3f197ef2	0.5995933
194	0x3d494ae4	0.049143687
195	0x3ef10b46	0.47078913
196	0x3df42c28	0.11922485
197	0x3e9853ac	0.29751337
198	0xbe22d143	-0.1590014
199	0xbd45f0e2	-0.048325427
200	0x3f347994	0.70498013
201	0x3e1fabe0	0.15592909
202	0x3f35ea4e	0.71060646
203	0x3f51927a	0.8186413
204	0xbe7eb456	-0.2487348
205	0xbea90bc1	-0.3301678
206	0xbefea3c4	-0.49734318
207	0x3e07110d	0.13190098
208	0x3f0e8d79	0.5568462
209	0xbeb08adf	-0.3448095
210	0x3ece4875	0.40289655
211	0x3db1511d	0.08658049
212	0x3dbdd931	0.092699416
213	0x3feb3ab4	1.837729
214	0xbdb6401b	-0.08898946
215	0xbe90eacb	-0.28304133
216	0x3e1122cd	0.14173432
217	0xbd99112e	-0.0747398
218	0x3e5bdc30	0.21470714
219	0x3d8625e8	0.06550199
220	0x3ed18eb7	0.40929195
221	0xbf27c3d5	-0.6553319
222	0x3de37ed3	0.11108174
223	0x3d97b359	0.07407255
224	0xbd51702b	-0.051132362
225	0x3e24fc1b	0.16111796
226	0xbed7a37a	-0.4211691
227	0xbd3ec874	-0.046577886
228	0xbd8b7fd2	-0.06811489
229	0x3d357014	0.04429634
230	0xbc879d50	-0.016554505
231	0x3e3a6c53	0.18205385
232	0x3de26b5c	0.110556334
233	0xbedb76a5	-0.42863956
234	0xbdb7e1d8	-0.08978623
235	0xbe28afd8	-0.16473329
236	0x3c09c0f5	0.008407821
237	0xbe75d231	-0.24005963
238	0xbe32bb5e	-0.17454287
239	0xbe930825	-0.2871715
240	0xbe311db7	-0.17296492
241	0xbbebab14	-0.007192025
242	0xbeb149d8	-0.3462665
243	0xbd196bea	-0.03745643
244	0xbb053dd2	-0.0020331037
245	0xbed85270	-0.42250395
246	0xbd9d039c	-0.07666704
247	0xbedfabf3	-0.43685874
248	0xbe62f2b0	-0.2216289
249	0xbe0f5543	-0.13997369
250	0xbdc952f4	-0.09830275
251	0x3b22072e	0.0024723518
252	0x3e62cf2d	0.22149344
253	0x3eb15b66	0.34640044
254	0xbd290a58	-0.04126963
255	0xbe7c1099	-0.24615707

model.4.bias f4 [32]
0	0xbd7ee511	-0.062230173
1	0x3e0e7ad2	0.1391404
2	0xbe3cfae4	-0.18455082
3	0x3e8b050b	0.27152285
4	0x3d5dfc77	0.054195847
5	0xbca77d04	-0.020445354
6	0xbbe1e424	-0.0068936516
7	0x3dffb82e	0.12486301
8	0x3bf58045	0.0074920976
9	0x3e15aec4	0.14617449
10	0x3dfc5446	0.123207614
11	0x3e94276f	0.28936335
12	0x3e6bb21b	0.2301716
13	0x3e76bbc0	0.24095058
14	0xbe02e9b9	-0.1278447
15	0xbbc4324a	-0.0059874402
16	0x3ca1085a	0.019657303
17	0x3db7568e	0.08952056
18	0xbf25ce46	-0.64767873
19	0x3e1196ac	0.14217633
20	0xbcce4b8a	-0.025182504
21	0x3e8615ca	0.261885
22	0xbe2e6699	-0.17031325
23	0xbe1ade59	-0.15123881
24	0x3e3ce254	0.18445712
25	0x3df25ceb	0.11834129
26	0x393e5604	0.00018151855
27	0xbdd97760	-0.10618472
28	0x3d163be0	0.036678195
29	0x3dd75365	0.10513953
30	0xbe9736c0	-0.29533958
31	0x3d2932ea	0.04130832

model.6.weight f4 [32, 32]
0	0xbe6022dd	-0.218883
1	0x3e00d062	0.12579492
2	0x3e61b3f4	0.22041303
3	0x3dc38edb	0.09548732
4	0xbe87a52b	-0.264932
5	0xbe122072	-0.1427019
6	0x3d338117	0.04382428
7	0xba5dad3d	-0.00084562955
8	0xbcd21394	-0.025644101
9	0x3e8e8725	0.27837482
10	0xbd29713e	-0.04136776
11	0xbdd390d4	-0.10330358
12	0x3e4c97ef	0.19979833
13	0xbc1a315e	-0.009411184
14	0x3da8f610	0.08250058
15	0xbdc6b2fb	-0.097021066
16	0x3e069312	0.1314204
17	0xbe5c8799	-0.21536101
18	0x3e846572	0.25858647
19	0x3e6f7c9c	0.23387378
20	0xbd44efcb	-0.048080247
21	0xbe11d52e	-0.14241478
22	0x3e97f806	0.29681414
23	0xbdbc2bb5	-0.09188024
24	0xbc00ae6d	-0.007854086
25	0x3e4b450d	0.1985056
26	0x3efafa9e	0.4901933
27	0x3cbeb51c	0.023279719
28	0x3e489098	0.19586408
29	0xbcc884f9	-0.024477469
30	0x3e3d4967	0.18485032
31	0x3ada4033	0.0016651213
32	0xbe96cf31	-0.2945495
33	0xbf2e60aa	-0.6811625
34	0x3de1f37f	0.11032771
35	0xbd547670	-0.051870763
36	0x3e5266c8	0.2054702
37	0x3ed70b62	0.42000872
38	0x3ecd7890	0.40131044
39	0x3b9d694f	0.0048038135
40	0x3f044ac4	0.51676583
41	0xbedebbd4	-0.43502676
42	0xbfb9d052	-1.4516699
43	0x3ebca30f	0.36843154
44	0xbf061386	-0.5237354
45	0x3e91954f	0.28434226
46	0x3edbf4ff	0.42960355
47	0x3f41d7bd	0.75719815
48	0xbeb14d11	-0.3462911
49	0x3ec65e03	0.387436
50	0x3f1e1618	0.6175246
51	0xba4bc8cc	-0.00077737565
52	0x3e685d31	0.226918
53	0x3ebaeb41	0.3650761
54	0x3d9aaf58	0.075529754
55	0xbd2be7f5	-0.04196926
56	0x3e92ebcb	0.2869552
57	0xbe4aabb9	-0.1979207
58	0xbd5fcd66	-0.054639243
59	0x3ee34b54	0.44393408
60	0xbf7b49aa	-0.9815928
61	0x3e0ff48c	0.14058131
62	0x3e86e36b	0.2634538
63	0xbda123ea	-0.07868178
64	0xbea781e5	-0.3271629
65	0xbea28765	-0.31743923
66	0x3e8806e3	0.26567754
67	0x3e903048	0.28161836
68	0x3db39976	0.08769505
69	0x3ef8a393	0.48562297
70	0x3e7fb4ee	0.24971363
71	0xbc10f3b2	-0.008847164
72	0x3e9b3f9b	0.30321965
73	0x3e9044ec	0.28177583
74	0xbf5ca492	-0.86188614
75	0x3eea7a2e	0.4579634
76	0xbe885b97	-0.26632378
77	0x3e1fe6a5	0.15615328
78	0x3f30683f	0.68909067
79	0xbebd9a97	-0.37032005
80	0xbf0b698e	-0.5445794
81	0x3edbc4c0	0.42923546
82	0x3f4ebc14	0.80755734
83	0xbe7d0a5d	-0.24710985
84	0x3ec4b3bd	0.3841838
85	0x3f1db1ab	0.61599225
86	0xbc988d07	-0.018621935
87	0x3ecf4465	0.40481868
88	0xbc0d90be	-0.008640466
89	0x3dd13019	0.10214252
90	0xbf0afed2	-0.54295075
91	0x3f5e065b	0.8672845
92	0xbf4890f1	-0.78346163
93	0x3e52ad4f	0.20573924
94	0x3e68866c	0.22707528
95	0x3e155911	0.14584757
96	0x3ea812b7	0.32826778
97	0x3dda0ecc	0.106473535
98	0x3e94aafd	0.29036704
99	0x3da09b6e	0.07842146
100	0x3ec11bca	0.37716514
101	0x3daf3ed9	0.08556909
102	0xbeba9534	-0.36441958
103	0xbf34a8a2	-0.70569813
104	0x3d47b7c1	0.048759226
105	0xbf9993f4	-1.1998277
106	0xbf935e1c	-1.1513095
107	0x3d93e82f	0.0722202
108	0xbf1e83ab	-0.6191966
109	0xbe475932	-0.19467619
110	0x3ea8d126	0.32972068
111	0xbccdb6c8	-0.025111571
112	0xbf4c9e0c	-0.7992866
113	0x3e3a9a50	0.18222928
114	0x3ed12651	0.40849546
115	0xbedc7905	-0.4306108
116	0x3ea68a81	0.32527545
117	0x3e62b2d5	0.22138532
118	0x3e73e695	0.23818429
119	0x3d512156	0.051057182
120	0x3e80d043	0.2515889
121	0xbd15c532	-0.036565013
122	0xbf783ffe	-0.96972644
123	0x3d8b141e	0.067909464
124	0xbf4fc236	-0.8115572
125	0x3e4cc9fe	0.19998929
126	0x3e4c19d5	0.19931729
127	0x3d117c07	0.035518672
128	0x3edb74e5	0.4286262
129	0x3f05cf70	0.5226965
130	0xbf4b2114	-0.7934735
131	0x3e32fa92	0.17478397
132	0xbef20fea	-0.47277766
133	0xbeb09dba	-0.34495336
134	0xbbbe971d	-0.005816354
135	0xbf162099	-0.5864349
136	0xbf1e6f3a	-0.6188847
137	0x3f2e956f	0.6819677
138	0xbdb53589	-0.08848102
139	0xbf33e3fa	-0.7026974
140	0x3f7d47fd	0.9893797
141	0xbe9a7bed	-0.30172673
142	0xbf2aa05d	-0.66650945
143	0xbf315831	-0.69275194
144	0x3f3b0cff	0.73066705
145	0xbe7f1875	-0.24911673
146	0xbfb96556	-1.448405
147	0x3e2861de	0.16443583
148	0xbf7ebf7b	-0.99510926
149	0xbe606d9a	-0.2191681
150	0xbe84244c	-0.25808942
151	0x3ef0ec95	0.47055498
152	0xbf65dfe4	-0.89794755
153	0x3e95afc2	0.29235655
154	0xbf7652fd	-0.9622038
155	0xc0013e21	-2.019417
156	0x3ea2ff2c	0.31835306
157	0x3d43aecc	0.04777412
158	0xbdf8506c	-0.12124714
159	0x3e81bf64	0.25341332
160	0xbdf192c1	-0.11795569
161	0x3d82e11b	0.06390592
162	0x3e218daa	0.15776697
163	0xbde58c75	-0.11208431
164	0x3dd087f3	0.1018218
165	0x3d3f60ee	0.0467233
166	0x3e009810	0.12558007
167	0x3e6e1dcf	0.23253559
168	0xbd33f009	-0.043930087
169	0x3e710d3d	0.23540206
170	0xbeb59dec	-0.35472047
171	0x3e739084	0.23785597
172	0xbcf279bc	-0.029599063
173	0x3e175603	0.14778905
174	0x3c6f02c3	0.014588061
175	0xbe37d716	-0.17953143
176	0x3d6ebea2	0.05828727
177	0x3e041aba	0.1290082
178	0x3e883f93	0.26611003
179	0xbe1ebb32	-0.15501097
180	0x3e87d265	0.26527706
181	0x3e432d0c	0.19060153
182	0x3e60b2d7	0.21943222
183	0x3eaadf2b	0.3337339
184	0x3dbc1452	0.09183563
185	0xbc4c5468	-0.012471296
186	0x3d879abd	0.06621311
187	0x3ed0fa7d	0.40816107
188	0xbdbdf706	-0.092756316
189	0xbcee78d5	-0.029110352
190	0x3e78b52e	0.24287865
191	0x3e0b5668	0.1360718
192	0x3e2aaf81	0.16668512
193	0xbe249707	-0.16073237
194	0x3d2e9260	0.042620063
195	0x3e60afeb	0.21942107
196	0x3e576ff7	0.21038805
197	0x3d606edc	0.054793224
198	0x3b5a4495	0.0033305038
199	0x3d826ad9	0.06368036
200	0x3e8ec82b	0.2788709
201	0xbdc009d9	-0.09376878
202	0xbf04ca34	-0.5187104
203	0x3ea10390	0.3144803
204	0xbc240f29	-0.01001338
205	0xbda79d45	-0.08184294
206	0x3e909f94	0.28246748
207	0x3e3bd411	0.18342616
208	0xbe2783f6	-0.16358933
209	0x3e911704	0.28337872
210	0x3d8dcaae	0.06923424
211	0xbe0a811b	-0.13525812
212	0x3da78070	0.081787944
213	0x3b5c2c1f	0.0033595634
214	0x3dfb1ab3	0.12260952
215	0xbe60440b	-0.21900956
216	0xbd5c058d	-0.05371623
217	0x3e7e414e	0.248296
218	0xbe8da426	-0.27664298
219	0x3ec3d9c2	0.38252074
220	0xbee4a11c	-0.44654167
221	0x3e965acf	0.29366156
222	0x3e474c97	0.1946281
223	0xbdbf87f7	-0.09352105
224	0x3eb42abc	0.35188854
225	0x3ec36323	0.38161573
226	0xbeab993a	-0.3351534
227	0x3eb1ed13	0.34751186
228	0xbe8b7111	-0.272347
229	0xbf3ff6dc	-0.7498605
230	0xbf149d21	-0.5805226
231	0xbf592b23	-0.84831446
232	0xbf18e5f6	-0.5972589
233	0xbdedcedd	-0.11611722
234	0xbf9564c9	-1.1671382
235	0xbdd6f6c3	-0.10496285
236	0x3f8fde3c	1.1239696
237	0xbfa0b876	-1.2556293
238	0xbefbbf77	-0.49169514
239	0xbed69867	-0.4191315
240	0x3e3867ad	0.18008299
241	0xbdbf892e	-0.09352337
242	0xbf5f4fe5	-0.87231284
243	0x3db9b6f0	0.09068096
244	0xbee23d87	-0.44187567
245	0x3d33fba9	0.043941174
246	0x3d9542a7	0.072881036
247	0x3f0ac779	0.5421062
248	0xbec7ae52	-0.39000183
249	0x3e567424	0.20942742
250	0xbf87387e	-1.0564115
251	0xbfa83ca9	-1.3143512
252	0xbea1ecc1	-0.3162594
253	0x3e4eeafc	0.20206827
254	0xbc84cb37	-0.016210182
255	0x3f1e0401	0.6172486

model.6.bias f4 [32]
0	0xbdcff9c6	-0.101550624
1	0x3e2389e6	0.15970573
2	0xbd5a988e	-0.053368144
3	0x3a8ded7d	0.0010828223
4	0x3e821b51	0.25411466
5	0xba5ad033	-0.0008347064
6	0x3e3ebaaf	0.18625902
7	0x3e4075b3	0.18794899
8	0x3c46a44e	0.012124134
9	0x3e655cf8	0.22398746
10	0xbc8ce833	-0.017200565
11	0xbd8e30b4	-0.06942883
12	0x3e071324	0.13190895
13	0xbe4f352c	-0.20235127
14	0x3ddddec7	0.10833507
15	0xbd90483b	-0.07045027
16	0xbb8c99c7	-0.0042907926
17	0x3bf89fdc	0.007587416
18	0xbd341352	-0.043963738
19	0x3e013d89	0.1262113
20	0xbda6ac0b	-0.08138283
21	0x3c03537c	0.00801551
22	0xbcfdab42	-0.030965451
23	0xbe2db415	-0.16963227
24	0x3e845376	0.25844926
25	0xbe33539a	-0.1751236
26	0xbe390185	-0.18066986
27	0x3db6cba1	0.08925558
28	0xbda244ec	-0.07923302
29	0xbe5abb45	-0.213605
30	0x3de7ee96	0.113248035
31	0x3d3ab542	0.045583017

model.8.weight f4 [32, 32]
0	0xbe86150e	-0.26187938
1	0x3e76e77a	0.24111739
2	0x3e88f9a3	0.26752958
3	0x3e20f427	0.15718137
4	0x3e6b253c	0.22963423
5	0x3cd7efb3	0.026359415
6	0x3e8c6fef	0.2742915
7	0xbf917311	-1.136324
8	0x3d6d0300	0.05786419
9	0xbeaebe8e	-0.34129757
10	0xbe783f22	-0.24242833
11	0x3eb17a6e	0.3466372
12	0xbec08aa9	-0.3760579
13	0xbdab1771	-0.083540805
14	0x3e03cd56	0.12871298
15	0x3d926a5d	0.071491934
16	0x3e4c8bba	0.19975176
17	0x3e90c859	0.28277853
18	0x3f057ade	0.52140605
19	0xbe86b786	-0.26311892
20	0x3eccbe1b	0.3998879
21	0x3e8ff0f2	0.28113514
22	0xbde36189	-0.11102588
23	0x3ec8df47	0.39232847
24	0xbec51320	-0.38491154
25	0x3eca8061	0.3955107
26	0xbe06e6a4	-0.1317392
27	0xbe6956f6	-0.22787079
28	0x3ef94426	0.48684806
29	0x3f0b2e4c	0.5436752
30	0x3d3a79e5	0.045526404
31	0x3e0063ef	0.12538122
32	0x3e541447	0.2071086
33	0xbd5a5fcc	-0.053314015
34	0xbd9155d3	-0.07096448
35	0xbd2e0479	-0.042484734
36	0x3d16aa8a	0.036783732
37	0x3db438d6	0.08799903
38	0x3e234f49	0.15948214
39	0xbf098914	-0.5372479
40	0x3e40b89c	0.18820423
41	0xbd876094	-0.06610218
42	0x3eb8a88d	0.36066094
43	0xbd1370c4	-0.035996214
44	0xbeb9f36d	-0.36318532
45	0x3dbaeaaf	0.091267936
46	0x3e53d2d4	0.20685893
47	0xbe814f34	-0.2525574
48	0x3f1eecb3	0.62079924
49	0x3df92dbf	0.121669285
50	0x3e150a92	0.14554814
51	0x3da37900	0.07982063
52	0x3e859f72	0.2609821
53	0x3e0b7a83	0.13620953
54	0x3e968fa1	0.29406455
55	0xbe67b02d	-0.226258
56	0xbe4b0351	-0.19825484
57	0x3e4da581	0.20082666
58	0xbdcea8af	-0.100907676
59	0xbefe0a2c	-0.49617136
60	0xbd81949d	-0.06327174
61	0x3d28e9da	0.041238643
62	0x3e152980	0.14566612
63	0x3e5f9702	0.21834949
64	0x3d9dfc9c	0.07714197
65	0x3e8c9dee	0.2746424
66	0xbe1267d0	-0.14297414
67	0x3e5c34fe	0.2150459
68	0x3d552394	0.052035883
69	0xbd63b5f0	-0.05559343
70	0xbe4ad92b	-0.19809406
71	0xbeee7a43	-0.46577653
72	0x3d581d7a	0.052762486
73	0xbe04adfd	-0.12956996
74	0xbab2222e	-0.0013590509
75	0x3e5535a8	0.2082125
76	0x3de9b536	0.11411516
77	0x3e1bfc15	0.1523288
78	0xbd944288	-0.07239252
79	0xbed7821a	-0.42091447
80	0xbf1a70e1	-0.6032849
81	0xbe7d6c36	-0.2474831
82	0x3ef9d322	0.48793894
83	0xbc82c66d	-0.015963757
84	0xbe44effb	-0.1923217
85	0x3dcaa82e	0.09895359
86	0xbe656450	-0.22401547
87	0x3c54f630	0.012998149
88	0x3eda414d	0.42627946
89	0x3d8bf2e7	0.06833439
90	0x3e6bf63b	0.23043148
91	0x3ebb0c3e	0.36532778
92	0x3e02531b	0.12727015
93	0x3ea75217	0.32679817
94	0x3d8e1cfe	0.069391236
95	0xbdc79afe	-0.09746359
96	0x3d138bbf	0.036021944
97	0x3ddfdef8	0.109312
98	0x3e27a5d1	0.16371848
99	0x3d8e8403	0.06958773
100	0xbfa0c798	-1.2560911
101	0x3ced2400	0.02894783
102	0x3e859cfb	0.2609633
103	0xbf98a54e	-1.1925447
104	0x3cadb2d3	0.021203434
105	0x3dfab551	0.122416146
106	0xbe9a6832	-0.3015762
107	0x3e4bd652	0.19905975
108	0xbe419011	-0.18902613
109	0xbe7270bb	-0.23675816
110	0xbe0a7b45	-0.13523586
111	0xbdc1b58e	-0.09458457
112	0xbf8f4303	-1.1192325
113	0x3e9384c4	0.2881223
114	0xbc537a7e	-0.012907622
115	0xbdd6ec62	-0.10494305
116	0xbcc30c34	-0.02380953
117	0x3e234c74	0.15947133
118	0x3b96a311	0.0045970757
119	0x3ea91c59	0.3302944
120	0x3e6108b9	0.21975984
121	0x3e6fcb5c	0.23417419
122	0x3e06919b	0.13141482
123	0xbf022c17	-0.50848526
124	0x3e0c68b2	0.13711813
125	0x3e478468	0.19484103
126	0x3d1f1014	0.038833693
127	0x3e005b05	0.12534721
128	0x3e7fcc1d	0.24980207
129	0xbe0501c0	-0.12988949
130	0x3d94604e	0.07244931
131	0x3df87ae0	0.121328115
132	0x3e5f2f69	0.2179543
133	0x3e7c33f7	0.24629198
134	0xbe1e9b92	-0.15489033
135	0xbe6cb826	-0.23117122
136	0x3e3453f7	0.17610155
137	0xbdc5aab0	-0.09651697
138	0x3eeb6e27	0.45982477
139	0xbc9525b3	-0.018206453
140	0xbe9aa01f	-0.30200288
141	0x3e9cbade	0.30611318
142	0x3d5e9b19	0.05434713
143	0xbe6da9ce	-0.23209307
144	0x3ddea512	0.108713284
145	0x3cbf7c0d	0.023374582
146	0xbd61c18b	-0.055116218
147	0x3ddb07d5	0.10694853
148	0x3dc23c13	0.094841145
149	0xbcecd280	-0.028908968
150	0x3dd48421	0.10376764
151	0xbdbd2537	-0.09235614
152	0xbf0941c5	-0.5361598
153	0x3d81edce	0.06344186
154	0x3e1021b1	0.14075352
155	0xbd0ac938	-0.033883303
156	0xbde2eb7d	-0.11080072
157	0x3db276cb	0.08714064
158	0xbd6322fe	-0.055453293
159	0x3e75f1f0	0.24018073
160	0x3d9763a5	0.073920526
161	0x3d246e72	0.04014439
162	0x3d7c3f3e	0.06158375
163	0x3cc0eac6	0.023549449
164	0xbfe068cd	-1.7531983
165	0x3d799894	0.060936525
166	0xbe4e1df6	-0.20128617
167	0xbf15fcdd	-0.58588964
168	0xbe236704	-0.15957266
169	0x3eb6ff49	0.35741642
170	0xbee1047d	-0.43948737
171	0xbe3d1c37	-0.18467794
172	0xbe778bcf	-0.24174426
173	0xbe455a73	-0.19272785
174	0xbdc0d762	-0.09416081
175	0x3e8a7c00	0.2704773
176	0xc01260ea	-2.2871652
177	0xbd740459	-0.05957446
178	0xbe64a105	-0.22327049
179	0xbdc6501c	-0.096832484
180	0x3e087994	0.13327628
181	0x3c53f7ac	0.012937468
182	0x398ce20b	0.00026871296
183	0x3e807c1e	0.25094694
184	0x3e7ecc29	0.24882568
185	0x3ebd0b24	0.36922562
186	0xbe31195d	-0.17294832
187	0xbea3e787	-0.3201258
188	0x3e07bc03	0.13255315
189	0xbe26f5df	-0.1630473
190	0x3d4e6604	0.05039026
191	0x3c3857d2	0.011251407
192	0x3e337c15	0.17527802
193	0x3c46f400	0.012143135
194	0x3e279e2c	0.16368932
195	0x3e3f0332	0.18653563
196	0x3f920c1d	1.1409947
197	0x3e061352	0.13093308
198	0xbe121958	-0.1426748
199	0xbee8b980	-0.45454025
200	0x3e0947ef	0.13406347
201	0xbe2011dd	-0.15631814
202	0x3eaded0f	0.33969924
203	0x3e566ee2	0.20940736
204	0xbd8a79e6	-0.067615315
205	0x3e74e1dc	0.23914284
206	0x3e2c7a8c	0.16843623
207	0xbe801906	-0.2501909
208	0x3fe38574	1.7775102
209	0xbe35a642	-0.17739204
210	0x3dee2782	0.11628629
211	0xbe43f6b7	-0.19137083
212	0xbd43c9f1	-0.04780001
213	0x3e12442a	0.14283815
214	0x3e95f2ca	0.29286796
215	0xbe77d6ed	-0.24203081
216	0xbeb93486	-0.36172885
217	0x3e0f074b	0.13967626
218	0xbbdc2451	-0.0067181964
219	0xbdde9f00	-0.108701706
220	0x3dc11f30	0.09429777
221	0xbd832d8d	-0.064051725
222	0xbd8741e2	-0.06604363
223	0x3db910c1	0.09036399
224	0xbc9ff885	-0.019527683
225	0x3ca680e3	0.02032513
226	0x3e9b333a	0.3031252
227	0x3e241f09	0.16027464
228	0xbed48d7f	-0.41514203
229	0xbdd649ed	-0.10463319
230	0x3eafa988	0.3430903
231	0xbfa312ce	-1.2740114
232	0xbda75722	-0.08170916
233	0xbdc32283	-0.09528067
234	0xbe0518c9	-0.12997736
235	0x3e8934f3	0.2679821
236	0x3d01c95d	0.031686176
237	0xbe092953	-0.1339467
238	0x3dd081c5	0.101810016
239	0x3b0f0801	0.002182484
240	0xbe6176f0	-0.22018027
241	0x3e5ea844	0.21743876
242	0x3e763a97	0.24045788
243	0xbb98728b	-0.0046523265
244	0x3e117ded	0.14208193
245	0x3da5bc76	0.08092587
246	0x3d0ea518	0.034825414
247	0x3ed692fd	0.41909018
248	0xbdb6196d	-0.08891568
249	0x3ec10aa5	0.37703434
250	0x3ecaac3d	0.39584532
251	0x3d925b34	0.07146302
252	0x3e8d551f	0.27604005
253	0x3f159d18	0.5844283
254	0xbe136bd8	-0.14396608
255	0x3df6abfd	0.12044523

model.8.bias f4 [32]
0	0xbda4802d	-0.0803226
1	0x3d88e0dc	0.066835135
2	0xbcd28cd1	-0.025701912
3	0xbd62348c	-0.055225894
4	0xbd86aaa8	-0.06575519
5	0xbdb1305d	-0.08651803
6	0xbcfbd469	-0.030740933
7	0xbe2f6f06	-0.17132196
8	0xbd047221	-0.032335404
9	0xbd02eb5f	-0.03196275
10	0xbb6a866e	-0.0035785693
11	0xbc297b35	-0.010344316
12	0xbdd31189	-0.10306079
13	0xbb21e60c	-0.002470377
14	0xbd697397	-0.056995
15	0xbc42d037	-0.011890463
16	0x3e038e75	0.12847312
17	0xbd22833d	-0.03967594
18	0xbd89369c	-0.06699869
19	0x3e3ca0bd	0.18420692
20	0x3e2836d4	0.16427165
21	0x3d5fe40e	0.05466085
22	0xbea5d998	-0.32392573
23	0xbc7ef1e7	-0.015560604
24	0xbdedc34f	-0.11609518
25	0xbc5b99f8	-0.013403408
26	0xbcf7b0e6	-0.030235719
27	0xbe05d013	-0.13067655
28	0x3d22daed	0.039759565
29	0x3e377cd7	0.17918716
30	0xbe2a3e11	-0.16625239
31	0x3e8408dc	0.2578801

model.10.weight f4 [1, 32]
0	0xbefee333	-0.49782714
1	0x3e811906	0.25214404
2	0x3eec12da	0.46108133
3	0xbe2c2bbb	-0.16813557
4	0x3ec0efe4	0.37683022
5	0xbf28f467	-0.6599793
6	0x3e63bf0a	0.22240844
7	0xbe7672c1	-0.24067213
8	0x3eb9d5f3	0.36296043
9	0x3e5c760a	0.21529403
10	0xbe559af4	-0.20859891
11	0x3e7856a8	0.24251807
12	0xbe4a623a	-0.19764033
13	0xbe65a4bc	-0.22426122
14	0x3eb6f1e5	0.35731426
15	0x3eb3c698	0.35112453
16	0x3e8289ed	0.25495854
17	0x3dd417f8	0.10356134
18	0x3ee11b21	0.4396601
19	0x3eaafd71	0.33396485
20	0x3e91bc21	0.28463843
21	0x3e879e43	0.26487932
22	0x3ea6791f	0.32514283
23	0x3e89a51e	0.26883787
24	0x3e7ae7f9	0.24502553
25	0x3ed87f97	0.42284843
26	0xbea485e2	-0.32133394
27	0xbe5b9894	-0.21444923
28	0x3fb14124	1.3848004
29	0xbeb5a16d	-0.3547472
30	0xbe2580b6	-0.1616238
31	0xbe4c7483	-0.1996632
