best_model_4_dim2.pt (torch, 21970 bytes, 11 tensors)

model.0.weight f4 [32, 2]
-0.91745275 -1.1418428 0.16145568 0.06309846 -1.5240059 -0.782369 1.131203 -0.19061518
0.84942937 -0.92737997 -0.022555863 -0.068600655 -1.0371553 -1.1543093 0.39886925 0.98006576
0.7166126 -0.7683274 0.0470407 -0.12344056 -0.7559881 -1.2390416 -1.275395 -1.1451657
1.0243733 0.89840865 0.15977424 0.33412576 -0.49314824 0.41045722 0.80374837 -0.9865046
0.79825246 0.31513837 -0.9737179 0.73717976 0.8750234 1.1595702 0.83252317 -0.8318005
-0.87115043 0.9581197 1.1269389 -0.3981918 -0.62046313 0.7174033 -0.08820232 0.13981986
0.43717963 0.89546865 0.17876305 -0.6518661 0.9291748 0.98209715 -0.25426015 0.05107805
-1.1954427 1.0057098 -0.17077106 0.038609497 0.7645775 0.5951307 1.1322457 1.2290763
00000000: 2fde 6abf e827 92bf a354 253e c439 813d
00000010: a012 c3bf 5649 48bf 43cb 903f a030 43be
00000020: 3474 593f c668 6dbf 13c7 b8bc 807e 8cbd
00000030: 81c1 84bf 68c0 93bf 9738 cc3e 97e5 7a3f
00000040: ec73 373f 1bb1 44bf c0ad 403d 68ce fcbd
00000050: 7088 41bf ea98 9ebf 2540 a3bf ca94 92bf
00000060: aa1e 833f 1cfe 653f dc9b 233e 8812 ab3e
00000070: ed7d fcbe 7327 d23e 74c2 4d3f 918b 7cbf
00000080: 465a 4c3f d159 a13e 9445 79bf d0b7 3c3f
00000090: 8901 603f cc6c 943f 3d20 553f e1f0 54bf
000000a0: b703 5fbf 5547 753f 893f 903f ccdf cbbe
000000b0: acd6 1ebf bea7 373f 6ba3 b4bd f02c 0f3e
000000c0: 02d6 df3e 6f3d 653f a90d 373e b2e0 26bf
000000d0: 66de 6d3f b86a 7b3f 632e 82be 3837 513d
000000e0: 4404 99bf 19bb 803f 9cde 2ebe fe24 1e3d
000000f0: 5abb 433f 7c5a 183f 6ded 903f 5f52 9d3f

model.0.bias f4 [32]
-0.35689119 0.52194744 -0.48448214 0.20023115 -0.20264079 0.6202036 -0.5289361 0.94791013
1.0207394 0.42055905 -0.42706898 -0.019528888 -0.33903724 0.7403016 1.0138258 -0.02377605
-0.4967553 -0.018360881 -0.28716975 -0.4219693 -0.29576728 0.7570574 1.0701253 0.8721587
-0.15084626 0.9342913 -0.25965923 0.85843784 -0.40071166 0.97187155 -0.41960102 -0.008064078
00000000: 71ba b6be 599e 053f 0b0e f8be 6509 4d3e
00000010: 1181 4fbe aac5 1e3f 5b68 07bf 3daa 723f
00000020: 97a7 823f 8453 d73e c9a8 dabe 0cfb 9fbc
00000030: 4a96 adbe 6884 3d3f 0bc5 813f fec5 c2bc
00000040: b656 febe 8f69 96bc ea07 93be 5c0c d8be
00000050: cf6e 97be 84ce 413f def9 883f cb45 5f3f
00000060: 7177 1abe b72d 6f3f 0ef2 84be 95c2 5b3f
00000070: 142a cdbe 93cc 783f f2d5 d6be 321f 04bc

model.2.weight f4 [32, 32]
-0.012166103 0.07355051 -0.05286076 -0.02428645 0.76718706 -0.17213035 -0.13366039 0.07687505
0.22271836 0.056622893 0.2500125 0.013208348 0.08666901 0.012692995 0.15171148 0.80501604
0.09148177 1.0600523 -0.0048890132 0.87558264 0.40482846 0.15165575 0.1963598 -0.088826105
0.0958632 -0.004436771 0.14545509 -0.16935809 0.7788476 -0.05706266 0.262129 -0.17605865
0.68090403 0.24570015 0.65168035 0.49505854 0.82565135 0.32913673 0.43275917 -0.007556572
0.43498337 0.2130263 0.71944773 0.5802198 0.636804 -0.01798617 0.014781301 1.1000826
0.057376273 1.0087957 0.5923006 0.9114297 0.9280613 0.3699579 0.2630043 0.07254556
0.27368134 0.35539612 0.6327088 0.1972079 1.2729654 0.1320818 0.31778768 0.5226529
-0.053112954 0.3976393 -0.52318096 0.16853341 -0.3320229 0.11580423 -0.2291792 0.011690046
0.09812719 0.45808464 -0.40159655 -0.05597634 -0.20443381 0.2790674 0.18889102 -0.33706984
-0.4614703 -0.23380224 -0.27628255 -1.2194844 -0.4476667 0.14146267 0.29989868 0.12302637
-0.43351048 0.25037125 -0.46357033 0.18557666 -0.6399988 0.27511153 -0.6549336 0.14754565
0.09381832 0.12156568 0.268341 0.22237113 0.5523005 0.11891237 0.26508412 -0.017883629
0.16648455 -0.16152993 0.13968636 -0.057304133 -0.071124464 -0.20040661 -0.2990366 0.74276274
0.07239923 -0.17588165 -0.16224739 0.2784136 0.06808628 0.028908249 -0.13868657 -0.19649126
-0.04147946 0.23330352 -0.04839671 -0.21421422 0.1349187 -0.0032079832 -0.025356019 0.004990052
-0.21335092 0.1810045 -0.08049493 0.13606969 -0.33564952 0.14381099 -0.30364713 0.2079299
0.26257038 0.2035174 -0.24929127 0.050833013 -0.10064572 0.079010755 0.19894166 -0.4526609
-0.3460924 -0.38053432 -0.28389037 -0.66631347 -0.1866606 0.19912699 0.08015224 0.21003285
-0.03346928 0.12071645 -0.2466894 0.22408332 -0.2232048 0.2935748 -0.43682808 0.08295297
-0.082923256 0.0641796 -0.3723171 -0.31704372 0.8854479 -0.111398205 -0.2914541 0.028161626
0.07216563 -0.03149983 0.052620836 -0.17614219 -0.2400137 0.0074315155 0.12088155 0.48587438
-0.05674581 0.9995179 -0.19009136 0.6361252 0.51745576 -0.26883045 0.20467073 -0.08920252
0.15370923 -0.04817223 -0.47685018 0.016437626 0.6765774 0.10947897 -0.19132829 -0.35049295
-0.44786948 0.1988017 -0.70177805 -0.19933312 -0.49270394 0.1589427 -0.51613444 0.17528811
-0.12778254 0.0036515729 -0.5301445 -0.8244511 -0.33381513 0.0016422928 0.040124215 -1.0755132
-0.22704473 -1.3044871 -0.5144114 -0.6582239 -0.5273604 0.043932 -0.21107571 0.15249611
-0.24263309 0.050586756 -0.26697823 0.1280131 -0.9592954 0.063402 -0.27797168 -0.4006754
0.05151092 -0.016246164 -0.12536964 -0.12169206 -0.33310458 -0.088185914 -0.09227877 0.18387522
-0.5089932 0.0817748 0.124844335 -0.054355938 0.0191178 0.11150793 0.39352947 -0.16979703
-0.121892 0.6332815 0.28422552 -0.08208703 0.31180725 -0.09862263 0.3010015 -0.02810199
0.3745225 -0.34875086 0.2641999 0.14798032 0.3694671 0.13677491 0.36855105 0.21028402
00000000: 5654 47bc a6a1 963d 8684 58bd 61f4 c6bc
00000010: 5f66 443f f042 30be 45de 08be ab70 9d3d
00000020: 4810 643e 68ed 673d a301 803e d467 583c
00000030: 867f b13d 48f6 4f3c 415a 1b3e 8815 4e3f
00000040: cb5a bb3d cbaf 873f 0434 a0bb 2f26 603f
00000050: ad45 cf3e a54b 1b3e 8b12 493e 76ea b5bd
00000060: ed53 c43d 5562 91bb 2ef2 143e 356c 2dbe
00000070: 8e62 473f 89ba 69bd c635 863e b848 34be
00000080: ba4f 2e3f d298 7b3e 86d4 263f 5078 fd3e
00000090: e35d 533f 9c84 a83e 9c92 dd3e 1f9d f7bb
000000a0: 24b6 de3e 9123 5a3e ba2d 383f 4989 143f
000000b0: 9605 233f bb57 93bc 452d 723c 82cf 8c3f
000000c0: 6203 6b3d 3820 813f 03a1 173f 7553 693f
000000d0: 6d95 6d3f 1f6b bd3e 80a8 863e c492 943d
000000e0: f61f 8c3e 7bf6 b53e 34f9 213f def0 493e
000000f0: 88f0 a23f 7440 073e 11b5 a23e 95cc 053f
00000100: f88c 59bd 6197 cb3e 30ef 05bf 0694 2c3e
00000110: e8fe a9be c52a ed3d f4ad 6abe 9b87 3f3c
00000120: e8f6 c83d 128a ea3e 109e cdbe 7247 65bd
00000130: 1957 51be ece1 8e3e a66c 413e 6b94 acbe
00000140: d645 ecbe db69 6fbe e874 8dbe 1118 9cbf
00000150: 9234 e5be 97db 103e 528c 993e 40f5 fb3d
00000160: 16f5 ddbe a930 803e 1759 edbe cf07 3e3e
00000170: f6d6 23bf 6bdb 8c3e baa9 27bf 3516 173e
00000180: d223 c03d 6df7 f83d fe63 893e 42b5 633e
00000190: 9163 0d3f 5488 f33d 1bb9 873e b080 92bc
000001a0: ed7a 2a3e 1a68 25be f109 0f3e bdb7 6abd
000001b0: b4a9 91bd 6437 4dbe 531b 99be b325 3e3f
000001c0: 0c46 943d 521a 34be 2e24 26be 3a8c 8e3e
000001d0: d270 8b3d fed0 ec3c da03 0ebe 0135 49be
000001e0: 5ee6 29bd 1ee7 6e3e a13b 46bd f95a 5bbe
000001f0: 2128 0a3e 073d 52bb 6db7 cfbc 9783 a33b
00000200: aa78 5abe 3e59 393e 87da a4bd da55 0b3e
00000210: 41da abbe 3043 133e a377 9bbe 93eb 543e
00000220: a06f 863e de66 503e 3646 7fbe 4736 503d
00000230: 581f cebd 64d0 a13d 5db7 4b3e 2bc3 e7be
00000240: 0633 b1be 65d5 c2be 145a 91be 8593 2abf
00000250: f523 3fbe f2e7 4b3e dc26 a43d da12 573e
00000260: 1517 09bd 303a f73d 259c 7cbe 1976 653e
00000270: cd8f 64be 704f 963e eea7 dfbe 3fe3 a93d
00000280: abd3 a9bd 9870 833d 59a0 bebe 8e53 a2be
00000290: b7ac 623f be24 e4bd 7939 95be 36b3 e63c
000002a0: 93cb 933d f705 01bd f288 573d 9e5e 34be
000002b0: 27c6 75be 1284 f33b bf90 f73d 87c4 f83e
000002c0: 4b6e 68bd 68e0 7f3f 4fa7 42be 1ad9 223f
000002d0: fb77 043f 25a4 89be 3495 513e d0af b6bd
000002e0: f465 1d3e 3f50 45bd b525 f4be 33a8 863c
000002f0: 2d34 2d3f 8336 e03d 90eb 43be d073 b3be
00000300: 264f e5be ac92 4b3e baa7 33bf fb1d 4cbe
00000310: b143 fcbe e0c1 223e 6321 04bf ba7e 333e
00000320: 6dd9 02be 3a4f 6f3b 8db7 07bf 3a0f 53bf
00000330: d1e9 aabe 3442 d73a 4a59 243d 6baa 89bf
00000340: 6a7e 68be 6ff9 a6bf 77b0 03bf 5d81 28bf
00000350: 1701 07bf 0af2 333d 3b24 58be f127 1c3e
00000360: cf74 78be 0f34 4f3d 5fb1 88be de15 033e
00000370: 6294 75bf e8d8 813d 4e52 8ebe 5325 cdbe
00000380: 1dfd 523d ad16 85bc e660 00be b039 f9bd
00000390: af8c aabe d19a b4bd a7fc bcbd c949 3c3e
000003a0: 614d 02bf 8c79 a73d 63ae ff3d 55a4 5ebd
000003b0: ef9c 9c3c 455e e43d b27c c93e 46df 2dbe
000003c0: 83a2 f9bd bd1e 223f 0286 913e 3f1d a8bd
000003d0: 33a5 9f3e a9fa c9bd de1c 9a3e 2536 e6bc
000003e0: 6ac1 bf3e 798f b2be 3645 873e 2788 173e
000003f0: cb2a bd3e b90e 0c3e b9b2 bc3e b254 573e

model.2.bias f4 [32]
0.075435914 0.1753709 0.077311926 -0.11087028 0.16984949 -0.19095796 -0.097867124 -0.08058363
0.024438344 0.32756647 -0.5177733 0.122081146 0.05921926 0.0032972153 0.11843733 0.29996175
-0.005650105 0.30067185 -0.15363026 -0.090643756 0.06355197 0.2357897 -0.08870064 0.22683468
0.20853695 0.1422112 -0.20736693 0.18461508 0.028793981 -0.09251537 0.12695079 -0.0024077161
00000000: 257e 9a3d 6e94 333e b755 9e3d f50f e3bd
00000010: 06ed 2d3e 7c8a 43be 8f6e c8bd 0809 a5bd
00000020: ec32 c83c cbb6 a73e ca8c 04bf ae05 fa3d
00000030: e58f 723d 1816 583b 458f f23d 9694 993e
00000040: 8424 b9bb a9f1 993e 4051 1dbe 6fa3 b9bd
00000050: 8927 823d db72 713e aea8 b5bd 5a47 683e
00000060: b68a 553e d09f 113e ff57 54be bc0b 3d3e
00000070: 5be1 eb3c b378 bdbd 63ff 013e c6ca 1dbb

model.4.weight f4 [32, 32]
0.2929764 0.17093888 -0.21276811 0.30448693 -0.16278917 0.36189196 -0.23149699 0.2866145
0.39139703 -0.45963287 0.2759365 -0.38364515 0.23345914 0.36342782 0.2674578 -0.124345705
0.4717254 0.0015713406 0.4334346 0.37761104 -0.18377267 -0.1326824 0.58256954 0.012429754
0.15561733 0.3514819 0.551626 0.25733405 0.083977096 0.15454422 -0.4438012 0.3319037
-0.8270807 -0.7200232 -0.12041039 -0.6167868 -0.0788255 -0.5682298 0.9214831 -0.7168929
-0.1396786 0.45856366 0.013516333 -0.014568928 -0.39556605 -0.30288428 -0.2719116 -0.075293325
-0.5669415 0.044568818 -0.39975652 -0.5608058 -0.08800608 0.14845772 -0.60263205 -0.17850596
-0.7284426 -0.6807571 -0.15389496 -0.6258292 -0.8410898 0.11360018 0.2666598 -0.12692976
0.34472793 0.26143405 -0.47133276 0.35788417 -0.48838177 0.18419921 0.22460209 0.28892025
0.20293349 -0.24400899 -0.012652838 -0.6579325 0.13048898 0.19792078 0.00539106 -0.23889452
0.4906257 -0.21776244 0.17676817 0.21225227 -0.32697958 -0.50398964 0.4775952 -0.59182036
0.063951515 0.09787332 0.5781159 -0.060715802 0.058166184 0.31407595 -0.6142754 0.38814053
-0.0013101253 0.28608623 0.0891042 -0.1096652 0.3036538 -0.0054801223 -0.25783557 0.057671595
-0.20263934 -0.12039195 -0.09675425 0.075199075 -0.08704113 -0.0045946613 -0.074928574 0.31332105
-0.07943907 0.100234516 -0.24179406 0.04051093 0.24813157 0.082663245 0.04136143 0.21219826
0.36842093 0.29599363 -0.23747145 -0.057649754 0.060779557 -0.06397721 0.10098068 -0.11007581
-1.091564 -1.0209731 0.42895687 -0.89891905 0.24818435 -0.90537184 0.8777995 -0.8011231
-0.71258384 0.9010849 0.18260743 0.22048879 -1.0842723 -0.9251682 -0.7609856 0.34684584
-1.2604488 0.6691175 -0.90105605 -1.0439632 0.16570063 0.55249757 -1.0435762 0.14658621
-0.66291547 -1.2680658 -0.7109727 -0.9915644 -0.9915398 -0.7279338 0.5286317 -0.48516244
0.06255122 -0.1121883 -0.038020916 0.36101514 -0.32378265 -0.05942147 0.4842847 -0.01523873
0.22167546 0.068125784 0.7475559 -0.2603639 0.059404604 0.07616504 -0.10661965 -0.25353563
0.3267789 0.018366966 0.07460805 0.32859826 -0.10913189 -0.11489484 0.11536126 -0.056330513
-0.013515955 -0.018066246 0.007843408 -0.21586858 -0.10765417 0.057183098 0.008290002 0.14658113
0.4007255 0.44034523 -0.3090922 0.49517974 -0.23612648 0.4739402 -0.35005817 0.48832193
0.362972 -0.83734137 -0.4080424 -0.36603993 0.57494736 0.43996927 0.5123039 -0.10191391
0.57514924 -0.30281633 0.4778985 0.30685344 0.099367134 -0.15040624 0.26983142 -0.20101121
0.41082424 0.56658363 0.6910368 0.13311876 0.5313841 0.40414438 -0.4430421 0.5942347
0.2941381 0.09898491 0.0052466528 0.31117526 -0.27287227 0.09814792 0.07302963 0.12364214
0.41231188 -0.08740753 0.68121517 -0.1605198 0.059504557 0.16899514 0.08456896 -0.026798207
0.5195611 -0.26098788 0.34991828 0.30581287 -0.23839244 -0.2660222 0.37937096 -0.10193524
-0.003953752 0.26161903 0.4531942 0.11441026 0.07774112 0.0063866754 -0.2713806 0.26865608
00000000: 0101 963e 9a0a 2f3e e2df 59be b6e5 9b3e
00000010: 34b2 26be e749 b93e 8c0d 6dbe 23bf 923e
00000020: 3165 c83e 0055 ebbe 8d47 8d3e 236d c4be
00000030: ea0f 6f3e 3613 ba3e 3bf0 883e f6a8 febd
00000040: fe85 f13e 71f5 cd3a 24eb dd3e 3c56 c13e
00000050: e72e 3cbe e5dd 07be 4723 153f 2ba6 4b3c
00000060: 265a 1f3e 70f5 b33e 5d37 0d3f 4ac1 833e
00000070: 2ffc ab3d d740 1e3e e939 e3be 48ef a93e
00000080: 90bb 53bf 7153 38bf b999 f6bd bde5 1dbf
00000090: 446f a1bd 8277 11bf 51e6 6b3f 4b86 37bf
000000a0: e807 0fbe dbc8 ea3e 9c73 5d3c 83b2 6ebc
000000b0: a287 cabe a613 9bbe ff37 8bbe 6333 9abd
000000c0: 1423 11bf cb8d 363d e3ac ccbe f890 0fbf
000000d0: 883c b4bd 4d05 183e 1846 1abf 44ca 36be
000000e0: 377b 3abf 1946 2ebf a496 1dbe 5836 20bf
000000f0: a951 57bf 36a7 e83d a287 883e e0f9 01be
00000100: 2e80 b03e afda 853e 8752 f1be 983c b73e
00000110: 2d0d fabe b89e 3c3e 17fe 653e 5bed 933e
00000120: cccd 4f3e 7edd 79be d94d 4fbc 446e 28bf
00000130: e79e 053e bfab 4a3e 7da7 b03b c4a0 74be
00000140: 4b33 fb3e 1efd 5ebe b702 353e a958 593e
00000150: de69 a7be 7705 01bf 5c87 f43e 8a81 17bf
00000160: 03f9 823d cf71 c83d 67ff 133f 22b1 78bd
00000170: aa3f 6e3d 90ce a03e 2741 1dbf 5bba c63e
00000180: 83b8 abba e579 923e 437c b63d 2698 e0bd
00000190: 8378 9b3e 9992 b3bb 0603 84be 0d39 6c3d
000001a0: b080 4fbe 0e90 f6bd 1827 c6bd f901 9a3d
000001b0: 9f42 b2bd d08e 96bb 2774 99bd 9e6b a03e
000001c0: f3b0 a2bd c147 cd3d dd98 77be caee 253d
000001d0: 3416 7e3e 594b a93d 9a6a 293d 804a 593e
000001e0: aba1 bc3e 7a8c 973e b72b 73be 2622 6cbd
000001f0: fcf3 783d 7c06 83bd f5ce ce3d 6d6f e1bd
00000200: 5fb8 8bbf 3faf 82bf 3ca0 db3e 8f1f 66bf
00000210: 0a24 7e3e 73c6 67bf 78b7 603f 6716 4dbf
00000220: e56b 36bf 80ad 663f 71fd 3a3e d0c7 613e
00000230: 6fc9 8abf d3d7 6cbf f4cf 42bf c795 b13e
00000240: 6356 a1bf 494b 2b3f 9cab 66bf 96a0 85bf
00000250: 6dad 293e 7b70 0d3f e893 85bf b21a 163e
00000260: d4b4 29bf fb4f a2bf 4f02 36bf 2ad7 7dbf
00000270: 8dd5 7dbf df59 3abf 6854 073f 3667 f8be
00000280: db1a 803d fbc2 e5bd d2bb 1bbd fad6 b83e
00000290: d7c6 a5be ed63 73bd 2af4 f73e deab 79bc
000002a0: e4fe 623e 8885 8b3d d35f 3f3f 6b4e 85be
000002b0: 3e52 733d 6bfc 9b3d 675b dabd 6ccf 81be
000002c0: 904f a73e 5276 963c 1bcc 983d 083e a83e
000002d0: 8a80 dfbd fc4d ebbd 8642 ec3d d3ba 66bd
000002e0: 0672 5dbc aaff 93bc a381 003c a70c 5dbe
000002f0: ca79 dcbd d338 6a3d cad2 073c 5d19 163e
00000300: e52b cd3e ee74 e13e 5541 9ebe 3388 fd3e
00000310: 24cb 71be 4aa8 f23e d33a b3be 5505 fa3e
00000320: 77d7 b93e 015c 56bf efea d0be 9669 bbbe
00000330: c02f 133f a743 e13e 5926 033f 3db8 d0bd
00000340: fb3c 133f be0a 9bbe 1daf f43e e51b 9d3e
00000350: ff80 cb3d 1804 1abe 5827 8a3e e2d5 4dbe
00000360: 8e57 d23e a00b 113f cae7 303f 4950 083e
00000370: ca08 083f 03ec ce3e 6ad6 e2be c41f 183f
00000380: 4599 963e 9ab8 ca3d 1dec ab3b 5d52 9f3e
00000390: eab5 8bbe c701 c93d 8f90 953d 1738 fd3d
000003a0: 8b1a d33e b802 b3bd 1e64 2e3f 4d5f 24be
000003b0: 0dbb 733d 100d 2d3e 7e32 ad3d ea87 dbbc
000003c0: f501 053f 34a0 85be 7d28 b33e 8193 9c3e
000003d0: 261d 74be 1034 88be e93c c23e 6cc3 d0bd
000003e0: 7a8e 81bb eef2 853e 1209 e83e ed4f ea3d
000003f0: bc36 9f3d 5147 d13b 66f2 8abe 4a8d 893e

model.4.bias f4 [32]
-0.024214689 -0.012405211 -0.22674268 0.019919459 0.018593935 -0.038235303 -0.008302554 0.041467525
0.20195831 -0.055194452 0.28624734 -0.111738846 -0.19698079 -0.14753507 -0.013096191 -0.031695064
-0.010037957 0.052031912 0.0535648 0.33953452 -0.044896625 0.18997203 -0.025095375 0.20293425
0.022931483 0.10321359 -0.15443745 0.17985718 -0.027479958 0.18212064 -0.09955074 0.06490669
00000000: e25d c6bc 3a3f 4bbc 3c2f 68be 222e a33c
00000010: 4f52 983c 9f9c 1cbd 6f07 08bc dad9 293d
00000020: 29ce 4e3e 9413 62bd 038f 923e 56d7 e4bd
00000030: 55b5 49be 6f13 17be 6891 56bc afd2 01bd
00000040: 3e76 24bc 6a1f 553d c466 5b3d 78d7 ad3e
00000050: 86e5 37bd 0788 423e d194 cdbc ffcd 4f3e
00000060: ceda bb3c a661 d33d da24 1ebe 7b2c 383e
00000070: a61d e1bc d57d 3a3e 42e1 cbbd cced 843d

model.6.weight f4 [32, 32]
0.20725034 0.16361432 0.17781183 -0.22029474 -0.027652614 0.39603034 0.14461632 0.39411247
-0.25293863 -0.0128356265 -0.22508423 0.25313294 0.32407665 0.14246991 0.392191 0.38493818
0.026431426 -0.07516105 0.09786292 -0.2132212 -0.05927868 -0.023315901 0.31854886 -0.05545862
-0.0781253 -0.11436581 0.24597195 -0.18645649 0.12787025 -0.075736865 0.32237604 -0.088466704
-0.03876717 -0.012175549 0.22375068 -0.12966023 -0.53360367 0.12914594 -0.20594694 -0.052696593
-0.15445666 -0.14539604 0.11698849 0.25558606 0.22673385 0.16404419 0.0819749 0.24175501
0.056570437 -0.25598538 0.15309286 -0.11692871 0.26576295 -0.056274123 -0.007987345 -0.12976146
0.03525044 -0.1370841 0.054356873 -0.19384128 -0.07107054 0.022985522 0.26041487 -0.07156905
0.104453124 0.08195399 0.21589166 -0.19751416 0.9647708 0.13851514 0.1383339 -0.13624775
0.03909981 -0.18175413 -0.13885236 0.19301164 0.08346078 -0.18731602 -0.16686352 0.06570088
0.098978326 -0.10984744 0.24350901 -0.082857765 -0.036737263 -0.12453096 -0.23178764 -0.024442688
-0.001751635 -0.16772994 0.03926725 0.040783923 0.038514957 -0.099460855 0.18149939 0.014479458
-0.04894531 -0.14226715 -0.0649306 -0.17007664 -0.013931946 0.007322116 0.11866416 0.108769484
-0.17057618 -0.123963945 0.013037762 -0.041605208 -0.029333856 0.1335511 -0.11416539 0.048031427
0.20102125 -0.14406165 0.16811292 -0.22957166 0.31201372 -0.055573776 -0.026684856 0.13680282
0.07143203 -0.27026233 0.058390185 -0.21681167 0.08564563 0.1738531 0.32403713 -0.15437338
0.13598938 -0.068843395 0.5064448 -0.33089837 -0.041447513 0.34122103 0.17135863 0.39916074
0.12255648 -0.18079321 -0.17000173 0.32732055 0.36242417 -0.062463086 0.073595084 0.37150368
0.23089446 -0.1261454 0.10009047 -0.40094754 0.23502117 -0.013622948 0.2687833 0.119800426
0.14259994 -0.2892731 0.0066339765 -0.247809 0.018540703 0.23221284 0.46642327 -0.05074728
-0.96677774 -0.17710485 -0.38775823 0.20832042 0.09382565 -0.13478325 -1.4074495 -0.52861625
0.021301463 -0.072601676 0.1250517 -1.4515595 -0.23927857 -0.4582468 0.02001294 -0.39718735
-0.89311314 0.0627267 -0.15247846 -0.13215274 -0.11140022 0.18762909 -0.19206595 -0.12538747
-0.15751992 0.17270125 -0.15773131 -0.057361133 -0.5383327 0.64554423 -1.0034502 -0.057010416
0.1071729 -0.1586161 0.22767274 0.124355905 0.0783512 0.08564989 0.09360711 -0.13062465
0.1127558 0.007702825 -0.12643117 0.18387619 0.2729462 0.050589498 -0.13873386 0.055427607
0.10951206 0.15873897 0.14211866 0.17714858 -0.25949082 -0.07648271 0.03604187 0.3394911
-0.14712286 0.062253136 -0.23528923 -0.026592756 0.1712128 0.05628895 0.15042123 0.037577976
0.41521218 0.4237554 0.17262383 -0.16814935 0.29357222 0.29946157 -0.01776529 0.4343649
0.09725611 0.08860206 -0.06989593 -0.006104663 0.21588005 0.038483202 0.19918421 0.4644703
0.26009756 -0.017147196 -0.021615153 -0.25126505 0.07114702 -0.17958751 0.13478166 -0.13494244
0.41197816 -0.23662803 0.23429696 -0.1980921 0.21484491 0.11705203 0.1800767 0.038913615
00000000: 6f39 543e 838a 273e 4e14 363e f294 61be
00000010: bc87 e2bc 7dc4 ca3e 4d16 143e 1cc9 c93e
00000020: 2c81 81be 854c 52bc 7b7c 66be a49a 813e
00000030: 60ed a53e a2e3 113e 42cd c83e 9e16 c53e
00000040: b886 d83c 09ee 99bd 5b6c c83d a956 5abe
00000050: 33ce 72bd fd00 bfbc d618 a33e 9428 63bd
00000060: 2800 a0bd 9f38 eabd 12e0 7b3e 73ee 3ebe
00000070: 6bf0 023e ee1b 9bbd 790e a53e 082e b5bd
00000080: 53ca 1ebd f47b 47bc e61e 653e a7c5 04be
00000090: 409a 08bf d53e 043e c1e3 52be 62d8 57bd
000000a0: e329 1ebe b3e2 14be a997 ef3d 2ddc 823e
000000b0: eb2c 683e 33fb 273e 75e2 a73d a08e 773e
000000c0: 67b6 673d 8410 83be 60c4 1c3e 5278 efbd
000000d0: 1512 883e b27f 66bd 5add 02bc 30e0 04be
000000e0: c462 103d c65f 0cbe 50a5 5e3d 547e 46be
000000f0: 6e8d 91bd 224c bc3c 1955 853e cb92 92bd
00000100: 85eb d53d 7ed7 a73d b412 5d3e 2741 4abe
00000110: 38fb 763f ead6 0d3e 67a7 0d3e 8884 0bbe
00000120: 1f27 203d c11d 3abe 502f 0ebe d8a4 453e
00000130: 7ced aa3d c5cf 3fbe 45de 2abe 2f8e 863d
00000140: 26b5 ca3d b2f7 e0bd 6d5a 793e 55b1 a9bd
00000150: d079 16bd 170a ffbd bd59 6dbe 083c c8bc
00000160: 1e97 e5ba 66c1 2bbe b2d6 203d 0b0d 273d
00000170: dcc1 1d3d 22b2 cbbd fada 393e 403b 6d3c
00000180: e17a 48bd 7bae 11be 56fa 84bd 9228 2ebe
00000190: d142 64bc 5cee ef3b 3206 f33d 89c2 de3d
000001a0: 86ab 2ebe cfe0 fdbd 569c 553c 396a 2abd
000001b0: 8e4d f0bc 9fc1 083e 8bcf e9bd 9abc 443d
000001c0: 84d8 4d3e e684 13be cb25 2c3e d514 6bbe
000001d0: 43c0 9f3e 54a1 63bd 339a dabc 0a16 0c3e
000001e0: f54a 923d d35f 8abe 8c2a 6f3d e103 5ebe
000001f0: fa66 af3d 8c06 323e 32e8 a53e 0e14 1ebe
00000200: cd40 0b3e c4fd 8cbd 5ea6 013f 836b a9be
00000210: dec4 29bd 86b4 ae3e a378 2f3e cc5e cc3e
00000220: e4fe fa3d db21 39be ef14 2ebe 8f96 a73e
00000230: a98f b93e 4bd9 7fbd 05b9 963d bb35 be3e
00000240: 996f 6c3e 422c 01be 3bfc cc3d ff48 cdbe
00000250: 64a9 703e c932 5fbc f79d 893e ed59 f53d
00000260: b805 123e 9b1b 94be d461 d93b a4c1 7dbe
00000270: ace2 973c 34c9 6d3e 08cf ee3e 61dc 4fbd
00000280: bf7e 77bf f95a 35be 3f88 c6be f351 553e
00000290: aa27 c03d 9f04 0abe 4e27 b4bf 6553 07bf
000002a0: 6880 ae3c 30b0 94bd 8e0d 003e b4cc b9bf
000002b0: 7105 75be 539f eabe 2df2 a33c 245c cbbe
000002c0: 10a3 64bf db76 803d 5023 1cbe 0c53 07be
000002d0: cc25 e4bd d721 403e f0ac 44be 9365 00be
000002e0: e74c 21be 99d8 303e 5184 21be 82f3 6abd
000002f0: 2cd0 09bf 6342 253f 0e71 80bf c183 69bd
00000300: 777d db3d 426c 22be 0b23 693e 4fae fe3d
00000310: 9876 a03d 3669 af3d 16b5 bf3d 78c2 05be
00000320: 83ec e63d fb67 fc3b 2c77 01be 0a4a 3c3e
00000330: 9bbf 8b3e ef36 4f3d 4010 0ebe 0f08 633d
00000340: dc47 e03d 788c 223e 8e87 113e 7066 353e
00000350: fbdb 84be f8a2 9cbd a4a0 133d c7d1 ad3e
00000360: 60a7 16be 25fd 7e3d a9ef 70be 0dd9 d9bc
00000370: 6952 2f3e 3e8f 663d 0608 1a3e 5deb 193d
00000380: b196 d43e 78f6 d83e 4dc4 303e 582f 2cbe
00000390: 194f 963e 0753 993e 8388 91bc 1465 de3e
000003a0: 362e c73d ff74 b53d 9925 8fbd a009 c8bb
000003b0: a90f 5d3e 90a0 1d3d f2f6 4b3e 0dcf ed3e
000003c0: 822b 853e 4778 8cbc 4312 b1bc d0a5 80be
000003d0: 87b5 913d cae5 37be 3404 0a3e 5a2e 0abe
000003e0: cdee d23e 9e4e 72be 8beb 6f3e a8d8 4abe
000003f0: 4e00 5c3e fab8 ef3d 0766 383e e263 1f3d

model.6.bias f4 [32]
-0.025107548 -0.035301395 -0.03778579 -0.051503688 -0.27429911 0.13377228 -0.02124397 -0.03110017
0.10958519 -0.116311826 0.16225293 -0.15731831 -0.112489685 0.019982666 0.056729317 0.13379194
-0.26277718 0.08649171 -0.15836279 -0.040869366 0.0052067167 -0.054680858 -0.15141577 -0.0776696
0.016492847 -0.34706306 0.04510454 -0.14326973 -0.012200846 -0.090458296 -0.29787773 0.33472422
00000000: 58ae cdbc 3298 10bd 46c5 1abd 88f5 52bd
00000010: ef70 8cbe 9afb 083e d607 aebc c9c5 febc
00000020: 336e e03d e534 eebd a225 263e 0d18 21be
00000030: fe60 e6bd b0b2 a33c 005d 683d c100 093e
00000040: bb8a 86be 9122 b13d db29 22be a366 27bd
00000050: 1b9d aa3b 09f9 5fbd bc0c 1bbe 3d11 9fbd
00000060: 021c 873c 40b2 b1be 8abf 383d 4db5 12be
00000070: 0fe6 47bc 3342 b9bd 6e83 98be f960 ab3e

model.8.weight f4 [32, 32]
0.08911151 -0.19531538 -0.14005922 0.10989364 0.011827288 0.40904155 0.048418477 0.23434009
0.26383406 0.1270709 0.10798181 0.028359814 -0.122002676 0.20563094 0.06627228 -0.21868022
0.00347708 0.21922758 0.3694665 0.2747376 0.19069745 0.6505545 -0.23434128 -0.0045887306
0.16967984 -0.43663415 0.18975413 -0.105553634 0.010703569 -0.10354436 0.100212336 0.07167455
0.06174461 0.062184535 0.025453858 0.059594426 -0.033137742 -0.22557165 -0.056339696 0.09884041
0.16123115 0.018902512 0.11610867 0.17584969 -0.096550286 0.22543612 0.06920144 -0.1372615
0.054272633 0.102622725 -0.0021768166 -0.09455451 -0.111107305 0.111896604 0.04850312 0.013429114
0.06430497 -0.113207124 -0.5407573 -0.09357873 -0.27912727 0.11849147 0.16256106 -0.47733393
0.06934209 -0.046525486 0.024385706 -0.033447303 0.13995571 -0.23046413 0.043096166 -0.092866845
-0.25737992 -0.08161478 -0.06104885 0.0034669468 0.0341853 -0.07838786 -0.05053737 -0.11504802
0.24948218 0.2036738 0.040758755 -0.05103353 0.1493317 -0.040268738 0.008526078 0.20441863
-0.07460507 -0.13763198 -0.25679538 0.15542962 -0.3086111 -0.026985457 0.15658177 -0.19796759
0.18938507 0.010654988 0.20563392 -0.011710802 0.08377136 -0.34025088 -0.086544454 0.015453222
-0.24396877 -0.17120501 0.022258164 -0.1900845 -0.11259369 0.053116422 0.09575749 -0.00412717
-0.039711963 0.15437333 0.16579449 -0.031994533 0.07379298 -0.46328166 -0.053225853 0.08830739
-0.1378773 -0.08219694 -0.28936246 -0.13770278 0.022048043 0.046884086 0.058791235 -0.17389983
0.06567469 0.036596775 0.05334897 0.16393074 0.18035623 -0.43009073 0.21179171 -0.14681804
-0.44567272 0.042437095 0.18417609 0.17915562 0.08471179 0.016744608 0.26801696 0.25495628
0.16199033 -0.05076044 -0.09894306 0.16501743 -0.12438955 -0.039378513 0.098077945 -0.1287801
0.14357956 0.026379144 -0.5235487 0.14124784 -0.5247848 0.0996937 0.170563 -0.44148505
0.015730567 0.15321843 0.034200013 0.17375821 -0.0024695452 -0.014769194 0.07554169 -0.06294711
-0.17074867 0.080536716 0.0769374 0.11244901 -0.13493115 -0.0545182 -0.09726028 -0.04700828
0.24185795 -0.0660052 -0.01635719 0.15229246 -0.108361706 0.08747775 0.13120155 -0.0005012307
-0.10712371 -0.13553458 -0.43742967 -0.047828462 -0.38961664 -0.04714572 0.17336154 -0.4665964
-0.2567961 -0.06820708 0.058567878 0.1435431 0.19012289 -0.43331107 0.3327066 -0.3120219
-0.3411749 0.15215802 0.10691632 -0.33125985 -0.40364876 0.025287323 0.18900248 0.45684937
-0.43083996 -0.33239752 -0.3216279 -0.19906874 0.045523208 -0.13247742 -0.03267327 0.23368926
-0.3355994 -0.14905654 -0.35998634 -0.055761628 -0.48936132 0.03253177 0.017397434 -0.03447011
-0.04471668 -0.016848927 0.088396266 0.096145086 -0.101987205 0.6124177 -0.019333297 0.15501331
0.52273107 0.17418496 -0.14331333 0.031193653 0.14268312 0.11487454 0.0148312915 0.10384839
0.022479707 -0.042101815 0.37947056 0.058555435 0.27601802 0.31545094 -0.3223135 0.16055833
-0.0130385365 -0.32283795 0.15791857 0.16714504 0.035494644 -0.18228196 0.11594471 -0.12655191
00000000: 1880 b63d c100 48be af6b 0fbe eb0f e13d
00000010: 3ec7 413c e56d d13e 7452 463d d9f6 6f3e
00000020: 4215 873e e01e 023e 9125 dd3d d752 e83c
00000030: 8adc f9bd eb90 523e c3b9 873d b5ed 5fbe
00000040: b9df 633b 327d 603e b72a bd3e 68aa 8c3e
00000050: 3146 433e bd8a 263f 29f7 6fbe 105d 96bb
00000060: 8dc0 2d3e 838e dfbe e84e 423e 812c d8bd
00000070: 065e 2f3c 110f d4bd 203c cd3d 1bca 923d
00000080: ebe7 7c3d 36b5 7e3d 9c84 d03c 4919 743d
00000090: 71bb 07bd 41fc 66be 74c4 66bd d76c ca3d
000000a0: c719 253e 71d9 9a3c 62ca ed3d f111 343e
000000b0: 28bc c5bd bad8 663e 7cb9 8d3d 478e 0cbe
000000c0: fb4c 5e3d dd2b d23d eca8 0ebb cca5 c1bd
000000d0: 3a8c e3bd 0c2a e53d 35ab 463d c905 5c3c
000000e0: 53b2 833d 23d9 e7bd 126f 0abf 35a6 bfbd
000000f0: c5e9 8ebe a8ab f23d 6876 263e 1d65 f4be
00000100: 3a03 8e3d 8291 3ebd 88c4 c73c 0a00 09bd
00000110: 8d50 0f3e cafe 6bbe 9b85 303d f930 bebd
00000120: 4dc7 83be a625 a7bd 5c0e 7abd b735 633b
00000130: e305 0c3d d089 a0bd 4600 4fbd 4c9e ebbd
00000140: 4278 7f3e dd8f 503e a7f2 263d 8908 51bd
00000150: 69ea 183e d5f0 24bd f7b0 0b3c 1e53 513e
00000160: 8bca 98bd 66ef 0cbe af7a 83be f128 1f3e
00000170: 4602 9ebe 9b10 ddbc f956 203e 04b8 4abe
00000180: 29ee 413e 4292 2e3c b391 523e aade 3fbc
00000190: 5290 ab3d 5d35 aebe 383e b1bd 832f 7d3c
000001a0: f3d2 79be 5e50 2fbe c156 b63c 83a5 42be
000001b0: 8597 e6bd 9b90 593d 811c c43d 363d 87bb
000001c0: 03a9 22bd 0b14 1e3e 08c6 293e b30c 03bd
000001d0: c620 973d 4133 edbe 5a03 5abd 81da b43d
000001e0: b52f 0dbe df56 a8bd 5127 94be f501 0dbe
000001f0: 199e b43c 8709 403d 14cf 703d cc12 32be
00000200: 7480 863d 80e6 153d 7384 5a3d 76dd 273e
00000210: 4eaf 383e da34 dcbe eddf 583e 7857 16be
00000220: 372f e4be 85d2 2d3d a898 3c3e 9274 373e
00000230: 607d ad3d fd2b 893c 8539 893e a189 823e
00000240: cbe0 253e 2eea 4fbd a9a2 cabd 54fa 283e
00000250: f3bf febd 5d4b 21bd 17dd c83d eede 03be
00000260: 8506 133e 1319 d83c 4a07 06bf 46a3 103e
00000270: 4c58 06bf 362c cc3d 11a8 2e3e 540a e2be
00000280: 64dd 803c 4be5 1c3e 5015 0c3d aced 313e
00000290: 18d8 21bb 7dfa 71bc 9ab5 9a3d 6aea 80bd
000002a0: bdd8 2ebe 6ff0 a43d 5b91 9d3d ab4b e63d
000002b0: 642b 0abe 7a4e 5fbd 6630 c7bd c18b 40bd
000002c0: 9ca9 773e bc2d 87bd 84ff 85bc 8ef2 1b3e
000002d0: beec ddbd 8927 b33d b359 063e 0665 03ba
000002e0: ad63 dbbd 94c9 0abe c8f6 dfbe c7e7 43bd
000002f0: d57b c7be df1b 41bd b085 313e b9e5 eebe
00000300: c77a 83be 27b0 8bbd dfe4 6f3d f6fc 123e
00000310: 93af 423e f3da ddbe 8558 aa3e 56c1 9fbe
00000320: 7aae aebe 50cf 1b3e f2f6 da3d e49a a9be
00000330: 0dab cebe 5c27 cf3c de89 413e 29e8 e93e
00000340: 0e97 dcbe 0230 aabe 69ac a4be add8 4bbe
00000350: 8b76 3a3d 29a8 07be 68d4 05bd 3d4c 6f3e
00000360: afd3 abbe 47a2 18be 2150 b8be 4e66 64bd
00000370: 918d fabe 0940 053d 1085 8e3c 8830 0dbd
00000380: d628 37bd c306 8abc 1a09 b53d b7e7 c43d
00000390: abde d0bd 68c7 1c3f dd60 9ebc cfbb 1e3e
000003a0: b4d1 053f 8b5d 323e bbc0 12be d589 ff3c
000003b0: 861b 123e 5843 eb3d f2fe 723c 77ae d43d
000003c0: 5d27 b83c f472 2cbd f749 c23e d3d7 6f3d
000003d0: 3c52 8d3e c982 a13e 4606 a5be 6769 243e
000003e0: 969f 55bc 044b a5be 68b5 213e 1228 2b3e
000003f0: d562 113d 1fa8 3abe 6c74 ed3d d396 01be

model.8.bias f4 [32]
-0.0873991 -0.16653322 0.047044225 -0.12759618 -0.096752346 -0.1046673 0.06400673 0.05899655
0.03148185 0.07959367 0.044418618 0.09931247 -0.21167819 0.007920108 -0.032775063 0.08529283
-0.15032496 -0.15764658 0.009958157 -0.04422494 -0.09897069 -0.029164119 0.08339841 0.06610858
0.03278352 -0.083432935 0.014186416 -0.061433475 0.065016545 0.14984089 0.07936769 0.107158154
00000000: 4dfe b2bd af87 2abe 72b1 403d 93a8 02be
00000010: 1826 c6bd cf5b d6bd f615 833d 5ea6 713d
00000020: 1df3 003d 0202 a33d 4cf0 353d 5664 cb3d
00000030: 2bc2 58be 57c3 013c 253f 06bd 02ae ae3d
00000040: c9ee 19be 1b6e 21be 8a27 233c 3625 35bd
00000050: 25b1 cabd 97e9 eebc c9cc aa3d ef63 873d
00000060: 0348 063d e3de aabd 246e 683c aba1 7bbd
00000070: 6527 853d e46f 193e 878b a23d bc75 db3d

model.10.weight f4 [1, 32]
-0.11788848 0.08658043 0.08746503 -0.0069514974 0.22272822 0.19385521 -0.5888085 -0.09047904
0.11452567 0.28378418 -0.08816886 0.21116771 -0.36208713 0.22808352 -0.27161187 0.19842164
0.15086636 0.21213068 -0.043703843 -0.4253616 -0.24059528 -0.12913334 0.29188576 0.26689157
0.35902146 -0.168374 0.39588934 0.15758187 0.29395643 0.21755634 0.09173284 0.18730122
00000000: 846f f1bd 1551 b13d de20 b33d 63c9 e3bb
00000010: de12 643e fb81 463e 27bc 16bf 134d b9bd
00000020: 6f8c ea3d 294c 913e e091 b4bd 593c 583e
00000030: 7c63 b9be ba8e 693e b610 8bbe 0b2f 4b3e
00000040: b67c 1a3e c938 593e cd02 33bd ffc8 d9be
00000050: 9c5e 76be 883b 04be 0d72 953e 03a6 883e
00000060: a9d1 b73e 3c6a 2cbe 02b2 ca3e 245d 213e
00000070: 7581 963e 17c7 5e3e 6dde bb3d e4cb 3f3e
