best_model_2.pt (torch, 5692 bytes, 7 tensors)

model.0.weight f4 [16, 1]
0	0xbf808004	-1.0039067
1	0xbff848c1	-1.9397203
2	0xbffb904e	-1.9653413
3	0xc0218e55	-2.5243123
4	0x40302f75	2.7528965
5	0xbff09e47	-1.8798302
6	0xbff5719e	-1.9175298
7	0x3e9eaa83	0.30989465
8	0x4033deb2	2.8104672
9	0x402c5b77	2.6930826
10	0xbff730a7	-1.9311723
11	0xc0198470	-2.3987083
12	0x3feeaeed	1.8647133
13	0xbffa5948	-1.9558496
14	0x402bde58	2.6854458
15	0xc00b94de	-2.1809611

model.0.bias f4 [16]
0	0x401c3f9b	2.4413822
1	0xbe3da550	-0.18520093
2	0xbe289a81	-0.16465189
3	0x3eabd138	0.3355806
4	0xbf157068	-0.58374643
5	0xbe2e8c5f	-0.17045735
6	0xbe40be87	-0.1882268
7	0x4028c393	2.636937
8	0x3e59bce8	0.21263468
9	0x3d3800f8	0.0449228
10	0xbd866f4a	-0.065641955
11	0x3e8fb6d7	0.28069183
12	0x401550cc	2.3330564
13	0xbe2db272	-0.16962603
14	0xbccd62d6	-0.025071543
15	0x3feb9302	1.8404238

model.2.weight f4 [16, 16]
0	0x3ea87f45	0.329096
1	0x3fd83fd7	1.6894482
2	0x3fc9bd14	1.5760827
3	0x400a3727	2.1596162
4	0x3e8b5fa7	0.27221414
5	0x4001a570	2.0257225
6	0x3fe1f654	1.7653298
7	0x3f0ba648	0.545506
8	0x3f8ccd63	1.1000179
9	0x3f804d47	1.0023583
10	0x401ce6ac	2.451579
11	0x40092776	2.1430335
12	0x3efc2782	0.49248892
13	0x3fe979b4	1.8240266
14	0x3f310853	0.69153327
15	0x3f813cd0	1.0096684
16	0x3f7bdb66	0.9838165
17	0xbfdf0de8	-1.7426119
18	0xbfda27a7	-1.7043351
19	0xbf963618	-1.1735258
20	0xc042685b	-3.0376194
21	0xc0047175	-2.0694249
22	0xbfe267ee	-1.7687967
23	0x3f2824a7	0.6568093
24	0xbfca5a22	-1.5808756
25	0xbfda7b50	-1.7068882
26	0xc00e6d34	-2.2254152
27	0xbfb2b9e8	-1.3962984
28	0x3ee1604b	0.44018778
29	0xbfc29e3b	-1.5204538
30	0xbffe52c5	-1.9869009
31	0x3f43fc63	0.76556987
32	0x3f1d69fc	0.61489844
33	0x3be36316	0.006939302
34	0x3db9b375	0.09067432
35	0x3f337dc1	0.7011376
36	0x3e7ce3c1	0.24696256
37	0x3f283f17	0.6572127
38	0xbcd6365e	-0.026148971
39	0x3eaf3254	0.34218085
40	0x3f5e7918	0.86903524
41	0x3f3abbf8	0.7294307
42	0x3e2eb48b	0.17061059
43	0x3f2c4ca4	0.67304444
44	0x3f125ba2	0.5717107
45	0x3ed36179	0.41285303
46	0x3dfea29e	0.124333605
47	0x3d9fa8fd	0.07795904
48	0x3fc40d42	1.5316546
49	0xbfe39b5c	-1.7781787
50	0xbff4845d	-1.9102894
51	0xbfbfa3b0	-1.4971828
52	0xbf8a5451	-1.0806981
53	0xbfe8bca4	-1.8182569
54	0xbfdb75c6	-1.7145317
55	0x3f1eda40	0.62051773
56	0xbf15bece	-0.5849427
57	0xbedb93cb	-0.42886195
58	0xc02c86ad	-2.69572
59	0xc00534e1	-2.0813525
60	0x3f27d0ee	0.65553176
61	0xbfec2d95	-1.845141
62	0xbf2970b4	-0.66187596
63	0x3e9ddc67	0.30832216
64	0x3dcf0830	0.101089835
65	0xbe28079b	-0.16409151
66	0xbdd4c8e7	-0.103898816
67	0xbee2866b	-0.44243178
68	0xbdc405e2	-0.095714346
69	0xbde74d0f	-0.11293995
70	0xbee07f97	-0.43847343
71	0x3e952208	0.29127526
72	0x3f598b89	0.8497854
73	0x3f4fdd48	0.81197023
74	0xbe3b30ef	-0.18280385
75	0xbf068d53	-0.52559394
76	0x3e3871ca	0.18012157
77	0xbe9af540	-0.30265236
78	0x3ee3faf8	0.4452741
79	0xbde37f10	-0.111082196
80	0x3e30be60	0.17260122
81	0xbed32b68	-0.41244054
82	0xbf347d68	-0.70503855
83	0xc01bcd64	-2.434411
84	0x3f9137bb	1.1345133
85	0xbf277753	-0.6541645
86	0xbf50e8fb	-0.816055
87	0x3e65f912	0.22458294
88	0x3fefddc7	1.8739556
89	0x3fdaf57a	1.7106164
90	0xbfab605a	-1.3388779
91	0xc057c6b9	-3.371504
92	0x3f344114	0.704118
93	0xbf2997f7	-0.66247505
94	0x3fba8198	1.4570799
95	0xbf7dd13d	-0.991474
96	0x3ecfd667	0.40593264
97	0x3e987655	0.2977778
98	0x3d58d59f	0.0529381
99	0x3f748569	0.9551607
100	0x3f2f5f80	0.68505096
101	0x3f905a9b	1.127765
102	0x3e561dd9	0.20909823
103	0x3e8a09e2	0.26960665
104	0x3ffaae8d	1.9584519
105	0x3f98a6d1	1.1925908
106	0x3e8db405	0.27676407
107	0x3f46e557	0.77693695
108	0x3ef01176	0.46888322
109	0x3f8b873c	1.0900645
110	0x3fbd6cd6	1.4798839
111	0x3dfa6cd9	0.12227792
112	0xc05e9b14	-3.4782152
113	0x40157ad3	2.3356216
114	0x402930c9	2.6436026
115	0x3f99efc2	1.2026293
116	0x401bb285	2.432771
117	0x40043f06	2.0663466
118	0x400ed395	2.231664
119	0xbff2c69e	-1.8966863
120	0x3fb789ea	1.4338963
121	0x3ff00249	1.8750697
122	0x3ff0d736	1.8815677
123	0x3f8782cd	1.0586792
124	0xbf0decd1	-0.5543948
125	0x401ec6a4	2.480874
126	0x3fa6ca10	1.3030415
127	0xbfe8793a	-1.8161995
128	0x3fd2de20	1.6474037
129	0xc021b68e	-2.5267673
130	0xc02aec67	-2.6706789
131	0xc018fd3b	-2.390456
132	0xbf8e72a0	-1.1128731
133	0xbff922b4	-1.9463716
134	0xc00abe53	-2.1678665
135	0x3fe001c3	1.7500538
136	0x3e9f63ac	0.3113073
137	0xbeffd95f	-0.49970528
138	0xc01397fb	-2.3061512
139	0xc007ec78	-2.123808
140	0x3fcffe51	1.6249486
141	0xc008f530	-2.139965
142	0xbed92d12	-0.42417198
143	0xbfdbb74b	-1.7165312
144	0xbf2beba0	-0.6715641
145	0xbf0c0b5c	-0.54704833
146	0xbf24b20a	-0.64334166
147	0xc00778a8	-2.1167393
148	0x40544899	3.316931
149	0xbec21e6c	-0.37913835
150	0xbef5b870	-0.47992277
151	0x3f65082d	0.894656
152	0x405089fb	3.2584217
153	0x4037d144	2.8721476
154	0xbf8463c4	-1.0342946
155	0xbfcedf4c	-1.6161895
156	0x3fe2e653	1.7726539
157	0xbee4d820	-0.4469614
158	0x4026c9a5	2.6060574
159	0xbfa694e6	-1.301419
160	0x3f1d923f	0.6155128
161	0xbf92f9c2	-1.148247
162	0xbf6d127c	-0.9260633
163	0xbea30418	-0.3183906
164	0xc0754886	-3.8325515
165	0xbf85c23b	-1.04499
166	0xbfa97419	-1.3238555
167	0x3f2e9c1c	0.68206954
168	0xbf07a7b5	-0.52990276
169	0xbf6bc886	-0.9210285
170	0xc0116daf	-2.2723196
171	0xbf0a3fa0	-0.54003334
172	0x3e9f049e	0.3105821
173	0xbfbe86a2	-1.4884837
174	0xbf773087	-0.9655842
175	0x3f72f4e2	0.9490491
176	0x3e541722	0.2071195
177	0xbef2eb44	-0.47445118
178	0xbe5e1aff	-0.21689986
179	0x3f098697	0.5372099
180	0xbf8c5665	-1.0963866
181	0xbe81cdeb	-0.25352415
182	0xbe96cf35	-0.2945496
183	0x3e3e364b	0.18575399
184	0xbf2b72f1	-0.6697226
185	0xbf2e0b93	-0.6798641
186	0xbd5a0aa0	-0.05323279
187	0x3e7212c3	0.2363997
188	0x3e8906db	0.26763043
189	0xbea6b962	-0.3256331
190	0xbf1375f0	-0.57601833
191	0x3f1c8608	0.61142015
192	0x3f52acc1	0.8229485
193	0xbfb9d72c	-1.451879
194	0xbfb403bd	-1.4063641
195	0xbf1407b8	-0.5782428
196	0xc008983d	-2.134292
197	0xbfc87e02	-1.5663455
198	0xbfbd1bda	-1.4774125
199	0x3eb55631	0.3541732
200	0xbfff13d1	-1.9927922
201	0xc01ab314	-2.41718
202	0xbfe4fe28	-1.7890062
203	0xbf53c7e2	-0.8272687
204	0x3ce73d6a	0.028227527
205	0xbfd51988	-1.6648417
206	0xc02a71bd	-2.663192
207	0x3f0d164b	0.5511214
208	0x3f7dd88c	0.9915855
209	0xbf9e4ce2	-1.2367213
210	0xbfa0620c	-1.2529922
211	0xbf5dbfee	-0.86620986
212	0xc03282be	-2.7892299
213	0xbff2539b	-1.8931764
214	0xbfe14fb5	-1.760245
215	0x3ebfae47	0.3743765
216	0xbff6cfaf	-1.928213
217	0xbfe0d5ab	-1.7565206
218	0xbfecab72	-1.8489821
219	0xbfa1b982	-1.2634737
220	0x3dfab06b	0.1224068
221	0xbfe4b513	-1.786776
222	0xc007b897	-2.1206415
223	0x3f344682	0.70420086
224	0x3e965c97	0.29367515
225	0x3ddf22ec	0.10895333
226	0x3e697214	0.22797424
227	0x3faa969b	1.3327211
228	0xbe9db527	-0.3080227
229	0x3e32934d	0.17439003
230	0x3f09d8e5	0.5384658
231	0x3d7a22d8	0.061068386
232	0xbf80b711	-1.0055867
233	0xbf61d752	-0.8821918
234	0x3ee642b9	0.4497278
235	0x3fa01cae	1.2508752
236	0x3c96c2ac	0.018403374
237	0x3ec6e873	0.3884922
238	0xbf839240	-1.0279007
239	0x3f21b063	0.6315977
240	0x3ec031e1	0.37538055
241	0x3f9092b5	1.1294771
242	0x3f79e717	0.9761824
243	0x3fd362f8	1.6514578
244	0x3fc244d3	1.5177253
245	0x3fd063c7	1.628045
246	0x3fbaf440	1.4605789
247	0x3e10b030	0.1412971
248	0x3fd59db8	1.6688757
249	0x3fbc5d57	1.4715985
250	0x3ffb847b	1.9649805
251	0x3fca7ece	1.5819948
252	0x3ecb9e74	0.39769328
253	0x3fddb1d9	1.73199
254	0x3fa14e5a	1.2602036
255	0x3eb1b7f1	0.3471065

model.2.bias f4 [16]
0	0x3ee494a2	0.44644648
1	0x3f3837fe	0.7196044
2	0x3eac64cc	0.33670652
3	0x3f341b71	0.7035437
4	0x3ecfe4f3	0.40604362
5	0xbd738d03	-0.05946065
6	0x3d9b95ab	0.07596906
7	0xc0294ffd	-2.645507
8	0x3f80a1a7	1.0049332
9	0xbdd9bb8b	-0.10631474
10	0x3f35a5a1	0.70955855
11	0x3dac74e5	0.08420733
12	0x3e980524	0.29691422
13	0x3f186be0	0.59539604
14	0x3e73c927	0.23807202
15	0x3da07b8b	0.07836064

model.4.weight f4 [16, 16]
0	0xbf9b8307	-1.2149361
1	0x3e947592	0.2899595
2	0xbf382c5b	-0.7194268
3	0x3ea70247	0.32618925
4	0xbe71d1ab	-0.23615138
5	0xbf9b4da9	-1.2133075
6	0xbf104142	-0.56349576
7	0xbd4edd6d	-0.050504137
8	0x3f11ceea	0.5695635
9	0xbf234267	-0.63773197
10	0x3e7927ee	0.24331638
11	0x3dafed2a	0.08590157
12	0x3ec1610d	0.37769356
13	0x3e5ce587	0.21571933
14	0x3e825688	0.25456643
15	0xbead5f40	-0.33861732
16	0xbf3cd182	-0.73757184
17	0xbfff0785	-1.992417
18	0x3d7d5b41	0.061854605
19	0x3f83e982	1.0305636
20	0x3dc70f98	0.09719771
21	0x3e3410c4	0.1758452
22	0xbedd56bd	-0.4323024
23	0xbe1c316a	-0.15253225
24	0x3ebd99d9	0.3703144
25	0xbdb24be8	-0.08705884
26	0xbe8c8bcf	-0.27450415
27	0xbeb87357	-0.36025497
28	0xbe5cc552	-0.21559647
29	0xbfe8db52	-1.8191931
30	0x3e2f026a	0.17090765
31	0xbf080428	-0.5313134
32	0xbf9d4543	-1.2286762
33	0x3f577ce3	0.84174937
34	0xbf993f39	-1.1972419
35	0x3fd6ca23	1.6780437
36	0xbfe86e11	-1.815859
37	0xbfd873e8	-1.6910372
38	0xc00235c5	-2.0345318
39	0x3e4ad010	0.19805932
40	0x3fbb9513	1.4654869
41	0xbfb74fa3	-1.4321178
42	0x3f24fae6	0.6444534
43	0x3eba7d32	0.3642364
44	0x3f86bb77	1.052596
45	0x3f8c2223	1.0947918
46	0x3e447e2c	0.19188756
47	0xbfdc0a74	-1.719069
48	0xbf00c489	-0.5029989
49	0x3f03f38a	0.51543486
50	0x3d19198f	0.03737789
51	0x3f4f10e5	0.80885154
52	0x3e63f8bf	0.22262858
53	0xbf6c3240	-0.92264175
54	0xbe1af668	-0.15133059
55	0xbe80579f	-0.2506685
56	0x3f9c75b8	1.2223425
57	0xbfcff21f	-1.6245764
58	0x3cea2835	0.028583625
59	0x3e2c0272	0.16797808
60	0x3e387896	0.1801475
61	0x3ed1ba76	0.4096257
62	0x3e1231f3	0.14276867
63	0xbf15a177	-0.584495
64	0x3d7b1ebf	0.06130862
65	0x3f4a9f03	0.7914888
66	0xbe5108d3	-0.20413522
67	0x3f1edd55	0.62056476
68	0xbf910fc1	-1.1332933
69	0xbe82a426	-0.2551586
70	0xbf38ceb6	-0.72190416
71	0x3cf752fc	0.030190937
72	0x3e9ee39f	0.31033036
73	0xbd3d2f28	-0.04618755
74	0x3e5b57f2	0.21420267
75	0x3e4885bc	0.19582266
76	0x3f251f08	0.64500475
77	0x3f162c76	0.5866159
78	0x3e6bb3cd	0.23017807
79	0xbee08060	-0.43847942
80	0xbc5477db	-0.012968029
81	0xbd7ef08c	-0.062241122
82	0xbe11ac20	-0.14225817
83	0x3d01cb87	0.03168824
84	0x3d39a519	0.045323465
85	0x3e195260	0.1497283
86	0xbd7dbf9c	-0.06195031
87	0xbfa057c1	-1.252678
88	0x3d03bb2e	0.03216093
89	0x3e8365cb	0.256636
90	0xc0823e10	-4.070076
91	0xc010e860	-2.264183
92	0xbda9112f	-0.08255231
93	0xbfb00ee4	-1.3754544
94	0xbe3c3b29	-0.18381943
95	0xbe39f33b	-0.18159191
96	0x3ea8681d	0.32891932
97	0x3e517e98	0.20458448
98	0xbe58298c	-0.21109599
99	0x3dc00814	0.09376541
100	0x3d0e27eb	0.034706037
101	0x3e87cc00	0.26522827
102	0x3c85174a	0.016246457
103	0x3f9fcd34	1.2484498
104	0x3ecb0e0a	0.39659148
105	0x3ee6a228	0.4504559
106	0x3e6e3d47	0.23265563
107	0xbdada571	-0.08478821
108	0x3e92ba07	0.28657553
109	0x3e847977	0.2587392
110	0xbe6e9381	-0.23298456
111	0xbd98037c	-0.074225396
112	0xbec1f9bf	-0.37885854
113	0xbcf7a9d0	-0.03023234
114	0x3e41a650	0.189111
115	0x3f47c7f8	0.78039503
116	0x3ed9b236	0.42518777
117	0x3c0045cf	0.007829144
118	0xbd83495a	-0.06410475
119	0xc0628146	-3.5391402
120	0x3f4437f3	0.7664787
121	0xbe17e478	-0.14833248
122	0xbf0ec5ba	-0.55770457
123	0xbf15faa2	-0.5858556
124	0x3d02c716	0.031928144
125	0xbe5e8b6d	-0.21732874
126	0xbf26979e	-0.650751
127	0xbe210714	-0.15725356
128	0xbf051276	-0.51981294
129	0xbb85e4a4	-0.004086094
130	0x3e0ecb88	0.13944829
131	0x3f2822d4	0.65678144
132	0x3e9e706c	0.30945146
133	0xbe4da096	-0.2008079
134	0x3e0fb7b7	0.14034925
135	0xc0834438	-4.1020775
136	0x3f8c1421	1.0943643
137	0xbdaf1b62	-0.08550145
138	0xbe937db2	-0.28806835
139	0xbe8bc1e1	-0.27296355
140	0x3d085d89	0.033292327
141	0x3e156558	0.14589441
142	0xbf8da2c3	-1.1065296
143	0xbef9ddf8	-0.4880216
144	0xbe648221	-0.22315265
145	0x3f3ade15	0.7299512
146	0xbe51c6e7	-0.20486031
147	0xbed6342d	-0.41836682
148	0x3e0ccb9d	0.13749547
149	0x3e7682c8	0.24073327
150	0x3c563ddd	0.013076273
151	0x4012fced	2.2966874
152	0xbec82956	-0.39094037
153	0x3e8a420b	0.27003512
154	0xbea43eb0	-0.32079077
155	0xbeebc7f4	-0.4605099
156	0x3f376f49	0.7165418
157	0x3f5cb913	0.862199
158	0x3e540b24	0.20707375
159	0x3e935d0c	0.28781927
160	0xbe42101f	-0.18951462
161	0x3f68612d	0.9077328
162	0x3d53ef17	0.051741686
163	0xbe20449b	-0.15651171
164	0x3e11139f	0.14167641
165	0xbd917689	-0.07102687
166	0x3e026250	0.12732816
167	0x402e8917	2.7271173
168	0xbef8c2fe	-0.48586267
169	0x3e9d777e	0.30755228
170	0xbd9425bb	-0.07233759
171	0xbea32f28	-0.31871915
172	0x3f5afab5	0.855388
173	0x3f80bf90	1.005846
174	0xbdf68e5f	-0.12038874
175	0x3e8be095	0.2731978
176	0x3c5e4d0f	0.013568177
177	0x3f1e899e	0.6192874
178	0x3db1d9e9	0.08684141
179	0x3d43a04d	0.047760297
180	0x3e3731df	0.17890118
181	0x3ee0e1c4	0.43922246
182	0x3e6a9461	0.22908165
183	0x3fbaa56e	1.4581735
184	0x3f359b2f	0.70939916
185	0x3ef1f644	0.47258198
186	0xbd721a48	-0.059107095
187	0x3e181d1f	0.14854859
188	0x3df891c5	0.12137178
189	0x3ea3eb65	0.3201553
190	0xbc717e96	-0.014739653
191	0xbdcef01f	-0.10104393
192	0xbfda070b	-1.7033399
193	0x3f08b397	0.5339903
194	0xbf2cd8c7	-0.67518276
195	0x3f2ac4ee	0.6670674
196	0x3e9e9fcf	0.309813
197	0xbf72eecd	-0.9489563
198	0xbefdc31f	-0.49562928
199	0xbe863d7d	-0.26218787
200	0x3ef62634	0.48076022
201	0xbf9fb9cf	-1.2478579
202	0x3edb0fa0	0.42785358
203	0xbdbe521d	-0.092930056
204	0x3ec5246f	0.3850436
205	0x3e316e92	0.17327335
206	0xbe95d788	-0.29266
207	0xbf2139c2	-0.62978756
208	0x3cf4776c	0.029842101
209	0x3d108115	0.035279352
210	0x3ec449bf	0.38337514
211	0x3f0c9720	0.549181
212	0xbe7c9002	-0.2466431
213	0xbf083fb6	-0.53222215
214	0xbe49ee8e	-0.19719908
215	0x3ec3d8e9	0.38251427
216	0x3ecfbd00	0.40573883
217	0xbfa78e68	-1.3090334
218	0x3bf51933	0.0074798106
219	0x3e11743d	0.14204498
220	0xbd168004	-0.03674318
221	0xbdd86172	-0.10565461
222	0x3ea0ea94	0.3142897
223	0xbeac0cb2	-0.33603436
224	0x3d1f3404	0.038867965
225	0xc0ada653	-5.4265532
226	0xbe40f255	-0.18842442
227	0xbf385cca	-0.72016585
228	0xbe9b7512	-0.30362755
229	0x3eb4489a	0.3521164
230	0xbce19eb5	-0.027541498
231	0xbf8b4dc3	-1.0883106
232	0x3d6619fb	0.05617712
233	0x3dc295c8	0.09501225
234	0xbfaee27f	-1.3662871
235	0xbcde8949	-0.027165072
236	0xc0c2acb6	-6.083583
237	0xc0d65443	-6.697786
238	0x3dab4168	0.083620846
239	0x3dbb3ff7	0.0914306
240	0xbff0dbd5	-1.8817087
241	0x3f04fdbb	0.5194966
242	0xbfb806a8	-1.4377031
243	0x3f8efd5e	1.1171072
244	0xbd92fbf7	-0.07176965
245	0xbfadb819	-1.3571807
246	0xbfe9fa67	-1.8279542
247	0x3e0026cc	0.125148
248	0x3f87f587	1.0621804
249	0xbfbafd9e	-1.4608648
250	0x3ea7be31	0.32762292
251	0x3b616579	0.0034392758
252	0x3f2d0ea4	0.67600465
253	0x3ec7f26b	0.39052138
254	0xbe27a248	-0.16370499
255	0xbfeb497b	-1.83818

model.4.bias f4 [16]
0	0x3e126d72	0.14299563
1	0x3e619456	0.22029242
2	0xbd2d0559	-0.042241428
3	0xbe624ae7	-0.22098885
4	0x3e026658	0.12734354
5	0x3e0819f4	0.1329115
6	0x3e3e9083	0.18609814
7	0xbd364509	-0.04449943
8	0xbde9b517	-0.11411493
9	0xbe86c1dd	-0.2631978
10	0xbeac02c8	-0.33595872
11	0x3bc06eb5	0.0058725723
12	0x3e1c3801	0.15255739
13	0x3b78fa7e	0.0037991102
14	0xbe21edfe	-0.15813443
15	0x3cc2741d	0.023737008

model.6.weight f4 [1, 16]
0	0x3f3a7770	0.728385
1	0xc029d28a	-2.6534753
2	0x3eb106c3	0.3457547
3	0xbf1daf8a	-0.61595976
4	0x3f4c64a0	0.7984104
5	0xbf2b7180	-0.6697006
6	0x3ef1539f	0.4713411
7	0xbf2ef30f	-0.6833963
8	0xbf331f51	-0.6996966
9	0xbf4e3018	-0.80542135
10	0xbf0d5cb0	-0.55219555
11	0x3edc8100	0.4306717
12	0x3f59da9e	0.8509921
13	0xbf85a86d	-1.0442024
14	0xbfaf1bf5	-1.3680407
15	0x3f8450fe	1.0337217
