best_model_0.pt (torch, 2360 bytes, 3 tensors)

model.0.weight f4 [16, 1]
00000000: d3c3 83c0 640b 383d 83fd 0ac0 f573 0541
00000010: e86a 3c3f 690f f03f adc1 de40 3347 8140
00000020: eef8 42bf 6c63 3dbf 80a4 d83f f77b 5a3f
00000030: a029 82bf 8a73 2fbf e66d 9d40 3389 b9bf
-4.1176543 0.044932738 -2.1717231 8.34081 0.73600626 1.8754703 6.961142 4.0399413
-0.76161087 -0.7397983 1.6925201 0.85345405 -1.0168953 -0.68535674 4.9196653 -1.4494995

model.0.bias f4 [16]
00000000: b777 11bb d287 c63e 392c 2dbe 73c2 b33f
00000010: 372a a0be 4ea2 f8be 0e2b 86bf b4cc 85bd
00000020: 8776 66bf 56fa 823f 9989 bd3f 4f6d e0be
00000030: 99fa 95bf fd17 6bbf 8799 fe3d b381 b3bf
-0.00221966 0.38775498 -0.16911401 1.4043716 -0.31282207 -0.4856133 -1.0481889 -0.06533185
-0.9002461 1.0232646 1.4807616 -0.43833396 -1.1717101 -0.9183348 0.12431627 -1.4023956

model.2.weight f4 [1, 16]
00000000: 5819 7dbf 06ca 253e 8860 a03f 2c85 b83f
00000010: 8f62 22bf 961f 66be 5499 ca3f 7d5d c6bf
00000020: 9d9d f8be 7cbc 283f cb05 11bf d258 25bf
00000030: 05a8 c6be 1939 e1be 8a34 40c0 8317 90be
-0.98866796 0.16190347 1.2529459 1.4415641 -0.6343164 -0.22472987 1.5828042 -1.549728
-0.4855775 0.65912604 -0.56649464 -0.64588654 -0.38800064 -0.43988875 -3.0032067 -0.28142938
