best_model_2_dim1.pt (torch, 12216 bytes, 7 tensors)

model.0.weight f4 [32, 1]
0	0x3edbc518	0.42923808
1	0x4038c0bc	2.8867636
2	0x3e36c7f5	0.17849715
3	0x3fb8c522	1.443516
4	0xbd381a1d	-0.04494678
5	0x3fe1b309	1.7632762
6	0xbeda69b7	-0.4265878
7	0x40586c29	3.3816016
8	0xbf6e229d	-0.93021566
9	0x3ef4d911	0.4782186
10	0xbeaecc2f	-0.34140155
11	0xc0001698	-2.001379
12	0xc032d17d	-2.7940361
13	0x3eb04b37	0.34432384
14	0x3fc88a15	1.5667139
15	0xc01e2a58	-2.4713345
16	0xc031b08c	-2.7764006
17	0xbff35a59	-1.9011947
18	0xbe3aa61d	-0.1822743
19	0xbfda6894	-1.7063165
20	0x40475568	3.1145878
21	0xba9827e5	-0.0011608569
22	0xc042255f	-3.033531
23	0xbe75b283	-0.23993878
24	0x3fee650d	1.8624588
25	0xbefa041a	-0.48831254
26	0xc00df796	-2.2182364
27	0xbff5313a	-1.9155648
28	0x404b4886	3.1763015
29	0xbe9d8c18	-0.30770946
30	0xbf355142	-0.70827115
31	0x400c3e03	2.191285

model.0.bias f4 [32]
0	0x3fa03761	1.25169
1	0xbeb9c3b4	-0.36282122
2	0x3fd052cb	1.6275266
3	0xbeb94ad2	-0.36189896
4	0x3f8e43a9	1.1114398
5	0xbb8d7c94	-0.0043178294
6	0x400ee93b	2.2329853
7	0xbee52d1b	-0.44760975
8	0xbef418cf	-0.47675177
9	0x3fad5255	1.3540751
10	0x400c5f3d	2.193313
11	0xbe9093b6	-0.28237695
12	0xbeb13585	-0.34611145
13	0x3fc48f72	1.5356276
14	0xbed12a0e	-0.40852398
15	0xbeb178f1	-0.34662583
16	0xbec159a9	-0.37763718
17	0xbe4bcd45	-0.19902523
18	0x3fda087a	1.7033837
19	0xbed2e519	-0.41190413
20	0xbebb8070	-0.36621428
21	0x3fe8ae64	1.817822
22	0xbec3c134	-0.3823334
23	0x405e13ca	3.4699578
24	0xbeba23e4	-0.36355507
25	0x401480b0	2.3203545
26	0xbea47941	-0.3212376
27	0xbeaee80b	-0.3416141
28	0xbe7f4e61	-0.24932243
29	0x3fcb2509	1.5870677
30	0x403318f2	2.7983975
31	0xbeb26614	-0.34843504

model.2.weight f4 [32, 32]
0	0xbd40208f	-0.04690605
1	0xbfe38379	-1.7774497
2	0x3da83a5f	0.082142584
3	0xbfc779af	-1.558401
4	0x3c9baa7b	0.01900219
5	0xbf1df1c3	-0.61697024
6	0x3d60260f	0.054723796
7	0xbfbce839	-1.4758369
8	0xbf024263	-0.5088255
9	0x3e062da9	0.13103355
10	0x3e2d59db	0.16928808
11	0xbfbbd51d	-1.4674412
12	0xc000844a	-2.0080743
13	0xbd886c52	-0.066612855
14	0xbf9ed716	-1.2409389
15	0xc0000262	-2.0001454
16	0xc00cd1ac	-2.2002974
17	0xbf5f3d40	-0.87202835
18	0x3e925b5e	0.28585333
19	0xbfac37b1	-1.3454496
20	0xbfd72863	-1.68092
21	0x3e82513d	0.25452605
22	0xc00b7ce6	-2.1794982
23	0x3d3bb7e9	0.045829687
24	0xbffe5ada	-1.9871476
25	0x3ccc1df0	0.024916619
26	0xbfbe8dd8	-1.4887037
27	0xbfcb08d7	-1.5862073
28	0xc0017385	-2.0226758
29	0x3e3a4951	0.1819203
30	0x3e0b1838	0.13583457
31	0xbfe742a8	-1.8067217
32	0xbe3fed6f	-0.18742917
33	0x3f3ce0ca	0.737805
34	0xbe69fcef	-0.22850393
35	0x3f454cfa	0.7707058
36	0xbeab51d9	-0.33460882
37	0x3e832ebe	0.256216
38	0xbe5c54f5	-0.21516784
39	0x3edcc0f3	0.4311596
40	0x3fa34763	1.275616
41	0xbdcb2da4	-0.09920815
42	0x3c19575d	0.009359208
43	0x3f1ff838	0.62488127
44	0x3ed84e5d	0.42247286
45	0xbe5ce087	-0.21570025
46	0x3ef9b4d5	0.48770776
47	0x3f38024a	0.7187849
48	0x3f10bc9f	0.5653781
49	0x3e6c03c0	0.23048306
50	0xbea53960	-0.32270336
51	0x3f165f38	0.5873904
52	0x3f23fe73	0.64060134
53	0xbcb8ff2a	-0.02258261
54	0x3ef2b021	0.474
55	0xbe24c1e4	-0.16089588
56	0x3f1e1b6a	0.6176058
57	0xbe2784b3	-0.16359214
58	0x3f3fa512	0.7486125
59	0x3f27b946	0.6551708
60	0x3e277737	0.1635407
61	0xbc5fd349	-0.013661214
62	0xbe189302	-0.14899829
63	0x3f51be9c	0.8193147
64	0x3f2d645a	0.6773125
65	0xbe357fac	-0.17724484
66	0x3f2dbfe0	0.67870903
67	0xbcd44a3c	-0.025914304
68	0x3f323373	0.69609755
69	0x3e7a77b9	0.24459733
70	0x3f165690	0.58725834
71	0xbe485b8e	-0.19566175
72	0xbf0591db	-0.5217568
73	0x3f441600	0.7659607
74	0x3f399cfd	0.7250517
75	0x3d7317f0	0.059349
76	0xbd6fbf93	-0.05853231
77	0x3f49b49c	0.78791213
78	0xbec4c8ca	-0.3843444
79	0xbe568437	-0.20948873
80	0xbe5c6085	-0.21521194
81	0x3e18a5be	0.14906976
82	0x3f2f50bc	0.68482566
83	0xbde333ed	-0.110938884
84	0xbe934276	-0.28761643
85	0x3efc875a	0.49322015
86	0xbe3544b7	-0.17701994
87	0x3f27dfb3	0.6557571
88	0xbe62454b	-0.22096746
89	0x3f5066db	0.81406945
90	0xbe8ba84a	-0.27276832
91	0xbe84ea4c	-0.25960004
92	0xbe2a18ec	-0.1661107
93	0x3f081c19	0.53167874
94	0x3f1ee795	0.62072116
95	0xbe7bda3e	-0.24594972
96	0x3ec168c1	0.37775233
97	0x3de146c2	0.10999824
98	0x3ea8193c	0.32831752
99	0x3ba30d91	0.0049759825
100	0x3ded10b7	0.11575454
101	0x3d0a7b75	0.033809144
102	0x3ed44787	0.4146082
103	0x3e0c0c4f	0.1367657
104	0xbf085a6b	-0.53262967
105	0x3eab0502	0.33402258
106	0x3e996ecb	0.2996734
107	0x3d54ef75	0.051986177
108	0xbd20fb0e	-0.039301924
109	0x3e983d33	0.2973419
110	0xbe8bdc86	-0.27316684
111	0x3e48b89a	0.1960167
112	0xbe0cedda	-0.13762608
113	0x3b014e2c	0.0019730432
114	0x3ec8118f	0.39075896
115	0xbe1ad263	-0.15119319
116	0xbdd14f5c	-0.10220215
117	0x3e53d56f	0.20686887
118	0xbd87c7eb	-0.06629928
119	0x3e7c7188	0.24652684
120	0xbc96c1f7	-0.018403037
121	0x3e6d8b77	0.23197733
122	0xbb52ea1b	-0.0032182995
123	0xbde5f119	-0.11227626
124	0x3d551262	0.052019484
125	0x3e792dab	0.24333827
126	0x3dda1424	0.10648373
127	0xbdd9963b	-0.10624357
128	0x3da96d36	0.082727835
129	0x3eb42ff3	0.35192832
130	0xbddde633	-0.10834923
131	0x3f1e5be8	0.6185899
132	0x3c860f85	0.016364822
133	0x3e8bbd52	0.27292877
134	0xbd35043c	-0.04419349
135	0x3ec620d0	0.3869691
136	0x3ff91929	1.9460803
137	0xbdc3e108	-0.09564406
138	0xbc1fc12c	-0.009750646
139	0x3f009cff	0.5023956
140	0x3ed6332e	0.41835922
141	0xbe70f3b5	-0.23530467
142	0x3f548d17	0.83027786
143	0x3f0fe7a3	0.56212825
144	0x3f28bde3	0.65914744
145	0x3e14bbd5	0.14524777
146	0xbdb669e7	-0.08906918
147	0x3f498ff2	0.7873527
148	0x3ea71d89	0.3263972
149	0xbe87fb3e	-0.2655887
150	0x3ea485c9	0.3213332
151	0xbe4c43d5	-0.19947751
152	0x3f5d14bf	0.8635978
153	0xbce0b29e	-0.027428921
154	0x3f080d0e	0.5314492
155	0x3f3db8c9	0.74110085
156	0x3edd6c8d	0.4324688
157	0x3bcfa552	0.0063368464
158	0xbe8e647a	-0.27811033
159	0x3f22095c	0.6329553
160	0xbe7558d4	-0.23959666
161	0x3f7fa55d	0.998617
162	0xbf20c05f	-0.62793535
163	0x3f7c555e	0.9856776
164	0xbf35143c	-0.70734
165	0xbd2ae603	-0.041723263
166	0xbef46a81	-0.47737506
167	0x3f281d98	0.65670156
168	0x3f916610	1.1359272
169	0xbf0d621a	-0.55227816
170	0xbf175230	-0.59109783
171	0x3f8ca99c	1.0989261
172	0x3f252f26	0.6452507
173	0xbedf0523	-0.43558607
174	0x3f542a04	0.8287661
175	0x3f8e1dfe	1.1102903
176	0x3f5ef43c	0.8709142
177	0x3db63d67	0.0889843
178	0xbf1412d4	-0.5784123
179	0x3f5967c7	0.84923977
180	0x3f8198f0	1.0124798
181	0xbf16bdd4	-0.58883405
182	0x3f70956c	0.93978
183	0xbf22ab30	-0.6354246
184	0x3f82b93a	1.0212777
185	0xbf1a62e5	-0.6030715
186	0x3f841bef	1.0321025
187	0x3f65d5bc	0.8977926
188	0x3ed0020b	0.4062656
189	0xbf2f83be	-0.685604
190	0xbeb9a48b	-0.3625835
191	0x3f89f828	1.0778856
192	0x3edb7519	0.42862776
193	0x3d77d94a	0.060509957
194	0x3ecc6b19	0.3992546
195	0xbda82e82	-0.08211996
196	0x3ec33a4f	0.38130423
197	0x3e593216	0.21210513
198	0x3ecc8b8b	0.39950213
199	0x3e650e0c	0.2236864
200	0x3ed3891d	0.41315547
201	0x3ebc0843	0.36725053
202	0x3eced7e9	0.403991
203	0x3e9ef2b4	0.31044543
204	0x3e276839	0.16348352
205	0x3e3bfa58	0.18357217
206	0x3e233091	0.15936495
207	0x3dd0456f	0.101694934
208	0x3e26e96a	0.16299978
209	0x3e8c572d	0.2741026
210	0x3ef540a2	0.47900873
211	0x3e578d43	0.21049981
212	0x3e365fdb	0.17810003
213	0x3e600f4f	0.2188084
214	0x3eb1057a	0.3457449
215	0x3ecc83c3	0.39944276
216	0x3da4c3fa	0.08045192
217	0x3e87cd76	0.26523942
218	0x3dd04f6b	0.10171398
219	0x3dd80453	0.105477
220	0x3e1b194f	0.15146373
221	0x3e47db1b	0.19517176
222	0x3e1edaf7	0.15513216
223	0x3eb9159e	0.36149305
224	0x3ecbfa49	0.3983939
225	0xbcf9a9a5	-0.0304764
226	0x3e8cbc26	0.27487296
227	0x3dcb5cbc	0.09929797
228	0x3f03de0e	0.51510704
229	0x3e916b3b	0.28402123
230	0x3e6223dd	0.22083993
231	0x3e26fb06	0.16306695
232	0xbf083946	-0.5321239
233	0x3e382d7f	0.17986105
234	0x3e7215e3	0.23641162
235	0xbc563a5b	-0.013075436
236	0x3e0c1104	0.13678366
237	0x3ef09e95	0.46995988
238	0x3d7f2210	0.062288344
239	0x3e6cd0f3	0.23126583
240	0x3c1443de	0.009049384
241	0x3e5680d1	0.20947577
242	0x3eb4eabc	0.35335338
243	0xbca54042	-0.020172242
244	0x3ddd2b06	0.10799222
245	0x3edf8b41	0.4366093
246	0x3dde847c	0.10865113
247	0x3e9b5908	0.30341363
248	0xbe89c18a	-0.2690547
249	0x3ebc8f1d	0.36827937
250	0x3e431388	0.1905042
251	0x3dbaac95	0.09114949
252	0x3eafe77f	0.34356305
253	0x3e75a7d1	0.23989798
254	0x3ef68a8a	0.48152572
255	0x3e63fdb0	0.22264743

model.2.bias f4 [32]
0	0x3dd4da87	0.10393243
1	0x3c85a4e0	0.01631397
2	0x3f284817	0.65735
3	0x3e5ddb25	0.21665628
4	0xbdbf78ec	-0.09349236
5	0xbef58eea	-0.47960597
6	0x3e3adc8a	0.18248191
7	0x3e70dbd1	0.23521353
8	0x3dd9a140	0.10626459
9	0xbd7d50cb	-0.06184463
10	0xbf3a0c7a	-0.7267529
11	0x3e56ead2	0.20988014
12	0xbe3cdd3a	-0.18443766
13	0xbaf46e9c	-0.0018648687
14	0x3eb60feb	0.3555902
15	0xbe8c00c3	-0.2734433
16	0x3ec7f93f	0.39057347
17	0xbe084800	-0.13308716
18	0x3dd262c4	0.10272744
19	0xbe4b6a2e	-0.19864723
20	0x3eb4b1db	0.35291943
21	0xbe63016b	-0.2216851
22	0x3eae4da8	0.34043622
23	0x3e00b5d3	0.1256936
24	0x3eab4bb7	0.33456203
25	0x3de21443	0.11039021
26	0x3e8776d6	0.26457852
27	0xbd48f73a	-0.0490639
28	0xbe1d46e0	-0.15359068
29	0xbd59f10b	-0.053208392
30	0xbe244a11	-0.16043879
31	0xbed70ef5	-0.420036

model.4.weight f4 [32, 32]
0	0x3e354ab2	0.17704275
1	0x3d337b9c	0.043819055
2	0x3dc102c6	0.09424357
3	0xbdec66a3	-0.11543014
4	0x3e31c101	0.17358781
5	0x3f225590	0.6341181
6	0x3e62ee6a	0.2216126
7	0x3e5f3c16	0.21800265
8	0x3cb180d2	0.021667872
9	0x3da26e82	0.07931234
10	0x3e9f03e4	0.31057656
11	0x3e1f1faa	0.15539423
12	0xbe284e32	-0.16436079
13	0x3ddcd110	0.10782063
14	0x3c46344b	0.012097429
15	0x3e50e8b6	0.20401272
16	0x3e392f38	0.18084419
17	0xbe37d522	-0.17952397
18	0xbcc8414a	-0.024445195
19	0xbd92d004	-0.07168582
20	0x3b8984d4	0.0041967425
21	0x3e71478b	0.23562448
22	0x3de25dae	0.11053024
23	0x3e629902	0.2212868
24	0xbdc757bb	-0.0973353
25	0x3dedb0aa	0.116059616
26	0x3e8269f8	0.25471473
27	0xbe3ce6aa	-0.18447366
28	0xbd98a1e8	-0.07452756
29	0x3d51c340	0.051211596
30	0xbdc4f8be	-0.09617756
31	0x3e4c7748	0.19967377
32	0x3db44151	0.088015206
33	0x3e5b38ee	0.21408436
34	0xbe5f596f	-0.2181146
35	0x3cb9f322	0.022698943
36	0x3d285a85	0.04110195
37	0x3f02497c	0.5089338
38	0xbdf56418	-0.11981982
39	0xbcb1d3ea	-0.021707494
40	0x3e86cb07	0.26326773
41	0x3e04f1bf	0.12982844
42	0x3edd4854	0.43219244
43	0xbe4e2e97	-0.2013496
44	0x3e1aa4b6	0.15101895
45	0x3e16fa20	0.14743853
46	0xbe243f4d	-0.16039772
47	0x3e0a80e0	0.13525724
48	0x3cf78027	0.030212475
49	0x3e5a3faf	0.21313356
50	0xbab0de56	-0.0013493996
51	0x3de409af	0.111346595
52	0x3b8dae81	0.004323781
53	0xbddebec5	-0.1087623
54	0xbd4922b0	-0.049105346
55	0x3e00b05a	0.12567273
56	0x3c34f279	0.011044138
57	0xbd03479a	-0.032050706
58	0xbda0a485	-0.078438796
59	0x3dd833a5	0.105567254
60	0x3e80967e	0.25114816
61	0x3d8279c9	0.06370885
62	0x3c6bebb7	0.0143994605
63	0x3d897e8d	0.06713591
64	0x3f8e4b07	1.1116647
65	0x3ece9ac5	0.40352455
66	0xbe60f9d1	-0.21970297
67	0xbe16df1c	-0.14733547
68	0x3f14dc44	0.581486
69	0x3f2b054b	0.6680495
70	0x3cbb2366	0.022844028
71	0x3d99abb2	0.075034514
72	0x3e7de9d5	0.24796231
73	0x3e81378a	0.25237685
74	0x3e847fc0	0.25878716
75	0xbe6badb5	-0.23015483
76	0x3e926cbe	0.2859859
77	0x3e6efb63	0.23338084
78	0xbe1b6ddf	-0.15178631
79	0x3eb7d334	0.35903323
80	0xbe28fdf6	-0.16503128
81	0x3f0e2215	0.55520755
82	0x3eb15b2e	0.34639877
83	0x3ef96c7e	0.48715585
84	0x3c1ccfb6	0.0095710065
85	0x3e95cc83	0.29257593
86	0xbde48523	-0.11158206
87	0xbd136b9a	-0.03599129
88	0xbe7700c0	-0.2412138
89	0x3e2ca033	0.16857986
90	0xbddc650e	-0.10761462
91	0x3e67c5e0	0.22634077
92	0x3f083757	0.5320944
93	0x3e3a21e3	0.1817699
94	0x3eb19b99	0.34689024
95	0x3e5e0de3	0.21684985
96	0xbdde5e9f	-0.10857891
97	0x3d8a9d2e	0.06768261
98	0xbe2b936c	-0.16755456
99	0xbe181d8e	-0.14855024
100	0xbdcb6b20	-0.09932542
101	0x3e331754	0.17489368
102	0xbdbc4249	-0.091923304
103	0xbe32a4f5	-0.17445739
104	0x3e066b00	0.13126755
105	0xbc7136f0	-0.014722571
106	0xbe25856f	-0.16164182
107	0xbdbe075f	-0.0927875
108	0x3dae7db8	0.08520073
109	0x3ce05d31	0.027388187
110	0xbe03a0ee	-0.12854359
111	0xbe0d8f68	-0.13824236
112	0xbdd3fb32	-0.10350646
113	0x3b16f628	0.0023034904
114	0xbe09acef	-0.13444875
115	0x3e0d1819	0.13778724
116	0xba4cb922	-0.00078095694
117	0x3d1d5509	0.038411174
118	0x3d380d02	0.04493428
119	0x3df556b7	0.1197943
120	0xbd94d227	-0.07266646
121	0xbd94235a	-0.07233305
122	0xbe07c35b	-0.13258116
123	0x3df12627	0.11774855
124	0xbc8a1997	-0.016857905
125	0xbcc1dab1	-0.02366385
126	0x3e2716fa	0.16317359
127	0xbde08bc3	-0.109641574
128	0xbeb0939d	-0.3448762
129	0xbe9143e7	-0.28372118
130	0x3e2272a5	0.15864046
131	0xbc9409e1	-0.018071117
132	0x3d5ff282	0.054674633
133	0xbf07c85f	-0.5304012
134	0x3d842bcf	0.06453668
135	0xbd87d43f	-0.066322796
136	0xbcae3c83	-0.021269089
137	0x3d2d9362	0.042376883
138	0xbf91ae42	-1.1381304
139	0xbd50f4a7	-0.05101457
140	0x3dcd3926	0.10020666
141	0x3db46e8e	0.08810149
142	0x3ddf5fbb	0.10906931
143	0xbed1b868	-0.40961003
144	0x3e2c5a6a	0.16831365
145	0xbcb76b4e	-0.022390034
146	0x3d8a7754	0.06761041
147	0x3ec4af98	0.38415217
148	0xbcd82f9b	-0.026389888
149	0xbe298f54	-0.16558582
150	0x3d8a8dcd	0.067653276
151	0xbd403298	-0.04692325
152	0x3cab9453	0.02094475
153	0x3e17f2b0	0.14838672
154	0x3d22ded9	0.039763305
155	0x3dfc0794	0.12306133
156	0xbd897334	-0.067114264
157	0x3e180af2	0.14847925
158	0x3e70ea40	0.2352686
159	0x3e3d87b7	0.18508802
160	0x3fed47f5	1.8537585
161	0x3ebb1735	0.36541143
162	0xbbd52304	-0.0065044183
163	0xbc1b0923	-0.009462628
164	0x3f0dd7f6	0.55407655
165	0xbee67849	-0.45013645
166	0xbcdf73d2	-0.027276907
167	0xbc2bf395	-0.010495086
168	0x3f0069ac	0.5016124
169	0x3ee929ad	0.4553961
170	0xbf96b160	-1.177288
171	0xbce5755d	-0.028010065
172	0x3e57ccc1	0.21074201
173	0x3eed9619	0.46403578
174	0xbcb4dbe4	-0.022077508
175	0x3efd2e3f	0.49449345
176	0xbe929c14	-0.28634703
177	0x3f3e652a	0.74373114
178	0x3eb1a290	0.34694338
179	0x3ec5cc17	0.3863227
180	0xbdd14a1d	-0.10219214
181	0x3efa7936	0.48920602
182	0xbdb7fe5e	-0.089840636
183	0xbe70e8c3	-0.23526292
184	0xbeab8a5d	-0.33504
185	0x3ecef8d8	0.40424228
186	0xbe6bc958	-0.23026025
187	0x3e3b8461	0.18312217
188	0x3ee174f5	0.44034544
189	0x3e55f234	0.20893174
190	0x3ea3c08f	0.31982848
191	0x3ead6085	0.338627
192	0x3fa36ac5	1.2766958
193	0x3ef6b799	0.4818695
194	0xbe4a24cc	-0.197406
195	0xbd8a5eec	-0.06756386
196	0x3f2c8eec	0.6740558
197	0x3f688625	0.9082969
198	0x3d4574ba	0.048207022
199	0xbe936ba6	-0.28793067
200	0x3e5e9068	0.21734774
201	0x3f000566	0.5000824
202	0x3e0da199	0.13831176
203	0xbda64c6e	-0.081200466
204	0x3f0d3edd	0.55174047
205	0x3eb598be	0.35468096
206	0xbe9f05fd	-0.31059256
207	0x3f2abfea	0.6669909
208	0xbe6ad40d	-0.22932453
209	0x3e988c9a	0.2979477
210	0x3eeeb263	0.46620473
211	0x3ecf6046	0.40503138
212	0xbe6aac4c	-0.22917289
213	0x3ea5ffc0	0.32421684
214	0xbe4f98db	-0.20273153
215	0xbd2c6e8c	-0.042097613
216	0xbea498dd	-0.32147875
217	0x3e8f364b	0.2797111
218	0x3dd68000	0.10473633
219	0x3ec1aa3b	0.37825188
220	0x3ee7e554	0.4529215
221	0x3f07d6e0	0.5306225
222	0x3f0e3651	0.5555163
223	0x3ee5c2dd	0.4487523
224	0x3e79d6eb	0.24398391
225	0x3f358521	0.70906264
226	0xbebac2aa	-0.36476642
227	0xbeb391d2	-0.3507219
228	0x3e11a793	0.1422408
229	0x3f885ccd	1.065332
230	0xbddd795a	-0.108141616
231	0xbe029866	-0.12753448
232	0x3e94e078	0.29077506
233	0x3ed776d4	0.42082846
234	0x3fd78f57	1.6840619
235	0xbe833ffb	-0.2563475
236	0x3e6a0e0b	0.2285692
237	0x3e654565	0.22389753
238	0xbe8621b3	-0.26197585
239	0x3f3664de	0.7124766
240	0xbeb7852b	-0.35843787
241	0x3f137719	0.57603604
242	0x3e593710	0.21212411
243	0x3e652654	0.22377902
244	0xbe71b170	-0.23602843
245	0xbe0462ce	-0.12928316
246	0xbcf8713a	-0.030327428
247	0xbce0912f	-0.027412979
248	0xbe779df2	-0.24181345
249	0x3e62f3f1	0.22163369
250	0xbe9807ea	-0.29693538
251	0x3eb855d6	0.36002988
252	0x3ef8fd29	0.48630646
253	0x3e58fbe9	0.21189846
254	0x3e3b9306	0.18317804
255	0xbc9979a7	-0.018734766

model.4.bias f4 [32]
0	0x3e11830a	0.14210144
1	0x3dc6c245	0.09705023
2	0xbe3a144b	-0.18171804
3	0x3d6aee5c	0.057356223
4	0x3d1e976b	0.038718622
5	0xbe4b3e09	-0.19847883
6	0xbd63c21a	-0.05560503
7	0xbdf986ee	-0.12183939
8	0x3dca20d0	0.0986954
9	0x3d5a2a6c	0.053263113
10	0x3d90f2de	0.07077573
11	0x3b1c08d8	0.0023808982
12	0xbe49062a	-0.19631258
13	0xbe7d4c5f	-0.24736165
14	0x3cbd055c	0.023073845
15	0xbe1ac240	-0.15113163
16	0xbd06f737	-0.032950606
17	0xbd8e4098	-0.06945914
18	0xbc25f32d	-0.010128778
19	0xbcb4be73	-0.02206347
20	0x3e7e8da4	0.24858719
21	0xbe136c98	-0.14396894
22	0xbdc918a5	-0.09819154
23	0x3e272904	0.1632424
24	0xbe169494	-0.14705116
25	0x3d7d8765	0.0618967
26	0xbb88a55d	-0.0041701035
27	0x3e2b0134	0.16699678
28	0xbdc69f4b	-0.096983515
29	0x3e9464ca	0.28983146
30	0xbde12621	-0.10993601
31	0xbe4d5780	-0.2005291

model.6.weight f4 [1, 32]
0	0x3e7636c7	0.24044333
1	0x3e5f955b	0.21834318
2	0x3ec4a61d	0.38407984
3	0x3d18e0ae	0.037323646
4	0xbf1ddb73	-0.6166298
5	0xbf5c1389	-0.8596731
6	0x3f064e0f	0.5246286
7	0xbf277c7d	-0.6542433
8	0xbe1dd92f	-0.1541488
9	0xc0585756	-3.3803306
10	0xbee917b0	-0.45525885
11	0xbf560db0	-0.83614635
12	0xbefcc01d	-0.4936532
13	0x3eaf63ee	0.34255928
14	0xbf0684c6	-0.52546346
15	0x3e313aa4	0.17307526
16	0xbf98f6ff	-1.1950377
17	0xbecdb2be	-0.40175432
18	0x3e956671	0.2917972
19	0xbdc7e737	-0.097608976
20	0x3f56d160	0.8391323
21	0xbfc9a5ef	-1.5753764
22	0xbfdaed54	-1.7103677
23	0xbe156e59	-0.14592876
24	0xbf85dcec	-1.0458045
25	0x3e6d13e1	0.23152114
26	0xbf45476b	-0.770621
27	0xbdea49a4	-0.11439827
28	0xbeaa2358	-0.3323009
29	0xbf86d7db	-1.0534624
30	0xbf1c2702	-0.6099702
31	0xbeb46f51	-0.35241178
