best_model_3_dim3.pt (torch, 17284 bytes, 9 tensors)

model.0.weight f4 [32, 3]
000000 ae d6 8b bf e3 3d d3 bf cb e8 87 3f 8e 37 43 be
       -1.092489 -1.6503261 1.0617918 -0.19064161
000010 5a 20 a3 3f 5d a7 e1 bf 6d 7d 3c 3f 75 dc 89 3f
       1.2744248 -1.76292 0.73628885 1.0770403
000020 c3 90 00 40 f5 76 aa 3f b7 19 bf 3f fa 41 1e bf
       2.0088356 1.3317553 1.4929723 -0.6181942
000030 d6 1d 40 40 4c ff 7e bf 29 e0 44 3f 21 23 b2 3f
       3.001821 -0.996083 0.7690454 1.391697
000040 95 1e 8c bf 89 d2 4a 3f 0e 18 c7 3e 6c ea 6c bf
       -1.0946833 0.792275 0.3888554 -0.925452
000050 86 63 9f bf 60 79 cc be 90 eb 13 40 50 9a 10 3f
       -1.2452247 -0.39936352 2.3112526 0.5648546
000060 1d f2 f5 be 4c f4 63 bf 3d 96 20 3e c7 52 b8 be
       -0.4803628 -0.8904464 0.15682311 -0.36000654
000070 26 df b1 bb 30 fa 0e c0 f6 38 aa bf 3f cf 77 bf
       -0.0054282127 -2.2340202 -1.3298633 -0.9680061
000080 7c 80 99 3c 9b 8f e7 be 73 84 d5 be 5d 0e 59 40
       0.018738024 -0.4522675 -0.41702613 3.3915017
000090 2e f8 86 bd 3f c5 ce bf 41 81 83 bd 14 bb cc bf
       -0.06590305 -1.6153945 -0.064211376 -1.5994592
0000a0 ff 82 e4 3f 23 1b 50 3f 27 80 81 bf 0f 81 de bf
       1.7852477 0.8129141 -1.0117234 -1.7383136
0000b0 f6 ca a4 be 8f 3e 9f 3f 03 a0 01 3e c4 3b bc 3f
       -0.32186097 1.2440966 0.12658696 1.4705739
0000c0 1b 99 55 bf a6 10 10 bf 8c 7e c9 bf 47 f2 c2 bf
       -0.83436745 -0.56275403 -1.5741744 -1.5230187
0000d0 49 53 d4 bf 49 7d a3 bf 15 95 fe 3f 6b 3a 7d 3e
       -1.6587917 -1.2772609 1.9889246 0.24729316
0000e0 2f 85 1a 3d 0c fb aa 3f 18 f7 ab 3d be 7a 96 bf
       0.03772467 1.3357863 0.08396739 -1.1756208
0000f0 13 2d 7d 3e 84 50 b8 be d2 50 cd 3f 7d d2 22 3f
       0.24724226 -0.3599893 1.6040289 0.6360243
000100 91 1d 77 bf dd 59 e7 3c ea a7 2a c0 91 ce 9e 3e
       -0.9652949 0.028241092 -2.6664987 0.31016973
000110 dd c5 0c bf 43 9a f7 3e 7f 56 06 c0 7f f3 c3 3d
       -0.54989415 0.4835988 -2.0990293 0.095679276
000120 ae 4d cc 3e f2 6d e0 3f 70 0f a5 bf 25 1f d9 3e
       0.39903015 1.7533553 -1.2895336 0.42406574
000130 4e bb aa bf 5e 7b e5 bf 9f c2 a1 bf 5f 9e 97 bf
       -1.3338411 -1.7928274 -1.2637519 -1.1845206
000140 c3 a4 03 40 7a 11 d4 bf c7 91 9e 3c fa 8b 29 be
       2.0569313 -1.6567833 0.019356621 -0.16557303
000150 79 b1 19 c0 c1 38 42 3e 4c 20 c5 bd c5 17 9b bf
       -2.401457 0.18966962 -0.09625301 -1.2116629
000160 3e b6 e7 bf 15 c1 cd 3f f4 f8 4f be 96 38 5a 3e
       -1.8102491 1.6074549 -0.20309812 0.21310648
000170 ea d3 81 3f ae a7 51 bf 55 df 6c bf a3 c2 be 3d
       1.0142796 -0.81896484 -0.9252828 0.09314468

model.0.bias f4 [32]
000000 da bd 42 bf 7d c7 50 bf 22 bc b7 bf d4 26 b5 3d
       -0.7607094 -0.81554395 -1.4354289 0.088452965
000010 d5 93 d5 3e b6 30 fd be 67 38 00 bf cf f3 ff 3e
       0.4171435 -0.49451226 -0.50086063 0.499907
000020 63 30 8b 3f 7d 10 2c 3f 32 5b 06 bf b4 45 a9 3e
       1.0874141 0.6721266 -0.52482903 0.33060992
000030 a7 c3 d9 3c fb be 5c bd 4c 38 4b 3f f7 5c bd bf
       0.026582552 -0.05389307 0.7938278 -1.4793996
000040 7a af 4d 3f 2d 76 42 be 64 83 84 3f 86 ab 2e be
       0.8034588 -0.18990393 1.0352597 -0.17057618
000050 89 0f 3f 3e 01 c2 54 3f 1c af 9d 3f 1b 98 df 3e
       0.1865827 0.83108526 1.2319064 0.43670735
000060 69 60 02 3f 52 64 87 be 95 ac 7a be 42 d2 b7 bd
       0.5092836 -0.26443726 -0.24479897 -0.0897565
000070 7b b2 52 be 9c d2 67 3f eb b4 19 3f ed 6c 09 bf
       -0.20575897 0.9055574 0.60041684 -0.5368183

model.2.weight f4 [32, 32]
000000 40 86 3d 3f d3 5b 7c 3f 27 89 3a 3d 59 60 8f 3f
       0.74032974 0.9857761 0.045540955 1.1201278
000010 c8 bb 24 3f 5b 15 9f bd a3 ed 23 bf 87 ba 2a be
       0.6434903 -0.07767745 -0.6403448 -0.16672717
000020 1a 36 ad bd fd 1e d4 3e 52 b6 af be 08 6c 5f 3e
       -0.08457585 0.41429892 -0.34318787 0.21818554
000030 38 ad 1f 3f cf 52 ff bf f5 86 59 3b 30 50 15 3f
       0.62373686 -1.9947146 0.0033192013 0.5832548
000040 42 b3 fb 3d 27 d3 a7 bf c1 c7 59 3e 84 61 9f 3f
       0.1229005 -1.3111314 0.21267606 1.2451634
000050 a4 0c cc 3e 8b 1e d3 3e c8 34 af be cd 3e 6d 3f
       0.39853394 0.4123424 -0.34219956 0.9267395
000060 ac 6c 4d 3f 72 95 46 bf 93 9e 3d bd 41 e9 94 3f
       0.80243945 -0.77571785 -0.046293806 1.1633683
000070 ec 8f f5 3f ea 94 b9 bd 12 05 a4 be d3 28 8d 3e
       1.9184546 -0.09061606 -0.32035118 0.2757021
000080 c9 8c b7 bd b2 b3 18 be c4 7d b7 3e aa 30 c9 3d
       -0.089623995 -0.14912298 0.3583814 0.09823735
000090 60 92 f1 3e 72 2c f3 bd 24 f7 7e 3d 68 36 7a 3e
       0.47181988 -0.11873712 0.06224741 0.24434817
0000a0 7b 9e 7a 3e 62 c3 4e 3d 89 5b fd be b2 18 89 bd
       0.24474518 0.0504793 -0.49483898 -0.066941634
0000b0 0f 73 6d 3e 58 c1 32 bd be b8 46 bd aa 3e 70 be
       0.23188423 -0.04364142 -0.048516028 -0.23461404
0000c0 3b 36 90 3e 43 5e 9b bd a8 4b 93 3e 24 84 ac 3d
       0.28166375 -0.07586338 0.2876866 0.08423641
0000d0 fe 2e b9 bd ba bf 6d 3e 55 af 1d be 0d 85 cc 3c
       -0.09042166 0.23217669 -0.15398915 0.024965787
0000e0 c4 3b 92 3e 77 8c 2b 3f 7e 59 2e 3c 75 2d 17 bf
       0.28561223 0.6701121 0.010641454 -0.59053737
0000f0 0e 36 92 bf 4b 5f 9c bd 63 11 fe 3d 5a 79 fe be
       -1.1422746 -0.07635363 0.1240566 -0.4970196
000100 fa 33 5d 3d 29 66 82 3e b0 d9 05 bf 0c c6 c6 bf
       0.054004647 0.25468567 -0.5228529 -1.5529189
000110 4b 4c 21 3e d2 ef b8 3f 3f 49 4d 3e 42 ba a4 3d
       0.1575176 1.4448187 0.20047472 0.08043338
000120 9f 8d 17 bf ac f7 f3 be a7 d6 21 bf ff dd 53 3e
       -0.5920047 -0.47649896 -0.6321816 0.20690154
000130 df ba 44 3f ec 4c 91 3f 03 84 4e bf c5 19 f5 3d
       0.7684764 1.13516 -0.80670184 0.11967806
000140 f5 54 87 bf b5 c0 88 be 4c dc 0f bf 2a b7 53 be
       -1.0572802 -0.26709524 -0.5619552 -0.2067534
000150 6e c7 44 3e 88 8d 80 bd f9 bd a3 3c b2 f9 93 3f
       0.19216701 -0.06276995 0.019988047 1.1560576
000160 36 3d 6d bf d0 7e 02 3f 08 59 62 3e ea f8 b4 3e
       -0.92671525 0.5097475 0.22104275 0.35346156
000170 66 f0 25 3f 4c 92 ac be b0 ae 86 bd 90 47 c5 3e
       0.64819944 -0.33705366 -0.06576288 0.3853116
000180 ec 55 c4 3d 4e 39 cc 3e cf 75 29 bf c5 73 14 bf
       0.09586701 0.3988747 -0.66195387 -0.5798915
000190 7a cc e9 3e df 28 1a 3f 0a cb e3 be ca 3b 7a 3e
       0.45663816 0.60218614 -0.44490844 0.2443687
0001a0 ad 7c f3 3e 6f e3 4a 3d 93 24 45 bf 7b 59 25 bd
       0.47556058 0.049533304 -0.7700893 -0.04036854
0001b0 d8 56 db bd 53 85 83 3e b5 ef b7 3e 5e d0 76 bf
       -0.107099235 0.25687656 0.3592507 -0.96411693
0001c0 96 c2 70 3e 66 dc c0 be bd f7 4f 3e 9b 66 ff bd
       0.23511729 -0.3766815 0.20309348 -0.12470742
0001d0 11 2b 41 3e 65 71 01 3f dd 35 06 3f 25 91 94 3e
       0.18864085 0.5056365 0.5242594 0.29016986
0001e0 a2 0a a8 3e 82 4d 93 bd f6 b4 6c 3c 80 26 ca 3e
       0.32820612 -0.07192518 0.014447441 0.39482498
0001f0 ec 14 4a 3e eb d6 e8 3e 86 f4 b9 3e 9a 75 25 bf
       0.19734544 0.4547647 0.3631937 -0.6463257
000200 2a 86 f7 3e 72 cf 35 3f 5c bd fa bd 1f 5d 7f bf
       0.48344547 0.7101966 -0.12243149 -0.99751467
000210 c7 28 dd bf ba c9 88 bf 2b 92 0d be cc 94 1a 3f
       -1.7278069 -1.0686562 -0.1382529 0.60383296
000220 08 6c 0b 3e c3 11 4b 3f 0e d3 d8 be 85 4e db 3e
       0.1361543 0.7932398 -0.42348522 0.42833343
000230 8d 8f 11 3f b0 22 28 3f 1d 6b 6c 3e 21 e6 d2 be
       0.56859666 0.6567793 0.23087735 -0.411912
000240 3c 5c 51 3f 9b 99 99 bc 83 b9 85 bf 4c e7 09 c0
       0.81781363 -0.018750003 -1.0447239 -2.1547422
000250 14 f1 e6 3e 62 81 6a bf 9e 43 6f 3e 40 ee 23 bf
       0.45105803 -0.9160367 0.23365638 -0.64035416
000260 7d 00 57 bf 2c 2a 6b be 9f 74 f4 3d 8c 10 0d 3f
       -0.8398512 -0.22965306 0.11936306 0.55103374
000270 15 9d 0e 3e 01 c9 97 3e 57 02 fe 3e a0 bf 8c bd
       0.1392711 0.2964554 0.4961116 -0.06872487
000280 3d 29 04 3e 0b b8 31 3f df 52 96 bd 8e 15 8c 3d
       0.12906356 0.6942145 -0.07340025 0.06840049
000290 ae ed ab be be b5 36 bf 35 cf ce 3e e1 4c 13 bf
       -0.33579773 -0.71371067 0.4039246 -0.5753918
0002a0 bb b5 8f 3e f5 17 02 3f 14 be a8 3e 9e 25 0f bf
       0.28068337 0.50817806 0.32957518 -0.55916774
0002b0 f0 e0 09 3f 5f 7b b1 be 8c 38 9f 3e f8 3f 63 bd
       0.5385885 -0.34664437 0.3109783 -0.055480927
0002c0 e3 6d 18 3f 1f b9 84 3f be 59 5d bf 9d 61 d7 be
       0.59542674 1.0368994 -0.8646506 -0.4206666
0002d0 d6 ee a6 3e d8 6a a0 bd da 27 03 3d ba a8 3f 3f
       0.32604092 -0.07832879 0.032020427 0.7486683
0002e0 cf a3 c6 be 4e 8c fb 3e 58 8f 5f 3e b4 25 10 3f
       -0.3879685 0.4913048 0.21832025 0.5630753
0002f0 53 df 12 3f 5f 43 65 be 17 f6 93 be 23 7e 91 3e
       0.57372016 -0.22388981 -0.2889869 0.28416547
000300 69 f3 f8 3e f3 25 75 be a5 3e 9a bf 54 78 59 be
       0.48623207 -0.23940258 -1.2050368 -0.21237308
000310 78 57 f0 3e 7f 4a 73 bd 89 31 8b be ac 98 01 3f
       0.46941733 -0.059397217 -0.2718623 0.50623584
000320 c7 a8 13 3e 7c e5 36 bf be 16 85 bd c5 49 85 bc
       0.14419852 -0.71443915 -0.06498478 -0.016270528
000330 4c db 10 bd 7c 86 08 3f f0 4c 64 bd b1 40 34 bf
       -0.035365388 0.53330207 -0.055737436 -0.7041121
000340 e7 b4 cd be 86 89 28 3f 6d 9a 77 3e 8a f6 56 bf
       -0.4017708 0.65834844 0.24180003 -0.8396994
000350 ad a9 2c 3e 0c 19 06 3e d3 9f 44 3d ab 5b 7a 3c
       0.16861601 0.13095492 0.048003983 0.015280644
000360 a3 e3 41 be 6f c5 29 bf 67 78 65 3e d2 33 8b bd
       -0.18934493 -0.66316885 0.22409211 -0.06796993
000370 ad f0 79 3c a5 41 b2 3e f0 fe c9 3e c7 b8 5e be
       0.0152551355 0.34815708 0.39452314 -0.21750174
000380 9b 80 4f be bf 88 be bd 22 de 8e 3d 16 a2 e6 3e
       -0.20263903 -0.09303426 0.06975962 0.45045537
000390 92 26 38 be 31 10 a6 be e4 61 9d bd 71 12 86 3e
       -0.17983463 -0.32434228 -0.07684687 0.26185945
0003a0 f6 bc bc bd 14 d8 7e 3d 57 0b 50 3d f7 c8 b1 3d
       -0.09215729 0.062217787 0.050792065 0.08680909
0003b0 c4 19 7d 3e b9 8c a8 be e5 e6 37 3e 04 1e 81 be
       0.2471686 -0.32919863 0.17959173 -0.25218213
0003c0 db 32 c2 ba b4 30 55 bf a4 34 b5 3d ff d5 91 3d
       -0.0014816182 -0.8327744 0.08847931 0.07120895
0003d0 10 cf 42 be 10 69 2c 3e eb 1f 35 be 23 80 c4 bc
       -0.190243 0.16836953 -0.17687957 -0.023986882
0003e0 60 73 02 3e 20 f4 c6 be e5 01 d1 bd 05 66 c4 3e
       0.12739325 -0.38858128 -0.102054395 0.38359085
0003f0 ea 56 9a 3e 2f bf 17 3e 25 79 26 bd d4 91 df 3d
       0.30144435 0.14819025 -0.040642876 0.109164864

model.2.bias f4 [32]
000000 d6 dc e3 3a 9b 3f 79 3d 90 71 ca be 3f ed c2 3e
       0.001738454 0.060851675 -0.39539766 0.3807163
000010 b4 57 cf 3c 8f 91 f9 bd 83 98 b6 3e 05 fd ae bc
       0.025310375 -0.12185966 0.35663232 -0.021360883
000020 bd 21 7b 3d 69 3f 4d 3e 89 94 3d bf 1d fd e7 3e
       0.061311472 0.2004372 -0.7405477 0.45310298
000030 60 e6 3a 3e 82 18 13 be 9b 9a 18 be b6 19 0f 3e
       0.18251944 -0.14364818 -0.14902727 0.13974652
000040 a4 e5 15 be 46 ca b2 3e e3 0b c9 bb 6f 8d 26 3f
       -0.14638382 0.34919947 -0.00613545 0.6505956
000050 9f 97 08 3d 6a c9 94 3d cf 3d a9 3e 38 16 82 be
       0.033347722 0.07264979 0.3305497 -0.25407577
000060 b6 af 17 3e 75 ab a8 3d 46 f5 1b 3d ba b9 ae 3e
       0.14813122 0.08235828 0.038075708 0.34126073
000070 3d 9b c3 3d e9 9f c5 bd c1 3e 53 3e b1 57 27 3d
       0.09551094 -0.09649641 0.20629407 0.040855113

model.4.weight f4 [32, 32]
000000 34 44 eb 3d f3 64 a7 be f9 df 7b 3e b2 78 5b be
       0.11487618 -0.32694206 0.24597158 -0.2143276
000010 9f 81 fa 3d a6 ad ad 3e 8e 52 87 bd a3 8f 8f 3d
       0.122317545 0.33921546 -0.06607543 0.070098184
000020 ba e0 18 3e ec c9 94 3d ad 12 12 bf 8a 55 b7 be
       0.14929476 0.07265076 -0.57059747 -0.3580745
000030 c5 11 f2 3d 0a 93 3c 3e 5b ce 8d 3e 64 56 d6 3e
       0.118197955 0.18415466 0.276965 0.41862786
000040 bb 07 58 bc 02 44 00 bf cf 2d 69 3e fc 93 87 be
       -0.013185437 -0.5010377 0.22771381 -0.2648009
000050 7f 6b c8 bd ff 51 2a bd c2 00 1d 3e 24 f3 d1 3e
       -0.09786128 -0.041582104 0.1533232 0.41005814
000060 b7 1d 81 be e2 bc e5 3c f9 e9 c3 3e 73 87 c1 3d
       -0.25217983 0.028044168 0.38264444 0.09449663
000070 73 9f 94 3e 2d d1 11 bf 51 8d 37 3c 0f 1f db bd
       0.290279 -0.569598 0.011203126 -0.10699283
000080 0b 5c b0 bd ec 71 b0 bd 37 b3 c0 bc 7b 5d 40 3e
       -0.08611306 -0.08615479 -0.023522956 0.1878566
000090 f7 38 3e 3e 62 11 3e be d5 ba ad 3e 2a 13 4d be
       0.18576418 -0.18561319 0.33931604 -0.20026842
0000a0 15 3d bc be 67 bb 00 3f d5 db 03 bf 57 92 96 3d
       -0.36765352 0.50285953 -0.5150731 0.07352131
0000b0 ee c5 29 bf 74 71 02 be b3 03 cb be 3d fc 39 3f
       -0.6631764 -0.12738591 -0.3965126 0.7265051
0000c0 c4 6c 91 3e 0f c2 84 3e 47 b1 b2 bf 3e 93 72 3e
       0.28403294 0.25929305 -1.3960351 0.23688981
0000d0 1f 22 fd be 5c 0d bf 3e 91 59 fe 3e a3 f6 29 bf
       -0.49440095 0.3731488 0.4967771 -0.6639196
0000e0 7c 66 4e 3f 3b b8 aa bd 60 7e 2e 3d 39 04 52 be
       0.8062513 -0.083359204 0.04260099 -0.20509423
0000f0 d0 6b 41 3c 3e 6a 42 be 54 68 d2 3e 50 4e 10 3d
       0.01180549 -0.1898584 0.4109522 0.035230935
000100 c9 74 1b bd 2f ec ae 3e d6 ac 09 bf c8 7e e2 bd
       -0.037953172 0.3416457 -0.5377935 -0.11059338
000110 fc 28 f0 be c0 5f ed 3e 2f ab f4 be 06 33 d6 3d
       -0.4690627 0.46362114 -0.47786853 0.10458951
000120 b5 48 9d 3d c2 71 f9 bd 28 21 48 bf 47 b1 b3 3d
       0.076798834 -0.12179901 -0.7817559 0.08774047
000130 42 5f 8e be ea eb eb 3e 48 d2 fb bd b7 b0 7b 3e
       -0.2780705 0.46078426 -0.12295967 0.2457913
000140 b7 3e 1c bd 22 4f 44 be 76 92 ec 3e 5b 05 14 3e
       -0.038145747 -0.19170812 0.4620549 0.14455168
000150 8f 53 33 be 3c 4c 25 3e d9 36 3e bb 6d 8e f2 3e
       -0.17512344 0.16142362 -0.002902439 0.47374287
000160 a0 d8 9e be 61 b5 37 bd dd 69 4e 3d cf c5 c9 bc
       -0.31024647 -0.04485071 0.050393928 -0.024630455
000170 dc 6c a2 3d 3d 6d de be a4 ca 5b 3e b5 2f e8 3e
       0.079309195 -0.43442717 0.2146402 0.45348898
000180 c8 03 19 3f 3c cc aa bf 17 58 79 3f 3d 7f d1 be
       0.59771395 -1.3343577 0.9740004 -0.40917388
000190 32 9a 47 3f 50 42 35 be 31 5f ee be 42 ab e2 3d
       0.7796966 -0.17701077 -0.46557 0.11067821
0001a0 ea ed 80 bf 68 75 9f be 49 bb 59 3e de 63 f1 be
       -1.0072606 -0.3114426 0.2126285 -0.47146505
0001b0 b7 22 6b bf 33 2a a4 bf e4 e2 3e 3f 73 64 60 3e
       -0.91849846 -1.2825378 0.7456496 0.21913318
0001c0 f2 ec b0 3d ca 1c 7a bf ae 9c b4 3f d1 7c 23 bf
       0.08638944 -0.9770018 1.4110315 -0.6386233
0001d0 1d 5e ee 3e f4 08 03 40 1e 38 08 bf 7a 97 ab be
       0.46556178 2.0474215 -0.5321063 -0.33514005
0001e0 59 cf 43 3f 8e 00 fe 3e 44 af 2a bf 7c 7b 11 be
       0.7648826 0.49609798 -0.66673684 -0.14207262
0001f0 fc f6 a8 be 8b 15 e7 3e df fa 35 bf e9 26 f6 3f
       -0.33000934 0.45133623 -0.71085924 1.9230624
000200 1c 72 77 3e dc 54 c0 3c 80 ef dd 3e f8 44 df 3d
       0.24164623 0.023477964 0.43346786 0.109018266
000210 e3 74 ce 3d 1d 21 98 3d d2 5b b6 bd ff d0 65 3e
       0.10080888 0.07428191 -0.08904232 0.22443007
000220 88 63 41 bd 68 17 7a be bb 16 34 3f f8 9b ab be
       -0.04721406 -0.24422991 0.70347184 -0.33517432
000230 f5 7e 2c be d8 95 00 3e 23 2f 20 3e 8e 45 3a bf
       -0.16845305 0.12557161 0.15642981 -0.7276238
000240 95 eb 24 3f 78 00 9f be ea 3a b3 3e 3a 6f 88 be
       0.6442197 -0.31055045 0.35005885 -0.2664736
000250 d2 2e 03 3b 08 38 0d 3f 10 33 d9 bc 8a d3 41 3e
       0.002001692 0.5516362 -0.026513606 0.18928352
000260 98 e3 65 bf ea 08 70 3e 4c 85 f8 bd 77 85 e8 3d
       -0.89800406 0.234409 -0.12134799 0.113535814
000270 16 69 e3 bd b3 89 ce 3e 97 8e b2 3d e1 30 a0 3d
       -0.11104028 0.4033943 0.08718603 0.07821823
000280 62 dc 88 3d ee 5a 19 bd 99 d5 b2 3e 2e 5f 0c 3e
       0.0668266 -0.037440233 0.34928587 0.13708183
000290 ff a8 20 3b bc 38 fc 3d f1 dc 7b 3e 8d 28 12 be
       0.0024514792 0.12315509 0.24596001 -0.14273281
0002a0 49 e5 27 3e 22 d5 50 3e 4f 02 9c be 20 fa d1 bc
       0.16396059 0.20393804 -0.3047051 -0.025631964
0002b0 1b 79 16 3e 70 44 30 be 41 16 07 3c 64 e7 ef 3c
       0.14694636 -0.17213607 0.008245052 0.02928514
0002c0 90 1d e7 bd e0 d2 28 3e 57 47 a1 bd 74 37 67 3e
       -0.112849355 0.16486692 -0.07874935 0.22579747
0002d0 f5 ba c9 bc 9d 1f 1f 3d b0 7a c7 bd 5f be 20 be
       -0.02462528 0.03884851 -0.09740198 -0.15697621
0002e0 80 cb 38 3e 0f aa 5c bc a6 9b 42 3d d6 b8 21 3e
       0.18046379 -0.0134682795 0.04751172 0.15793166
0002f0 fe 8e 2a 3d 87 f3 5b bd 7c 0b 69 3e 9e 7e ce 3d
       0.041640274 -0.053699043 0.22758287 0.10082744
000300 cf 54 9d 3e 6a 38 cd be ad 22 b7 3e 73 17 53 3e
       0.30728766 -0.40082103 0.35768643 0.20614414
000310 6d 63 0d 3f a4 aa 78 be 95 dc b1 3d e2 df da 3e
       0.55229837 -0.24283844 0.08684651 0.42748934
000320 fa 93 bb be 90 1d 4d be f9 b0 2a bf 59 03 e3 bd
       -0.36636335 -0.20030808 -0.6667629 -0.11084623
000330 3f af 80 bf 1e 5a 95 bd c4 e0 66 3e af e3 9a be
       -1.0053481 -0.07292579 0.22546679 -0.30251834
000340 63 71 bf 3e e8 15 cf be 9b 68 2d 3f 3f 3c f1 bd
       0.37391195 -0.404464 0.6773774 -0.11779069
000350 4a f5 c8 3d 8f 89 bc 3e ca 74 cc bd 38 d6 bb be
       0.0981241 0.368237 -0.09983213 -0.36686873
000360 9b ea 1e bd 49 41 ec bd 9e cf e0 be cc 6a 61 3e
       -0.038797956 -0.1153589 -0.439084 0.22013396
000370 6b 16 fb bd 64 f8 6c 3e 1b 29 a4 3d 2a 28 b1 3e
       -0.12260135 0.23141629 0.08015653 0.34600955
000380 19 d5 20 3e 75 5b 83 bd 2f da 25 3f 1a 77 ea bd
       0.1570629 -0.064139284 0.64786047 -0.11448498
000390 62 3c 9e bd 5d ff 45 3d 1b c4 a4 3e 0b e6 c1 be
       -0.07726361 0.048339237 0.32180867 -0.3787082
0003a0 ce dd 4e 3f 32 13 f3 bd 14 c8 af be 4e 1f c4 bd
       0.808072 -0.118688956 -0.34332335 -0.095762834
0003b0 8f fd 3e bf 89 d6 44 bf d5 ce 03 3e 99 5a b5 3d
       -0.7460565 -0.76889855 0.12871869 0.08855171
0003c0 ad d5 a8 ba 20 c9 8d bd 65 db 0d 3e 3d d9 34 be
       -0.0012881063 -0.06923127 0.13853224 -0.17660995
0003d0 59 bc 20 3e e1 ec ca bf 88 80 c0 3e b1 62 8c bf
       0.15696849 -1.585354 0.37598062 -1.0967618
0003e0 3f 22 2c bf 57 b4 8f 3d 77 1a e8 bc 2f 61 2a 3e
       -0.67239755 0.07016819 -0.028332932 0.16638635
0003f0 a8 e6 56 3c 11 f7 5f be 04 23 1f bd cf ee 6b be
       0.013116516 -0.21871592 -0.038851753 -0.23040317

model.4.bias f4 [32]
000000 5e d0 12 3d df c1 9b 3d b5 66 d1 bd f9 08 c2 be
       0.035843246 0.07605337 -0.10224668 -0.3789747
000010 24 d0 fe bd 63 f2 17 3e d2 ef 7d bd 0d 15 80 3d
       -0.124420434 0.14838557 -0.06199629 0.06254015
000020 98 cf a6 be 74 a6 1c be 6b 69 5f 3e 30 69 3b bc
       -0.32580256 -0.15297872 0.21817558 -0.011438653
000030 6f a9 6e be 03 f7 04 be 9b 03 42 be 1b db b2 3d
       -0.23306821 -0.12984852 -0.18946688 0.08733197
000040 ed d5 a7 bd 37 44 36 3d 3d ed 86 bb f0 4f a8 3c
       -0.081951 0.04449865 -0.0041176365 0.02054593
000050 85 40 04 be 2b 55 c1 3d c3 c4 21 be 6c 32 5d 3e
       -0.12915237 0.094400726 -0.15797715 0.21601266
000060 7d 98 82 be 11 80 83 be 64 67 d5 3d 93 62 0b be
       -0.25506964 -0.25683644 0.10420111 -0.13611822
000070 88 98 43 bd 22 10 5a 3e 42 8f c8 bd e5 d2 b7 bd
       -0.047752887 0.21295217 -0.09792949 -0.08975772

model.6.weight f4 [32, 32]
000000 cf 0f 9e bf 06 3e 11 bd fe c5 f2 bd 32 f8 91 3e
       -1.2348574 -0.03545954 -0.1185417 0.2850967
000010 fc 06 95 3d 2e 98 13 be 9b 24 85 3d 42 7c 4d 3d
       0.07276723 -0.1441352 0.065011226 0.05016733
000020 69 d1 c5 3e 8d 3b ad 3b c1 37 42 3e 19 9b 58 bd
       0.3863633 0.00528664 0.18966581 -0.052882288
000030 a9 ab e5 3d c9 a3 3d 3e 48 3d d9 3d f7 26 5a 3e
       0.11214382 0.1851951 0.106073916 0.21303926
000040 5b e7 15 be c5 40 5a be 58 a1 f2 bd b1 22 f6 3d
       -0.14639036 -0.2131377 -0.1184718 0.120183356
000050 d8 14 7a 3e de a0 0b bf b4 07 2e be 8f d1 bb 3d
       0.24422014 -0.5454234 -0.16995126 0.091708295
000060 6d 5b 73 3e 45 4e f9 bd c4 96 9f bf ad 71 93 3d
       0.23765345 -0.12173132 -1.2467885 0.07199416
000070 4c f6 d3 bd d2 43 e1 be 4d 12 f6 bb d7 e5 17 be
       -0.10349712 -0.43997055 -0.007509506 -0.1483377
000080 01 5d 48 3e ec 73 ad 3c 0f 3d 2a bd 7e bd af 3e
       0.19566728 0.02117344 -0.041562136 0.3432426
000090 3f 53 b5 3d 50 02 c3 3d e1 18 47 be 52 91 88 3e
       0.088537686 0.095219254 -0.19443084 0.2667337
0000a0 df a9 d5 3e 30 b9 e2 bd 53 75 91 3e 1e bf 41 3f
       0.41731164 -0.11070478 0.28409824 0.75682247
0000b0 cf 38 0a 3d e6 0a a9 3d a8 3f a0 bd db db 39 be
       0.033745583 0.08254032 -0.078246415 -0.18150274
0000c0 5e 3b 68 bc c3 f0 4b bd 83 05 c6 3f 66 31 35 bd
       -0.0141743105 -0.049790155 1.5470432 -0.044236563
0000d0 95 7d a4 be 85 ba 25 3f 12 31 74 be 2d f8 27 be
       -0.3212706 0.6473773 -0.23846844 -0.16403265
0000e0 af 6c 84 be d4 03 1b 3f 00 ff 34 3d d6 ff 98 3b
       -0.2586417 0.60552716 0.0441885 0.00466917
0000f0 6e 1b a8 bd b7 7a b2 3c f9 28 22 be 89 11 f4 be
       -0.08208357 0.02178703 -0.15835942 -0.47669628
000100 18 2e dd 3e 73 0b b6 bd 8e b4 9f 3d 9c fb d8 3d
       0.4319923 -0.088889025 0.0779811 0.10594866
000110 14 97 07 3e ea e8 12 3e b2 3a 0a 3e 1b cd b4 bc
       0.13241225 0.14346662 0.13498953 -0.022070458
000120 c5 ed b5 3e e7 56 a7 3e 60 c8 65 3e c9 d7 ca 3e
       0.35532966 0.3268349 0.22439718 0.39617756
000130 08 44 94 3d 6a 28 26 be 67 2f 1b be 47 f9 b2 bd
       0.072395384 -0.16226354 -0.15154801 -0.08738952
000140 76 e1 0e 3d 0c 74 8f 3e ed 87 cf 3e c2 6e 82 3e
       0.034882985 0.28018224 0.4053339 0.25475127
000150 35 54 0d bd 0e 94 91 3e 4a 9a 9d 3d 20 72 59 3c
       -0.034504134 0.2843327 0.07695444 0.013271838
000160 54 a3 a0 be 18 e5 f8 3d 1f fd 50 bb 47 62 02 3e
       -0.3137461 0.12153071 -0.0031889153 0.12732802
000170 82 84 2d 3d 88 51 c0 3c 8b 00 92 bc 17 57 fa bd
       0.042362697 0.023476377 -0.017822525 -0.12223642
000180 32 d6 c1 3e e5 6d 1d 3e d1 0d 72 be c2 6d 27 3e
       0.3785873 0.15373953 -0.23638083 0.16350463
000190 88 b7 35 3e 50 1c d8 bd b2 cd 5e 3d 3f db ed bc
       0.17745793 -0.10552275 0.054395385 -0.029035209
0001a0 b8 3b 5e 3e 24 b6 75 3e 60 8d 6d 3e 1a d6 0a 3e
       0.21702468 0.23995262 0.23198462 0.13558236
0001b0 59 dd 0d 3e 68 7a 7b be 6b 19 c3 bd df fd a9 3d
       0.13853969 -0.24558413 -0.095263325 0.08300375
0001c0 a4 ca 73 bd a7 1a 7c 3e 90 d1 8e 3e 3a 63 87 3e
       -0.059519425 0.24619542 0.27894258 0.2644289
0001d0 94 ef 55 be d2 90 83 3e 93 d2 2e 3e a7 62 cf 3d
       -0.20892173 0.25696427 0.17072515 0.10126238
0001e0 cd 4d bc be 77 fd 74 3e da 6c 30 3e f2 1f 3d 3d
       -0.36778107 0.23924814 0.17229024 0.046173044
0001f0 1b 73 69 bd 24 62 d6 bd 68 9a c5 bc 4c 89 ac bd
       -0.05699454 -0.104679376 -0.024121478 -0.08424625
000200 78 ab 39 3f ac e0 25 3d 5a 08 ad be bc 05 5a 3d
       0.72527266 0.040497467 -0.33795434 0.053228125
000210 da 2c 60 3d c6 07 a2 3a 14 55 22 3e 5c 57 0f 3f
       0.054730274 0.0012361936 0.15852767 0.55992675
000220 27 ea 33 be 21 88 a7 3e 90 0f cc bd f6 5e 1b 3d
       -0.17569791 0.32721046 -0.09963906 0.03793236
000230 9e 61 3a 3e 7b 45 8d 3d d4 63 93 be 0e a8 f8 3e
       0.182013 0.06898018 -0.287871 0.48565716
000240 50 8b 44 bd 04 89 99 bd 4f e0 2a 3e c4 13 75 3d
       -0.04798442 -0.07496837 0.1668713 0.059833303
000250 20 cf 0f 3f 3e 37 99 be d7 e0 1a 3e 3a 9f 6e bd
       0.5617542 -0.2992496 0.15124832 -0.05825732
000260 3c 92 93 be d5 c5 3c bd 50 04 05 bf cc 84 41 be
       -0.28822505 -0.046087105 -0.51959705 -0.18898314
000270 05 c1 56 bd 0b 54 1a be 23 2d 89 3e 50 0b 27 bf
       -0.05243017 -0.15071122 0.2679225 -0.65251637
000280 b7 5c da 3e 24 df 82 bd cd 56 b7 be fc 20 66 3e
       0.4264886 -0.06390217 -0.3580841 0.2247352
000290 28 02 d7 3d ea 6c 08 be 27 db c3 bd 6b c2 f7 3e
       0.10498458 -0.13322797 -0.09563284 0.48390517
0002a0 19 b2 8b 3e 8a 15 8b 3e b2 09 11 bd 5a 09 89 3e
       0.27284315 0.2716487 -0.035409637 0.26764947
0002b0 17 b7 43 3e 9e ff bb bd a1 c6 d3 3b f4 86 38 be
       0.19112812 -0.091796145 0.0064628874 -0.1802023
0002c0 24 6c cf 3c 48 4f 69 3e 1c 7a 29 3f aa 19 70 bb
       0.02532012 0.2278415 0.6620195 -0.003663639
0002d0 38 07 f1 3d e7 3a c4 3e 59 97 67 bd b6 09 8d 3c
       0.11768955 0.3832619 -0.05654082 0.017216545
0002e0 8f 62 a0 bd 29 76 b4 3d cf 50 d6 ba 09 e2 6f 3e
       -0.078312986 0.088116 -0.0016350987 0.2342607
0002f0 9f 04 21 be 5f 1d bf bc 79 53 54 3d 23 f9 a4 be
       -0.15724419 -0.023329435 0.05183742 -0.32221326
000300 41 7e 96 bf 82 ff 28 be 0c 4c 2e be dc f4 8d 3e
       -1.175728 -0.16503718 -0.17021197 0.27725875
000310 db 0d 71 bc c1 09 84 3d 83 dd 5d 3e 09 62 75 3e
       -0.014712776 0.06447173 0.21666531 0.23963179
000320 b1 01 a1 3e d1 f3 7c 3e ab 5a 3c 3e 09 0a a9 bc
       0.31446603 0.24702384 0.18393962 -0.020634668
000330 49 2f 99 bc 5f eb 6f 3e b5 8f 50 be e0 46 25 bd
       -0.018699305 0.2342963 -0.2036732 -0.040350795
000340 24 2d 22 bd ec 97 41 be a3 5e 8c be 17 f1 07 3e
       -0.03959383 -0.1890561 -0.27415952 0.13275562
000350 b6 ff d9 bc 68 c5 39 be d2 d2 44 3e 9d 6b fd bd
       -0.02661119 -0.18141711 0.19221047 -0.12374041
000360 35 84 bf 3e 84 f4 81 3e 20 15 84 bf 7a d6 8a 3d
       0.37405553 0.25381863 -1.0318947 0.067791894
000370 87 5e 2a be c3 98 e8 be 09 db 90 3e e0 ba a1 3d
       -0.16637622 -0.45429048 0.2829211 0.07896972
000380 68 c1 7d bf a6 fe bc 3e 9b 18 73 3e 14 13 92 bf
       -0.9912324 0.3691303 0.23739855 -1.1412072
000390 fc 21 36 3e 20 0c 42 be b2 7d b7 be 18 71 44 bf
       0.17786402 -0.18949938 -0.35838085 -0.7673507
0003a0 93 07 8d bf 77 eb eb bf d9 30 87 be 65 65 8a bf
       -1.1017936 -1.8431233 -0.26404455 -1.0812193
0003b0 b1 62 5a bf d3 56 ae 3e 44 b2 bb be d9 b9 04 3f
       -0.8530684 0.34050617 -0.36659443 0.5184608
0003c0 c7 0e 81 bf 24 81 0a be ee c0 b1 3e 4d 10 c0 bd
       -1.0082635 -0.13525826 0.34717506 -0.09378109
0003d0 6a d5 e7 bd 3d b2 a9 3e ae bc db 3e c8 4d 80 bd
       -0.113200024 0.33143798 0.4291739 -0.062648356
0003e0 b6 cc 8f 3f 6c f5 58 be c0 ef 04 3d ce 48 87 3c
       1.1234348 -0.21187371 0.032455206 0.016514208
0003f0 f5 34 0d 3f ec b9 d9 bd d3 a5 d7 bd 6c c6 ee 3e
       0.5515893 -0.10631165 -0.10529675 0.4663576

model.6.bias f4 [32]
000000 a1 26 64 bd 29 29 b3 bd 8e 6c 2d bd 11 2a 37 3d
       -0.055700902 -0.08748085 -0.042339854 0.044717852
000010 81 55 84 3d 91 c5 d1 bc ba 55 cc 3d 13 3d 47 be
       0.06461621 -0.025606902 0.099772885 -0.19456892
000020 7c d4 21 3e 88 30 c8 bd 1c fa e1 bd 5c 87 4c bd
       0.15803713 -0.097748816 -0.11034033 -0.049933776
000030 33 bf 16 bd 22 fc 53 be 15 95 12 3e 85 c5 95 be
       -0.036803436 -0.2070165 0.14314683 -0.29252258
000040 87 b2 7e bc ac 4e 7b be 71 6b 40 be 2a 66 57 3c
       -0.015545494 -0.2454173 -0.18790986 0.013146916
000050 ff e1 2e 3d ed 83 f8 bd 14 31 c6 3c 9c 23 91 3d
       0.042695995 -0.12134538 0.024193324 0.0708687
000060 39 a1 40 be 91 d2 2b be ea a8 10 3c d7 16 d0 3d
       -0.18811502 -0.16779543 0.008829335 0.10160606
000070 b2 31 ea bd 60 8d 59 be f6 7e 6a be be 0e 6d 3d
       -0.1143526 -0.21245337 -0.22899994 0.057875387

model.8.weight f4 [1, 32]
000000 97 21 c5 be d9 45 14 3f ce 98 a2 3e d5 5a af 3e
       -0.3850219 0.5791908 0.31757206 0.34248987
000010 08 0e 7f be 35 b3 e1 3e 8e e0 23 be cd e2 b2 bf
       -0.24907696 0.44082037 -0.1600363 -1.3975464
000020 59 e2 94 3e f5 cb 8a bf 49 0f 29 be df e2 9b 3e
       0.2907894 -1.0843493 -0.16509737 0.30446526
000030 64 7b 9a 3e 2d 0b 3a be 78 48 86 bf fa c5 bb be
       0.30172265 -0.18168326 -1.0490866 -0.36674482
000040 ab c8 fe 3e a2 e7 a6 be 3c bb 6f be 40 a4 a9 be
       0.49762473 -0.32598597 -0.23411268 -0.33133125
000050 c5 fc b2 3e 4c f0 82 be 82 fe c1 3e 5c 76 d8 be
       0.34958473 -0.25573957 0.37889487 -0.422778
000060 2e 26 97 3e 42 c8 a3 be c0 b2 8e bf 6e 47 11 be
       0.29521316 -0.31988722 -1.11483 -0.14187405
000070 61 a7 f9 be 5d 8b 0f bf 08 ba 89 be 7c 87 12 bf
       -0.48760512 -0.56072026 -0.26899743 -0.5723798
