best_model_1.pt (torch, 4026 bytes, 5 tensors)

model.0.weight f4 [16, 1]
-0.061825465 1.2444174 0.804712 -0.3200527 -0.29541013 -0.40869823 0.55510044 0.87339735
0.29014465 -0.060565367 0.15568891 0.5426422 0.6154573 0.91253877 0.38339612 0.44606388
00000000: b33c 7dbd 1249 9f3f 9b01 4e3f f3dd a3be
00000010: ff3f 97be e540 d1be 101b 0e3f f896 5f3f
00000020: d78d 943e 6413 78bd ea6c 1f3e 99ea 0a3f
00000030: 9c8e 1d3f 249c 693f 7f4c c43e 7c62 e43e

model.0.bias f4 [16]
-0.01568871 -0.79343563 -0.5697053 -0.04371449 0.13833053 -0.3619723 0.13367003 -0.51753724
-1.3796334 0.12893638 -0.42308357 0.6941164 -0.6953719 -0.30523565 -0.5915578 -0.22911033
00000000: 9c85 80bc 991e 4bbf 35d8 11bf f70d 33bd
00000010: 85a6 0d3e 6f54 b9be cce0 083e 527d 04bf
00000020: d497 b0bf e607 043e 699e d8be 9db1 313f
00000030: e503 32bf d947 9cbe 5570 17bf e69b 6abe

model.2.weight f4 [16, 16]
0.06859558 0.42667845 0.3453845 0.12386244 0.12872265 0.08281832 -0.15182534 0.40412936
0.05082931 0.040122047 0.03598266 0.16871852 0.2884145 -0.07030062 0.24814439 0.11547196
-0.04555982 -0.055807173 -0.0123386495 -0.033525385 -0.09560459 -0.2183752 0.06558209 -0.06728325
0.050454073 0.14274934 -0.21477333 -0.11507567 -0.18861881 0.06368746 0.12600069 -0.027168531
0.103004895 -0.3300219 -0.08826503 -0.15695612 -0.027323997 -0.2821116 0.12522979 0.15615849
-0.113991335 0.17435299 -0.038572412 -0.0852278 0.032492872 -0.0015158124 -0.17259355 -0.08235642
-0.21411401 0.021026412 -0.09447098 0.108784355 -0.07099921 0.051914874 -0.15152793 -0.19083615
0.17254032 -0.2748428 0.2367671 0.12147383 0.099460915 -0.017518852 -0.10305559 0.23838085
0.16492786 0.08493358 -0.20140685 -0.09979758 0.0613849 -0.014862595 -0.13385111 -0.10405888
0.019116849 0.03839064 -0.16346525 0.021759536 -0.1559307 0.13443369 -0.16149507 0.23243375
0.20724505 -0.16149215 0.0018990425 -0.038881365 0.0714615 0.084237404 -0.215541 -0.21917956
0.22466692 -0.20729274 -0.06355542 0.15291862 -0.22683883 0.19397315 0.12790708 0.23386124
0.2490676 0.03640633 0.2808246 -0.019917596 0.23291707 0.16323766 -0.0693319 -0.15232298
-0.15651496 0.119252354 -0.13960148 0.084435105 0.21149296 0.08368194 0.112756856 -0.09157949
-0.11512309 -0.047159977 -0.049101546 0.08837782 0.11180559 0.017502673 0.124999054 0.07749624
-0.23082528 0.228134 -0.030492518 -0.14543267 0.07219897 0.10370026 0.13652532 0.11526843
0.122630104 -0.088458076 -0.006791069 0.18901223 0.009418895 0.32742342 -0.073548496 0.26230776
0.042153172 -0.054854423 0.2688185 0.012382852 0.31738564 0.1295122 -0.054432523 -0.076645546
-0.14308229 0.1458424 0.18559064 -0.027761063 0.16468559 0.077548474 0.21021205 -0.032140534
0.032982092 -0.016693465 -0.13218306 -0.11322751 -0.2239685 0.016539622 -0.24891129 -0.094659105
-0.06917077 0.046654534 0.02994207 -0.093977205 -0.10229946 0.12199997 0.06845558 -0.22075908
0.010752387 0.2403538 0.14415735 -0.05822638 0.14752252 -0.016678194 -0.17386216 -0.050889995
-0.11234855 0.085235946 -0.13841794 0.06647434 0.10982439 0.04065527 -0.10643724 0.251398
0.041202612 -0.10849376 0.036711197 0.055502623 0.04276823 -0.12715034 0.046308048 0.15058279
0.08872352 0.0031821963 0.12376329 -0.079742126 -0.0015779571 -0.016775034 0.11261663 -0.16572994
0.03705409 0.24060461 -0.26736927 0.17199637 0.090364344 -0.087948516 -0.12542517 -0.25944704
0.17426598 -0.019612521 0.19171157 -0.08659298 -0.1452916 -0.0200767 -0.0044176714 -0.2371517
0.108760655 0.20468277 -0.1916274 0.20096305 -0.11635774 -0.13182342 -0.09279701 -0.2616457
-0.2838266 0.19429462 -0.008925493 -0.100286506 0.048620928 0.13380969 0.10041494 -0.20172772
-0.22733559 -0.10750467 0.20565352 -0.0956375 -0.22076368 -0.16835718 0.03240294 0.15445226
-0.21984814 -0.105340496 -0.2399289 -0.04486933 -0.21493201 0.08069872 -0.20341255 -0.16058174
0.077087626 0.1268854 0.24232306 -0.12667574 0.035962433 -0.36368078 -0.14634095 -0.06727804
00000000: d77b 8c3d 9975 da3e 3dd6 b03e 97ab fd3d
00000010: dfcf 033e a79c a93d 1a78 1bbe 0bea ce3e
00000020: 6532 503d 0457 243d 8e62 133d 8cc4 2c3e
00000030: 11ab 933e c5f9 8fbd 9019 7e3e 907c ec3d
00000040: ef9c 3abd 1096 64bd 0c28 4abc ea51 09bd
00000050: 57cc c3bd c09d 5fbe e74f 863d cdcb 89bd
00000060: eea8 4e3d e22c 123e 8aed 5bbe cbac ebbd
00000070: 4a25 41be 926e 823d 5306 013e 8a90 debc
00000080: 3bf4 d23d a1f8 a8be 4cc4 b4bd 1bb9 20be
00000090: 93d6 dfbc ee70 90be 3d3c 003e 03e8 1f3e
000000a0: 4a74 e9bd 9789 323e 1bfe 1dbd ea8b aebd
000000b0: 3f17 053d 39ae c6ba 5dbc 30be 7caa a8bd
000000c0: b440 5bbe 953f ac3c 007a c1bd 55ca de3d
000000d0: 0968 91bd b1a4 543d 232a 1bbe 8d6a 43be
000000e0: 69ae 303e 32b8 8cbe 1373 723e 45c7 f83d
000000f0: 2ab2 cb3d b283 8fbc cf0e d3bd 1c1a 743e
00000100: d9e2 283e a8f1 ad3d 993d 4ebe ac62 ccbd
00000110: bc6e 7b3d 3e82 73bc 4410 09be d21c d5bd
00000120: f09a 9c3c 813f 1d3d 6f63 27be 0e41 b23c
00000130: 4cac 1fbe fca8 093e f75e 25be 1d03 6e3e
00000140: 0c38 543e 335e 25be 4be9 f83a 1142 1fbd
00000150: 685a 923d a984 ac3d c8b6 5cbe 9b70 60be
00000160: 160f 663e 8c44 54be 5829 82bd b396 1c3e
00000170: 7048 68be e6a0 463e 13fa 023e 5279 6f3e
00000180: 940b 7f3e ce1e 153d 3ec8 8f3e 3a2a a3bc
00000190: d081 6e3e c627 273e e2fd 8dbd 8efa 1bbe
000001a0: 7545 20be 943a f43d b1f3 0ebe 50ec ac3d
000001b0: 9c91 583e 7061 ab3d 11ed e63d 078e bbbd
000001c0: a8c5 ebbd d22a 41bd b41e 49bd 6eff b43d
000001d0: 54fa e43d c461 8f3c 81ff ff3d 59b6 9e3d
000001e0: 765d 6cbe f69b 693e 72cb f9bc 4dec 14be
000001f0: 0edd 933d cd60 d43d 4bcd 0b3e db11 ec3d
00000200: 7e25 fb3d 8229 b5bd 9e87 debb 6c8c 413e
00000210: b551 1a3c 0ba4 a73e 98a0 96bd 344d 863e
00000220: cea8 2c3d 08af 60bd 94a2 893e 72e1 4a3c
00000230: 5f80 a23e d99e 043e a3f4 5ebd 57f8 9cbd
00000240: 2a84 12be b657 153e 790b 3e3e 2b6b e3bc
00000250: 57a3 283e bcd1 9e3d d441 573e cba5 03bd
00000260: 3b18 073d bcc0 88bc ff5a 07be d3e3 e7bd
00000270: 0058 65be 1a7e 873c 9ae2 7ebe a2dc c1bd
00000280: 68a9 8dbd d318 3f3d 1249 f53c 1f77 c0bd
00000290: 6182 d1bd 1fdb f93d 7032 8c3d ab0e 62be
000002a0: c82a 303c 4e1f 763e fc9d 133e c97e 6ebd
000002b0: 2510 173e b5a0 88bc ec08 32be 0772 50bd
000002c0: ff16 e6bd 2f90 ae3d 6fbd 0dbe b323 883d
000002d0: 9ceb e03d 2486 263d c5fb d9bd 3db7 803e
000002e0: 12c4 283d fa31 debd 7b5e 163d b856 633d
000002f0: bd2d 2f3d b333 02be 82ad 3d3d 6032 1a3e
00000300: adb4 b53d 658c 503b 9c77 fd3d d74f a3bd
00000310: 74d3 ceba cc6b 89bc 8ca3 e63d 1cb5 29be
00000320: 08c6 173d 0e61 763e a0e4 88be d11f 303e
00000330: f110 b93d 5a1e b4bd 756f 00be 3ed6 84be
00000340: c872 323e 70aa a0bc 0a50 443e a957 b1bd
00000350: 52c7 14be e477 a4bc 1dc2 90bb e5d7 72be
00000360: e8bd de3d 5c98 513e f939 44be 42c9 4d3e
00000370: f74c eebd b8fc 06be 5c0c bebd 6df6 85be
00000380: b851 91be 2bf5 463e 3b3c 12bc 0363 cdbd
00000390: bd26 473d 6805 093e 59a6 cd3d b691 4ebe
000003a0: a9ca 68be 692b dcbd d696 523e 98dd c3bd
000003b0: e00f 62be d365 2cbe f2b8 043d bc28 1e3e
000003c0: df1f 61be c2bc d7bd ecaf 75be e7c8 37bd
000003d0: 2317 5cbe 5f45 a53d 614b 50be 8a6f 24be
000003e0: 1ee0 9d3d 3fee 013e 8923 783e 49b7 01be
000003f0: 584d 133d 5e34 babe 67da 15be 12c9 89bd

model.2.bias f4 [16]
-0.22533959 -0.009846157 -0.08128591 0.022824464 0.22559822 -0.046322625 0.14439885 0.048629433
0.1383362 -0.028505089 0.0774735 0.023456855 -0.20439865 -0.18849334 0.21546286 -0.16582583
00000000: 6cbf 66be c751 21bc 3a79 a6bd 5ffa ba3c
00000010: 3803 673e cbbc 3dbd 4bdd 133e a82f 473d
00000020: 01a8 0d3e 8183 e9bc 6daa 9e3d 9728 c03c
00000030: e14d 51be 6604 41be 4ca2 5c3e 3fce 29be

model.4.weight f4 [1, 16]
-0.1706537 0.0020351028 0.0029688794 0.0051196995 0.19673851 0.004923663 -0.114584945 -0.0083257165
-0.011113349 -0.0046524387 0.047762323 -0.0039768927 0.0022383805 0.007115242 0.08564176 -0.19967137
00000000: d8bf 2ebe 5c5f 053b 8891 423b 27c3 a73b
00000010: d275 493e ae56 a13b 83ab eabd 9668 08bc
00000020: c414 36bc 7c73 98bb 6da2 433d 9850 82bb
00000030: cbb1 123b fa26 e93b f264 af3d a776 4cbe
