best_model_3_dim1.pt (torch, 17028 bytes, 9 tensors)

model.0.weight f4 [32, 1]
0.4749032 -0.81946284 -0.37496695 2.0752413 -1.4405787 0.6916099 -0.98142916 -1.3760049
1.433754 0.6412455 1.3738708 0.7836347 0.51790303 0.60867274 -1.3800114 1.899717
-1.6020336 1.3237356 -1.2880628 -1.4442647 0.6607642 1.3711538 -0.9112995 0.5652139
-1.2904707 -0.5972126 1.5137527 0.86962324 -0.4446503 0.78695387 1.6444625 0.7825441
00000000: 8326 f33e 51c8 51bf abfb bfbe c1d0 0440
00000010: e264 b8bf 590d 313f f13e 7bbf ee20 b0bf
00000020: 4085 b73f aa28 243f 00db af3f 499c 483f
00000030: 4b95 043f fad1 1b3f 37a4 b0bf ed29 f33f
00000040: 700f cdbf 2b70 a93f 3edf a4bf aadd b8bf
00000050: d827 293f f881 af3f ed4a 69bf dcb1 103f
00000060: 252e a5bf ede2 18bf a6c2 c13f a19f 5e3f
00000070: 34a9 e3be cf75 493f bf7d d23f cf54 483f

model.0.bias f4 [32]
0.42987174 -0.47444284 0.56224936 0.23134121 -0.1947343 0.8672022 -0.31812564 1.565881
-0.19042048 0.945017 -0.33775577 -0.51693 1.0325882 0.8877626 1.3121917 -0.0030904193
-0.171461 -0.38270006 -0.44012922 0.0035069222 1.2216645 -0.370038 -0.1693657 0.95973
1.2046677 0.5642646 -0.13723509 1.3278533 1.0900285 -0.5650117 -0.44323513 -0.30708626
00000000: 2618 dc3e 2cea f2be 93ef 0f3f b6e4 6c3e
00000010: 6e68 47be f700 5e3f 5de1 a2be ca6e c83f
00000020: 96fd 42be a2ec 713f 53ee acbe 8655 04bf
00000030: da2b 843f 6944 633f e6f5 a73f a288 4abb
00000040: 7993 2fbe 43f1 c3be 9e58 e1be 64d4 653b
00000050: 815f 9c3f 9f75 bdbe 346e 2dbe deb0 753f
00000060: 8d32 9a3f a573 103f 5b87 0cbe 19f7 a93f
00000070: 0e86 8b3f 9ba4 10bf b7ef e2be 693a 9dbe

model.2.weight f4 [32, 32]
0.003694975 0.111608334 -0.113851205 0.0835193 0.29604688 0.06877796 0.4509337 0.13823788
0.35893962 -0.15482265 0.3094882 0.38004827 -0.08348245 0.08669035 -0.031979736 0.2565146
0.5233075 0.2079442 0.47975782 0.25787416 -0.23152272 0.48616293 0.2507194 -0.21636677
-0.12132071 0.08531249 0.12546325 0.08309392 -0.10691408 0.695837 0.38947353 0.46469352
-0.09272802 0.076919794 -0.080675825 0.06849683 0.004496043 -0.29433838 0.1913375 -0.03533915
0.4313548 -0.18403809 0.04503334 0.4495212 -0.12943119 -0.12864871 -0.020359233 0.06043933
0.35140067 0.34647778 0.296818 0.1643869 -0.086147085 0.03525628 0.28326887 -0.13717914
-0.15943137 -0.014604416 0.2988315 -0.27243638 -0.07953236 0.27940083 0.1391316 0.23221073
-0.029856984 -0.025584292 0.1396048 -0.043791074 0.061193213 0.2001016 0.018210953 0.08923666
0.1692113 -0.0364355 -0.01568951 -0.35759333 -0.042801894 0.014521893 0.20960154 0.09333758
-0.02095266 -0.12735644 -0.010766833 -0.051509142 0.0080990875 0.007712481 -0.050881173 0.16267946
0.119444996 0.033968776 -0.051197134 0.047592092 0.13972265 -0.116587564 -0.092006415 -0.063223094
-0.18274419 -0.029950079 -0.3170646 -0.054990485 0.5252235 -0.22458105 0.4715073 -0.15696533
0.22260046 -0.19110677 0.23999505 0.52770656 -0.06636174 -0.2848173 -0.12508048 0.02742747
0.37081948 0.42381957 0.38496447 0.3987517 -0.068320364 0.08959954 0.22587791 -0.0975318
-0.27443525 -0.019082887 -0.0060300836 -0.08630446 -0.1394307 0.47863623 0.09453327 0.21866088
-0.18672828 -0.08159192 -0.049812336 -0.008659173 0.34208933 -0.18093781 -0.0496838 0.046245195
0.10038188 0.124407 0.25174707 0.37188384 0.1346318 -0.038763646 -0.2004797 -0.00014474074
0.3124773 0.40667278 0.46617824 0.19885038 -0.005332636 0.437082 -0.007635246 -0.017691994
-0.17035884 -0.06410645 0.2925271 0.12761335 -0.19662035 0.6171972 0.48840755 0.21708141
0.29061678 -0.6592171 0.3410601 0.05415583 0.06277562 0.3296304 -0.3407856 0.10504935
-0.17443196 0.032471318 -0.31480643 -0.46497157 0.3251563 0.08013968 0.3088466 -0.0047859047
-0.032748513 -0.022072118 -0.11429329 -0.16794965 0.2749203 -0.2250565 -0.29522333 0.19956231
0.16030845 0.28771877 0.017476194 0.29638752 0.3270694 -0.76141304 -0.27787495 -0.31315905
0.05287582 0.48376518 -0.11959174 0.29674673 0.49875015 0.057030547 0.0422213 0.16006991
0.6594001 -0.07081503 0.7927751 0.5778136 -0.193786 0.07622837 0.2229299 0.41163075
0.6075076 0.64898515 0.45268273 0.54006064 -0.04180751 0.6280077 0.21720311 -0.09624151
0.036403455 -0.058303505 0.29515797 0.08592057 -0.032542758 0.69184756 0.5481386 0.3931477
0.58460027 -0.87722594 0.5716344 0.22424503 -0.07647004 0.4880685 -0.40594986 0.54877245
0.100467436 0.5263888 -0.18331642 -1.1047467 0.6472148 0.63776004 0.66425735 0.22822191
-0.07939017 -0.23747323 -0.4616657 0.2762597 0.60570556 -0.29383922 -0.4108296 0.6652694
0.70063376 0.564014 0.17977916 0.7219968 0.75605935 -0.8708338 -0.235936 -0.3288587
00000000: 6527 723b e992 e43d d22a e9bd 2b0c ab3d
00000010: 7593 973e 76db 8c3d c8e0 e63e 3b8e 0d3e
00000020: efc6 b73e d489 1ebe 3d75 9e3e b095 c23e
00000030: d9f8 aabd b68a b13d 2ffd 02bd e255 833e
00000040: 7bf7 053f 53ef 543e d1a2 f53e 1508 843e
00000050: 4b14 6dbe 59ea f83e 4b5e 803e 408f 5dbe
00000060: fe76 f8bd 51b8 ae3d 7079 003e 252d aa3d
00000070: c5f5 dabd 6022 323f 1369 c73e 4fec ed3e
00000080: 30e8 bdbd 2088 9d3d 5e39 a5bd 1148 8c3d
00000090: 8b53 933b 85b3 96be faed 433e c9bf 10bd
000000a0: 89da dc3e 7b74 3cbe e174 383d a527 e63e
000000b0: 9c89 04be 7dbc 03be 68c8 a6bc 3b8f 773d
000000c0: caea b33e 8965 b13e 87f8 973e 0a55 283e
000000d0: e26d b0bd e468 103d 9e08 913e b078 0cbe
000000e0: fa41 23be 5c47 6fbc 7100 993e c87c 8bbe
000000f0: dde1 a2bd a00d 8f3e 8478 0e3e a6c8 6d3e
00000100: a296 f4bc 2696 d1bc 90f4 0e3e 455e 33bd
00000110: bca5 7a3d 6fe7 4c3e 232f 953c b6c1 b63d
00000120: ba45 2d3e 643d 15bd 4a87 80bc 7916 b7be
00000130: 0a51 2fbd 3ced 6d3c c9a1 563e c627 bf3d
00000140: eaa4 abbc ba69 02be 5f67 30bc 40fb 52bd
00000150: 09b2 043c fbb8 fc3b c768 50bd 7295 263e
00000160: 949f f43d d822 0b3d 16b4 51bd edef 423d
00000170: 7413 0f3e 76c5 eebd dc6d bcbd 1c7b 81bd
00000180: 4b21 3bbe de59 f5bc 4b56 a2be b43d 61bd
00000190: 0c75 063f 93f8 65be 6869 f13e 85bb 20be
000001a0: 60f1 633e 7eb1 43be 43c1 753e c717 073f
000001b0: aae8 87bd 93d3 91be 1915 00be 93af e03c
000001c0: 0ddc bd3e e1fe d83e 101a c53e 2f29 cc3e
000001d0: 8ceb 8bbd f77f b73d 8a4c 673e c1be c7bd
000001e0: c782 8cbe b753 9cbc 0298 c5bb 65c0 b0bd
000001f0: ecc6 0ebe cf0f f53e a99a c13d a3e8 5f3e
00000200: b335 3fbe aa19 a7bd 0508 4cbd 34df 0dbc
00000210: 5526 af3e c347 39be 3e81 4bbd 9a6b 3d3d
00000220: 0495 cd3d 19c9 fe3d fee4 803e 8f67 be3e
00000230: ebdc 093e a1c6 1ebd 8d4a 4dbe 8cc5 17b9
00000240: 06fd 9f3e 6a37 d03e eaae ee3e 6f9f 4b3e
00000250: 65bd aebb 36c9 df3e 1631 fabb cdee 90bc
00000260: 8c72 2ebe 3e4a 83bd 1dc6 953e 13ad 023e
00000270: d856 49be a300 1e3f 8e10 fa3e 974a 5e3e
00000280: b9cb 943e 74c2 28bf 6e9f ae3e 81d2 5d3d
00000290: 8190 803d 51c5 a83e 737b aebe 1d24 d73d
000002a0: 4b9e 32be a500 053d 4f2e a1be c110 eebe
000002b0: e37a a63e 4620 a43d 2421 9e3e 14d3 9cbb
000002c0: 4e23 06bd 96d0 b4bc 9a12 eabd fefa 2bbe
000002d0: 5bc2 8c3e 3675 66be 8327 97be 105a 4c3e
000002e0: e627 243e e04f 933e 3c2a 8f3c 1bc0 973e
000002f0: a475 a73e f7eb 42bf a045 8ebe 6256 a0be
00000300: 5194 583d 12b0 f73e 84ec f4bd 30ef 973e
00000310: 2e5c ff3e dd98 693d 3ef0 2c3d 5ee9 233e
00000320: 72ce 283f 7807 91bd 4ff3 4a3f 98eb 133f
00000330: d66f 46be 9f1d 9c3d bc47 643e 44c1 d23e
00000340: 9e85 1b3f e423 263f 08c6 e73e 6a41 0a3f
00000350: 5a3e 2bbd 1dc5 203f 7e6a 5e3e 451a c5bd
00000360: ca1b 153d a8cf 6ebd f21e 973e 20f7 af3d
00000370: 8e4b 05bd ec1c 313f d052 0c3f a84a c93e
00000380: 5da8 153f e191 60bf a256 123f 7da0 653e
00000390: 539c 9cbd 1de4 f93e a9d8 cfbe 5a7c 0c3f
000003a0: dfc1 cd3d 6bc1 063f 4db7 3bbe 5768 8dbf
000003b0: deaf 253f 3e44 233f c50c 2a3f 01b3 693e
000003c0: 5097 a2bd 2f2c 73be 725f ecbe e971 8d3e
000003d0: 850f 1b3f 1872 96be 4258 d2be 184f 2a3f
000003e0: bc5c 333f 3963 103f 0718 383e c8d4 383f
000003f0: 1b8d 413f f7ee 5ebf 3599 71be 2b60 a8be

model.2.bias f4 [32]
0.091975406 -0.23033129 -0.032060552 -0.073825665 -0.022540666 0.30135965 -0.1598923 0.5356422
-0.07539907 0.35973457 -0.09165674 -0.14815752 -0.17823768 0.7670236 0.06592016 0.56674737
-0.13203864 -0.10672563 0.40911558 0.08657036 0.115190916 0.043450322 -0.11627726 -0.326071
0.43604907 0.53190076 -0.12132645 -0.14885472 -0.01252353 0.29032373 0.36818463 0.22732452
00000000: 9a5d bc3d f7db 6bbe ed51 03bd e931 97bd
00000010: 34a7 b8bc d04b 9a3e cfba 23be d91f 093f
00000020: d46a 9abd 212f b83e 87b6 bbbd 9bb6 17be
00000030: f083 36be a95b 443f 2601 873d 5b16 113f
00000040: 2335 07be f892 dabd 9977 d13e cd4b b13d
00000050: 37e9 eb3d f7f8 313d c622 eebd c7f2 a6be
00000060: d341 df3e a62a 083f 007a f8bd 5f6d 18be
00000070: 7e2f 4dbc 50a5 943e b282 bc3e c2c7 683e

model.4.weight f4 [32, 32]
-0.047337815 -0.112398945 0.18799254 -0.028019741 0.2083078 0.49308094 0.024877613 0.390699
0.14477709 0.45733932 -0.057514183 0.0178528 0.1977588 0.52703106 0.23440298 0.25894156
0.1494023 0.12691739 0.19549319 -0.016367018 -0.06147722 0.06257518 0.19438808 0.15460303
0.4356182 0.4983277 0.12644659 -0.02155926 -0.1249604 0.34536868 0.4822699 0.3566932
-0.053165127 -0.7326594 0.02323737 -0.80854094 -0.012756931 0.3322068 -0.76021034 0.36122996
-0.8553887 0.30747703 -0.70938474 0.27924958 -0.380959 0.21890265 -1.0431253 0.41564512
-0.47148493 -1.0311654 0.06046067 -0.42395946 -0.07327393 -2.5152261 -0.8980522 -0.44043893
0.086707994 0.31955302 -0.7201768 -0.41990978 -0.66777176 0.2818446 0.053609103 0.19446416
0.14723587 0.14553303 0.12368872 0.09650608 0.27262327 -0.15960844 0.6023905 -0.17274687
0.17731081 -0.23232774 -0.04608339 0.2761533 0.16299589 0.030380005 0.07408596 0.045715872
0.20319916 0.18910463 -0.08032798 0.04720902 0.2532177 0.2499296 0.20134778 0.22602688
0.008627142 -0.04121159 0.31237087 0.21000378 0.30133092 -0.17810394 0.10502901 -0.1410163
-0.049482636 -0.17724511 -0.016608344 0.11710775 -0.10942635 0.07460632 -0.4130107 0.14591374
-0.2207884 0.027777666 -0.18071732 -0.016119925 0.13159168 -0.0989915 -0.56892973 0.13953115
-0.2683637 -0.76850224 0.08069384 -0.17685023 -0.23531124 -1.4956999 -0.243108 0.35396615
0.078116894 0.1320951 -0.34254527 0.40739423 -0.33470163 0.270725 0.12621774 0.085974194
-0.5949242 -0.39636412 0.01604927 -0.7975494 -0.13857464 0.058472093 -0.5295421 0.18794064
-0.7015944 0.06219297 0.027227497 -0.88955134 -2.5833294 0.2630672 -0.34964213 0.4379734
-0.81898457 0.12244038 0.2734061 -0.602049 -0.23995678 0.68021536 -0.50130713 -2.4752796
0.15534717 0.20364487 -0.654693 -2.4635046 -0.5016659 0.29851684 0.077046864 0.2562247
0.052996747 0.18674015 -0.048261456 0.07195705 0.005546156 -0.106191084 0.279283 -0.013090291
-0.010936635 -0.1357932 0.046746675 0.23365392 -0.067005485 -0.009192373 0.20821059 -0.029609116
0.06408153 -0.04671155 -0.24607292 0.09375138 -0.0277884 1.9006469 0.16711779 -0.031507727
0.17767441 -0.039320968 0.20700559 0.021676276 0.3439359 0.12126149 -0.17188916 -0.100632735
-0.04294118 0.075291306 -0.06408689 -0.010034785 0.10511023 0.1509512 0.20799221 0.2173161
0.13372786 0.052835226 0.10711912 0.19685759 0.18084586 -0.11550607 0.25209433 -0.062485646
-0.05269434 -0.07380056 0.16894677 0.13023278 0.22247872 1.0567209 0.2155097 -0.08809744
0.19205664 0.192436 -0.053844456 -0.082536556 0.18495432 0.13604106 0.23058327 0.15262105
-0.13303122 0.06789048 0.061121054 -0.42796353 0.066273026 0.27775267 -0.20481284 0.20457262
-0.26271918 0.08030704 0.02867512 -0.035229087 -0.042029727 0.37367266 -0.19092761 -0.093509376
-0.06955993 -0.22210829 0.41753367 0.15449767 -0.19586228 -0.41471297 -0.05076784 -0.27624533
0.24387476 0.08136788 0.011026403 -0.34230337 0.19256176 0.14066301 0.28856274 0.4291662
00000000: 4ce5 41bd 6b31 e6bd 1e81 403e a889 e5bc
00000010: a44e 553e 1b75 fc3e 23cc cb3c b309 c83e
00000020: 7240 143e 6128 ea3e fe93 6bbd 0940 923c
00000030: 4881 4a3e 82eb 063f 5607 703e fd93 843e
00000040: ebfc 183e a2f6 013e 5e2f 483e 2014 86bc
00000050: 8acf 7bbd 6a27 803d ab0d 473e 4250 1e3e
00000060: 5909 df3e cf24 ff3e 377b 013e 0c9d b0bc
00000070: 3deb ffbd 2ad4 b03e 15ec f63e 7ea0 b63e
00000080: adc3 59bd 918f 3bbf 4c5c be3c 8afc 4ebf
00000090: 7202 51bc 0217 aa3e 259d 42bf 22f3 b83e
000000a0: c1fa 5abf a16d 9d3e 3d9a 35bf cdf9 8e3e
000000b0: 0f0d c3be 0428 603e 2185 85bf 70cf d43e
000000c0: 7966 f1be 3afd 83bf 9ca5 773d 3711 d9be
000000d0: a410 96bd 77f9 20c0 c0e6 65bf 3681 e1be
000000e0: f693 b13d 749c a33e 825d 38bf 6afe d6be
000000f0: 17f3 2abf ef4d 903e 3895 5b3d 9d21 473e
00000100: 00c5 163e 9c06 153e 8350 fd3d fba4 c53d
00000110: 4795 8b3e 6570 23be 4436 1a3f 8ee4 30be
00000120: f790 353e 53e7 6dbe f0c1 3cbd f763 8d3e
00000130: 65e8 263e 7ddf f83c 61ba 973d 9140 3b3d
00000140: 7113 503e a5a4 413e ff82 a4bd 3f5e 413d
00000150: c0a5 813e 8ced 7f3e 1d2e 4e3e 9773 673e
00000160: db58 0d3c 7ccd 28bd 13ef 9f3e 3b0b 573e
00000170: 0c48 9a3e e160 36be 7319 d73d 9466 10be
00000180: 4eae 4abd be7f 35be 390e 88bc 30d6 ef3d
00000190: ec1a e0bd 33cb 983d 2376 d3be 696a 153e
000001a0: 5b16 62be fd8d e33c f60d 39be ef0d 84bc
000001b0: f8bf 063e 0ebc cabd 61a5 11bf 41e1 0e3e
000001c0: f866 89be 90bc 44bf d042 a53d 3a18 35be
000001d0: 6ef5 70be 1873 bfbf 4ef1 78be 0d3b b53e
000001e0: c0fb 9f3d f043 073e 1862 afbe fa95 d03e
000001f0: 035e abbe 789c 8a3e 393f 013e 3d13 b03d
00000200: f44c 18bf 3df0 cabe c279 833c 332c 4cbf
00000210: 83e6 0dbe 6f80 6f3d 1290 07bf 8373 403e
00000220: b19b 33bf 0ebe 7e3d 330c df3c a3b9 63bf
00000230: 4555 25c0 beb0 863e 4b04 b3be 0d3e e03e
00000240: f9a8 51bf 06c2 fa3d e2fb 8b3e e21f 1abf
00000250: 3bb7 75be 9822 2e3f aa55 00bf fb6a 1ec0
00000260: 5413 1f3e 4888 503e f699 27bf 0faa 1dc0
00000270: 2d6d 00bf 33d7 983e bfca 9d3d e22f 833e
00000280: 1e13 593d cf38 3f3e cead 45bd 385e 933d
00000290: 87bc b53b b67a d9bd 2efe 8e3e a978 56bc
000002a0: 922f 33bc 5f0d 0bbe 7179 3f3d f942 6f3e
000002b0: 2c3a 89bd 9b9b 16bc 2835 553e d18e f2bc
000002c0: 2d3d 833d 9c54 3fbd 8afa 7bbe b900 c03d
000002d0: 80a4 e3bc 6648 f33f ed20 2b3e 3f0e 01bd
000002e0: 48f0 353e 060f 21bd 46f9 533e 7292 b13c
000002f0: 5e18 b03e f257 f83d b603 30be 8918 cebd
00000300: 17e3 2fbd 5432 9a3d fd3f 83bd f068 24bc
00000310: 0844 d73d f492 1a3e e9fb 543e 1d88 5e3e
00000320: f5ef 083e c069 583d 4561 db3d 0995 493e
00000330: a82f 393e 728e ecbd 8212 813e f3f0 7fbd
00000340: 05d6 57bd bf24 97bd 6200 2d3e be5b 053e
00000350: 76d1 633e a142 873f 93ae 5c3e 6e6c b4bd
00000360: 7faa 443e f10d 453e 018c 5cbd ed08 a9bd
00000370: aa64 3d3e 594e 0b3e 051e 6c3e b148 1c3e
00000380: 5639 08be 2a0a 8b3d 125a 7a3d 091e dbbe
00000390: 27ba 873d 9935 8e3e 75ba 51be 7c7b 513e
000003a0: 2183 86be 0478 a43d 16e8 ea3c 604c 10bd
000003b0: 5d27 2cbd 0652 bf3e 8782 43be d881 bfbd
000003c0: 7075 8ebd 5b70 63be f9c6 d53e a334 1e3e
000003d0: 1f90 48be 4255 d4be f0f1 4fbd 0770 8dbe
000003e0: 4eba 793e 34a4 a63d 16a8 343c 6342 afbe
000003f0: e92e 453e f709 103e 7fbe 933e acbb db3e

model.4.bias f4 [32]
0.21343061 0.28062278 -0.007537248 0.17419828 0.02164778 0.097985074 0.088021494 0.11682725
0.19162042 -0.2950719 0.102978915 -0.017459529 0.020394638 -0.15050593 -0.21040101 0.18765779
-0.19056292 -0.08768395 -0.09581505 -0.13934988 0.044981636 0.048460983 0.24968974 0.20444402
-0.018057637 0.10479478 -0.10807297 -0.13110948 0.04414783 0.010693702 -0.48879173 0.26512864
00000000: 8e8d 5a3e caad 8f3e 05fb f6bb 0961 323e
00000010: af56 b13c 66ac c83d 9d44 b43d 2043 ef3d
00000020: 2538 443e aa13 97be 9ce6 d23d 4907 8fbc
00000030: a812 a73c 3a1e 1abe 5d73 57be 5d29 403e
00000040: ed22 43be a593 b3bd ae3a c4bd bcb1 0ebe
00000050: aa3e 383d 067f 463d abae 7f3e c659 513e
00000060: 9ced 93bc a59e d63d 5c55 ddbd 9041 06be
00000070: 5bd4 343d a334 2f3c e942 fabe f1be 873e

model.6.weight f4 [32, 32]
0.06870412 0.4260466 0.14561681 0.089432076 -0.0967288 0.042488646 -0.07797317 -0.13016896
0.17568938 -0.1265431 0.13940866 0.10200483 0.19831902 -0.027822407 0.37802872 -0.0117174
0.08815706 0.18943234 0.17278427 0.14386044 -0.11302983 0.106028594 -0.15269862 -0.3016533
0.14301889 -0.10081167 0.17818277 0.14935875 0.04960814 0.21567908 -0.3304726 -0.16671245
-0.13109119 -0.28732637 -0.11896535 -0.52267367 0.42200398 -0.30954707 0.23245098 -0.012958009
-0.12021322 0.7038378 -0.5147476 0.81818855 -0.04073976 -0.095930964 0.25890186 -0.049559522
0.0868932 0.019395757 -0.0989329 0.11466014 0.037082 -0.15122978 0.2468139 0.08105047
-0.034375772 -0.029900596 -0.084580146 0.17232658 -0.2927848 -0.9552277 -0.11802478 0.114406504
0.034311447 0.13602996 -0.11708173 0.024865927 0.04117263 0.2120441 0.059072897 -0.29206973
0.004190674 -0.09091997 0.03479193 -0.105499476 0.038159985 0.07723317 0.42131376 -0.18847585
0.009917406 0.08161193 0.25628835 0.11302994 0.07018952 -0.1317238 -0.05102679 0.04074226
0.095061965 0.16021398 0.20000358 0.10781636 0.16171505 -0.024958389 -0.36115438 -0.24783383
-0.17224878 -0.16159 0.089509055 0.09488418 -0.116427444 0.13935293 -0.19141847 -0.12803672
-0.18722196 0.22953908 -0.10166188 -0.11159188 0.122331955 0.019079704 0.16048712 0.034155153
0.34947178 0.111471765 0.0024079473 -0.09885198 -0.13606559 -0.029641746 0.015226815 0.008721106
-0.10036293 0.18035053 -0.0025713225 0.2269679 0.20760314 0.012425214 0.2442694 -0.058658067
0.014026899 0.35373703 -0.116994314 -0.07842542 0.033930015 0.04539429 0.05886166 0.035089064
-0.029244822 -0.112796694 0.21668336 -0.1393797 -0.18491419 0.19619395 0.4661763 -0.049349785
0.2072423 0.05054847 -0.016625615 0.03994325 -0.05275364 0.021497464 -0.055256844 -0.9941822
0.09273625 -0.08939112 -0.16588877 0.03452895 0.16573067 0.09593121 -0.440534 0.10906588
-0.119646415 -0.01792375 0.19538456 0.08898091 -0.015464346 0.116150774 -0.09314678 -0.16171159
0.08990115 0.082713135 -0.0046436028 0.19903003 0.22401148 0.10217486 0.35705048 -0.07935791
0.25825086 0.37102196 0.1002428 0.21782885 -0.13124159 0.23696794 0.10705902 0.034866907
0.21040995 -0.08986934 0.18141305 0.07500275 0.30800787 0.047260128 0.6998687 -0.13913177
-0.060670152 0.12072426 0.007442841 -0.003860439 -0.11418592 -0.116546586 0.060551725 -0.40145636
0.09452851 0.13249892 0.061654054 0.03329404 -0.052928302 0.15487498 -0.032704286 -0.27376604
0.5554117 0.12672924 -0.022346199 0.09084257 -0.15751763 0.27509207 0.05179697 0.06431868
0.108876996 0.2437439 0.28100744 0.19769643 0.086422846 -0.121185966 0.61717325 -0.1378423
0.23700069 -0.6164795 0.54740745 -0.6326829 -0.018455828 -0.33304226 0.2756558 0.14662273
-0.04067498 -0.8136483 -0.14296918 -0.3327217 -0.0781785 -0.7703644 0.15238814 0.09608936
0.03136432 -0.09967892 -0.5761113 0.05250007 -0.11692647 -0.58761615 0.20058376 -0.2293945
-0.29368582 -1.0611947 0.42902198 0.71670854 -0.6264465 0.14714721 -0.2829417 0.03472737
00000000: bfb4 8c3d c822 da3e 931c 153e 2a28 b73d
00000010: c019 c6bd 9308 2e3d 66b0 9fbd 034b 05be
00000020: ebe7 333e 8494 01be 25c1 0e3e e9e7 d03d
00000030: 2414 4b3e d1eb e3bc fb8c c13e 56fa 3fbc
00000040: b08b b43d 8dfa 413e 5cee 303e 2750 133e
00000050: 2f7c e7bd 8525 d93d 075d 1cbe 4d72 9abe
00000060: 8b73 123e 5976 cebd 8b75 363e 80f1 183e
00000070: e831 4b3d fada 5c3e b433 a9be abb6 2abe
00000080: c53c 06be 711c 93be 1ba4 f3bd f1cd 05bf
00000090: e810 d83e f47c 9ebe a107 6e3e d44d 54bc
000000a0: 5932 f6bd b72e 343f 80c6 03bf ce74 513f
000000b0: bcde 26bd 7477 c4bd c98e 843e edfe 4abd
000000c0: 10f5 b13d dae3 9e3c 559d cabd efd2 ea3d
000000d0: 4ce3 173d fbdb 1abe c8bc 7c3e cafd a53d
000000e0: 9ccd 0cbd 18f2 f4bc 5b38 adbd 6176 303e
000000f0: e4e7 95be cd89 74bf fab6 f1bd f54d ea3d
00000100: 298a 0c3d 704b 0b3e 8cc8 efbd a1b3 cb3c
00000110: a2a4 283d 1722 593e 6cf6 713d 2a8a 95be
00000120: ec51 893b 4034 babd fc81 0e3d 1c10 d8bd
00000130: a54d 1c3d 6d2c 9e3d 70b6 d73e d0ff 40be
00000140: 9e7c 223c 2824 a73d 3a38 833e 3e7c e73d
00000150: 86bf 8f3d 9be2 06be 7801 51bd 5be1 263d
00000160: d9af c23d 220f 243e bdcd 4c3e d3ce dc3d
00000170: a198 253e 8975 ccbc 3ae9 b8be 27c8 7dbe
00000180: fc61 30be d977 25be 8650 b73d a352 c23d
00000190: 8371 eebd 89b2 0e3e 3403 44be 0f1c 03be
000001a0: 1db7 3fbe 4b0c 6b3e 1b34 d0bd 498a e4bd
000001b0: 2d89 fa3d 0a4d 9c3c bc56 243e 46e6 0b3d
000001c0: f7ed b23e 4f4b e43d a7ce 1d3b e872 cabd
000001d0: c754 0bbe 3fd3 f2bc e479 793c f8e2 0e3c
000001e0: 148b cdbd cfad 383e a283 28bb 466a 683e
000001f0: eb95 543e 2093 4b3c c221 7a3e 7143 70bd
00000200: 14d1 653c 051d b53e b79a efbd 829d a0bd
00000210: 33fa 0a3d 5def 393d ed18 713d 8db9 0f3d
00000220: d692 efbc f401 e7bd 3ee2 5d3e 8db9 0ebe
00000230: 255a 3dbe 11e7 483e a9ae ee3e 0023 4abd
00000240: 5337 543e ea0b 4f3d 7132 88bc 899b 233d
00000250: 3314 58bd 731b b03c 0055 62bd ba82 7ebf
00000260: 81ec bd3d b112 b7bd bfde 29be 3a6e 0d3d
00000270: 4db5 293e 9577 c43d ac8d e1be ef5d df3d
00000280: 2e09 f5bd d4d4 92bc e412 483e a03b b63d
00000290: 2b5e 7dbc 75e0 ed3d bdc3 bebd b997 25be
000002a0: 181e b83d 8165 a93d 5d29 98bb 87ce 4b3e
000002b0: 4463 653e 0e41 d13d 52cf b63e 6686 a2bd
000002c0: 7539 843e 97f6 bd3e 194c cd3d 870e 5f3e
000002d0: 3264 06be b9a7 723e c241 db3d 9ad0 0e3d
000002e0: b575 573e 6b0d b8bd 58c4 393e 0b9b 993d
000002f0: 35b3 9d3e d693 413d 982a 333f 8f78 0ebe
00000300: 4481 78bd 483e f73d 13e3 f33b 6bff 7cbb
00000310: 4fda e9bd faaf eebd 1605 783d b08b cdbe
00000320: 2a98 c13d ccad 073e f688 7c3d 555f 083d
00000330: 59cb 58bd 8c97 1e3e eef4 05bd 102b 8cbe
00000340: 762f 0e3f 4fc5 013e 600f b7bc ab0b ba3d
00000350: 4d4c 21be ded8 8c3e 0f29 543d 83b9 833d
00000360: e7fa de3d 0098 793e 35e0 8f3e ef70 4a3e
00000370: 76fe b03d 5930 f8bd 11ff 1d3f 8826 0dbe
00000380: 4fb0 723e 9ad1 1dbf e522 0c3f 82f7 21bf
00000390: ad30 97bc 8484 aabe c222 8d3e 4524 163e
000003a0: cf9a 26bd 414b 50bf 8366 12be 805a aabe
000003b0: 0d1c a0bd 9a36 45bf a30b 1c3e 80ca c43d
000003c0: e077 003d 7624 ccbd 087c 13bf 500a 573d
000003d0: 2577 efbd 036e 16bf d465 4d3e 64e6 6abe
000003e0: fd5d 96be 3ad5 87bf c5a8 db3e 367a 373f
000003f0: cc5e 20bf c2ad 163e bcdd 90be 493e 0e3d

model.6.bias f4 [32]
-0.13096204 -0.08333599 0.041327797 0.009282732 0.13076054 -0.1322273 0.006512269 -0.02193931
0.007239129 -0.02835805 -0.09863816 0.0018552892 0.032210592 0.087206684 0.1288246 0.07272309
0.071681954 0.022315955 -0.098136894 -0.09289026 -0.12911823 -0.050997768 0.06393316 0.19944343
0.17258686 -0.1735556 0.080473036 0.043741234 0.04069151 -0.10557156 -0.07001583 0.027826436
00000000: ea1a 06be 0fac aabd 5647 293d 9a16 183c
00000010: 17e6 053e 9866 07be df64 d53b 11ba b3bc
00000020: 3736 ed3b 244f e8bc ce02 cabd 2d2d f33a
00000030: 41ef 033d 6b99 b23d 99ea 033e d8ef 943d
00000040: fdcd 923d f3cf b63c fffb c8bd 403d bebd
00000050: 9237 04be 09e3 50bd 63ef 823d e63a 4c3e
00000060: 9cba 303e 8fb8 31be 0ccf a43d 022a 333d
00000070: 24ac 263d e735 d8bd 7664 8fbd 44f4 e33c

model.8.weight f4 [1, 32]
0.121574536 1.0305507 0.35153678 -0.12614322 0.3059125 -0.35407242 -0.34998947 1.2340266
-0.4124777 0.2770728 0.23786706 -0.17435667 0.25748378 -0.28738505 0.2654517 0.2917469
0.31522274 0.33034268 0.298407 -0.18884976 0.2203478 0.27519765 0.24562237 0.28621528
0.13828212 -0.15964186 0.6005866 0.5447754 -0.1711306 0.13339958 0.3723884 -0.2525094
00000000: 12fc f83d 16e9 833f a1fc b33e b02b 01be
00000010: 90a0 9c3e fb48 b5be d231 b3be 95f4 9d3f
00000020: 4730 d3be 7cdc 8d3e 6c93 733e 8e8a 32be
00000030: ead4 833e 2224 93be 49e9 873e da5f 953e
00000040: e064 a13e ad22 a93e cdc8 983e d561 41be
00000050: dba2 613e b5e6 8c3e 6e84 7b3e cf8a 923e
00000060: d499 0d3e 2879 23be 0bc0 193f 6776 0b3f
00000070: dc3c 2fbe e699 083e b1a9 be3e e948 81be
