best_model_3_dim3.pt (torch, 17348 bytes, 9 tensors)

model.0.weight f4 [32, 3]
00000000: 5272 f1bb 85b5 6a3f be0e 93bc 04ec 1c3f
00000010: eb6d 363f ad0d 283f 5cf2 053f 2452 673e
00000020: ca87 2dbf 642f ddbe 8727 12bd ec2e 69bb
00000030: 13f1 e53e c487 e1be fe4a b03c e102 783f
00000040: d418 97bc 0765 95bc e4f6 6b3f 85ce c0bc
00000050: 54ba 933f c7f6 82bf 24cf 6b3f c8cf e3bd
00000060: bab0 ae3f a5af 04bd 6f1f aabf d247 123f
00000070: b298 1d3f 9b6f 1abf 0ae1 91be 0d4e 79be
00000080: 2bbe bc3e 587b 6bbf ae73 113c 9e0b 40be
00000090: 04c9 273f 0210 85bc 885e 1e3e 00ae 283d
000000a0: a12e 063e 64b4 9e3f 81fd babe d023 40bf
000000b0: e79c 85bd e35e 52be 5452 b43b 3df3 9e3f
000000c0: 5f0b 4c37 3732 dfbe fec0 323f 0af7 a0be
000000d0: 2e37 323f 0de6 22bf c05e 4fbf 26f5 25bd
000000e0: c1c2 b33e 08bc e1bd 5364 a0be d910 b13f
000000f0: fe7a 80bc 99c6 60bf 277c 123d 899c f43e
00000100: fb99 ad3e fb70 01be db99 30be 3b13 d4bb
00000110: 5273 7dbf a9d3 a93e 11e9 033f b283 2b3f
00000120: f1b2 ca3e f39c 453e beb8 d6be 16e0 b63e
00000130: 3285 dabe b9f4 5b3f 51fa 253f f340 27bf
00000140: 181c 04bf ccc8 f7be 28eb 993c 46ff 023f
00000150: 1bb4 84bd e58f 043f 3c33 c43e 5fb6 d63e
00000160: 58d6 54be fedd 27bf c721 dabe 4f08 bebc
00000170: 6da9 02bf 45ec 33bf 954c d9be 518d 5ebf
-0.0073683644 0.91683227 -0.017951366 0.6129763 0.7126147 0.6564587 0.52322936 0.22589928
-0.6778532 -0.4320022 -0.035682227 -0.0035580946 0.44910488 -0.44048893 0.021520134 0.9687939
-0.018444456 -0.01823665 0.921736 -0.023535976 1.1541238 -1.023156 0.92112947 -0.111236155
1.3647683 -0.03239407 -1.3290843 0.5714084 0.6156112 -0.60326546 -0.28492004 -0.2434618
0.36863837 -0.9198508 0.008877678 -0.18754432 0.655411 -0.016242985 0.15465748 0.041181564
0.13103725 1.2398801 -0.36521533 -0.75054646 -0.06524067 -0.20544009 0.0055029783 1.241798
1.2161995e-05 -0.43592998 0.6982573 -0.31438476 0.6961545 -0.6363228 -0.8100395 -0.040516995
0.35109523 -0.11022192 -0.3132654 1.3833266 -0.015683647 -0.87803036 0.035762932 0.47775677
0.3390654 -0.12640755 -0.17246191 -0.006472019 -0.9900409 0.33169296 0.51527506 0.66997826
0.39589646 0.19298153 -0.41937822 0.3571784 -0.42679745 0.8592029 0.6483508 -0.6533348
-0.5160537 -0.48395383 0.018788889 0.51170766 -0.06479665 0.51782066 0.3832034 0.41936013
-0.2078489 -0.6557311 -0.42603895 -0.023197321 -0.51039773 -0.70282394 -0.4244124 -0.8693438

model.0.bias f4 [32]
00000000: 23da 24be 8876 af3e 7561 053e b3ac 1ebf
00000010: c35f 3c3f 74a3 0b3f e985 d73d 05ed 903d
00000020: 38e7 303e eee4 cd3e ba38 c63e 6c31 0fbf
00000030: 52e3 b2be 2719 ea3e f2f8 54be a2e1 42be
00000040: b820 4c3e 73ef 6d3e d869 d1be d54b c9bd
00000050: 4e86 c43e ce81 2a3f d5d1 33bf 2b17 813d
00000060: 1a3d 0d3f 101d a33e 7023 c63e 5262 2f3f
00000070: d90b ec3e 618b f23e b73f 223f 8775 c93d
-0.16098838 0.3427012 0.13025458 -0.6198227 0.7358362 0.54546285 0.10523588 0.07076458
0.17275703 0.40213722 0.38715154 -0.55934787 -0.34939057 0.45722315 -0.2079809 -0.19031385
0.19934356 0.23235874 -0.40901065 -0.09828917 0.38383716 0.66604316 -0.70242053 0.06303247
0.5517136 0.3185811 0.38698912 0.685094 0.4610279 0.47371963 0.6337847 0.0983687

model.2.weight f4 [32, 32]
00000000: 33f6 9ebf 7fee 4cbe 21e1 173e 5c52 31be
00000010: 8857 19be bdba 34bf ed03 d6bf cb99 e13d
00000020: cdb8 bfbf 1a2e 07bf 2720 ab3e ffe9 813d
00000030: fe37 21be d152 3abe af0d f63e 67c0 eb3c
00000040: 8584 863e 3a0b 89bd 4485 a9be 6e56 45be
00000050: cba5 1dbe d134 c3bd 2032 31c0 8708 69be
00000060: 14ef 39be e457 99be 6262 6dbf e6dc 723e
00000070: b824 bd3e 857c 2e3d d15e a63d a83c e13d
00000080: 66ee 4f3f 004b b03d df76 393e e1f3 cc3d
00000090: cb4d 02be 3318 e3bd 0104 a63e 3ed5 3d3e
000000a0: 7b3a 9b3e b58b 723e b587 003e fb64 e4bd
000000b0: cd93 803f 5a19 bb3e 5ed5 933c 186e fc3c
000000c0: da17 8ebe d4eb d43d 653b 21bf 49a0 d5bd
000000d0: c9f2 5d3d 66b8 bdbd e757 83be 1d9c ad3c
000000e0: a5b7 333e 8b2c 80be d9b3 d4be 2fc5 d23c
000000f0: ce24 633e 17eb adbd 154d 4cbd 1e37 383c
00000100: 83cf e0bf fb68 1dbe 7399 65be 053f 61be
00000110: c5e0 833e 9848 3b3d ac34 513d 0998 12be
00000120: 5b49 1f3e 8858 46bd b035 c23d e67c e03d
00000130: 0806 263e 5b90 c93a f3b1 bfbd 1a10 aabd
00000140: 8dff 253e 8585 083d 9029 a93c 0441 a13d
00000150: f279 6a3e fb09 8dbd 352a 46be e642 b53e
00000160: 6363 113e a8e8 8dbe 8e2b 39be 268e 803e
00000170: 4909 4dbe 488d a83d a636 8b3e c7bd 723d
00000180: 64c5 5f3d a442 aebe 67db a03e 7195 bcbd
00000190: 2127 3ebe 000a 89bd 1f37 073f dd8c 323c
000001a0: a9f7 f23d 3986 2a3e 3ad4 e0bd 0617 05bf
000001b0: 58fc 773f 15d5 053f 9ba4 273e 2660 a5be
000001c0: d375 13be e681 643e 9d95 003f 04eb 9fbe
000001d0: e5bd 30bd 866b 213d 1c3d 633d 4ac3 5abe
000001e0: 7b6c 9fbd 73f4 1b3d 6109 363d d419 c3be
000001f0: 5459 31be 34c7 e2bc fe24 fc3d f085 e13e
00000200: 2c7c b5bf 4089 efbe 3610 d3bd 4719 c8bc
00000210: 414f 863e 5c7e 493e 6a77 53bf a4f8 85bd
00000220: 53cb 6f3e e72d 053e 362e 4e3e b60a 0fbe
00000230: 1df0 0dc0 d420 e8be 0d13 0b3f 1ee4 08bf
00000240: 3e12 143f d487 e0be 3117 ac3e ff73 f0bf
00000250: e802 efbd f37d 233e 115e 9e3e b10c d4be
00000260: 0966 e83d 3d17 a1be 1295 25be 4bd8 d53e
00000270: 1f9d dabe 5aef 67bc 8990 87be 4cf0 9fbe
00000280: 5292 0f3f 22c0 033d 22f8 dcbb 0465 d93b
00000290: c599 dbbc 08de 12be e162 c93d 966e ac3e
000002a0: 194d 153e f5dd 873e 3f40 24be 70aa d43e
000002b0: 5fba 8d3d ec3c 01be d1cc a0be 3d13 7c3e
000002c0: 8973 c6bd d191 873d 5177 3abe 1127 8bbe
000002d0: 28fd 843d 9d46 44be ca93 c4be ca3d 063e
000002e0: 5a72 12be 85b7 863e 6419 be3e 89c3 adbd
000002f0: ddfc 66be a991 373e 69d9 8ebd dfb5 833e
00000300: 563f 97bc a248 11be 4474 7dbe 639f 963e
00000310: 57d3 3b3c d73b f5bd 3eef 323e f058 323f
00000320: 0f2d 7a3e 6023 82be 1e68 293e 9794 3e3f
00000330: f5b3 cdbc e495 e9bd 671e bbbd 2bea 2c3e
00000340: ff68 853d bb87 833e 54c6 33bc 60e8 84be
00000350: 239b ba3d 4f0f 7bbe e394 21bf 6b9a 74be
00000360: 7df6 b9be 3083 af3e dd7b 003f be1d 16bd
00000370: dcb9 6ebe b635 63be ea94 7b3c 4461 44bd
00000380: 38cc 1ebf 7960 b53d 90fb 063e 8472 763d
00000390: fd0d e0bc d9fc bbbd cd08 803f 9cb5 c73d
000003a0: 38f3 4cbd d781 553e cd3f 2cbe dd6d 8bbf
000003b0: 7e3c 123f 84dd c3be 07e2 12be 42e0 d2be
000003c0: 73a4 5f3d 462a 413d 6540 343e 7295 2f3e
000003d0: ccd5 4bbe c361 08bb a03c d8bd b436 383e
000003e0: ee02 e43d 89e7 29bd e0d7 893e e6b6 b2be
000003f0: 51d5 b8be 11cf 0a3e 07a6 2abe 560f 203f
-1.2418884 -0.20012854 0.14831974 -0.17316574 -0.14974797 -0.7059744 -1.6719948 0.11015662
-1.4978272 -0.5280472 0.33422968 0.06343459 -0.15744016 -0.18195654 0.48057315 0.028778268
0.2627298 -0.066915944 -0.33109486 -0.19271252 -0.15395276 -0.09531558 -2.7686844 -0.22757159
-0.18157607 -0.29949868 -0.92728245 0.23717079 0.36942077 0.04259922 0.081235535 0.109978974
0.8122314 0.08608055 0.18111752 0.10007454 -0.12724988 -0.110886 0.3242493 0.18538377
0.30318055 0.23686107 0.12551768 -0.11152073 1.0045105 0.3654278 0.018046077 0.030814216
-0.27752572 0.10396543 -0.62981254 -0.104309626 0.054186616 -0.09263687 -0.25653002 0.021192605
0.17550524 -0.25033984 -0.41543463 0.02572879 0.22182009 -0.084921055 -0.0498782 0.01124361
-1.7563328 -0.15372078 -0.22421817 -0.21996696 0.25757423 0.045723528 0.051075622 -0.1431581
0.15555327 -0.048424274 0.09482896 0.109613225 0.16213238 0.0015378104 -0.09360113 -0.083038524
0.16210766 0.03333046 0.020649701 0.07873729 0.22898081 -0.06886669 -0.19352038 0.35402602
0.1419807 -0.27716565 -0.18083021 0.2510845 -0.20023073 0.08230072 0.2719013 0.059263017
0.054631606 -0.34035218 0.3141739 -0.09208191 -0.18569614 -0.066913605 0.52818483 0.010897842
0.11863644 0.16652764 -0.10977979 -0.51988256 0.9686942 0.5227826 0.16371386 -0.32299918
-0.14400415 0.22315177 0.5022829 -0.3123399 -0.043149848 0.039409183 0.0554782 -0.2136356
-0.07784363 0.03807492 0.04444254 -0.38105643 -0.17319232 -0.027682878 0.12311743 0.440475
-1.4178519 -0.467844 -0.10305826 -0.024426116 0.2623234 0.19677109 -0.82604086 -0.06541565
0.23417406 0.13005792 0.20134816 -0.1396893 -2.2177804 -0.45337546 0.54325944 -0.5347308
0.57840335 -0.4385363 0.33611444 -1.8785399 -0.11670476 0.15966015 0.30931142 -0.41415933
0.11347587 -0.31463042 -0.16170147 0.4176658 -0.42698 -0.014156187 -0.2647746 -0.3123802
0.5608264 0.032165654 -0.006743447 0.0066343565 -0.026806721 -0.1434251 0.09833313 0.3367812
0.14580192 0.26536527 -0.16040133 0.41536283 0.06920313 -0.12620896 -0.31406263 0.24616714
-0.09690005 0.06619609 -0.18209578 -0.27178243 0.06493598 -0.19167562 -0.38394004 0.13109508
-0.14301434 0.2631189 0.37128747 -0.08484561 -0.22557397 0.17926659 -0.069750614 0.25724694
-0.018462818 -0.14187863 -0.24751383 0.29418477 0.011463962 -0.11974304 0.17474076 0.6966696
0.24431251 -0.25417614 0.16543624 0.7444548 -0.025110224 -0.114055425 -0.09136658 0.16886203
0.06514167 0.25689492 -0.010972578 -0.25958538 0.09111621 -0.24517559 -0.6311781 -0.23887031
-0.36320868 0.34279776 0.50189 -0.036649458 -0.23313087 -0.22188458 0.015355328 -0.047944322
-0.62030363 0.08856291 0.13181901 0.060167804 -0.02735042 -0.09179086 1.0002686 0.09751436
-0.05003664 0.20850311 -0.16821213 -1.0892903 0.57123554 -0.3825494 -0.14344035 -0.4118672
0.05460019 0.047159456 0.1760269 0.17146853 -0.19905776 -0.0020810224 -0.10558438 0.17989618
0.11133371 -0.041480575 0.26922512 -0.34905165 -0.36100248 0.13555552 -0.16664897 0.625234

model.2.bias f4 [32]
00000000: 2a2b 463e edbd c83d 3dfa 3e3d afff 963c
00000010: bda7 c8bd 11af 2d3d 1715 01be 6389 f3bd
00000020: 1919 00be f575 63be a272 fdbd 8be7 50bd
00000030: b318 6cbe 7a4c 273e 10f9 eabd 22cb 503e
00000040: 0f72 22be e3de 0a3d 3cbd e13d cdc7 9f3b
00000050: d23a f6bd 0ed7 aa3d 9ec4 973d 73ab 1a3d
00000060: 5060 803e 3c53 4b3e d326 4f3d c250 ef3d
00000070: b750 05be 2010 a4bc 43b8 b0bb 4792 d5bd
0.19352403 0.098018505 0.046625365 0.018432466 -0.097976185 0.042403284 -0.12605701 -0.11891439
-0.12509574 -0.22212966 -0.1237538 -0.051002067 -0.23056297 0.16337767 -0.11473286 0.20389989
-0.15863822 0.033903968 0.11022422 0.004876113 -0.12022938 0.083418 0.074105486 0.037761163
0.2507348 0.1985597 0.050574135 0.11685325 -0.13019072 -0.02002722 -0.0053930595 -0.10428291

model.4.weight f4 [32, 32]
00000000: 915d 063f 6bdd 493c 5354 eabd dddc 673e
00000010: f990 89be 25dd d53e 83b0 b13d 19f2 e23e
00000020: 1220 9b3e 79ee c53e f858 44bd 8d19 d73e
00000030: 7025 723e b35a 8cbe e414 e63e 8664 88be
00000040: 9aa3 c93e da29 46be 616a b83d b013 333d
00000050: c1c4 e03e cdb6 043e 56a1 e0bd ce79 c23e
00000060: ce1b a1bd 3267 0bbb 2f6a a13e 556c adbd
00000070: b964 7dbe 19de 5a3e a1d8 bdbe a491 933e
00000080: 7825 28be 9d0d 2b3e c218 cabb f2de 2dbe
00000090: 289c b83e 8fd9 f6be 6d21 c03e 4613 43bf
000000a0: 88ec dabe f7b6 1bbf 5152 763e 8eeb 60bc
000000b0: eaf8 07be 6b52 d93d 3145 70be f009 94bd
000000c0: 6ecd 1cbe 39fd 86be ff47 efbd f6c0 033e
000000d0: 601b 40bd 6a21 9dbe 308c 413f 6d05 10be
000000e0: 4496 9dbd 2e83 c1be 2349 96be bde9 fcbc
000000f0: 1f82 86be b46a 94be ca96 c8be 80dd 0cbf
00000100: d7a5 9a3e 9a64 6d3d 0e26 aabe bb0c 153d
00000110: 8fdf b0be 4cd0 e03e 9eb3 01be 7517 fc3e
00000120: 5000 9b3e 7f61 3d3e dc0b 393d 17e4 3c3f
00000130: b7ca 903e 0ac0 c4bd 66a0 a33e 09e3 a1be
00000140: eba5 da3c 1055 32be e2a7 8bbb 0490 8e3e
00000150: a823 983e d6f7 783e 2fc3 89bf b22b 1b3e
00000160: a860 08be 6d91 243d af1c d13e 8209 21be
00000170: 845c c03e fd9e 4d3e 32b7 e13e 0161 353e
00000180: 8a35 1f3e eb0c b2be f4b3 8abd 7e80 1fbf
00000190: 11ba 243f 5ebf 56bd 6a5a 9dbe 730e 7bbf
000001a0: 9cc5 b93e 7863 3b3e 8472 5ebd 57fc 813e
000001b0: a3dc 49bf 21de d33c 6d64 903d 7bbe 0e3e
000001c0: 2896 953e 6406 e93d d833 22be a709 0a3f
000001d0: 3db6 97be 1740 803e db16 9bbf 0e63 9b3e
000001e0: e00f 9b3e a739 693d 86d6 f53c 6b66 9f3e
000001f0: c09e f3bd 7297 9ebe eae8 603e 6bb8 eb3e
00000200: e496 f53e b13f 01bd 62d1 39be 31ba 303d
00000210: e616 64bf b5be e73e e2cd 6ebe 88a6 1f3f
00000220: 74a6 6b3e 1421 4f3f 0e00 05be 5796 7d3e
00000230: abb9 893a 4789 a9bd 7d3a a93e 8856 85be
00000240: 8434 eb3e 7611 02be e106 8e3d db8f e2be
00000250: b768 a43e 293a 253f 39f4 9fbf 373b 853e
00000260: 83ac 6cbd 8192 153e b412 593f a292 bfbd
00000270: 7d64 823f 3eb1 a9bc e019 373f 5850 093f
00000280: 858a 13bf c02e 2abc e1f2 d4bd 9a3d de3d
00000290: f798 f53d 9b0c 12be d5f9 883f f1c5 88be
000002a0: 47e5 333d d8e3 f9bf 4438 a83e 44a7 abbf
000002b0: 99cf f03e d6c7 023e 9421 6cbe d9c7 d33d
000002c0: 57df 1fbd c769 133d df1f 31bd cbac 073e
000002d0: e622 c9bd 3d6a 13bf 417a eb3d 04a8 fbbe
000002e0: 127a ba3d b5d6 87bd 1ed7 e03e 6de7 7e3d
000002f0: 4f22 833d 14a1 9d3c 79db 6abe 58f4 ccbe
00000300: 4348 3fbf 8ea6 b63c 0952 183e f225 913d
00000310: 01c9 843d f5fc 713e 1f47 9f3e 1bd1 953e
00000320: 1a2f 503e 6377 153e b1cd 82be 9d5e 5bbf
00000330: 4b07 6d3d 62e7 91be d111 a23e ed6e 33be
00000340: e898 3f3d 265e 95bd a688 223e 28a2 40be
00000350: 18af de3d 2653 1b3f d849 79bd 2e33 873e
00000360: 1acb 3abe 6dad cbbd 4066 85be 8898 ff3d
00000370: 9c70 3e3e 7c3f a43d 5bde 673d dbf7 573e
00000380: 4718 853e e2e9 47be 555e 25bd 6e5b 993d
00000390: e8a8 7fbd 8867 cfbd 2f16 563e 2f92 8ebe
000003a0: ac48 94bb 9d6e a0be 910a c63e 8109 da3d
000003b0: 263e b7bd b2d7 05be 81ff 993d b623 613e
000003c0: f066 a93e c5e9 d23d 3787 0cbc bfd9 5cbf
000003d0: be67 c03d 1aa7 24bd 28d8 c73e cf78 923e
000003e0: 18cc 4f3e 6eb6 d5bd 82fb 49be 7efe 853c
000003f0: e9e9 b03e 46c6 2e3e 066e f53d 2357 c03d
0.5248652 0.012320857 -0.11441865 0.22642846 -0.26868418 0.41770282 0.08676245 0.4432533
0.30297905 0.38658503 -0.04793641 0.4201168 0.23647094 -0.27412948 0.44937813 -0.26639193
0.3938263 -0.19351903 0.09004665 0.043719947 0.4390011 0.12960358 -0.109682724 0.37983555
-0.078666314 -0.0021271226 0.31526324 -0.08467928 -0.24745454 0.21373786 -0.37079337 0.28822052
-0.16420543 0.16704412 -0.006167502 -0.16979578 0.36056638 -0.4821286 0.37525502 -0.76201284
-0.42758584 -0.6082606 0.24054839 -0.013728036 -0.13278547 0.10611423 -0.23463894 -0.07228458
-0.1531274 -0.2636507 -0.11683654 0.12866578 -0.046901107 -0.30689555 0.75604534 -0.1406457
-0.076946765 -0.37795395 -0.29352674 -0.030873174 -0.2627115 -0.28987658 -0.39177543 -0.5502548
0.3020465 0.05795727 -0.33232158 0.036389094 -0.34545562 0.43908918 -0.12666175 0.49236646
0.30273676 0.18494223 0.045177326 0.7378554 0.2827966 -0.09606941 0.31958312 -0.31618527
0.026690444 -0.17415261 -0.0042619566 0.2784425 0.29714704 0.24313292 -1.076269 0.15153387
-0.13318121 0.04017775 0.40842196 -0.15726283 0.37570584 0.2008018 0.4408508 0.17712785
0.15547767 -0.3477548 -0.067726046 -0.6230544 0.64346415 -0.052428596 -0.30733043 -0.9806892
0.36283576 0.18299663 -0.05430843 0.25387833 -0.7885229 0.025862755 0.07050405 0.1393985
0.29216123 0.11378172 -0.1584009 0.5392098 -0.29631224 0.25048897 -1.211635 0.3034901
0.3028555 0.056939747 0.03000952 0.31132826 -0.118955135 -0.3097492 0.2196385 0.46039137
0.47966683 -0.03155488 -0.1814628 0.043146316 -0.8909744 0.45262685 -0.23320726 0.6236348
0.23012716 0.8090985 -0.12988302 0.24764381 0.0010507604 -0.08278137 0.33052436 -0.2604258
0.45938504 -0.12701973 0.06934906 -0.44250378 0.3211114 0.6454187 -1.2496406 0.2602174
-0.057781707 0.14606668 0.84794164 -0.0935414 1.0186917 -0.020714398 0.7152386 0.5363822
-0.5763324 -0.010387123 -0.10397888 0.10851593 0.11992066 -0.14262621 1.0701243 -0.26713517
0.043919828 -1.9522657 0.32855427 -1.341042 0.47033384 0.12771544 -0.23059684 0.10340852
-0.039031353 0.03598955 -0.043243285 0.13249509 -0.098211095 -0.5758398 0.114979275 -0.49151623
0.09105314 -0.06632749 0.4391412 0.062232424 0.06403028 0.019241847 -0.22935285 -0.4003017
-0.7471964 0.022296216 0.14875044 0.070873156 0.06483651 0.23631652 0.3110895 0.29261097
0.20330468 0.14596324 -0.25547555 -0.85691243 0.057868283 -0.28496844 0.31654218 -0.17522784
0.046776682 -0.07293348 0.1587244 -0.18811858 0.1087324 0.6067375 -0.06086144 0.26406235
-0.1824154 -0.09945188 -0.26054573 0.12480265 0.18597645 0.08019921 0.05660854 0.21090643
0.25995085 -0.19522813 -0.040373165 0.07488142 -0.06241694 -0.10127169 0.209069 -0.27845904
-0.0045252647 -0.3133439 0.38679937 0.10646344 -0.08947401 -0.13070562 0.07519437 0.21986279
0.33086348 0.10298494 -0.00857716 -0.86269754 0.09394787 -0.040198423 0.39032102 0.28607795
0.202927 -0.10435186 -0.19724849 0.016356703 0.3455346 0.17067823 0.11983876 0.0939162

model.4.bias f4 [32]
00000000: 4bba c8bd 42a2 4fbe e8e8 8f3c 7bce a93d
00000010: 3f34 873d 0397 733e e976 abbd 0994 c03d
00000020: c587 0f3d deca bbbc 5f7d 893e 919f 843e
00000030: dc47 93bd b49c bd3d e4ae f2bc 4247 97bd
00000040: af6c 5bbe 73ff 27be e721 a03e 4c1a 8dbd
00000050: 339c e0bd 1ada 28be 1113 70be b78b 36be
00000060: 64ed 9c3d 0fe5 12be 79f9 dcbc 2ad1 fabd
00000070: 3849 b2bd a4bd 243d 0bf8 32bb a0c1 46be
-0.098011576 -0.2027674 0.017567113 0.08291336 0.06601762 0.23788075 -0.0837229 0.094032355
0.03504159 -0.022923883 0.26853463 0.2590299 -0.071914405 0.092584044 -0.02962441 -0.07386638
-0.21428178 -0.1640604 0.31275865 -0.06889781 -0.10967293 -0.16489449 -0.23444773 -0.17826734
0.07662466 -0.14345191 -0.026974427 -0.12246926 -0.087053716 0.040219918 -0.002730849 -0.194098

model.6.weight f4 [32, 32]
00000000: c6d9 d53e d69e 903e fba9 ea3e 015a 31bf
00000010: 5551 8bbe 2238 9c3e 52b8 b8be 66e7 943e
00000020: 3b9d c53e a565 0dbf 2aeb b73e b465 353e
00000030: eb4e bd3e 8063 a2be 7e05 0ebf 5c85 d33e
00000040: ef27 c7be 9556 3bbd c682 323e b3de 2f3f
00000050: 35c3 19bf 7cca e2be a936 e1be 06d2 f7be
00000060: f7b8 083f 4139 90be f1ca bb3e eaba a5be
00000070: 56e4 203f f162 d63e df41 0e40 6437 a4be
00000080: 23d5 35bf 443e d93e 9c80 34be 398b febe
00000090: cec6 23bf 5aaf df3e a230 efbf 8971 483e
000000a0: 3803 d73e 7da4 04bf 6b29 bf3e 52e0 da3d
000000b0: b4bf 033f f48e 1ac0 a509 47bf 92e8 333f
000000c0: 7e5c d2bc b9c6 c63e 1fb6 a23e 782a 5f3f
000000d0: f53b d6be 1964 903e 859e b8bf f552 4b3e
000000e0: 5d00 4f3f d64d 05bf 845f 263f 73d5 3abf
000000f0: d979 263f 3a66 7f3e dfb3 cd3f 603c 2ebf
00000100: 7879 753e 53c5 df3d c4c0 803e 7cdf 1dbe
00000110: 7597 f3bc 0f31 00bf f802 043f 9f57 6ebe
00000120: b60c c73e 93b2 9b3e d9c4 8abd 38cb bdbe
00000130: e563 8abe abe1 983e 69d8 3ebd ed8e 8b3e
00000140: f363 013f f941 2dbe 43d1 9abe 8018 32bf
00000150: 29c5 123f df44 193f de8a bd3e e67b 103d
00000160: 5fb6 3ebe 9ad1 183f 2dcd d93d 279b 2e3e
00000170: c71d 8bbe 025b f9be 4eda 1cc0 8d8d 873e
00000180: 30d8 f73e 12b7 eebc 5fd4 733e 42ec fbbe
00000190: 9803 243e 3b30 c6bd d6b8 a3be cd67 bf3e
000001a0: 0d35 5b3e 97d4 41be f9fc 0a3e b712 1abe
000001b0: 9758 aebc 4b33 82be e9d5 873d 4f7f a83e
000001c0: ef4f 62be 3fc8 1abe d41e f93d 5d7f 3cbe
000001d0: 0ced ffbe 8c5c 33be 72d9 08bf fa8e a9be
000001e0: f798 ab3e e564 a8be 020e fa3e ba8e 00bf
000001f0: 7d1d 3a3e c1ea ea3c 9c31 00bf f35e 9f3e
00000200: 6892 823d 6afb 35be dcc7 973e 47cb d5bd
00000210: e9fb 8d38 c5a9 ebbe 39f0 943e f2a4 6dbe
00000220: cb7a a23e fcf8 4d3e 1c3c 3ebe 9331 15be
00000230: 078b 40be 15e2 1e3e 7bf9 6bbc a9c2 a03e
00000240: d850 0f3f db99 0ebe b831 7ebe dbc7 b9be
00000250: 2594 3d3f 0e60 523f 0c7f 823e 1c6a a43e
00000260: e122 1fbe 638f 1a3f 7eac 2e3e 2efd 663e
00000270: 976a 88bc 550c d7be a97e 0ac0 930f bc3e
00000280: 7656 e13e 409b debd 22a0 883e 2a77 4bbf
00000290: bbea d23e cf08 7a3e 3d3b 4bbe c2ba 8e3e
000002a0: 473a 463e 4d2b 36be 4cea 873d 3b7e a6be
000002b0: 548a 6e3c 855f d2be 503c 89be 2ed9 a53e
000002c0: cae4 57be 2f70 93be 4959 d83c 66c6 6f3d
000002d0: 8955 d4be d182 70be cc78 fcbe dfa4 9dbe
000002e0: 9211 a03e b9a1 95be c565 ee3e e726 9bbe
000002f0: d6a8 833e 58fe a33e 08cd 3d3f 0ebf 6f3d
00000300: 330b a6be 7791 c9be 81e1 1cbe d8c4 0f3f
00000310: 989a de3e c6c0 cebe cf2f 9a3e b565 e5bd
00000320: 4489 dabe 6140 173f 1a92 2bbe 81cb 983e
00000330: dca0 91be bf7f 013f fcd7 793e cf40 84be
00000340: 8d4d 813e 5cc2 37be 9a7e 923c 52da d3bf
00000350: 4b44 d03e 6ac0 cb3e 7ea2 903e 8fd1 f43d
00000360: af9b babe 8b34 cc3e db11 e6be 095c 173f
00000370: 2811 c7be 0149 41be f1ee f0bf 9ffe b93e
00000380: 62cb da3e 33d0 92be 9c19 2f3e 9c15 b8be
00000390: a562 913e 02b7 98bd df4d 94be 32b4 b13e
000003a0: e757 c23e 2d2d 6ebd 8f12 b43d 3ea9 f5bd
000003b0: 233c 4a3e 9866 3ebe 5e17 92bf 4a6c de3e
000003c0: 0da4 27be 47b0 75be c54f 37be b612 1d3c
000003d0: 173d f4be bfce 60be 9e89 adbe fbb7 a1be
000003e0: 0df8 ee3e 27f3 b8be 6876 d23e 5abf 98be
000003f0: 4200 7b3e ce4e 08bd d0a0 77bf becb 5f3e
0.4176771 0.28246182 0.4583281 -0.6927796 -0.2721049 0.30511576 -0.36078125 0.29082793
0.3859652 -0.5523322 0.35921603 0.17714578 0.36974272 -0.31716537 -0.5547713 0.41312683
-0.38897654 -0.045736868 0.17432699 0.6869919 -0.6006349 -0.44295108 -0.43987015 -0.48402423
0.53407234 -0.2816868 0.3667827 -0.32369167 0.62848413 0.4187236 2.2227705 -0.3207351
-0.71028346 0.42430317 -0.17627186 -0.49715593 -0.63975227 0.4368847 -1.8686717 0.1957456
0.41994643 -0.5181349 0.37336287 0.10687317 0.5146439 -2.4149752 -0.7774909 0.7027675
-0.02567887 0.38823488 0.31779572 0.8717418 -0.4184262 0.28201368 -1.4423376 0.19855864
0.8085993 -0.52071893 0.64989495 -0.7298195 0.65029675 0.2494134 1.6070517 -0.68060875
0.23972118 0.109263085 0.25147069 -0.15417284 -0.029735306 -0.5007486 0.5156703 -0.23275612
0.38876885 0.3040968 -0.06775827 -0.37069106 -0.27029338 0.2985967 -0.046593104 0.2725748
0.50543135 -0.16919698 -0.3023778 -0.69568634 0.5733209 0.59870714 0.3702001 0.03527441
-0.18624257 0.59694827 0.10634837 0.17051373 -0.27171156 -0.48702246 -2.4508243 0.26475182
0.48407125 -0.02914003 0.23811482 -0.49203688 0.16016996 -0.09677168 -0.31976956 0.3738388
0.21406956 -0.18928753 0.13573064 -0.15046202 -0.021282477 -0.25429758 0.06632597 0.3290963
-0.22100805 -0.1511545 0.12164083 -0.1840796 -0.4998554 -0.17515773 -0.53456795 -0.33116895
0.3351514 -0.32889476 0.48838812 -0.50217783 0.18175311 0.028676393 -0.500757 0.31127128
0.06375581 -0.17771688 0.29644668 -0.10439163 6.770326e-05 -0.4602796 0.29089525 -0.23207453
0.3173431 0.20114511 -0.18577617 -0.14569692 -0.18803035 0.15515931 -0.0144027425 0.31398514
0.5598273 -0.13925879 -0.24823654 -0.3628529 0.74054176 0.8217782 0.25487554 0.32112205
-0.15540649 0.6037504 0.17057988 0.22557518 -0.016652388 -0.42001596 -2.1639807 0.36730632
0.44011277 -0.10869455 0.26684672 -0.79478705 0.4119471 0.24417423 -0.19846816 0.2787686
0.19358169 -0.17789955 0.066364855 -0.3251818 0.014559347 -0.410885 -0.26803827 0.32392257
-0.2108337 -0.28796527 0.026409762 0.058538817 -0.41471508 -0.23487402 -0.4931091 -0.3078985
0.31263405 -0.29224947 0.4656202 -0.30303118 0.2571475 0.32029986 0.7414098 0.058531813
-0.3243042 -0.39368793 -0.15320398 0.56159735 0.4347732 -0.4038145 0.301146 -0.1120104
-0.4268285 0.5908261 -0.16754952 0.2984276 -0.28443038 0.5058555 0.24398798 -0.25830695
0.2525448 -0.17945236 0.017882634 -1.6551001 0.40677103 0.39795238 0.28248972 0.11954033
-0.36446902 0.39883837 -0.44935498 0.5912481 -0.38880277 -0.18875505 -1.8822919 0.36327073
0.42733294 -0.28674468 0.17099613 -0.35953987 0.28395572 -0.07456781 -0.2896566 0.3470779
0.3795769 -0.05814855 0.08792602 -0.11995171 0.19749503 -0.18593824 -1.1413381 0.43441993
-0.16371174 -0.23993026 -0.17901523 0.009586981 -0.47702858 -0.21953867 -0.33894056 -0.31585678
0.46673623 -0.3612301 0.41105962 -0.2983349 0.24511817 -0.03327828 -0.96729755 0.21855065

model.6.bias f4 [32]
00000000: 2605 04be a254 9d3b f2f4 1dbe 2223 4ebb
00000010: 5770 2bbe b7ec 773c 8b82 803e 07c6 ef3c
00000020: 2d5d b8bd 88a0 183e c2d1 54bd e601 87bd
00000030: 0e7a 47be 9c8a 8a3c a6bf 033d 880d fcbe
00000040: 3f83 403d d11b dabd 259c 63bd 76ec ea3c
00000050: f497 8b3e 8bab febd da54 24bd 7917 7b3e
00000060: b6ba 40bd 60f8 713d b4fc f73d 6659 00be
00000070: b479 c3bd cb3e 593e 89a6 6c3e eab8 363e
-0.12892589 0.004801349 -0.1542547 -0.0031454046 -0.16742073 0.015132121 0.25099596 0.029269231
-0.09002147 0.14904988 -0.051957853 -0.06592159 -0.19480154 0.016911797 0.032165192 -0.49229074
0.047000166 -0.10649837 -0.055568833 0.028677206 0.2726437 -0.12435063 -0.040119983 0.24520673
-0.04705306 0.05907476 0.12108746 -0.12534103 -0.095446974 0.2121536 0.23110403 0.17843977

model.8.weight f4 [1, 32]
00000000: e938 9c3f 82af b83f a6d5 51bf 6939 173f
00000010: 612e 24bf 8f75 2c3f fb73 8fbf abe0 333f
00000020: 13eb 5bbf a958 c8bf 8872 1dbf 12fd 23bf
00000030: 1406 983f 6756 963f 7599 9b3f 566a 1240
00000040: 5cf3 373f 1f3e 65bf c660 753f 26f8 9bbf
00000050: 6997 a6bf 64f8 26bf a560 0dbf 9f3e 8bbf
00000060: ad60 33bf c867 853f 0c59 633f 5a73 fd3f
00000070: f60c 24bf f421 b0bf 527f 96bf 94e1 89bf
1.2204868 1.4428561 -0.81966627 0.59071976 -0.6413327 0.6736688 -1.120727 0.7026469
-0.8590557 -1.5652057 -0.61502886 -0.6405803 1.1876855 1.1745118 1.2156206 2.2877402
0.7185571 -0.89547914 0.9585079 -1.2185104 -1.3014957 -0.65222764 -0.5522559 -1.0878485
-0.7006939 1.0422297 0.8880775 1.9800828 -0.64082277 -1.3760362 -1.1757605 -1.0771966
