best_model_1_dim1.pt (torch, 7404 bytes, 5 tensors)

model.0.weight f4 [32, 1]
2.4080803 1.9886364 2.706185 -2.2422886 -0.91098666 -2.3347976 2.4747815 0.28291264
-1.9569643 2.7664106 -0.44991767 0.2856922 0.2395659 -2.4597397 0.3428348 -4.166356
3.0008788 -2.60409 -0.06445275 3.9117217 2.398788 0.45871425 4.737932 0.9665779
0.32058877 0.54606825 0.37146652 4.9658575 1.2054396 -3.1904776 0.29661962 -2.9059334
00000000: fd1d 1a40 a38b fe3f 2332 2d40 a881 0fc0
00000010: 6c36 69bf 536d 15c0 d262 1e40 edd9 903e
00000020: ce7d fabf df0c 3140 9c5b e6be 3f46 923e
00000030: c350 753e 606c 1dc0 0b88 af3e ca52 85c0
00000040: 660e 4040 69a9 26c0 ceff 83bd a659 7a40
00000050: be85 1940 98dc ea3e 249d 9740 a671 773f
00000060: 3624 a43e 21cb 0b3f dc30 be3e 4ee8 9e40
00000070: d84b 9a3f c930 4cc0 87de 973e d0fa 39c0

model.0.bias f4 [32]
-0.1988259 -0.34567437 -0.20090394 0.0035356071 2.2771726 -0.026323218 -0.2016004 1.7629485
0.10375788 -0.21283036 3.5260432 3.9110749 3.0658288 -0.11189237 1.3859913 -0.48984364
-0.16343027 0.086169384 1.8666198 1.1078489 -0.21653098 2.1733072 -0.17330499 1.5695584
1.9101714 2.178741 4.318791 1.5627725 0.6189468 -0.05883228 2.7151265 0.4030283
00000000: 0499 4bbe 3bfc b0be c3b9 4dbe a5b5 673b
00000010: 32bd 1140 caa3 d7bc 5670 4ebe 4ca8 e13f
00000020: 037f d43d 34f0 59be b1aa 6140 0d4f 7a40
00000030: 8a36 4440 d427 e5bd 2a68 b13f c9cc fabe
00000040: 445a 27be 9379 b03d 66ed ee3f fecd 8d3f
00000050: 4cba 5dbe 7717 0b40 dd76 31be 4ae7 c83f
00000060: 7f80 f43f 7e70 0b40 8933 8a40 ee08 c83f
00000070: 4c73 1e3f 1efa 70bd a2c4 2d40 ba59 ce3e

model.2.weight f4 [32, 32]
0.10905522 0.025378047 0.1294995 0.11713893 0.16953537 0.15111221 0.16761751 -0.11322967
-0.07191377 0.09473221 -0.11206266 -0.060994714 -0.08463097 -0.13736671 -0.17033431 -0.36807078
0.02587045 0.0044906647 -0.06315352 0.06816672 0.025881777 -0.1484531 0.21238808 -0.10533413
0.12135358 -0.11290917 -0.010328987 0.07213479 -0.17381258 -0.08678643 -0.06759429 -0.0897376
-0.12213402 -0.12889566 -0.079404235 -0.10251342 0.24771373 0.08062845 0.11259108 0.2471529
0.2787382 0.031316742 0.23365451 0.29948586 0.2754475 -0.12664442 0.088603616 -0.36431417
-0.062212065 0.0012471678 0.28860497 0.06800359 -0.007796356 -0.0032581913 -0.25061482 0.13964403
0.03840173 0.05039264 0.25627434 -0.027431063 -0.0028046933 -0.00029024848 0.19994935 -0.06966971
0.0019254866 -0.06438121 -0.21537653 0.06537217 0.23917985 0.055865083 0.19198322 0.021406295
0.21059415 -0.1949312 -0.0028496669 0.26198363 0.05621917 0.059110794 0.2323824 -0.32651764
-0.31018803 0.103646494 0.29936928 -0.018390054 0.09225609 0.19547397 0.0230727 0.009710092
0.30361068 0.22772658 0.16688786 0.14538069 -0.0707268 -0.09083849 0.056067206 -0.012980653
0.010722768 -0.074473605 -0.013868875 -0.1233825 0.102436416 0.06546073 -0.06757004 0.017439444
0.29244488 -0.073679194 0.049448363 0.24409649 0.24194118 -0.060790677 0.2543965 -0.33361506
-0.09966898 0.213257 0.28677142 0.093579724 -0.07830341 0.19019651 -0.011503219 0.1881721
0.123784624 0.19548441 0.09182296 -0.07114803 -0.0624199 -0.31349647 0.055800598 0.16986606
-3.634934 -2.0697544 -5.748818 -1.7187936 0.09255816 -1.6079452 -3.635503 0.22564542
-1.0320339 -3.766267 0.3506679 0.40346134 0.44454926 -2.0783737 0.20808268 -1.5227287
-3.7727644 -1.3628834 0.24558112 -1.0164474 -3.5152392 0.38970485 -4.027131 0.51845616
0.21147302 0.35106656 0.3046452 -0.7365838 0.2761857 -1.5483395 0.1554515 -1.3093181
0.02873297 -0.04661838 0.08072721 0.11469277 0.2610992 0.15066986 -0.09611292 0.025402548
0.06878742 0.034733247 0.256749 0.25624943 0.06744982 0.024082111 -0.0010726979 -0.062388293
-0.22244968 -0.03147154 0.27369094 0.067170195 -0.10990991 -0.00095484103 -0.2134088 0.25185183
-0.042496257 0.277617 0.2664779 0.05826976 0.063559175 0.015194363 0.1990881 0.17546512
-0.12327999 -0.39496514 -0.16196848 0.14527085 0.009604825 0.123160794 -0.45054767 0.013754099
0.054389924 -0.27100855 0.0719691 0.0034698888 0.21139467 0.15742436 0.088942476 -0.13750188
-0.26153713 -0.110387586 -0.034459874 -0.63814074 -0.22311838 -0.0152359 0.23381342 0.10763607
-0.048684612 0.08140014 0.10773812 -0.9517967 0.8253147 0.063125625 0.2327648 0.12970163
-3.7792158 -2.024336 -4.1178384 0.11377746 0.67593926 0.17856331 -2.2812355 0.21098734
0.21622737 -2.951481 0.47886568 0.34440956 0.32253468 -0.021907136 0.19250844 -0.12046193
-2.4872727 0.28684947 0.449734 -4.325179 -2.8516529 0.09562121 1.6965144 -0.29847443
0.25317198 0.30434123 0.30048162 -6.1857934 -0.02419055 -0.07652001 0.4052317 0.4355638
00000000: 5858 df3d 9fe5 cf3c 849b 043e 89e6 ef3d
00000010: ae9a 2d3e 29bd 1a3e eda3 2b3e f5e4 e7bd
00000020: 8747 93bd f602 c23d 1c81 e5bd 98d5 79bd
00000030: 0153 adbd dca9 0cbe 1e6c 2ebe c673 bcbe
00000040: 44ee d33c 6d26 933b a256 81bd fe9a 8b3d
00000050: 0506 d43c 1704 18be 437c 593e 6cb9 d7bd
00000060: 3a88 f83d ec3c e7bd e93a 29bc 68bb 933d
00000070: edfb 31be 15bd b1bd e06e 8abd 59c8 b7bd
00000080: 6721 fabd 39fd 03be b09e a2bd 8ef2 d1bd
00000090: aba8 7d3e 8720 a53d 2796 e63d a615 7d3e
000000a0: c6b6 8e3e fc45 003d 2143 6f3e 3656 993e
000000b0: 7407 8d3e 13af 01be d075 b53d 6387 babe
000000c0: 14d2 7ebd 0278 a33a 08c4 933e 7745 8b3d
000000d0: 9378 ffbb 6187 55bb 9650 80be d8fe 0e3e
000000e0: 224b 1d3d 8368 4e3d 6436 833e 1cb7 e0bc
000000f0: f2ce 37bb 7e2c 98b9 86bf 4c3e feae 8ebd
00000100: 9c60 fc3a 4cda 83bd aa8b 5cbe d8e1 853d
00000110: 90eb 743e c9d2 643d 4097 443e 415c af3c
00000120: fea5 573e 0b9c 47be 7ac1 3abb b822 863e
00000130: 1346 663d 291e 723d a7f5 6d3e 522d a7be
00000140: f7d0 9ebe 9d44 d43d ee46 993e bda6 96bc
00000150: c3f0 bc3d 542a 483e f502 bd3c 1417 1f3c
00000160: dc72 9b3e 2831 693e a7e4 2a3e adde 143e
00000170: 36d9 90bd 8809 babd baa6 653d ceac 54bc
00000180: 8cae 2f3c 9e85 98bd 473a 63bc f7af fcbd
00000190: 2fca d13d 4610 863d 2962 8abd 2add 8e3c
000001a0: 56bb 953e 1ee5 96bd 5e8a 4a3d 6ef4 793e
000001b0: 6ebf 773e a5ff 78bd 4240 823e 98cf aabe
000001c0: 401f ccbd 0b60 5a3e b4d3 923e baa6 bf3d
000001d0: 8a5d a0bd e0c2 423e ff77 3cbc 30b0 403e
000001e0: cb82 fd3d 112d 483e ad0d bc3d 0fb6 91bd
000001f0: 02ac 7fbd 9c82 a0be 2b8f 643d 5ef1 2d3e
00000200: c2a2 68c0 db76 04c0 51f6 b7c0 6e01 dcbf
00000210: 228f bd3d 26d1 cdbf 15ac 68c0 980f 673e
00000220: b019 84bf 850a 71c0 be8a b33e 7c92 ce3e
00000230: f69b e33e 1304 05c0 a013 553e c6e8 c2bf
00000240: f974 71c0 f772 aebf 9e79 7b3e f31a 82bf
00000250: aef9 60c0 6587 c73e 42de 80c0 8bb9 043f
00000260: 628c 583e ffbe b33e 75fa 9b3e c290 3cbf
00000270: 3668 8d3e fd2f c6bf ae2e 1f3e bc97 a7bf
00000280: 6861 eb3c eaf2 3ebd 4f54 a53d 0be4 ea3d
00000290: cbae 853e 3349 1a3e dad6 c4bd 0119 d03c
000002a0: 6be0 8c3d 7344 0e3d 9b74 833e 2033 833e
000002b0: 2223 8a3d d947 c53c c599 8cba de8a 7fbd
000002c0: d9c9 63be 4de8 00bd 3821 8c3e 8790 893d
000002d0: 7218 e1bd 4c4e 7aba d687 5abe b9f2 803e
000002e0: 8e10 2ebd d123 8e3e cb6f 883e 46ac 6e3d
000002f0: 502b 823d c7f1 783c c0dd 4b3e 21ad 333e
00000300: 387a fcbd df38 cabe 11db 25be e2c1 143e
00000310: 8e5d 1d3c ba3b fc3d 2fae e6be df58 613c
00000320: f8c7 5e3d a2c1 8abe 8964 933d 1367 633b
00000330: d877 583e da33 213e 7927 b63d 4bcd 0cbe
00000340: 32e8 85be e312 e2bd cc25 0dbd 315d 23bf
00000350: 2579 64be ff9f 79bc c96c 6f3e 4d70 dc3d
00000360: 8469 47bd 1eb5 a63d cea5 dc3d f3a8 73bf
00000370: d347 533f 0248 813d e559 6e3e 81d0 043e
00000380: acde 71c0 b98e 01c0 55c5 83c0 2804 e93d
00000390: 5b0a 2d3f 4dd9 363e c3ff 11c0 110d 583e
000003a0: b56a 5d3e 11e5 3cc0 e22d f53e 7356 b03e
000003b0: 4423 a53e 9876 b3bc ef20 453e bfb4 f6bd
000003c0: 7a2f 1fc0 efdd 923e 8943 e63e de67 8ac0
000003d0: 7b81 36c0 0ed5 c33d 6227 d93f a4d1 98be
000003e0: c29f 813e 9dd2 9b3e bad8 993e 05f2 c5c0
000003f0: 432b c6bc 86b6 9cbd 887a cf3e 3802 df3e

model.2.bias f4 [32]
0.11408624 0.034233287 0.24726978 0.09570072 0.15739167 0.15739144 -0.031106707 0.21505517
0.11769629 -1.3701652 0.3452814 0.10174264 0.11878881 -0.32261398 0.28610626 -0.011517923
0.14094765 0.33395287 0.26053917 0.021239849 0.06562091 -0.025999583 0.12482593 0.13050619
0.0070724906 0.021511897 0.43835175 0.23205492 0.3981283 0.20337412 0.052762005 0.020953024
00000000: 0ca6 e93d 3438 0c3d 4a34 7d3e bdfe c33d
00000010: 482b 213e 392b 213e 7ed3 febc 6c37 5c3e
00000020: c10a f13d 9361 afbf b9c8 b03e 725e d03d
00000030: 8c47 f33d a92d a5be 857c 923e acb5 3cbc
00000040: 9554 103e dffb aa3e 6465 853e 31ff ad3c
00000050: 4164 863d 14fd d4bc bda4 ff3d 6aa3 053e
00000060: 5ac0 e73b b839 b03c a46f e03e ce9f 6d3e
00000070: 79d7 cb3e 4e41 503e f91c 583d ada5 ab3c

model.4.weight f4 [1, 32]
-0.20930889 0.24210685 0.28066713 0.22858894 -0.65700847 0.13942137 -0.5951029 -1.4951282
-0.4896209 3.4804697 -0.29613265 0.31291255 -1.236538 0.6902256 0.23834223 0.20329595
0.15005635 0.39242548 0.2778731 0.19630042 0.3206709 -0.4031664 -0.64354736 0.25575992
0.26101312 0.20074591 -0.61056226 0.17639615 0.5647274 -0.25226435 0.20542559 0.19913642
00000000: 1255 56be dcea 773e 9ab3 8f3e 3813 6a3e
00000010: b531 28bf 7ac4 0e3e aa58 18bf 5c60 bfbf
00000020: 97af fabe 04c0 5e40 b39e 97be 1336 a03e
00000030: e146 9ebf a0b2 303f fc0f 743e d02c 503e
00000040: 5fa8 193e feeb c83e 6245 8e3e fa02 493e
00000050: fa2e a43e d46b cebe 85bf 24bf f7f2 823e
00000060: 83a3 853e 5690 4d3e cf4d 1cbf 31a1 343e
00000070: fa91 103f cb28 81be 165b 523e 6bea 4b3e
