best_model_5_dim1.pt (torch, 26656 bytes, 13 tensors)

model.0.weight f4 [32, 1]
0.5111 0.51532567 -1.2231202 -1.224816 0.82757735 -0.22113997 1.2934202 1.3571501
0.51799864 1.504585 0.8090449 0.44796118 -0.49738783 -0.64185584 -0.90302145 -0.14798217
-1.3234155 1.1165608 -1.0721494 -1.1987125 0.12036366 -1.5952986 0.17259042 0.59625995
1.4245341 0.5482398 0.48775956 -0.39618778 -1.0984746 1.2368755 -0.79668564 0.61478704
00000000: 73d7 023f 62ec 033f 348f 9cbf c5c6 9cbf
00000010: 1cdc 533f 8472 62be cb8e a53f 18b7 ad3f
00000020: 8f9b 043f 3e96 c03f 911d 4f3f 2b5b e53e
00000030: 9ea9 febe aa50 24bf 6a2c 67bf a388 17be
00000040: ae65 a9bf 77eb 8e3f 313c 89bf 696f 99bf
00000050: 3981 f63d bf32 ccbf 8bbb 303e 7ea4 183f
00000060: 2257 b63f 7259 0c3f 9fbb f93e 20d9 cabe
00000070: d19a 8cbf f051 9e3f 97f3 4bbf af62 1d3f

model.0.bias f4 [32]
-0.6169978 0.7891586 0.47249004 -0.4235252 -0.43994755 0.20968741 1.1110058 -0.21195628
-0.6112302 1.0266492 -0.535287 0.73433733 -0.47377315 0.45552853 -0.17655224 0.951442
-0.4254085 -0.5038641 -0.27703163 -0.32429287 0.9926508 0.9674833 -0.529578 -0.036799837
-0.14894009 0.665809 1.0982103 0.70265234 -0.36746985 1.0326536 0.9436973 -0.3178632
00000000: 91f3 1dbf 4c06 4a3f 37ea f13e 4cd8 d8be
00000010: ce40 e1be 4cb8 563e 7035 8e3f 110b 59be
00000020: 9579 1cbf 3e69 833f 9208 09bf 88fd 3b3f
00000030: 6592 f2be 093b e93e 1cca 34be b491 733f
00000040: 25cf d9be 3dfd 00bf 17d7 8dbe b709 a6be
00000050: 5d1e 7e3f fcac 773f 6c92 07bf 6dbb 16bd
00000060: c083 18be 7572 2a3f 2892 8c3f 06e1 333f
00000070: 0225 bcbe fe2d 843f 2596 713f f7be a2be

model.2.weight f4 [32, 32]
-0.23307985 0.059846353 0.09702229 0.099960536 0.14510362 0.064530775 0.28701478 0.124529004
-0.14165229 0.29895353 -0.100223094 0.23732805 -0.26492795 0.0660377 0.3275383 0.09184774
0.0834262 0.31661233 0.1815481 0.368454 0.26154184 0.26556823 -0.29385036 0.2457952
0.25039065 0.008710318 0.26484907 0.28787977 0.327736 0.32658198 0.10102627 0.03950421
0.032799073 0.07703742 0.16031152 0.43257153 -0.21062942 0.31543392 -0.27420253 -0.029071795
-0.03752988 -0.399521 -0.1140976 -0.07192949 0.16396032 0.025660867 0.4050757 0.034611594
0.27335837 -0.2855995 0.44060975 0.279697 0.10908799 0.26634902 -0.10391174 -0.44884905
-0.25805178 0.0062269974 0.0597183 0.026440697 0.47598493 -0.48946205 0.086635746 -0.11387147
-0.2280746 0.14418136 -0.02254404 -0.2272606 -0.9792354 0.20006537 0.08074309 -0.19360712
-0.1419407 0.018416945 -0.9388119 0.17789622 -0.24069867 0.17407922 -0.20874362 0.037004262
-0.29466668 -0.10732879 -0.15045011 -0.057475593 0.16278929 0.14940184 -0.09823839 -0.09923073
-0.17884542 0.20335314 0.18477963 0.16292037 -0.15462947 0.052936837 -0.033622615 -0.7749049
-0.11142717 0.12122911 0.005707469 -0.33586243 -0.3944476 0.16865684 0.19559062 -0.24613845
-0.21087618 0.13539365 -1.0000519 0.009217676 -0.28297982 0.27105567 -0.23718952 0.0043376773
-0.18390407 -0.34084806 -0.23867187 -0.04990492 0.06748285 0.018215872 -0.15085536 -0.036042064
-0.21158348 0.072711736 0.2742078 0.31459478 -0.23547761 0.120562084 0.2882703 -0.7007804
-0.00091989513 -0.02114503 0.2270705 0.5052447 0.28791296 -0.14542784 0.0125718955 0.48281878
0.04284938 0.05377203 0.18423533 -0.049761806 0.2552428 0.12699617 0.5510305 0.03483717
0.56673247 0.45495167 0.38510087 0.27321056 0.03868843 -0.03822666 -0.09243611 0.36412936
0.38173097 -0.03881475 -0.017156439 -0.04902192 0.6080109 0.015549654 0.16367695 0.060679484
-0.23994888 0.23435315 0.21986958 -0.24495265 -0.42475772 0.08722733 0.080030195 -0.17316815
-0.29004335 0.08768728 -0.8573777 -0.0013974413 0.014662796 0.17814241 -0.016934087 0.2757508
-0.25845623 -0.13503432 -0.13839069 -0.11285514 0.027497077 0.116337925 -0.2717172 -0.2026458
-0.14867616 0.1711983 0.17219089 -0.020067388 -0.33402312 0.15504356 0.06876501 -0.58518076
0.16019493 0.030250156 -0.096201934 -0.08831241 -0.02274647 -0.087768294 0.14222628 -0.2593599
0.15667816 -0.19761473 -0.14390196 -0.1033922 0.09943338 -0.085763164 -0.114494696 -0.015956603
-0.4565989 0.0371127 -0.30905017 -0.12415602 -0.009714403 -0.22827366 -0.13314205 -0.14815338
-0.04130392 0.09951874 -0.07569155 -0.053353462 -0.14363337 -0.12060829 0.12882487 -0.015584815
0.32880223 0.21002243 0.063016154 0.32138598 0.6603444 -0.18537793 0.28832075 0.7610189
0.032714505 0.31458116 0.34346363 0.30645105 -0.015432408 -0.2488315 0.11734691 -0.12866703
-0.04792449 0.66588295 0.052534804 0.33411628 -0.13901371 -0.27576727 0.17946845 0.39219898
0.5183845 0.5378676 0.025968676 -0.2683708 0.15216821 0.2556845 -0.24558704 0.53995013
00000000: 7cac 6ebe 7321 753d 9fb3 c63d 1cb8 cc3d
00000010: 0b96 143e b628 843d 9af3 923e 1009 ff3d
00000020: 4c0d 11be 7010 993e c441 cdbd 2006 733e
00000030: a3a4 87be c63e 873d 1ab3 a73e ab1a bc3d
00000040: 5bdb aa3d 031b a23e bfe7 393e 01a6 bc3e
00000050: d0e8 853e 8ff8 873e 8e73 96be bdb1 7b3e
00000060: 3433 803e b9b5 0e3c 4c9a 873e fa64 933e
00000070: 03cd a73e c135 a73e dce6 ce3d 2bcf 213d
00000080: 5258 063d cbc5 9d3d b428 243e 047a dd3e
00000090: 3daf 57be 8e80 a13e 4664 8cbe f927 eebc
000000a0: eeb8 19bd 048e ccbe 01ac e9bd c54f 93bd
000000b0: 37e5 273e bd36 d23c 1566 cf3e e3c4 0d3d
000000c0: a1f5 8b3e 193a 92be 9a97 e13e 7234 8f3e
000000d0: 8669 df3d e65e 883e aecf d4bd 8bcf e5be
000000e0: 5d1f 84be d70b cc3b 2d9b 743d 299a d83c
000000f0: 4cb4 f33e c59a fabe 156e b13d 7235 e9bd
00000100: 638c 69be 47a4 133e 47ae b8bc 01b7 68be
00000110: 2caf 7abf f0dd 4c3e a25c a53d f240 46be
00000120: e758 11be 22df 963c fa55 70bf 6d2a 363e
00000130: b679 76be d341 323e e3c0 55be c891 173d
00000140: 8dde 96be 32cf dbbd 980f 1abe 876b 6bbd
00000150: 3cb2 263e ccfc 183e 3631 c9bd 7b39 cbbd
00000160: 4123 37be ce3b 503e df36 3d3e 99d4 263e
00000170: 3057 1ebe 4cd4 583d deb7 09bd 2b60 46bf
00000180: ee33 e4bd f846 f83d b805 bb3b 29f6 abbe
00000190: 09f5 c9be 61b4 2c3e e848 483e b80b 7cbe
000001a0: edef 57be a2a4 0a3e b301 80bf bc05 173c
000001b0: bbe2 90be cfc7 8a3e cfe1 72be 1323 8e3b
000001c0: 5951 3cbe a383 aebe 6666 74be 1a69 4cbd
000001d0: 7334 8a3d 7439 953c d479 1abe d8a0 13bd
000001e0: 57a9 58be e4e9 943d f764 8c3e 9112 a13e
000001f0: 0b21 71be 41e9 f63d 2a98 933e 5866 33bf
00000200: 1e25 71ba 5838 adbc 2b85 683e b757 013f
00000210: 5469 933e 09eb 14be 5afa 4d3c 0634 f73e
00000220: d582 2f3d 0f40 5c3d 30a8 3c3e 09d3 4bbd
00000230: 2faf 823e 490b 023e 5610 0d3f 6cb1 0e3d
00000240: 6115 113f 6def e83e f12b c53e 41e2 8b3e
00000250: c277 1e3d 8f93 1cbd 254f bdbd 2a6f ba3e
00000260: 3e72 c33e 37fc 1ebd a98b 8cbc 35cb 48bd
00000270: 9aa6 1b3f fac3 7e3c ee9a 273e 0d8b 783d
00000280: 29b5 75be 46fa 6f3e 7e25 613e ded4 7abe
00000290: d879 d9be 3ea4 b23d dfe6 a33d fe52 31be
000002a0: 9080 94be 6395 b33d 1b7d 5bbf 592a b7ba
000002b0: 393c 703c f76a 363e 5bb9 8abc 352f 8d3e
000002c0: 6054 84be 7046 0abe 4ab6 0dbe 9820 e7bd
000002d0: 8d41 e13c 9442 ee3d 841e 8bbe 6182 4fbe
000002e0: 903e 18be 9b4e 2f3e cf52 303e 5d64 a4bc
000002f0: 1405 abbe bdc3 1e3e abd4 8c3d 68ce 15bf
00000300: 240a 243e 2dcf f73c 8505 c5bd 23dd b4bd
00000310: ce56 babc ddbf b3bd c4a3 113e d2ca 84be
00000320: 3d70 203e 845b 4abe 095b 13be 4abf d3bd
00000330: baa3 cb3d 99a4 afbd 327c eabd 6cb7 82bc
00000340: 55c7 e9be 7d03 183d d33b 9ebe 8345 febd
00000350: 2929 1fbc 92c0 69be 6456 08be 85b5 17be
00000360: 4d2e 29bd 7bd0 cb3d 2c04 9bbd 2989 5abd
00000370: a014 13be 7b01 f7bd abea 033e 7457 7fbc
00000380: c458 a83e 1f10 573e 9d0e 813d b48c a43e
00000390: 550c 293f b6d3 3dbe c79e 933e 22d2 423f
000003a0: a5ff 053d c810 a13e 77da af3e 27e7 9c3e
000003b0: 36d8 7cbc afcd 7ebe 9453 f03d 4ac1 03be
000003c0: 784c 44bd 4e77 2a3f bc2e 573d 4a11 ab3e
000003d0: 9c59 0ebe 5e31 8dbe 94c6 373e 4ece c83e
000003e0: d9b4 043f b1b1 093f 43bc d43c e667 89be
000003f0: fcd1 1b3e 14e9 823e 2b7b 7bbe 2c3a 0a3f

model.2.bias f4 [32]
0.06895073 0.19254275 -0.002458219 0.1748044 0.14281815 -0.040210176 -0.08854526 -0.2579624
0.09038051 0.04780925 0.15959011 -0.055641137 0.120686375 -0.04528533 -0.08293488 0.24207488
-0.13584179 0.03520741 0.14007138 0.04695788 -0.12391723 0.07723303 -0.15194708 0.13488592
-0.14203829 0.1135357 0.06718918 -0.11894078 0.2740557 0.049586035 -0.0849251 0.31573427
00000000: 0a36 8d3d ed29 453e 121a 21bb edff 323e
00000010: ec3e 123e 6db3 24bd 3857 b5bd a613 84be
00000020: 6b19 b93d a2d3 433d 976b 233e f6e7 63bd
00000030: 6b2a f73d 1c7d 39bd c3d9 a9bd 7ae2 773e
00000040: 1c1a 0bbe a535 103d df6e 0f3e e856 403d
00000050: 51c8 fdbd 5a2c 9e3d 0498 1bbe 891f 0a3e
00000060: 7c72 11be 6885 e83d 7b9a 893d 3997 f3bd
00000070: 0751 8c3e ba1a 4b3d 36ed adbd eca7 a13e

model.4.weight f4 [32, 32]
-0.072542235 0.1375085 0.07370457 -0.048589237 -0.015139969 -0.120022 0.12005539 0.15445617
-0.037529793 -0.015808549 -0.11746298 0.07158985 0.076477036 -0.08131891 0.17425744 -0.0052293483
0.2268929 0.24980374 0.27093592 0.04118278 0.35148677 -0.18247625 0.11054945 0.10195687
0.16414315 0.0043144585 0.19918723 0.13605507 -0.024631537 0.21878906 -0.024317408 -0.19420837
0.2785806 0.5233724 -0.49646005 -0.39996737 0.58250433 -0.4394789 0.0875102 0.52277297
-0.16471606 0.7904737 -0.06586601 0.7176902 0.26633605 0.346302 0.57342046 -0.7877825
0.51068336 0.5047504 0.49612725 0.496976 0.8379845 -0.8974929 0.07884689 0.17742969
0.03274068 0.24242234 0.45825198 0.6872239 -0.16528983 0.55569553 0.7171467 -0.1275304
0.25130185 -0.44118902 0.20597804 0.49420926 -0.23204066 0.2498658 -0.12452646 -0.28480947
0.18657617 -0.2671753 0.35984242 -0.09316828 0.24688825 -0.12375338 -0.25676575 0.44198945
-0.27952904 -0.22284384 -0.31753156 -1.1991831 -0.875372 0.38893446 -0.23428196 0.3188448
-0.24948072 0.26835215 -0.47916198 -0.19599915 0.2827539 -0.52003896 -0.25162107 0.17972608
0.26545244 0.5081543 -0.20247333 -0.2303544 0.38856912 -0.0051318794 -0.29071578 0.51294756
-0.028282197 0.66619945 -0.095755376 0.5856542 0.50198674 0.6071407 0.7811282 -0.77664113
0.59878844 0.5538097 0.6391541 0.74271613 0.49233913 -0.40236664 -0.031392604 0.28539804
-0.07457247 0.35323066 0.5203176 0.66133666 0.055130888 0.72291505 0.68630356 0.19509467
-0.08600183 -0.12926722 0.27136263 0.19607039 -0.08268348 0.18240067 -0.16922219 -0.2030065
0.048813935 -0.294801 0.16585925 -0.203921 0.0259504 -0.21217512 -0.3207246 0.56244123
-0.19426431 -0.12477386 -0.087065 -0.359889 -0.5999419 0.18588348 -0.10610559 0.05301833
-0.036871623 0.13533248 -0.04706294 -0.007739586 0.3030241 -0.31466907 -0.22324605 0.07722481
0.06690265 0.1450708 0.13360527 -0.026300687 0.099875145 -0.14363682 0.015547151 0.21895157
-0.1312658 0.41606486 -0.1853291 0.12843092 -0.08986078 0.04335329 0.12135299 0.0016082502
-0.036108445 0.17102595 0.13802764 0.004084494 0.24027127 -0.1510901 -0.066726856 -0.09715898
-0.19768152 -0.12777677 0.06393381 0.021465324 -0.12132099 0.09623891 0.1030207 -0.046761997
-0.0810504 0.32919383 -0.14875197 -0.5255098 0.38142285 -0.3166064 -0.021123203 0.5006048
-0.23383643 0.63426083 -0.37431836 0.47771204 0.08578486 0.3934203 0.4087622 -0.4518563
0.20594959 0.49735504 0.25470734 0.39203396 0.17499962 -0.20338474 0.18536988 0.018355452
0.16883749 -0.032038502 0.30521142 0.122570686 -0.438553 0.20944561 0.6500316 -0.46990448
0.10302822 -0.3886938 0.3364507 0.2996233 -0.4716113 0.34568053 -0.16169843 -0.47293332
0.2770841 -0.26549244 0.43458578 -0.5405828 -0.046325836 -0.39007014 -0.35670707 0.38842115
-0.12565453 -0.28529018 -0.3403837 -0.7733717 -0.79240906 0.5559645 -0.07013279 0.19701935
-0.31583452 0.14759001 -0.66904366 -0.3180803 0.41319188 -0.37724796 -0.35443962 0.29788914
00000000: 0691 94bd 07cf 0c3e 6cf2 963d 8205 47bd
00000010: a20d 78bc 18ce f5bd 9adf f53d c229 1e3e
00000020: d7b8 19bd ee80 81bc 6e90 f0bd b39d 923d
00000030: fe9f 9c3d 878a a6bd 8b70 323e f45a abbb
00000040: 9d56 683e 8dcc 7f3e 1db8 8a3e 46af 283d
00000050: 13f6 b33e 0edb 3abe c067 e23d c3ce d03d
00000060: 2415 283e 4d60 8d3b bdf7 4b3e 0552 0b3e
00000070: 14c8 c9bc 3d0a 603e 4d35 c7bc 8fde 46be
00000080: 1ea2 8e3e bcfb 053f 0330 febe 86c8 ccbe
00000090: 011f 153f 6103 e1be 8c38 b33d 73d4 053f
000000a0: 54ab 28be 7c5c 4a3f c2e4 86bd 8cba 373f
000000b0: 335d 883e 7f4e b13e afcb 123f 1dac 49bf
000000c0: 25bc 023f 5237 013f 6404 fe3e a373 fe3e
000000d0: 2786 563f 18c2 65bf 7a7a a13d 21b0 353e
000000e0: 171b 063d 903d 783e 01a0 ea3e e8ed 2f3f
000000f0: bd41 29be 1042 0e3f ed96 373f 5497 02be
00000100: a3aa 803e 87e3 e1be e8eb 523e ff08 fd3e
00000110: 119c 6dbe d2dc 7f3e bb07 ffbd 8cd2 91be
00000120: d30d 3f3e 33cb 88be 443d b83e 03cf bebd
00000130: 46d0 7c3e 6972 fdbd cd76 83be 714c e23e
00000140: 6e1e 8fbe 2d31 64be 7f93 a2be d57e 99bf
00000150: 6118 60bf 6b22 c73e 9ce7 6fbe a03f a33e
00000160: e077 7fbe 7465 893e b854 f5be 00b4 48be
00000170: 1fc5 903e 4621 05bf 7ad4 80be 1d0a 383e
00000180: 62e9 873e 6616 023f 2b55 4fbe 06e2 6bbe
00000190: 88f2 c63e 5329 a8bb b3d8 94be 8850 033f
000001a0: 11b0 e7bc 0c8c 2a3f 651b c4bd 6fed 153f
000001b0: 3482 003f 936d 1b3f 05f8 473f f4d1 46bf
000001c0: 334a 193f 79c6 0d3f 9a9f 233f a522 3e3f
000001d0: e013 fc3e 0003 cebe 8895 00bd b11f 923e
000001e0: 73b9 98bd a6da b43e 8933 053f 5c4d 293f
000001f0: edd0 613d f610 393f 97b1 2f3f e6c6 473e
00000200: ba21 b0bd a05e 04be 0bf0 8a3e adc6 483e
00000210: f555 a9bd 3ec7 3a3e 9548 2dbe f0e0 4fbe
00000220: 1ff1 473d 28f0 96be 02d7 293e abd0 50be
00000230: ef95 d43c 6f44 59be 0436 a4be 26fc 0f3f
00000240: 39ed 46be 7089 ffbd 224f b2bd 5f43 b8be
00000250: cb95 19bf 3d58 3e3e e34d d9bd c029 593d
00000260: b306 17bd 9994 0a3e 12c5 40bd 5a9c fdbb
00000270: fa25 9b3e 4e1c a1be 9d9a 64be 0b28 9e3d
00000280: 4204 893d 718d 143e d2cf 083e 8a74 d7bc
00000290: 578b cc3d 8815 13be 7ab9 7e3c d734 603e
000002a0: 8b6a 06be 7406 d53e e9c6 3dbe 6583 033e
000002b0: ee08 b8bd 3893 313d eb87 f83d eccb d23a
000002c0: 73e6 13bd 6d21 2f3e 1e57 0d3e 38d7 853b
000002d0: ac09 763e 5db7 1abe 17a8 88bd 4afb c6bd
000002e0: 066d 4abe ead7 02be bbef 823d 0cd8 af3c
000002f0: 2477 f8bd e818 c53d 84fc d23d 8289 3fbd
00000300: c1fd a5bd 188c a83e 7052 18be cf87 06bf
00000310: db49 c33e 3c1a a2be 910a adbc a327 003f
00000320: d172 6fbe eb5e 223f a8a6 bfbe ac96 f43e
00000330: f9af af3d 636e c93e 4749 d13e b559 e7be
00000340: 73e4 523e 52a5 fe3e 0069 823e adb8 c83e
00000350: 1a33 333e 1744 50be 9ad1 3d3e 2c5e 963c
00000360: bce3 2c3e ce3a 03bd ac44 9c3e 5706 fb3d
00000370: 058a e0be e978 563e 7968 263f 5297 f0be
00000380: 7600 d33d e002 c7be 4443 ac3e 3a68 993e
00000390: 0977 f1be 0afd b03e 4694 25be 5124 f2be
000003a0: f8dd 8d3e a0ee 87be 0782 de3e a263 0abf
000003b0: 29c0 3dbd 46b7 c7be 4fa2 b6be 23df c63e
000003c0: 95ab 00be 8e11 92be c646 aebe b0fb 45bf
000003d0: 52db 4abf b153 0e3f c8a1 8fbd 71bf 493e
000003e0: 10b5 a1be d621 173e 7246 2bbf 6cdb a2be
000003f0: e38d d33e a526 c1be 1c79 b5be ed84 983e

model.4.bias f4 [32]
0.15470989 0.13274407 0.059721865 0.23405392 0.09579069 -0.10093466 -0.010928524 0.054959994
0.0999984 0.057540532 0.12404346 -0.022972707 0.19615877 0.077655315 0.038578212 0.17742509
0.14450872 0.1386999 0.081046894 6.702846e-05 0.13467878 0.06886588 0.057039306 0.24141417
0.22382495 0.048067916 0.13594502 0.12230439 -0.013761755 -0.018144079 0.1814145 -0.16794716
00000000: 456c 1e3e 10ee 073e ea9e 743d d5ab 6f3e
00000010: e92d c43d d5b6 cebd 8d0d 33bc bb1d 613d
00000020: f6cb cc3d 9faf 6b3d 7f0a fe3d 4231 bcbc
00000030: d8dd 483e c009 9f3d 3004 1e3d ecae 353e
00000040: 18fa 133e 5907 0e3e eafb a53d a191 8c38
00000050: 3ce9 093e 8e09 8d3d 0ca2 693d 4735 773e
00000060: 5e32 653e dde2 443d 2c35 0b3e b97a fa3d
00000070: fc78 61bc e4a2 94bc b9c4 393e 57fa 2bbe

model.6.weight f4 [32, 32]
-0.0036202613 0.26311508 -0.33951214 0.15974534 0.22301652 0.09182153 0.36991745 0.23190705
-0.17261541 -0.1512593 0.25976562 -0.37817374 0.03905754 -0.50737274 -0.08289473 -0.06302814
-0.21552733 0.1602578 0.028400427 -0.037607968 0.10174939 -0.039525222 0.09259745 -9.133176e-05
0.10200374 0.03198296 -0.099618286 0.112612374 0.14627255 -0.34522694 0.049781468 0.4977992
-0.03892065 0.24022329 -0.10928641 0.026087092 0.024728326 0.19569728 0.42250568 0.10361105
-0.15188284 -0.17212674 0.26940027 -0.15679039 -0.112718225 -0.20728865 -0.08510507 -0.20312712
-0.16417933 0.084471755 -0.07437442 -0.15404908 0.087821454 -0.049888283 -0.12843019 -0.15007135
0.03021185 0.1556691 -0.059082817 0.049261935 0.21027353 -0.1255377 0.11759154 0.5079007
-0.18409438 0.2161299 0.012002128 -0.03362347 -0.45961484 0.094505474 -0.14185277 -0.31786117
0.22931679 0.07049664 0.15612085 0.17477559 0.23978572 -0.00027495687 -0.21118312 0.019928638
-0.08747074 0.26417935 -0.18227103 0.065638766 -0.056647904 0.23628154 -0.122489564 -0.0654925
-0.045816254 -0.0126900915 -1.2908903 -0.052988056 -0.14470725 0.1632014 0.0786781 -0.13857466
0.07402447 0.0059009707 -0.226739 0.16144179 -0.25911966 0.26738355 0.31227544 -0.84665847
0.047842603 -0.056699313 0.3185378 -0.23879912 0.10799014 -0.19963725 -0.15577137 -0.14271271
0.04905688 0.2544677 -0.15154716 -0.21755002 -0.04001565 -0.06315721 -0.23585513 0.01865574
0.20344651 -0.09080208 -1.2080576 0.1427061 -0.04715789 -0.07382028 -0.029432375 0.5079206
-0.23062912 0.2919202 -0.10282996 0.12218911 -0.4262926 -0.021964513 0.3320438 -0.67339355
0.09417856 -0.083750404 0.26672384 -0.029869938 0.13304509 0.043205574 -0.47388852 0.028909372
0.09421024 0.10200951 0.023484303 -0.1818197 -0.08202923 0.23533186 -0.012308612 0.049557857
0.21670043 -0.4008965 -0.88493276 -0.030528758 -0.061216097 0.05431754 0.22909042 0.3537358
0.057450462 0.16100262 0.21869321 -0.07880919 -0.24595094 -0.37437436 -0.43077767 -0.28008512
0.034464266 -0.034199998 -0.17791203 0.006971354 0.13930929 0.085621126 -0.28146166 0.18945743
0.10326056 0.083240114 -0.29842654 0.046329122 0.057718135 0.063779235 -0.12935689 -0.01624095
0.15535873 -0.277483 0.24951448 0.20071588 -0.25090814 0.14789234 -0.10416103 -0.4286011
0.020734878 -0.08790133 -0.062121343 -0.019504055 -0.38444042 -0.0694941 0.04211193 -0.28508174
0.04824374 0.0948064 0.006887073 -0.00210529 0.12558274 0.11099077 -0.38154888 0.1751055
-0.06945391 -0.00042066615 -0.261488 -0.05199766 0.15080835 0.17422968 -0.08184592 0.07690489
0.05093401 -0.30337983 -0.16148593 0.07190029 0.0017659887 0.18517473 -0.080889344 -0.080296665
-0.32023263 0.28870955 -0.588806 0.17322685 -0.5250971 -0.14324322 -0.3976466 -1.150652
0.17803837 -0.12476267 0.073176496 -0.12940641 0.12216085 -0.11639428 -0.30854672 0.12009912
0.07992549 0.4206854 -0.27447197 0.05901004 0.16624314 0.19688722 -0.4311825 0.295952
0.05119112 -0.48379725 -0.90720993 0.18131673 -0.35485467 -0.16663368 0.06546278 -0.37807384
00000000: e841 6dbb 05b7 863e 89d4 adbe 4894 233e
00000010: 715e 643e ed0c bc3d d265 bd3e 0b79 6d3e
00000020: 18c2 30be b8e3 1abe 0000 853e fd9f c1be
00000030: cdfa 1f3d 2ee3 01bf b6c4 a9bd e614 81bd
00000040: 32b3 5cbe 9f1a 243e 03a8 e83c d00a 1abd
00000050: fc61 d03d 33e5 21bd bba3 bd3d 5e89 bfb8
00000060: 56e7 d03d 9000 033d ac04 ccbd 51a1 e63d
00000070: 79c8 153e 96c1 b0be a7e7 4b3d 89df fe3e
00000080: 426b 1fbd 18fd 753e 8ed1 dfbd 99b4 d53c
00000090: 0f93 ca3c de64 483e aa52 d83e 0832 d43d
000000a0: 2d87 1bbe fe41 30be d5ee 893e a98d 20be
000000b0: d0d8 e6bd 7a43 54be 914b aebd 8e00 50be
000000c0: a01e 28be 87ff ac3d 9e51 98bd 0bbf 1dbe
000000d0: bcdb b33d a857 4cbd 3483 03be 4eac 19be
000000e0: d77e f73c b867 1f3e d300 72bd e2c6 493d
000000f0: f251 573e f48c 00be d5d3 f03d c805 023f
00000100: 3d83 3cbe 2851 5d3e 93a4 443c c4b8 09bd
00000110: a352 ebbe 168c c13d da41 11be b3be a2be
00000120: 05d2 6a3e 8b60 903d 25de 1f3e 5ff8 323e
00000130: 638a 753e 1628 90b9 6340 58be 6241 a33c
00000140: dc23 b3bd 8442 873e 42a5 3abe 9e6d 863d
00000150: a207 68bd caf3 713e cfdb fabd ef20 86bd
00000160: d3a9 3bbd 1aea 4fbc e53b a5bf 010a 59bd
00000170: 232e 14be 451e 273e fc21 a13d 84e6 0dbe
00000180: 249a 973d ee5c c13b 452e 68be ff50 253e
00000190: 55ab 84be 7fe6 883e 91e2 9f3e 9cbe 58bf
000001a0: 9bf6 433d 8a3d 68bd 6317 a33e c287 74be
000001b0: ef29 dd3d b56d 4cbe 8882 1fbe 4823 12be
000001c0: deef 483d 9749 823e 2e2f 1bbe 6fc5 5ebe
000001d0: 73e7 23bd 9158 81bd 0284 71be ecd3 983c
000001e0: 4854 503e 71f6 b9bd a2a1 9abf 8c21 123e
000001f0: a228 41bd 162f 97bd 2a1c f1bc 1607 023f
00000200: 0a2a 6cbe 9176 953e 8498 d2bd 493e fa3d
00000210: 0643 dabe ecee b3bc a501 aa3e 8563 2cbf
00000220: b0e0 c03d 5585 abbd 0790 883e cdb1 f4bc
00000230: f93c 083e 54f8 303d 84a1 f2be 59d3 ec3c
00000240: 4cf1 c03d 5dea d03d 2762 c03c f22e 3abe
00000250: f1fe a7bd d6fa 703e 0faa 49bc 2efd 4a3d
00000260: b8e6 5d3e 4e42 cdbe f48a 62bf 7217 fabc
00000270: bbbd 7abd 127c 5e3d ae96 6a3e dc1c b53e
00000280: 2d51 6b3d dfdd 243e 1df1 5f3e b666 a1bd
00000290: 90da 7bbe ffad bfbe e48e dcbe 5167 8fbe
000002a0: 672a 0d3d 4c15 0cbd 922e 36be f56f e43b
000002b0: 18a7 0e3e 215a af3d be1b 90be 2101 423e
000002c0: 467a d33d cb79 aa3d 5dcb 98be 9bc3 3d3d
000002d0: da69 6c3d b09e 823d 2276 04be be0b 85bc
000002e0: 5c16 1f3e 4012 8ebe b980 7f3e 7788 4d3e
000002f0: 0877 80be 1771 173e 6152 d5bd 9a71 dbbe
00000300: 31dc a93c 9d05 b4bd f372 7ebd f8c6 9fbc
00000310: 60d5 c4be ec52 8ebd 8f7d 2c3d 3cf6 91be
00000320: 3a9b 453d dc29 c23d f5ac e13b e8f8 09bb
00000330: c398 003e 214f e33d 605a c3be db4e 333e
00000340: da3d 8ebd db8c dcb9 c1e1 85be 80fb 54bd
00000350: 816d 1a3e 4469 323e d59e a7bd 5080 9d3d
00000360: 2ea0 503d 9a54 9bbe 915c 25be 7640 933d
00000370: bf78 e73a 729e 3d3e 50a9 a5bd 9472 a4bd
00000380: 88f5 a3be bdd1 933e fdbb 16bf 6162 313e
00000390: c36c 06bf 5aae 12be 5698 cbbe 9148 93bf
000003a0: b14f 363e 9283 ffbd 8fdd 953d 1d83 04be
000003b0: 782f fa3d 2060 eebd d6f9 9dbe 87f6 f53d
000003c0: faaf a33d 1464 d73e 9787 8cbe 83b4 713d
000003d0: a43b 2a3e ce9c 493e f4c3 dcbe 0587 973e
000003e0: c8ad 513d 46b4 f7be e93e 68bf 18ab 393e
000003f0: 83af b5be 05a2 2abe 5a11 863d e592 c1be

model.6.bias f4 [32]
-0.16118743 -0.07344652 -0.082481235 0.06357474 0.04039388 -0.07551709 -0.048504144 0.08853602
0.08594253 0.24437405 0.16228898 0.24742293 0.09322662 0.15487349 0.12826712 -0.15390684
-0.0034750907 0.17024377 0.0048791803 0.051668216 0.23052321 -0.07268349 -0.08124593 0.14170352
0.26092947 0.14953396 0.15445672 0.057003886 -0.14965104 0.26970112 -0.026342126 -0.107513666
00000000: 510e 25be 216b 96bd eceb a8bd 7933 823d
00000010: 0e74 253d b4a8 9abd 48ac 46bd 5f52 b53d
00000020: a302 b03d 313d 7a3e 152f 263e 705c 7d3e
00000030: 99ed be3d 2897 1e3e 7558 033e c199 1dbe
00000040: 59be 63bb 6254 2e3e 88e1 9f3b 0da2 533d
00000050: 470e 6c3e 15db 94bd 4464 a6bd ba1a 113e
00000060: 8c98 853e 6e1f 193e e729 1e3e e87c 693d
00000070: 1f3e 19be 4416 8a3e 71cb d7bc 2030 dcbd

model.8.weight f4 [32, 32]
-0.2623937 -0.35169104 0.22795369 -0.25078404 -0.1277989 0.045070928 0.17821272 0.6341449
0.04016227 -0.057960823 -0.19273192 0.10063812 -0.30969352 -0.017953727 0.24851714 0.2501264
0.44704452 0.26890874 0.2768505 0.12019557 -0.06520503 -0.17719634 0.041224595 -0.15507022
0.09265989 0.20377174 0.32321045 0.037751827 -0.04144256 -0.000705123 -0.19765085 -0.29376522
0.22367859 0.25497946 -0.11677885 -0.060313057 0.14016548 0.026789296 -0.20959994 -0.07190519
0.12900357 -0.19862786 0.22307695 -0.106409214 0.25572267 -0.03629387 -0.022066765 0.07410639
-0.1739077 -0.1374558 -0.25848585 0.0036060268 -0.12082969 0.07363944 -0.112480134 0.039228983
-0.17402337 -0.036908105 -0.059219126 -0.060292862 -0.009595811 -0.30037922 0.10996416 0.22735302
0.09744791 0.0112207765 -0.11041044 0.097883016 -0.051445834 -0.13412593 -0.227297 0.04585287
0.09840416 -0.23315771 -0.0414727 0.0724554 -0.106510885 0.078890644 -0.1909069 0.09024315
-0.08255737 -0.546147 0.010409474 0.017700145 -0.08935735 -0.089043334 -0.11032679 -0.10232658
-0.30401757 -0.39274004 0.12269261 -0.26757142 0.20092306 -0.3831121 0.11665828 0.055046722
-0.10733336 -0.09056382 0.09429306 -0.03358497 -0.2438044 -0.008093766 0.014894804 0.4148716
-0.6944234 0.1985642 -0.18999597 -0.16142632 -0.23632239 -0.08749829 -0.26285315 0.13251397
0.22265293 -0.043668073 0.0009149589 0.30185014 -0.22708811 -0.15101495 0.2516866 0.07380531
0.20422007 0.0916464 -0.010724368 0.37543732 -0.2561851 0.11124573 -0.22031496 -0.06181678
-0.022789678 0.08248969 -0.019235583 0.09979478 0.17789644 -0.39702725 0.19942695 0.16618285
-0.029757343 -0.217441 0.058593683 0.22175212 -0.07459387 -0.05800962 -0.2651004 -0.11688111
0.16992386 -0.07145916 0.18583234 -0.16864088 -0.478456 -0.20606126 -0.06433123 0.18343176
-0.2659998 -0.76313865 -0.05951535 -0.23000944 0.12763487 -0.15802273 0.059486937 -0.17487402
-0.26869485 -0.30281943 0.26220462 -0.12510762 -0.19467299 0.41080475 0.10463299 0.23997408
0.003931884 0.1518194 0.06953765 0.1577939 -0.16479793 0.007778144 -0.01471683 -0.13160752
0.1125495 0.2870939 0.23977461 -0.0076316497 -0.07496233 -0.19715413 0.2617794 0.07637468
0.15742284 0.2998447 -0.10379438 0.13184735 -0.19087666 0.23993169 0.08466854 -0.4039367
0.08670853 0.06504854 -0.112898834 0.18635318 -0.0066890987 -0.035917148 0.03864978 -0.21350463
0.2624098 -0.43181404 -0.0013176061 -0.15343437 0.082117006 0.032491628 0.16797344 0.0051582083
0.1306506 -0.81942487 -0.146356 -0.113254175 0.24123539 0.29091793 -0.22716062 -0.124066025
-0.11439586 0.1091153 -0.13303243 -0.27444002 0.2711592 -0.36066246 0.21067515 0.12154376
0.062651806 0.20863858 -0.15097979 0.13703951 0.21788223 0.081684686 -0.26538715 -0.2567153
-0.043999813 -0.08936584 -0.011271178 -0.17602076 0.20801419 -0.010839667 0.22279143 -0.046898853
-0.20047359 -0.09061928 -0.13661215 -0.73969257 0.23435968 0.16420433 -0.10206845 0.033976905
-0.1010979 0.92148995 -0.0730497 -1.1362312 0.28090188 0.08556287 0.18663327 0.3138521
00000000: 7858 86be d910 b4be b16c 693e c466 80be
00000010: b7dd 02be 4b9c 383d 657d 363e 5257 223f
00000020: 3181 243d 5468 6dbd 845b 45be 5c1b ce3d
00000030: 2690 9ebe b213 93bc 477b 7e3e 9110 803e
00000040: 05e3 e43e 68ae 893e 59bf 8d3e 1829 f63d
00000050: 378a 85bd f572 35be 1fdb 283d baca 1ebe
00000060: 78c4 bd3d 8aa9 503e d77b a53e a9a1 1a3d
00000070: acbf 29bd 01d8 38ba fc64 4abe 6568 96be
00000080: 000c 653e ab8c 823e c029 efbd d30a 77bd
00000090: 8a87 0f3e 3a75 db3c 5ea1 56be 0743 93bd
000000a0: 8319 043e 1a65 4bbe 496e 643e 13ed d9bd
000000b0: 15ee 823e e2a8 14bd 5cc5 b4bc 17c5 973d
000000c0: dc14 32be 37c1 0cbe 4258 84be 1753 6c3b
000000d0: 8e75 f7bd 46d0 963d fc5b e6bd 92ae 203d
000000e0: 2f33 32be f42c 17bd c18f 72bd a6f5 76bd
000000f0: c037 1dbc 4ecb 99be e434 e13d 3bcf 683e
00000100: c592 c73d 59d7 373c de1e e2bd e476 c83d
00000110: deb8 52bd 4f58 09be 8bc0 68be 38d0 3b3d
00000120: 1f88 c93d e5c0 6ebe 47df 29bd 7f63 943d
00000130: 6122 dabd 6b91 a13d 197d 43be 67d1 b83d
00000140: d713 a9bd 4ad0 0bbf 808c 2a3c e5ff 903c
00000150: fc00 b7bd 5a5c b6bd 03f3 e1bd 9990 d1bd
00000160: 31a8 9bbe 3915 c9be 4346 fb3d 1fff 88be
00000170: c6be 4d3e 4527 c4be 89ea ee3d ac78 613d
00000180: 98d1 dbbd 8679 b9bd b81c c13d 6590 09bd
00000190: dca7 79be b79b 04bc 5609 743c 0d6a d43e
000001a0: bbc5 31bf 6a54 4b3e 4e8e 42be f14c 25be
000001b0: 7ffe 71be 4e32 b3bd b094 86be beb1 073e
000001c0: 21ff 633e 4bdd 32bd dad9 6f3a 1a8c 9a3e
000001d0: c989 68be aaa3 1abe 11dd 803e 3d27 973d
000001e0: 111f 513e 1cb1 bb3d 42b5 2fbc 5239 c03e
000001f0: b22a 83be cdd4 e33d 3f9a 61be 9833 7dbd
00000200: 6bb1 babc 5bf0 a83d f193 9dbc 3561 cc3d
00000210: 7c2a 363e 2847 cbbe 9436 4c3e d62b 2a3e
00000220: acc5 f3bc daa8 5ebe eeff 6f3d fd12 633e
00000230: acc4 98bd 7f9b 6dbd 3dbb 87be 5d5f efbd
00000240: 8500 2e3e 2e59 92bd d54a 3e3e 32b0 2cbe
00000250: 2ff8 f4be b901 53be 18c0 83bd 89d5 3b3e
00000260: 2031 88be 0e5d 43bf 5ec6 73bd 9887 6bbe
00000270: b7b2 023e b6d0 21be 93a8 733d 2d12 33be
00000280: 5f92 89be 260b 9bbe af3f 863e 361c 00be
00000290: 5b58 47be 0055 d23e d249 d63d c4bb 753e
000002a0: 09d7 803b 8b76 1b3e c169 8e3d b994 213e
000002b0: cac0 28be cddf fe3b dc1e 71bc 1fc4 06be
000002c0: 5a80 e63d f9fd 923e 7a87 753e eb12 fabb
000002d0: da85 99bd c6e2 49be f307 863e 546a 9c3d
000002e0: 7433 213e 3f85 993e 2692 d4bd fe02 073e
000002f0: 2c75 43be a7b0 753e b366 ad3d cbd0 cebe
00000300: 3e94 b13d 2b38 853d 8137 e7bd 5ed3 3e3e
00000310: 3a30 dbbb dc1d 13bd 3b4f 1e3d f5a0 5abe
00000320: 945a 863e bb16 ddbe 86b3 acba e61d 1dbe
00000330: f62c a83d f115 053d 3b01 2c3e 3006 a93b
00000340: 45c9 053e d4c5 51bf 59de 15be cef1 e7bd
00000350: 6906 773e 32f3 943e cb9c 68be 5416 febd
00000360: 6048 eabd d877 df3d a739 08be 6783 8cbe
00000370: 61d5 8a3e c0a8 b8be 3abb 573e efeb f83d
00000380: 974f 803d 5aa5 553e 729a 1abe 1654 0c3e
00000390: 851c 5f3e 4d4a a73d d3e0 87be 3070 83be
000003a0: 2639 34bd 7005 b7bd bfaa 38bc c93e 34be
000003b0: ac01 553e dc98 31bc 7023 643e 0319 40bd
000003c0: f348 4dbe 9a96 b9bd 0ee4 0bbe 7e5c 3dbf
000003d0: fcfb 6f3e 2e25 283e 4309 d1bd 5e2b 0b3d
000003e0: 6a0c cfbd c4e6 6b3f 159b 95bd 0670 91bf
000003f0: 5fd2 8f3e 963b af3d cb1c 3f3e 39b1 a03e

model.8.bias f4 [32]
0.04332354 -0.043588534 -0.080811426 0.086378545 0.019463709 0.083063655 0.0911792 0.17087957
0.06283611 -0.094627164 0.010317706 -0.009919666 -0.05457164 0.26382822 0.14902127 -0.17099799
-0.13128188 -0.1229136 -0.14332215 0.0619022 0.08800041 -0.14898376 -0.2022882 -0.033042073
-0.11265001 0.095345944 -0.023034247 -0.030257506 0.12264907 -0.116874546 0.1333439 -0.12488332
00000000: 0674 313d e489 32bd 7680 a5bd 3ce7 b03d
00000010: 5b72 9f3c 471d aa3d 29bc ba3d 0efb 2e3e
00000020: 38b0 803d e3cb c1bd 980b 293c 1886 22bc
00000030: 8386 5fbd 7e14 873e 0899 183e 191a 2fbe
00000040: c26e 06be 20ba fbbd 0bc3 12be 298d 7d3d
00000050: 8f39 b43d 338f 18be a324 4fbe 2057 07bd
00000060: 0cb5 e6bd bc44 c33d 51b2 bcbc 97de f7bc
00000070: 702f fb3d ec5b efbd 4e8b 083e d3c2 ffbd

model.10.weight f4 [32, 32]
-0.063758984 0.15898795 -0.20661567 0.14632404 0.024009494 0.06788464 0.13198712 0.15593624
-0.004478294 0.17466745 -0.095852055 0.024964357 0.029360758 -0.01954454 0.12023849 0.07268483
0.031538725 0.17501889 0.058939766 0.032372966 0.31084248 -0.18175039 -0.06211346 -0.075360455
-0.087248325 -0.12557322 -0.23154181 -0.038933475 0.19391586 0.10133372 0.111875035 -0.017543018
0.25821027 0.19372414 -0.09126249 0.01879976 -0.06098372 0.05215615 0.4424451 0.55617326
-0.29574713 0.39880294 -0.23681606 0.19328985 0.047469053 -0.27570453 0.109353654 0.14639823
0.13543367 -0.09111567 0.004310363 0.4868704 0.0034902429 0.018095369 -0.022800365 0.032004867
-0.26031962 -0.5946931 -0.106331274 0.28399286 0.17918867 -0.05009441 -0.11818238 0.08821382
0.15197524 0.18539637 0.032343812 0.19011895 -0.18813425 -0.12661141 0.0939256 0.28453898
-0.010741796 -0.043968923 0.07223391 0.1624147 0.1613763 -0.09418198 0.17740385 0.20829184
0.27331254 0.24462506 0.26901862 0.35251412 0.14309601 -0.16560382 0.14625515 0.1470791
0.09716952 0.11563793 -0.25674284 0.29876807 0.26176602 -0.17536677 0.08021039 -0.14082108
-0.12765534 -0.04593979 0.32715663 -0.12553453 0.15945485 -0.25437436 0.18120894 -0.12536557
-0.015746169 0.09409437 0.15999174 -0.32365167 0.0013436057 0.06046101 0.080162525 0.21820684
-0.25466114 0.016941493 0.06726809 0.028045429 -0.014099132 -0.018813813 0.022777114 0.019903786
-0.12288842 -0.070123404 -0.042774156 0.16469355 -0.13061525 -0.037024103 -0.024325086 -0.039829902
0.19840914 0.2283037 -0.12028165 0.13432562 -0.24115917 -0.103414744 -0.09653489 -0.037777998
0.0076117567 0.17109802 -0.15666439 0.501389 0.09052952 -0.20781969 0.20156981 -0.12754075
0.05235905 0.10528195 -0.056315925 0.17933851 -0.08881046 0.04392927 0.008308891 0.106444724
-0.06865396 0.119251914 -0.02636772 0.1877855 0.2489959 0.0839993 -0.090963446 0.18681331
0.054790966 0.0031527313 -0.09394548 -0.046300907 -0.006009876 -0.13428867 0.0039587854 -0.019802347
-0.025227476 -0.017227886 0.19037686 -0.21775068 0.039447628 0.11573997 -0.15060605 0.11671215
-0.22292022 -0.10141807 -0.13447921 0.21666116 -0.111597374 0.0024053592 0.16532092 -0.043261822
0.12802914 -0.08836527 -0.109658755 -0.07327337 0.071126685 -0.0862474 0.12503085 -0.13061026
0.018585058 0.085303895 -0.22765183 0.1498795 -0.022246568 -0.21658602 -0.16445488 0.11448365
-0.02347924 -0.02116741 -0.20290026 -0.07987264 -0.007092426 -0.01611081 0.114482604 -0.17544618
-0.11644589 0.2084763 0.1946404 0.12053984 0.14772 -0.010245799 0.04169648 0.1820779
-0.12010373 0.13303931 0.05283216 0.12339925 0.10619443 -0.0093048075 0.07930209 -0.08520055
0.05570858 0.010265643 0.31916112 -0.15004091 0.13968338 0.10840953 0.09840737 -0.047823258
-0.08268022 0.23193473 0.22464184 -0.33025238 0.13547616 -0.05026122 -0.023104165 0.1841604
0.071026824 -0.006365717 0.043119177 -0.0075107245 -0.03203892 0.014167466 -0.1436723 -0.12832071
-0.058463816 0.15979213 0.21239123 0.18020974 -0.118043624 0.09191287 0.21876547 0.22666058
00000000: 1294 82bd bdcd 223e 0f93 53be f8d5 153e
00000010: 8faf c43c 1a07 8b3d a227 073e c0ad 1f3e
00000020: a7be 92bb 06dc 323e 154e c4bd 0d82 cc3c
00000030: f985 f03c df1b a0bc 993f f63d c9db 943d
00000040: c02e 013d 2738 333e d36a 713d 8499 043d
00000050: bf26 9f3e c61c 3abe af6a 7ebd 9556 9abd
00000060: 40af b2bd 4496 00be 4c19 6dbe b578 1fbd
00000070: e191 463e 0e88 cf3d bd1e e53d 60b6 8fbc
00000080: 2334 843e 9f5f 463e d4e7 babd f401 9a3c
00000090: 11ca 79bd b0a1 553d 2a88 e23e 5f61 0e3f
000000a0: 2b6c 97be e62f cc3e e97f 72be c6ed 453e
000000b0: e96e 423d 2529 8dbe cff4 df3d 6be9 153e
000000c0: 20af 0a3e da9a babd f23d 8d3b 1447 f93e
000000d0: 8fbc 643b bd3c 943c d5c7 babc 8917 033d
000000e0: 9d48 85be cf3d 18bf 36c4 d9bd 8367 913e
000000f0: 3c7d 373e cc2f 4dbd 9b09 f2bd 72a9 b43d
00000100: 669f 1b3e 8cd8 3d3e f27a 043d 8bae 423e
00000110: 44a6 40be 6ca6 01be 115c c03d 18af 913e
00000120: 5cfe 2fbc c218 34bd 5fef 933d 0a50 263e
00000130: d43f 253e 7be2 c0bd 5ba9 353e 754a 553e
00000140: 9fef 8b3e fe7e 7a3e cfbc 893e bb7c b43e
00000150: c387 123e 0c94 29be e9c3 153e e79b 163e
00000160: d000 c73d 94d3 ec3d cc73 83be 21f8 983e
00000170: 3206 863e 5993 33be 5845 a43d 6733 10be
00000180: 15b8 02be 5c2b 3cbd 1381 a73e 208c 00be
00000190: 2248 233e 5b3d 82be d68e 393e d55f 00be
000001a0: 1cfe 80bc 8db4 c03d e0d4 233e acb5 a5be
000001b0: ed1b b03a f7a5 773d 402c a43d 9d71 5f3e
000001c0: f262 82be e3c8 8a3c dac3 893d 87bf e53c
000001d0: 0c00 67bc 6d1f 9abc 1297 ba3c 440d a33c
000001e0: edac fbbd dc9c 8fbd f433 2fbd 6da5 283e
000001f0: 01c0 05be 96a6 17bd 6745 c7bc ae24 23bd
00000200: c42b 4b3e 72c8 693e 3a56 f6bd a88c 093e
00000210: 6ef2 76be 1ccb d3bd 16b4 c5bd 1abd 1abd
00000220: 0b6c f93b 5234 2f3e a16c 20be 085b 003f
00000230: 8a67 b93d afce 54be 5168 4e3e 0b9a 02be
00000240: 7176 563d 109e d73d 87ab 66bd 84a4 373e
00000250: 42e2 b5bd 2eef 333d 0422 083c b1ff d93d
00000260: 739a 8cbd 593a f43d 1e01 d8bc d84a 403e
00000270: c8f8 7e3e d307 ac3d 0b4b babd fd4b 3f3e
00000280: 7e6c 603d 0e9e 4e3b 7d66 c0bd 05a6 3dbd
00000290: 7eee c4bb f882 09be b3b8 813b 8838 a2bc
000002a0: daa9 cebc 7f21 8dbc 27f2 423e 09fa 5ebe
000002b0: d693 213d 1409 ed3d 7938 1abe c806 ef3d
000002c0: 3345 64be 47b4 cfbd ebb4 09be 6cdc 5d3e
000002d0: 2a8d e4bd 3ba3 1d3b e349 293e 4f33 31bd
000002e0: 121a 033e daf8 b4bd c594 e0bd 5910 96bd
000002f0: deaa 913d 7aa2 b0bd 1608 003e b2be 05be
00000300: b13f 983c cfb3 ae3d 901d 69be 037a 193e
00000310: 6f3e b6bc bac8 5dbe dc66 28be 6776 ea3d
00000320: 8957 c0bc 4767 adbc 16c5 4fbe 4494 a3bd
00000330: 9567 e8bb d1fa 83bc db75 ea3d 2aa8 33be
00000340: 2f7b eebd d07a 553e d04f 473e 97dd f63d
00000350: e943 173e ffdd 27bc eec9 2a3d a172 3a3e
00000360: f2f8 f5bd 753b 083e 8966 583d bfb8 fc3d
00000370: 777c d93d 3173 18bc 2269 a23d a07d aebd
00000380: ae2e 643d 3a31 283c 1669 a33e 53a4 19be
00000390: 2909 0f3e d105 de3d ce89 c93d 52e2 43bd
000003a0: 3f54 a9bd 4c80 6d3e 8308 663e d716 a9be
000003b0: 43ba 0a3e b6de 4dbd f244 bdbc 8b94 3c3e
000003c0: 8376 913d 8197 d0bb bc9d 303d 861c f6bb
000003d0: 3e3b 03bd a91e 683c d51e 13be 8166 03be
000003e0: c177 6fbd 8ca0 233e 167d 593e e788 383e
000003f0: dbc0 f1bd d13c bc3d 0e04 603e b619 683e

model.10.bias f4 [32]
-0.024790205 -0.011330961 -0.12576866 0.118135385 -0.10256979 -0.009622075 0.05711145 -0.096827425
-0.0010529672 0.010804633 0.06755479 -0.054967027 0.09446738 -0.053053893 -0.18130165 -0.12771605
-0.1469511 0.19191949 -0.15061052 0.09723858 -0.05533882 -0.018900642 0.06678011 0.105836734
0.044823207 0.19116603 -0.059104405 0.10718735 0.037255574 -0.06555094 -0.083413474 -0.19808768
00000000: d414 cbbc 7fa5 39bc 80c9 00be f7f0 f13d
00000010: 1c10 d2bd e8a5 1dbc b2ed 693d 754d c6bd
00000020: b703 8aba ea05 313c 2a5a 8a3d 1b25 61bd
00000030: 1d78 c13d 0a4f 59bd 24a7 39be ffc7 02be
00000040: 597a 16be 8b86 443e a539 1abe 0525 c73d
00000050: f5aa 62bd 85d5 9abc 03c4 883d eec0 d83d
00000060: 8a98 373d 07c1 433e 7617 72bd 0b85 db3d
00000070: 4d99 183d 923f 86bd afd4 aabd 7fd7 4abe

model.12.weight f4 [1, 32]
0.17717238 0.4091599 0.28025576 -0.0921014 0.36872214 0.15876825 0.15898432 -0.19551907
0.9245649 -0.49199787 0.3591824 0.011327926 -0.15082857 0.41213632 -0.20801997 -0.23134603
0.7737556 -0.10018738 0.21433952 0.9590538 -0.22808515 -0.1591635 0.33238432 0.520928
-0.010104183 -0.28503603 0.19452962 -0.30772752 -0.04347612 0.19335061 0.35893384 -0.17832631
00000000: ad6c 353e 687d d13e af7d 8f3e a99f bcbd
00000010: 26c9 bc3e 2594 223e c9cc 223e 2736 48be
00000020: 49b0 6c3f 25e7 fbbe c1e6 b73e c498 393c
00000030: ce72 1abe 8803 d33e 3003 55be f9e5 6cbe
00000040: d914 463f 0b2f cdbd d27b 5b3e 8d84 753f
00000050: 278f 69be c2fb 22be 472e aa3e 8a5b 053f
00000060: 048c 25bc 3ef0 91be c632 473e 768e 9dbe
00000070: 0414 32bd b4fd 453e 2dc6 b73e 2c9b 36be
