best_model_0_dim3.pt (torch, 2912 bytes, 3 tensors)

model.0.weight f4 [32, 3]
0	0xbe80ba12	-0.2514196
1	0xbe9e48db	-0.3091496
2	0xbf183b4b	-0.59465474
3	0x3e63c13c	0.22241682
4	0xbd0bae9c	-0.034102067
5	0x3ec05a98	0.37569118
6	0x3ef537ff	0.47894284
7	0x3e299ff6	0.16564927
8	0x3efe4675	0.4966313
9	0x3eee8029	0.46582153
10	0x3d60a6d2	0.054846592
11	0xbf04abc7	-0.5182461
12	0x3f0a85bc	0.5411031
13	0x3e8af40a	0.27139312
14	0x3f48bdcc	0.7841461
15	0xbdf118d1	-0.117723115
16	0xbeed5f6f	-0.46361873
17	0xbf1b19f6	-0.6058649
18	0xbe98697f	-0.29767987
19	0x3a913c23	0.0011080544
20	0x3ec2e8bf	0.38068196
21	0x3ec509ab	0.3848394
22	0x3e760154	0.24023944
23	0xbf3c0220	-0.7344074
24	0xbea38ec0	-0.31944847
25	0xbe209789	-0.15682806
26	0xbf1eb451	-0.6199389
27	0x3d87942a	0.06620057
28	0xbf25fd52	-0.6483966
29	0x3f08c503	0.53425616
30	0xbe9608a5	-0.2930347
31	0xbe183070	-0.14862227
32	0xbf28bb23	-0.6591055
33	0x3e996892	0.29962593
34	0xbfd23256	-1.6421611
35	0x3f552980	0.8326645
36	0xbd8d7d60	-0.06908679
37	0xbbd6b89e	-0.00655277
38	0x3e3e3449	0.18574633
39	0xbc258255	-0.010101874
40	0x3f2f38da	0.68446124
41	0xbeb2de7d	-0.3493537
42	0xbf2affd9	-0.6679664
43	0x3ed97165	0.42469326
44	0xbc2770b3	-0.010219741
45	0x3e1d5db5	0.15367778
46	0x3f1c4eb5	0.610576
47	0x3ef4fd01	0.47849277
48	0xbf28392f	-0.65712255
49	0x3f4a7975	0.7909158
50	0x3f71dd9f	0.9447879
51	0x3f39f107	0.72633404
52	0x3f0db76a	0.5535799
53	0xbfca5fc8	-1.581048
54	0x3d533f80	0.05157423
55	0xbf0ca727	-0.54942554
56	0x3f17225b	0.590368
57	0xbe7e7f17	-0.24853168
58	0xbcc92496	-0.024553578
59	0x3d1596ad	0.03652065
60	0x3c9cef09	0.01915695
61	0x3f2eec42	0.6832925
62	0xbda9290f	-0.082597844
63	0x3e422303	0.18958668
64	0x3f0c36a4	0.54770875
65	0x3f015f72	0.50536263
66	0xbe09e4e4	-0.13466221
67	0xbe99f190	-0.3006711
68	0x3f20d620	0.6282673
69	0xbc8da189	-0.01728894
70	0x3aba2d64	0.0014204201
71	0x3ce73f6e	0.028228488
72	0xbee04f04	-0.43810284
73	0xbd2e4af7	-0.04255196
74	0x3ea1446e	0.3149752
75	0x3eeaad78	0.4583547
76	0x3fb6aa90	1.4270802
77	0x3f671437	0.9026522
78	0x3f4249bb	0.75893754
79	0xbf846c29	-1.0345508
80	0xbf91723f	-1.136299
81	0xbecb0bbb	-0.39657387
82	0xbe357edc	-0.17724174
83	0xbf145932	-0.579486
84	0xbf34202a	-0.7036158
85	0xbd9b9189	-0.07596118
86	0xbfe7d7cf	-1.8112735
87	0xbd7859fc	-0.06063269
88	0xbf02e43b	-0.511295
89	0xbf248c24	-0.6427634
90	0x3dc0da83	0.09416678
91	0x3e30f952	0.17282608
92	0xbcfe71e3	-0.031060165
93	0x3c8f0a1f	0.01746088
94	0x3f0c0587	0.54695934
95	0xbf154b6a	-0.583182

model.0.bias f4 [32]
0	0xbe83c78a	-0.25738174
1	0x3ea5daee	0.32393593
2	0xbed1656d	-0.40897694
3	0x3ddd25d4	0.10798231
4	0x3f23caf2	0.63981545
5	0x3d9fedd8	0.07809037
6	0x3e228053	0.15869264
7	0xbeac5ed8	-0.3366611
8	0xbd35fd46	-0.044430993
9	0x3dab2900	0.083574295
10	0x3e35c6e0	0.17751646
11	0xbd6c010e	-0.057618193
12	0x3efe3e25	0.49656788
13	0x3d819c1e	0.06328605
14	0x3d55fdb8	0.05224392
15	0xbe921b2c	-0.28536355
16	0xbfabe751	-1.3429967
17	0xbcb12ee0	-0.021628797
18	0xbe5e3213	-0.2169879
19	0x3ee2f882	0.4433022
20	0x3d7e8697	0.062140074
21	0xbe8c7bfe	-0.2743835
22	0x3e934428	0.28762937
23	0xbf0e65ef	-0.5562429
24	0xbe4af82d	-0.19821234
25	0xbd75152b	-0.05983464
26	0xbfd585e3	-1.6681484
27	0xbea784dd	-0.32718554
28	0x3a14cb7f	0.0005676075
29	0x3ee4e934	0.4470917
30	0x3f085dcd	0.5326813
31	0x3ea09b33	0.31368408

model.2.weight f4 [1, 32]
0	0x3e4e08e8	0.20120585
1	0x3b605e64	0.0034235949
2	0x3ebfed80	0.37485886
3	0x3eaea1e6	0.34107894
4	0x3df2727f	0.11838245
5	0x3eaaeb4f	0.3338265
6	0x3c94c202	0.018158916
7	0x3e9ea5e3	0.30985937
8	0x3f0c7c1d	0.5487688
9	0x3f1d9bd8	0.61565924
10	0x3df29dd2	0.11846508
11	0xbeac4c6d	-0.33652058
12	0xbd6da993	-0.058023047
13	0x3f1de7b0	0.6168165
14	0xbd79871f	-0.060919877
15	0x3ea9457a	0.3306082
16	0x3ee87954	0.45405066
17	0xbea18fbb	-0.3155497
18	0x3f0a33f7	0.5398554
19	0xbdbee4ce	-0.09320985
20	0x3e785d56	0.24254355
21	0x3ebb986f	0.36639735
22	0x3e6e4498	0.23268354
23	0xbd1c6f94	-0.038192347
24	0x3db21018	0.08694476
25	0xbeaa546b	-0.3326753
26	0x3ede2472	0.4338718
27	0x3e12e5b3	0.14345436
28	0xbe98b94a	-0.29828864
29	0x3e004feb	0.12530486
30	0xbd99b48b	-0.07505139
31	0x3ea888c3	0.3291684
