best_model_0.pt (torch, 2360 bytes, 3 tensors)

model.0.weight f4 [16, 1]
000000 de 7f 24 3f e4 e1 44 3e 4d 1d 61 3e 76 21 02 3f
       0.6425761 0.19226795 0.21983834 0.5083231
000010 be 46 12 3e de b0 c1 be 21 2f b2 3d c9 ea 6d 3f
       0.14284799 -0.3783025 0.087003954 0.9293638
000020 52 e3 78 be 48 5f e8 be ee de 4a 3f c7 3f 76 bf
       -0.24305466 -0.45385194 0.79246414 -0.96191067
000030 8c 82 56 bf 23 e8 95 3e f7 0b 27 bf 00 44 1e 3e
       -0.8379295 0.2927867 -0.6525263 0.15455627

model.0.bias f4 [16]
000000 9a c3 0f bf 8e 44 a8 3e 8e 2a 43 bf 85 ba 61 bf
       -0.5615784 0.32864803 -0.7623681 -0.8817523
000010 59 73 5e bf c2 5c de be 12 71 ed 3e de 6d 71 3f
       -0.86894757 -0.43430144 0.46375328 0.9430827
000020 1b ed 3f 3f d2 f4 0c bf 51 b5 7a bf b2 28 4a 3f
       0.7497117 -0.55061066 -0.97932917 0.78968346
000030 22 97 73 bf 8e 0a 1d 3f 36 87 2b be 06 d0 d4 3e
       -0.95152485 0.6134423 -0.16750798 0.4156496

model.2.weight f4 [1, 16]
000000 53 0d 07 3e 4c 95 c3 3d 2a 40 35 3e 28 6c 9f bd
       0.13188677 0.095499605 0.17700258 -0.07784301
000010 21 6c ef 3d dc 53 0b be 40 4d 5a 3c 8a f5 01 be
       0.11690546 -0.13606209 0.013324082 -0.12691322
000020 ae b2 9e 3d 2c 30 4b be 5c dc 7d bd 15 f9 f4 bd
       0.07748924 -0.19842595 -0.06197773 -0.11961571
000030 95 ad d8 bd c4 4c 42 3e 48 08 3d 3e db 71 2e be
       -0.10579983 0.18974596 0.1846019 -0.1703562
