best_model_3_dim3.pt (torch, 17348 bytes, 9 tensors)

model.0.weight f4 [32, 3]
000000 56 e5 0c bf fd 7c 7d 3f d3 e5 29 3f e5 4d 20 bf
       -0.5503744 0.9901884 0.6636631 -0.6261886
000010 cd 2c 48 3f 3a f5 2c bf 5c d7 13 3f 3b 25 4e 3f
       0.7819336 -0.67561686 0.5775049 0.8052556
000020 ee 05 44 3f 36 74 5b 3f 6e e7 f0 3f 89 57 59 be
       0.7657155 0.857242 1.8820627 -0.21224798
000030 59 48 ae 3f 21 1d 73 3f d6 70 57 3f d2 08 79 3f
       1.3615829 0.9496632 0.8415655 0.97279084
000040 af 64 d5 be f3 3b 6b 3f 2e b0 82 3f 8b 08 3a bf
       -0.41678378 0.9188835 1.0210016 -0.72669286
000050 6d f4 ad bf 61 da 9d be 14 fb 0d 40 46 09 72 3f
       -1.3590218 -0.30830672 2.2184496 0.945454
000060 6d ee e2 bf 56 9e 4d bf 8c bf 8c bf 84 b4 8e bf
       -1.7729012 -0.80319726 -1.0995955 -1.1148839
000070 69 bc 80 3e 7f 3d ab bf 24 59 56 bf a0 40 19 bf
       0.25143746 -1.3378142 -0.8372977 -0.59864235
000080 8b 77 77 be 31 7d d0 3f a8 0b 74 3e be b8 ce 3f
       -0.24166696 1.6288205 0.23832572 1.6150129
000090 bb 7c 80 3f 7b 42 c6 bf 77 d9 06 3f 75 ce 8b bf
       1.0038065 -1.5489038 0.52675575 -1.0922381
0000a0 e0 b3 80 3f ee a8 60 bf f6 b2 0e bf bc 06 14 3e
       1.0054893 -0.87757766 -0.5574182 0.14455694
0000b0 be d4 49 be 5b 31 40 3e f8 56 01 be b1 c1 0f 3e
       -0.19710061 0.18768828 -0.12630832 0.14038731
0000c0 4c 70 49 bf 79 1d 59 bf 76 92 ba bf ee 84 60 bf
       -0.78686976 -0.84810597 -1.4575946 -0.87702835
0000d0 cf 9a 77 bf 06 fa 50 bf 59 01 ce 3f 0e 7e 9d 3f
       -0.96720594 -0.81631505 1.6094161 1.2304094
0000e0 d8 1a f4 3e e6 cc ae 3f 6e 41 25 3f 59 aa 47 bf
       0.4767673 1.365628 0.6455296 -0.77994305
0000f0 94 f9 6e 3d e2 20 55 bf 7c e6 49 3f d1 ac a8 3f
       0.058343485 -0.832533 0.78867316 1.3177739
000100 fb 59 c5 bf be c3 21 3f b5 59 17 bf 72 ba ca 3e
       -1.5418085 0.63189304 -0.5912126 0.3959537
000110 79 00 1d 3e 04 57 3d bf d3 b0 00 bf d9 fe a4 3f
       0.15332212 -0.739609 -0.5026981 1.2890273
000120 9b 42 35 3f 65 fc 94 3f f8 fc ec bf 5f 3d 2d bf
       0.70804757 1.1639525 -1.85147 -0.6767177
000130 24 ac 61 bf b3 de 77 bf 8a 66 9f bf 58 bb 0c bf
       -0.8815329 -0.9682419 -1.2453167 -0.54973364
000140 d8 34 76 3f 51 5f 8d bf 8e 59 e2 3e a0 7c 44 3f
       0.96174383 -1.1044713 0.4420895 0.7675266
000150 27 19 37 bf b5 aa ae be 99 f1 22 3f 36 01 f2 bd
       -0.71522754 -0.34114614 0.636499 -0.11816637
000160 44 e5 7c be f1 f5 f8 3e 95 bb 7d bf 5f 84 1f 3f
       -0.24696833 0.48625138 -0.9911435 0.6231136
000170 e1 6a 94 3f 2a 7a d6 bd 5b 51 19 bf e3 fa 0e 3f
       1.1595117 -0.1047252 -0.59889764 0.5585157

model.0.bias f4 [32]
000000 7c fd 06 bf d6 d6 20 bf a3 7e f2 be 90 4c 27 3d
       -0.52730536 -0.62827814 -0.4736224 0.0408445
000010 f9 ab cb 3e 8d 25 fe be 7c 0e ad be fc 84 34 3e
       0.39779642 -0.49638024 -0.33800113 0.17628855
000020 1c 06 88 3f dc 90 76 3d 12 36 0e bf 8f 42 dc 3e
       1.0626864 0.060196742 -0.55551255 0.4301953
000030 cb 08 be be c0 ba 1f bf 13 27 33 3f 78 4d 1b bf
       -0.37116084 -0.6239433 0.699815 -0.6066508
000040 2e f8 2d 3e 29 95 bc be a8 27 95 3f c5 56 25 be
       0.16989204 -0.3683255 1.1652727 -0.16146381
000050 85 01 9a be 7c 06 40 3f d9 6b 4e 3f 84 61 c7 bd
       -0.30079284 0.75009894 0.8063331 -0.097353965
000060 24 cf 8e 3d d8 78 91 be 8b 17 90 be a3 b9 dd be
       0.06973103 -0.2841251 -0.28142962 -0.43305692
000070 e8 1a 14 bf cf 39 44 3f 33 ac 91 3e 5c 70 0c bf
       -0.57853556 0.7665071 0.2845169 -0.54858947

model.2.weight f4 [32, 32]
000000 a1 75 18 3e ca 76 13 3e fa a9 8f bd a2 df 08 3e
       0.14888622 0.14400783 -0.07014842 0.13366559
000010 83 bd 31 be 2e 42 46 3e dd 32 0f 3f c6 fe c3 3d
       -0.17357449 0.19361183 0.55936986 0.095700786
000020 f7 b3 20 be 87 6d 52 be c3 a4 f4 3c b7 87 84 be
       -0.15693651 -0.20549594 0.02986372 -0.25884792
000030 ea d6 0f 3f b7 1c 50 be 57 2d 87 3d 34 42 6c 3c
       0.5618731 -0.20323454 0.06600445 0.014420081
000040 10 23 79 be e3 f7 7d be 88 2c 70 be 74 6a b3 3e
       -0.24329782 -0.24801593 -0.23454487 0.35042155
000050 3d 41 d0 3d 3f 42 24 3e 4d f9 54 be 02 f4 c9 3e
       0.10168693 0.16040896 -0.20798226 0.39443976
000060 12 70 55 3e 93 71 ad bd fd 8f 94 3e e8 28 49 3f
       0.20843533 -0.08468928 0.29016104 0.78578043
000070 28 ea 45 3f fa 3a 2c 3c 3d d1 aa 3d 57 82 a5 3e
       0.7731042 0.010512108 0.0834069 0.32326004
000080 c9 e8 51 3f f5 e1 06 3f 65 a5 28 3f 92 ea 87 3f
       0.81995827 0.52688533 0.6587737 1.061846
000090 f6 20 8d 3e 9d 23 aa 3f ac 38 a1 3f 38 68 e1 3e
       0.2756421 1.3292118 1.259542 0.44024825
0000a0 ee 9b 29 3e 7f 54 16 3f 6f 6d 13 3f 10 7e 61 3e
       0.16563389 0.5872268 0.5758886 0.22020745
0000b0 5b 67 01 40 60 1e a0 3f 43 ff 2c be 01 2b 14 3e
       2.0219333 1.250927 -0.1689425 0.1446953
0000c0 ab cc 84 3f e3 74 a5 3f 3a 1d e9 3d 87 e8 b1 3f
       1.037496 1.2926296 0.11382528 1.3899087
0000d0 c4 e2 81 3f 4f 4c d8 3c 9e 5f 24 be 61 61 a7 3f
       1.0147328 0.026403574 -0.160521 1.3076593
0000e0 e1 fb 2b 3e 81 e7 90 3f 12 ea a2 3f 48 b9 ab 3f
       0.16795303 1.1320649 1.2727683 1.3415918
0000f0 21 8d 16 3f 87 1f 40 be 9e 2a 09 3f 83 39 fa 3e
       0.58809096 -0.18762027 0.53580654 0.48872003
000100 fc fd 6f 3f 13 97 49 3f 57 ca c8 3f 33 46 99 3e
       0.93746924 0.78746146 1.5686749 0.2993637
000110 f6 95 cd 3d 6d 22 cd 3f 5e a6 1e 3e 32 cf 87 3e
       0.100383684 1.6026131 0.15493152 0.26525265
000120 09 6d 63 3c 9e f3 e7 3e a2 07 6d 3e 67 24 9f 3e
       0.0138809765 0.45303053 0.23147443 0.3108246
000130 5d 8d 84 3f 6f 9b 75 3f 74 c1 e8 bd 0d 91 c2 3e
       1.0355641 0.959403 -0.11365023 0.3800129
000140 93 4c f4 3e 44 2c 57 3f d8 cb b1 3d 2c 1e c6 3e
       0.47714671 0.8405192 0.08681458 0.38694894
000150 48 75 29 3f a4 c3 84 bd 79 06 66 3d fc 13 69 3d
       0.6619458 -0.06482628 0.056158517 0.056903824
000160 50 8b 61 be e5 14 5e 3f 8f 98 46 be 5d 55 40 3f
       -0.220258 0.8675063 -0.19394134 0.75130254
000170 ba 74 83 3e d1 f0 49 be b0 a9 b2 bc 2d 34 04 3f
       0.25674993 -0.1972077 -0.021809429 0.51642114
000180 05 35 f7 3e 32 e3 59 3e 0a 29 46 3f b9 0b 93 3e
       0.48282638 0.21278074 0.7740637 0.2871988
000190 62 e2 7d 3e cc 8a 6a 3f 28 d5 19 3f 1d 83 6f 3e
       0.2479339 0.9161804 0.60090876 0.2338986
0001a0 d9 10 66 3d 2d 9d 8e 3e 8e 3e 8b 3e b2 a2 d3 3d
       0.05616841 0.2785429 0.27196163 0.10333766
0001b0 de b9 4d 3f 55 64 71 3f f5 b2 27 be 19 4f bc bd
       0.80361736 0.9429372 -0.1637686 -0.09194774
0001c0 e4 a0 d5 3e 9b c6 57 3f 8a c8 17 3d 25 f2 3a 3f
       0.41724312 0.8428742 0.037056483 0.73025733
0001d0 2c 30 22 3f 3f d5 15 3e f6 95 3e 3e f4 31 10 3f
       0.63354754 0.14632128 0.18611893 0.5632622
0001e0 03 f2 ae 3e 84 57 14 3f da 08 ba 3e dd ad 6b 3f
       0.34169015 0.5794604 0.36334878 0.9206217
0001f0 e9 4d 9b 3e 85 c9 9c 3d ca 5e 3d 3e 43 0b ed 3d
       0.30332878 0.07655624 0.1849319 0.115744136
000200 0e 5c e5 3e cd ac 95 3e 2c f2 94 3f 38 4e b7 3e
       0.44796795 0.292334 1.1636405 0.35801864
000210 5c d7 6c bd b1 74 8d 3e 64 ae df 3e e9 05 6d 3e
       -0.05782257 0.2762809 0.43687737 0.23146786
000220 79 d3 3c be 02 2d 53 3e 23 49 9f 3d d1 37 a4 3d
       -0.18440045 0.20622638 0.077776216 0.08018459
000230 0d c7 2e 3f cb 16 2a 3f bd ed f6 bc de 3c 09 be
       0.6827248 0.6644103 -0.03014266 -0.13402125
000240 4b e4 25 3e 5d 15 aa bd 85 e2 44 bd d2 4f 0a 3f
       0.16200368 -0.08304856 -0.04806759 0.54028046
000250 58 98 4f 3e c7 e3 a7 3d 1f 53 ca bd 05 5d c4 3d
       0.20272958 0.08197742 -0.09879135 0.095880546
000260 3c dd 3b 3e a3 f3 4e 3c 61 ea 91 3e fb a9 3e 3f
       0.18346113 0.01263133 0.2849913 0.7447812
000270 75 45 0e 3a 11 07 c0 3c f8 6e 80 3e b7 a8 a0 3d
       0.000542722 0.02344087 0.25084662 0.0784468
000280 0d 00 c9 3e 97 0e 8b 3e 5f 6e 52 3e 8e 65 14 3f
       0.3925785 0.2715957 0.20549916 0.5796746
000290 66 d0 17 bd 8d bc c4 3d 3f 55 64 3f 1f 94 6f 3e
       -0.03706398 0.09606276 0.89192575 0.23396347
0002a0 3a 0d 17 bd c3 7c 16 3e 14 d6 a0 3e c1 3d 42 be
       -0.03687785 0.1469603 0.3141333 -0.1896887
0002b0 d0 13 0a 3f 74 51 8c 3e ee 4a 52 3a ea 49 21 3c
       0.5393648 0.27405894 0.00080220297 0.009844283
0002c0 ef e6 5e 3e f8 ad 3e 3f 7b 59 d7 bd 2b 93 99 3f
       0.21767782 0.74484205 -0.10515114 1.1998037
0002d0 eb da 1c 3f 87 03 22 3c d1 2d 8a bd 43 a5 41 3f
       0.6127154 0.009888536 -0.0674702 0.75642794
0002e0 3f d2 1d 3e ad 92 99 3e 6f ee 8c 3f ac 4b 6e 3f
       0.15412234 0.29994717 1.1010264 0.93084216
0002f0 26 9b 21 3f db 2d a2 be a3 35 67 bd f1 19 ad 3e
       0.6312736 -0.3167561 -0.056447636 0.33808854
000300 db 3e d7 bd 63 0b 75 be 38 98 59 bf 94 13 20 3e
       -0.105100356 -0.23930125 -0.8499789 0.15632468
000310 74 f7 1e 3e df 6b 67 bf 09 57 c9 3d 7d 30 17 3e
       0.15524083 -0.90398973 0.09831054 0.1476459
000320 97 e0 11 3f 9b d6 33 3e 44 00 08 bf 4d cd 41 3e
       0.5698332 0.17562334 -0.53125405 0.18925972
000330 b4 c1 f3 3e 5c bc 07 be aa 35 d0 3e 7e 2c 85 be
       0.4760872 -0.13255447 0.40665942 -0.26010507
000340 b7 0f a5 3e 81 02 3a bd 50 19 a3 3e 4d 12 5a be
       0.32238552 -0.045412544 0.3185525 -0.21296044
000350 91 01 95 3e ff 6f da 3e 29 d9 4e 3e df 92 af 3e
       0.29102758 0.4266357 0.20200028 0.3429174
000360 c4 1c af 3d 7c e5 4b 3a f1 19 f3 3d ec bb 12 bf
       0.085504085 0.0007778031 0.11870182 -0.57317996
000370 a2 27 c1 be 21 b9 fb 3e 9e 13 a5 3e 7a 4b ee be
       -0.3772555 0.4916468 0.3224153 -0.4654196
000380 fd 55 2f 40 51 77 cb 3f 5c 06 45 40 e3 52 00 40
       2.7396233 1.5895787 3.0785131 2.005059
000390 13 a9 02 3f 11 5a 75 40 c8 81 49 40 8f bf 84 3f
       0.51039237 3.8336222 3.1485462 1.0370959
0003a0 c9 61 f2 3d c8 b3 bf 3f cb ed a2 3f 71 7d 1a 3f
       0.11835057 1.497674 1.2728819 0.6034766
0003b0 35 af 6f 40 93 29 81 40 0b 96 a1 3d 0e cd 08 3d
       3.7450688 4.036325 0.078899466 0.03339868
0003c0 8c e9 d2 3f e8 1c 6c 40 a2 1b a1 3e 2a 9b 2f 40
       1.6477523 3.6892643 0.31466395 2.7438455
0003d0 e2 e0 60 40 18 48 e3 3e 92 7b 47 be 1a 56 00 40
       3.5137258 0.4439094 -0.19480732 2.0052552
0003e0 d6 7b 68 3f 04 fb 34 40 f4 05 4c 40 9c 50 a4 40
       0.9081396 2.8278208 3.1878633 5.13484
0003f0 a9 09 a8 3f f1 a3 46 3c 02 36 ef 3e 06 16 6e 3f
       1.3127948 0.012124048 0.46720892 0.93002355

model.2.bias f4 [32]
000000 43 6b d5 bd 95 a1 a5 be 39 7e a3 bd dc 1c af bb
       -0.10420849 -0.3234984 -0.079830594 -0.0053440165
000010 cc 4f c7 bd 36 be 28 be fd e3 f7 3e 09 3f 24 be
       -0.09732017 -0.1647881 0.4841613 -0.16039671
000020 09 76 33 3f dc 83 ba 3e 6a fc 63 3e a2 6b 82 3e
       0.7010198 0.36428726 0.22264257 0.25472742
000030 9a 4d 9f 3c 37 0e 09 be 66 b2 3e be a3 32 cb 3e
       0.019446183 -0.13384329 -0.18622741 0.3968707
000040 74 05 a0 bd 1d 8b 20 3f ea 5b 26 be 16 4a f2 3e
       -0.0781354 0.6271227 -0.16246 0.47322148
000050 52 9b 68 bd 0b c4 39 be 46 a3 df 3e 44 fb 78 be
       -0.05678875 -0.1814119 0.43679255 -0.243146
000060 4e bc e1 3e 88 04 de bc d4 b9 8d 3e 39 bd 83 3d
       0.44088978 -0.02710177 0.27680838 0.06432576
000070 95 1a 18 be 46 8f 40 be a4 39 d3 3e 89 98 e3 bd
       -0.1485389 -0.18804654 0.41254914 -0.11113078

model.4.weight f4 [32, 32]
000000 d3 db 4a bf ba f2 63 bf 2d 40 ff be 90 95 d6 be
       -0.79241675 -0.89042246 -0.4985365 -0.41910982
000010 f8 d5 e0 be 7c a8 10 bf 00 5b c5 3d 77 ed 01 bf
       -0.43913245 -0.56507087 0.096364975 -0.5075297
000020 af 63 dd 3e f3 be bb 3e a7 89 69 3e c4 53 94 3d
       0.43240115 0.3666912 0.22806416 0.072425395
000030 04 07 f7 be 6a 7b 18 bf c2 08 42 bf 9e b8 d9 3e
       -0.4824754 -0.59563315 -0.75794613 0.42523664
000040 fa 68 15 bf 4d 8a 07 3e c8 7d 16 bf 5b 22 e4 3d
       -0.58363307 0.13236351 -0.58785677 0.11139365
000050 78 6a 1a bf ef c2 ac be 97 d3 de 3e cd 4e 12 bf
       -0.6031871 -0.33742473 0.43520805 -0.5715149
000060 aa d3 5e 3e 8b ab 97 be 16 c8 96 3e 16 cb 9d 3e
       0.21760431 -0.29623064 0.29449528 0.30819005
000070 c8 77 c2 be 1c 7f 10 bf 69 5b c0 3e a8 99 18 3d
       -0.3798201 -0.56443954 0.3756974 0.037255913
000080 6e 07 38 bf 11 bf 9d bf f6 df f5 be f2 a1 08 bd
       -0.71886337 -1.2323934 -0.4802243 -0.033357568
000090 53 94 af be 38 22 24 bf b2 2b cc 3e 05 64 d0 be
       -0.3429285 -0.64114714 0.39877087 -0.4070131
0000a0 02 ca 95 3e 9a ef 02 3f f5 46 13 3f b1 bd bc 3e
       0.29255682 0.5114685 0.57530147 0.36863473
0000b0 c0 9b 3f bf b9 45 d1 be 68 82 43 bf 6f ba 16 3f
       -0.7484703 -0.40873507 -0.7637086 0.58878225
0000c0 2a 66 72 bf cf 93 b1 3e f8 02 63 bf 97 d5 d3 3e
       -0.9468714 0.34683082 -0.88676405 0.41373894
0000d0 65 6a 93 3c 2b 17 24 bf 52 4a c3 3e e1 96 65 bf
       0.017995069 -0.6409785 0.3814264 -0.8968335
0000e0 28 fd ee 3e 68 29 8d be 40 7b f5 3e ea e6 f4 3e
       0.46677518 -0.27570653 0.47945595 0.47832423
0000f0 6c 06 93 be 31 f5 00 bf 50 08 19 3f 47 4e 2b 3e
       -0.28715837 -0.5037413 0.5977831 0.16729079
000100 58 28 c3 3f 54 b3 8f 3f f7 87 72 3f 98 50 50 3f
       1.5246687 1.1226602 0.94738716 0.81372976
000110 c0 42 a2 3f f4 a4 93 3f 85 fe 99 bc db b6 9d 3f
       1.267662 1.1534715 -0.018798122 1.2321428
000120 10 8e 5d be d5 15 8c be 8a 8e f3 bd c3 4d 6a ba
       -0.21636224 -0.27360407 -0.118924215 -0.0008937979
000130 4d 7e 62 3e 84 88 8a 3f 7b 4a ad 3f 94 ee ad 3d
       0.22118492 1.0822911 1.3538355 0.08492771
000140 71 ba d3 3e 3f ce 2e be 65 2c 7d 3f 16 13 d8 3d
       0.4135318 -0.17070864 0.98895866 0.10550515
000150 34 d3 92 3f 8c c0 bb 3d a5 73 be be bc 5d ff 3e
       1.1470704 0.09167585 -0.37197605 0.498762
000160 a2 22 20 be 32 ad 72 3f 4c 47 d2 3d e4 e3 6e 3e
       -0.15638211 0.94795525 0.10267505 0.23329121
000170 f2 5f 29 3f 9f 03 44 3f c8 e6 8b 3e dd 2f 80 3e
       0.66162026 0.76568025 0.2732451 0.25036517
000180 f3 0c e8 3e 78 46 b0 3e 2d 1a 51 3e 3f 15 14 3e
       0.4532238 0.34428763 0.20420142 0.1446123
000190 71 3a fd 3d 12 ab e4 3e 41 12 15 3e 02 1d 98 3d
       0.123646624 0.44661766 0.14557745 0.07427408
0001a0 74 67 7f 3d 7d f2 89 be 2a 2e fc bc 0d a4 c5 bd
       0.06235452 -0.26942816 -0.030783731 -0.09650431
0001b0 d9 00 6d bb cd c2 69 3e ba f1 d5 3e 26 9a 93 bd
       -0.0036163835 0.22828217 0.41785985 -0.07207136
0001c0 05 ce c6 3d 21 3d 08 be 2a 60 e0 3e 15 60 55 be
       0.09707264 -0.13304569 0.43823367 -0.20837434
0001d0 7e bb 1c 3e 2b a9 0c 3e 35 85 e4 bd 49 37 b4 3e
       0.15305898 0.13736407 -0.1115822 0.3519843
0001e0 bd f7 ab 3d a8 e6 50 3e 78 87 2e be ea 23 2e be
       0.08396862 0.20400488 -0.17043865 -0.17005888
0001f0 b7 8e cf 3d d0 a8 3f 3e ed 35 98 bc 82 2a b1 be
       0.101346426 0.1871674 -0.018580401 -0.34602743
000200 ff 16 cc 3e d9 4f 9e 3e 53 ff af 3d d2 3e bf 3e
       0.39861295 0.30920294 0.08593621 0.37352616
000210 f4 32 fc 3e fd 64 e3 3e 56 b0 b2 3d 7a 46 8b 3e
       0.49257624 0.44412985 0.0872504 0.27202207
000220 57 ee d0 bd a5 3d 1b be 2b b4 ed 3c 50 32 01 be
       -0.1020171 -0.15160234 0.029016575 -0.12616849
000230 00 c3 58 3e 30 2e bc 3e 8e 06 c5 3e 2c 19 36 bd
       0.21168137 0.36753988 0.38481563 -0.0444576
000240 ab ce 95 3e 28 a6 25 be ca c6 59 3e e3 56 35 be
       0.29259238 -0.16176665 0.21267238 -0.17708926
000250 f0 97 e4 3e 0b c9 f0 bd 6a de a2 ba bd 59 f1 bc
       0.4464717 -0.11757096 -0.0012425904 -0.029461736
000260 c5 26 b5 3b 8b ee ca 3e e1 e0 9c bd 4b cb 97 3d
       0.0055283033 0.3963512 -0.0766008 0.07411822
000270 ff 44 ed 3d 5d 32 98 3e ae 9f 68 3c d1 79 58 be
       0.115854256 0.29725924 0.014198227 -0.2114022
000280 5b 55 6d bc e4 e5 8c 3e 4b d1 da 3d 67 b8 30 3e
       -0.014485682 0.27519143 0.10684451 0.17257844
000290 c6 59 82 3e e1 98 1d 3e 02 56 95 3d c3 66 99 bd
       0.25459117 0.1539035 0.07291795 -0.07490303
0002a0 32 a1 de 3d ad b6 6d bd c5 3b 89 be cf c3 3b be
       0.10870589 -0.05803554 -0.26803413 -0.18336414
0002b0 1d 54 27 3e cb 0d 45 bd 6d 7e 24 3e 5c 13 6e be
       0.1634068 -0.048108857 0.16063853 -0.23249573
0002c0 6e 90 b6 3e 96 88 4a 3c b4 69 22 be d2 5f c8 3d
       0.35657066 0.012361666 -0.15860635 0.09783901
0002d0 d1 42 31 3d 72 e7 09 be 0e 35 6d be dc 92 99 3e
       0.04327661 -0.13467196 -0.2316477 0.29994857
0002e0 f6 ce 5d 3d af dc 02 3e 64 ba 84 be 84 6b c4 bc
       0.05415245 0.12779497 -0.25923455 -0.023977049
0002f0 89 b8 1a 3e c1 b0 1c 3e 06 91 88 3d ba 01 c7 3d
       0.15109457 0.15301801 0.06668286 0.09717126
000300 7e 35 08 3e 58 99 4f be 3b 76 2d 3d ea b7 90 3e
       0.13301656 -0.2027334 0.04234908 0.28265315
000310 d4 e8 b0 3e f4 dc 14 3e 42 68 65 3e d5 bf 16 3f
       0.34552634 0.14537412 0.22403052 0.5888646
000320 b7 12 cd bc 89 9a 05 3d 52 c2 db bc 9a 47 41 3e
       -0.025033338 0.03261808 -0.026826058 0.1887497
000330 05 e8 96 be 3e c4 c6 3d e9 0e e0 bd fe b2 13 3e
       -0.29473892 0.09705399 -0.10940344 0.14423749
000340 4b 5e 39 be 48 f5 bd bd 54 b9 42 be b7 ba 2a 3c
       -0.18102376 -0.09275299 -0.1901601 0.010420493
000350 fa 47 00 3e 7f ab 08 be dd ab 7d 3d 49 da 7c be
       0.12527457 -0.1334667 0.06193148 -0.24692644
000360 c3 8f d8 3d e5 e3 87 bc 7a 29 79 3e 38 61 82 3e
       0.10574295 -0.01658816 0.24332228 0.25464797
000370 00 4b 0f bd 8b 22 e5 3d a7 a3 79 3e 63 8d 98 3e
       -0.034983635 0.11188229 0.24378835 0.2979537
000380 36 2d f7 3e 00 e1 6a 3f f5 bf aa 3e d0 69 c0 3d
       0.4827668 0.9174957 0.33349577 0.09395182
000390 d7 7f 4d 3e 81 fe 06 3f 67 ee cd bc b9 2b 82 3e
       0.20068298 0.5273209 -0.025138093 0.25423983
0003a0 14 21 aa 3d 3b 68 59 be 37 68 87 be 20 09 a4 bd
       0.083070904 -0.21231167 -0.26446697 -0.08009553
0003b0 fc c9 95 3e e1 52 72 3e 38 03 ef 3e 5f 56 91 bd
       0.29255664 0.23664428 0.46682143 -0.07096552
0003c0 c3 2d d6 3e 39 97 2c be f5 0c aa 3e bc 0c 68 be
       0.41831788 -0.16854562 0.3321301 -0.22661108
0003d0 95 96 57 3e d5 c6 2c 3d df 2c 8d be 6b fc 32 3e
       0.21053536 0.04218181 -0.27573296 0.17479102
0003e0 e1 12 72 be 69 1f 86 3e 4f 9c 9f be 6a 56 6c bc
       -0.23640014 0.2619584 -0.31173941 -0.0144249
0003f0 ae 92 a0 3d 86 22 97 3e 1e 33 17 be 7d 5b ba be
       0.07840477 0.29518527 -0.14765593 -0.36397925

model.4.bias f4 [32]
000000 c9 3d 49 3e 1d 30 c2 3e 0f 7a e8 bd a0 27 2b 3d
       0.19652475 0.37927333 -0.11351406 0.041785836
000010 b1 97 93 bd 48 65 19 3d 6c 8e 0c 3d 25 77 db bc
       -0.07206667 0.037450105 0.03431551 -0.026790211
000020 d6 a8 92 be 99 d4 64 bd f4 ee 69 3e bb 86 19 3d
       -0.28644437 -0.05586681 0.2284506 0.037482005
000030 4b 7a 2d be 7c c9 e9 be 9d 6d e0 bd 1c f5 e2 3c
       -0.16941182 -0.45661533 -0.10958407 0.027704768
000040 88 4a 8f bd 57 57 45 3e 2d 98 36 bd 6d 87 90 bd
       -0.069966376 0.19271599 -0.04457872 -0.070570804
000050 91 c7 74 be be 93 78 3a 61 dc 1a be d6 46 08 3d
       -0.23904254 0.00094824645 -0.1512313 0.03327068
000060 e2 84 d5 bd 6f 62 64 be bb f0 24 3e 4c c8 72 3c
       -0.10425736 -0.22303174 0.16107456 0.014818262
000070 c6 96 47 3d e3 53 9b 3e 6a 1d a0 be 43 87 66 be
       0.048727773 0.30337438 -0.3127244 -0.22512536

model.6.weight f4 [32, 32]
000000 a7 e2 1e 3e f1 43 37 3e 4c ef 4e bd db 63 b9 3d
       0.15516149 0.17897011 -0.05052118 0.09052249
000010 8d c7 73 3d 48 de 13 be f2 66 08 bb 32 d3 6e 3d
       0.05951648 -0.14440262 -0.0020813313 0.05830688
000020 cc f0 3f 3e 83 95 49 bd bb 3c 2a be 0e 55 9b bd
       0.187442 -0.04921485 -0.1662473 -0.07584582
000030 62 d5 94 3d 68 b4 96 3e 2c a0 2d 3d 84 d5 bf 3d
       0.07267262 0.29434514 0.04238908 0.09366897
000040 61 7e 95 bd 63 08 72 be 34 9e 36 3d 24 a5 d1 3d
       -0.072994955 -0.23636012 0.044584468 0.10236576
000050 e6 ac 24 3e eb 55 fd 3c 8b 7f 51 bc ea 71 f4 3c
       0.1608158 0.030924758 -0.012786756 0.029839475
000060 dd 7f f2 3d 22 e0 e5 bd 20 e5 91 be 11 09 3d 3e
       0.11840794 -0.112243906 -0.2849512 0.1846049
000070 57 c3 9a bb 6b ea 3b bf 00 0a 17 be 5c ac cc bd
       -0.0047229934 -0.7340457 -0.14749908 -0.099938124
000080 7f 9f 15 be 16 6e 89 bd 19 6c de bd 5a bf f4 3e
       -0.14611624 -0.0671045 -0.10860462 0.4780224
000090 42 9c f4 3c e6 57 7f 3e a9 df ed bd d1 f2 fd 3e
       0.029859666 0.24935874 -0.116149254 0.49599317
0000a0 c6 e6 da 3d 76 39 2e be 27 41 2b 3e 44 eb f4 3e
       0.10688548 -0.17014107 0.16724072 0.47835743
0000b0 11 0f 76 3d 84 d3 ea 3e 13 7f cc bd cb 0a 68 3d
       0.060072962 0.458645 -0.09985175 0.056650918
0000c0 31 12 e1 3d bf 50 83 be 5d dd 15 3f a4 3c da 3c
       0.10989798 -0.25647542 0.585409 0.026640244
0000d0 8e 99 b3 bc 4f 02 dd 3e 69 89 04 be eb fb cd 3e
       -0.021923807 0.43165824 -0.12943043 0.4023126
0000e0 de ad 83 3d 37 f0 bf 3e 46 5d 01 be 81 98 30 be
       0.06429647 0.37487957 -0.12633237 -0.17245676
0000f0 1b 7c 27 be cf fe 35 3e 9f 53 71 3d a9 fa 65 bd
       -0.16355936 0.17772983 0.058917638 -0.05614725
000100 97 f8 c0 be 46 ab 0c bf cf 75 a3 3d e2 47 48 bd
       -0.3768966 -0.5494884 0.079814546 -0.048896678
000110 41 0f 47 bc 6c 3d 0a 3e 83 95 98 3d d5 58 e0 bd
       -0.012149633 0.13499993 0.07450392 -0.10954443
000120 2e 52 e7 3d d5 ab 07 3e 76 d1 44 3e 3e 82 1f 3e
       0.112949714 0.13249142 0.19220528 0.15577027
000130 fd c0 fb 3c 6b 5e 1a be b7 96 18 be d0 db a9 bb
       0.030731672 -0.1507508 -0.14901243 -0.0051836744
000140 50 73 03 ba 7c 0a 86 bc 58 5e 6f 3e ee d5 0e 3e
       -0.00050144363 -0.016362421 0.23375833 0.13948795
000150 2e 29 ac bb 0a 9d be 3d d3 62 27 bd e8 15 a2 bb
       -0.0052539324 0.093072966 -0.04086573 -0.004946459
000160 72 73 66 bd 88 60 0f 3d b0 39 72 be ad e3 2f 3d
       -0.05626244 0.03500417 -0.23654819 0.042941738
000170 be 19 f3 3b e8 3a 51 be fa c6 6f 3d f9 68 96 bd
       0.00741884 -0.20432627 0.05853937 -0.07344241
000180 0b e2 ed bd b4 60 8c be e2 43 13 be 94 a9 8d 3d
       -0.1161538 -0.2741753 -0.14381364 0.0691711
000190 a4 1d fb 3d 4c bf 06 be 43 60 04 3d 3f e0 78 3d
       0.12261513 -0.13158911 0.032318365 0.060760733
0001a0 a2 95 9d 3d 62 71 97 bc 51 db 11 3e b3 93 6e 3d
       0.07694556 -0.018486682 0.14243819 0.058246326
0001b0 6a cc 1d 3e 96 9e df bc 4f 63 12 be 46 98 1f 3e
       0.15410009 -0.0272973 -0.14295696 0.15585431
0001c0 3c 4e 61 bd df a6 f3 bc fa 35 84 3e 3a ec 74 3e
       -0.05500625 -0.029742656 0.2582243 0.23918238
0001d0 77 b4 b0 bd 54 a5 37 3e c8 83 1b 3e 4e 98 99 3e
       -0.08628171 0.17934161 0.1518699 0.29999012
0001e0 65 2b 7a bd b2 b7 83 3e e8 8e 84 bd 05 e3 c8 3c
       -0.06107654 0.25726086 -0.0647257 0.024522314
0001f0 b1 0f f5 bd 09 08 b1 be 58 44 49 3e 19 3a 4d ba
       -0.119658835 -0.34576443 0.19654977 -0.00078287866
000200 03 92 76 bb 41 6d cb 3d e4 f5 d7 be 03 db d6 3a
       -0.003762365 0.09932948 -0.42179787 0.0016392175
000210 9d ed 96 3d 8d 97 0d bd e1 a5 f4 3c e9 48 a7 3d
       0.0736954 -0.03456836 0.029864253 0.081682034
000220 16 34 18 3e 7d b3 c1 3d 01 6b 90 3f 8b d6 3b 3d
       0.14863619 0.09458063 1.1282655 0.0458589
000230 c9 c9 3c 3e 55 ca 90 bd 8c aa 30 bd a0 94 7c 40
       0.1843635 -0.07069842 -0.043131396 3.9465714
000240 8a 61 9e bd 4e 0b 24 3d 32 16 fc 3c 69 cf c8 3c
       -0.07733448 0.040049843 0.030772302 0.024512963
000250 f6 2d 62 3b 29 3e 8c 3d 89 a2 b3 3e 1d 3a 01 be
       0.0034512258 0.068477936 0.35084942 -0.12619825
000260 02 07 56 be 11 b8 39 3b d4 31 bf 3d 3f 96 e1 3b
       -0.20901111 0.0028338472 0.09335676 0.006884366
000270 89 fd b7 3d 4f ff 8b be a2 c1 9a 3d 0f 0c cc bd
       0.08983905 -0.27343222 0.07556464 -0.099632375
000280 7a 8d 52 bf fd c9 31 bf 20 cf e9 bb e4 31 51 3e
       -0.82247126 -0.69448835 -0.007135287 0.20429188
000290 25 24 e7 bb 12 92 af bc 62 b8 5d bd 6b 6e 7a 3e
       -0.0070538693 -0.021431956 -0.05413092 0.24456184
0002a0 13 df 12 3e e9 ec 2e 3e 82 ca 6c bd 74 b4 79 3d
       0.14342909 0.17082562 -0.057810314 0.06096311
0002b0 25 c3 7a 3e f9 18 a2 be f5 b6 c2 3d 50 78 c4 bd
       0.24488504 -0.31659678 0.095075525 -0.0959326
0002c0 b7 68 7a 3d 57 96 4c 3c 19 5e d1 3d 10 01 bf 3d
       0.06113502 0.012487016 0.10223026 0.093263745
0002d0 9a e6 67 3e 42 d4 0e 3e c1 4b 65 be 7b e2 f3 bc
       0.22646561 0.13948157 -0.22392179 -0.02977108
0002e0 ae d3 0d 3e 5c fc 69 3d dd 35 c1 be 36 26 47 3e
       0.1385028 0.057125434 -0.37736407 0.1944817
0002f0 85 39 39 bd 95 60 3c bf c2 36 a0 3e 09 38 e0 3d
       -0.04522087 -0.7358487 0.31291777 0.10948188
000300 56 9a 9c be 30 95 3e bf f4 79 00 be 08 f8 50 3e
       -0.305865 -0.7444639 -0.12546521 0.20407116
000310 6b b5 bf 3d 9d e5 ff 3c 14 98 8d 3d 14 ea e6 3d
       0.093607746 0.031237418 0.06913772 0.112751156
000320 89 6a ff 3d d2 50 f7 3d 96 f7 15 bc d7 0a 48 3e
       0.12471492 0.12075962 -0.009153267 0.19535385
000330 99 cf 1c 3d 7e 16 b4 3e 28 0a 20 be eb ff 13 bd
       0.038283918 0.3517341 -0.15628874 -0.036132734
000340 f9 e8 cb 3d c8 29 9f be a3 a2 5d 3c b2 5f 0a 3e
       0.099565454 -0.31086564 0.013527545 0.13513067
000350 5a 78 78 bd 42 38 eb 3d 82 90 6f 3e e0 c9 09 be
       -0.06066165 0.1148534 0.23394969 -0.13455915
000360 fe 2a 31 3e fe 58 a1 3e 1a ce 28 bf c4 46 a4 3d
       0.17301556 0.31513208 -0.65939486 0.0802131
000370 ba 6b b5 bc 02 bd 7f be 07 7a 38 3e 33 ff e1 3d
       -0.022146095 -0.24974445 0.180153 0.110350035
000380 00 7c d8 3e 88 6d f5 3e b0 42 17 bf 60 68 25 bf
       0.42282104 0.47935128 -0.5908613 -0.6461239
000390 44 dc dc 3d 49 77 18 bf 63 9e a3 bc 36 45 f1 be
       0.107842 -0.59557015 -0.019972986 -0.47123116
0003a0 ed d3 b2 3f b3 9e a0 3d af 2b ad 3d 86 e3 0c 3e
       1.3970925 0.078427695 0.084555976 0.13758668
0003b0 23 75 94 3e 05 77 9c 3e f9 1e b3 bd ea 26 3f 40
       0.28995618 0.30559555 -0.08746142 2.9867501
0003c0 e2 45 37 bf 51 4c a5 3e 6d 00 89 3c a2 6d 5e bf
       -0.7159101 0.32284787 0.016723836 -0.86886036
0003d0 ab fa 95 bf ea 0c 2b bf 19 bd dd bc 19 20 02 3e
       -1.1717123 -0.6681658 -0.027067708 0.12707557
0003e0 72 61 97 be 37 b4 e3 be 11 81 d9 3d 96 22 98 bc
       -0.29566532 -0.4447343 0.106203206 -0.01857118
0003f0 ec dd 9d 3d 9e fa d1 3d 65 b9 77 bf 62 ca 77 bf
       0.07708344 0.102528796 -0.96767265 -0.96793187

model.6.bias f4 [32]
000000 39 22 af 39 f6 d3 a8 bd 6c 60 a9 bd a8 69 58 3c
       0.000334041 -0.08243553 -0.08270344 0.013208784
000010 81 3d 2d 3e 78 1e 09 3c 0c eb c9 3d c4 51 b0 bc
       0.16917993 0.008369081 0.09859285 -0.021523364
000020 b8 39 5b 3e 24 cb 1a 3c 29 f0 c8 bd 05 f8 f2 bc
       0.21408737 0.009447847 -0.09811432 -0.02965928
000030 fc 58 40 be dc cd 8f bd 83 af b0 3d 1d 95 69 be
       -0.18783945 -0.070216864 0.08627226 -0.22810788
000040 b3 05 74 bd fc b9 45 be 4a 0b e8 bd a0 b4 a2 3d
       -0.059575748 -0.19309229 -0.11330278 0.07944608
000050 ae 3a d0 3d 1a ae d1 bb ab 64 01 3e 25 34 42 bc
       0.10167442 -0.0063989284 0.12636058 -0.011853253
000060 2b ab 4a be ff 2f 14 3c 22 c9 b9 3d 6d a4 d3 3d
       -0.19791858 0.009044646 0.09071566 0.10334096
000070 c1 53 04 be a7 b6 34 bd 19 cf 2e be 02 1b 20 3e
       -0.12922575 -0.044119503 -0.17071189 0.15635303

model.8.weight f4 [1, 32]
000000 9c 3f 95 be 26 f1 cf 3e 27 d4 ad 3d 79 13 3a 3e
       -0.29150093 0.4061367 0.084877305 0.1817149
000010 25 84 82 bf a2 b1 9e 3e 26 eb 91 be 57 f2 39 bf
       -1.0196577 0.30994898 -0.28499717 -0.72635406
000020 a3 f3 ce 3e 57 84 49 bf 99 07 b3 bd 06 73 d4 b9
       0.40420255 -0.7871756 -0.087416835 -0.0004052149
000030 b9 70 22 3f ac 54 75 be 87 63 43 be d3 ae 43 bf
       0.6345325 -0.23958081 -0.19080935 -0.76438636
000040 10 fd 38 3f 63 00 80 be 1c e9 82 be 3c 72 6f be
       0.7226114 -0.25000295 -0.25568473 -0.2338342
000050 86 f9 63 be d9 2a 01 bf 2c 0e a6 3e 8b da 36 3f
       -0.22263154 -0.50456005 0.32432687 0.7142722
000060 1c ff 77 3e 5d 73 2c be 69 85 3b be b6 22 48 3d
       0.2421841 -0.16840883 -0.1831261 0.048861228
000070 c9 ba 87 be 64 5e 5f bf b1 79 95 be e5 a4 b1 bf
       -0.26509693 -0.87253404 -0.29194406 -1.3878447
