best_model_5.pt (torch, 10694 bytes, 13 tensors)

model.0.weight f4 [16, 1]
-0.23322962 -0.6979985 0.0063802204 0.9800349 -1.2979456 -0.06960108 -1.1655211 -0.106406905
-1.2670835 -1.3372632 -1.2846892 1.3829945 0.07508472 1.4698728 -0.80454004 -0.17956844
00000000: bfd3 6ebe 08b0 32bf 2b11 d13b 91e3 7a3f
00000010: 1523 a6bf 038b 8ebd cc2f 95bf ddeb d9bd
00000020: cb2f a2bf 712b abbf b270 a4bf f705 b13f
00000030: 05c6 993d cb24 bc3f 56f6 4dbf cae0 37be

model.0.bias f4 [16]
0.96280843 0.76136065 -0.4255778 0.1678152 0.08149711 -0.8404659 0.85519224 0.6137473
-0.26715115 -0.084323384 -0.36523333 -0.31687573 -0.7718742 0.6125468 -0.60524964 -0.6754268
00000000: 9d7a 763f 88e8 423f 55e5 d9be bfd7 2b3e
00000010: f5e7 a63d c628 57bf e1ed 5a3f 8b1e 1d3f
00000020: 09c8 88be bdb1 acbd ddff babe 893d a2be
00000030: 8c99 45bf decf 1c3f a4f1 1abf c5e8 2cbf

model.2.weight f4 [16, 16]
0.09730537 0.2513384 0.10332219 0.43252584 0.34250358 -0.056277115 0.33233473 0.25248355
0.7180774 0.74194515 0.66135347 0.6858329 -0.040343683 0.2535594 0.50569457 -0.16923936
0.3945064 0.42916092 -0.28073543 -0.038131654 -0.24641421 -0.28095192 0.007689671 0.43533567
-0.3543932 -0.23624817 -0.48656756 -0.60278845 -0.25927874 0.20808557 -0.8240291 -0.53639394
0.07635303 0.22866839 -0.004319355 0.35186496 0.30757004 -0.31596547 0.1497731 -0.009024054
0.53357065 0.450819 0.56627965 0.443944 0.083046645 0.3005376 0.42128968 -0.1402837
0.17076348 -0.6093437 -0.31264436 0.4849917 -0.5312928 -0.12589397 -0.6707527 -0.04062171
-0.5417137 -0.43022406 -0.4435876 0.9545199 -0.32074955 0.29205826 -0.2531368 -0.035322975
0.10555634 0.31037244 -0.14082403 0.20737833 0.22504342 0.051875588 0.25781804 0.06694357
0.5498688 0.54977024 0.565099 0.75436246 -0.28482854 0.4922512 0.321044 -0.30293506
0.009783646 0.12482273 -0.47008687 -0.07255188 -0.11915634 -0.14433995 0.3739973 0.17766483
-0.023157569 -0.24594091 -0.18842897 -0.16460949 -0.27533123 0.2295207 -0.5414586 -0.30098444
0.119684964 0.31421605 -0.31463173 -0.01911915 0.0063891667 -0.36125374 -0.11888347 0.10967597
-0.106019266 -0.032999396 -0.5296474 -0.333764 -0.51316553 0.04260816 -0.97173643 -0.5531143
0.0011118962 -0.11962683 0.04370519 0.38932624 0.25917903 -0.07598206 -0.1459714 0.13185003
0.4185455 0.5176922 0.5827211 0.545745 -0.26607093 0.3752555 0.16502333 -0.21715152
-0.010705892 0.19777645 0.029585203 0.26537383 0.52509123 -0.27842438 0.08270933 0.13937049
0.68241185 0.70623636 0.68692607 0.85982364 -0.116849 0.32556373 0.3926483 0.078691974
0.16875343 0.13325958 -0.36395976 0.13265376 0.014310857 -0.22210954 0.13608809 0.33774877
-0.33560824 -0.001189681 -0.46212065 -0.40106562 -0.6117078 0.028150242 -0.6483379 -0.23404087
-0.24088645 -0.45834348 -0.21788862 0.34890395 -0.8036966 0.0023822312 -0.7076758 0.10271968
-0.5381693 -0.6127097 -0.3990695 0.451925 0.098512985 0.3835797 0.014664551 -0.28192288
0.29792473 0.10479838 -0.019023675 -0.15740055 -0.11247204 -0.014269773 -0.017370896 0.4212117
-0.2070784 -0.4008326 -0.24918446 -0.52691066 -0.19199541 -0.009934815 -0.44763002 -0.16990772
-0.059438877 0.02736541 -0.28740227 0.08566965 0.2993538 -0.15670739 0.41039866 0.030666098
0.5028237 0.55538195 0.509584 0.74291277 -0.112442404 0.30139756 0.3613888 -0.16440645
0.21214068 0.38591883 -0.24067342 0.3036278 -0.14577445 -0.45753223 0.14012456 0.505201
-0.17780758 -0.17812069 -0.58791685 -0.2950793 -0.41658098 0.013274304 -0.77524525 -0.13143714
-0.0166136 0.22466992 -0.108368024 0.2577925 0.040101394 -0.08623556 0.21132344 0.08414814
0.11234392 0.15291359 0.51846653 0.64895874 -0.082383215 0.51967794 0.4257005 -0.017365571
0.13295558 0.29083756 0.0019642992 -0.251077 -0.12252771 -0.15244374 0.16806936 0.11831347
-0.4850493 -0.07102656 -0.5208805 -0.35253906 -0.3360257 0.23281966 -0.7380067 -0.30952907
00000000: 0a48 c73d 6daf 803e 969a d33d 0774 dd3e
00000010: a15c af3e d582 66bd c727 aa3e 8645 813e
00000020: ecd3 373f 1ef0 3d3f 764e 293f bf92 2f3f
00000030: 6b3f 25bd 8ad2 813e 3375 013f 154d 2dbe
00000040: befc c93e fbba db3e 8ebc 8fbe f02f 1cbd
00000050: 0254 7cbe eed8 8fbe a3f9 fb3b 51e4 de3e
00000060: 0773 b5be 0aeb 71be 621f f9be 5850 1abf
00000070: 2fc0 84be 6214 553e 92f3 52bf 1d51 09bf
00000080: fa5e 9c3d 0c28 6a3e 6089 8dbb a527 b43e
00000090: d279 9d3e 3ac6 a1be 1f5e 193e a0d9 13bc
000000a0: 1698 083f bfd1 e63e b4f7 103f a14c e33e
000000b0: 5c14 aa3d 10e0 993e 48b3 d73e 88a6 0fbe
000000c0: 9fdc 2e3e f3fd 1bbf ec12 a0be d550 f83e
000000d0: ce02 08bf 59ea 00be 73b6 2bbf f362 26bd
000000e0: c0ad 0abf 5446 dcbe ea1d e3be 6b5b 743f
000000f0: 4939 a4be a988 953e 269b 81be d3ae 10bd
00000100: ec2d d83d 23e9 9e3e 2d34 10be fc5a 543e
00000110: c871 663e 7f7b 543d ba00 843e b619 893d
00000120: 34c4 0c3f bebd 0c3f 54aa 103f e61d 413f
00000130: 0cd5 91be 5908 fc3e e15f a43e 4e1a 9bbe
00000140: 964b 203c 0fa3 ff3d 3aaf f0be 1496 94bd
00000150: 3d08 f4bd dacd 13be 937c bf3e c5ed 353e
00000160: f1b4 bdbc efd7 7bbe 86f3 40be 648f 28be
00000170: 37f8 8cbe 7907 6b3e 089d 0abf a21a 9abe
00000180: 641d f53d ede0 a03e 6917 a1be c39f 9cbc
00000190: 375c d13b 40f6 b8be 2d79 f3bd cc9d e03d
000001a0: a120 d9bd 602a 07bd f996 07bf 1de3 aabe
000001b0: d15e 03bf e585 2e3d b8c3 78bf e698 0dbf
000001c0: 0cbd 913a e9fe f4bd 3704 333d c555 c73e
000001d0: 1db3 843e 7b9c 9bbd 8779 15be b203 073e
000001e0: 994b d63e 7a87 043f 362d 153f f2b5 0b3f
000001f0: 733a 88be 7d21 c03e e0fb 283e f85c 5ebe
00000200: c467 2fbc e985 4a3e ab5c f23c 14df 873e
00000210: 616c 063f a48d 8ebe 8263 a93d 23b7 0e3e
00000220: 8bb2 2e3f e8cb 343f 63da 2f3f 671d 5c3f
00000230: 874e efbd 4ab0 a63e 3309 c93e 4229 a13d
00000240: b3cd 2c3e 3375 083e ef58 babe 63d6 073e
00000250: 1678 6a3c af70 63be ad5a 0b3e 68ed ac3e
00000260: d8d4 abbe 12ef 9bba 149b ecbe 7958 cdbe
00000270: e298 1cbf 569b e63c 79f9 25bf 69a8 6fbe
00000280: f0aa 76be ffab eabe 321e 5fbe 8aa3 b23e
00000290: 0fbf 4dbf 351f 1c3b 3e2a 35bf b25e d23d
000002a0: 77c5 09bf 8bda 1cbf d652 ccbe b762 e73e
000002b0: 2dc1 c93d 8f64 c43e 9643 703c 3258 90be
000002c0: 9789 983e 88a0 d63d 8ad7 9bbc 9c2d 21be
000002d0: be57 e6bd c4cb 69bc 694d 8ebc 0fa9 d73e
000002e0: 5c0c 54be ee39 cdbe 362a 7fbe 9ee3 06bf
000002f0: 729a 44be a2c5 22bc c32f e5be 4afc 2dbe
00000300: 2e76 73bd 6d2d e03c 6426 93be 9273 af3d
00000310: e744 993e e777 20be c61f d23e 7837 fb3c
00000320: 0eb9 003f 832d 0e3f 1974 023f 882f 3e3f
00000330: 3448 e6bd c850 9a3e f407 b93e 2a5a 28be
00000340: 683b 593e 2797 c53e 1873 76be 1a75 9b3e
00000350: e645 15be aa41 eabe d07c 0f3e da54 013f
00000360: 3113 36be 4565 36be b881 16bf a214 97be
00000370: 1a4a d5be 777c 593c 7976 46bf 7597 06be
00000380: 3f19 88bc df0f 663e 0ef0 ddbd 61fd 833e
00000390: 5c41 243d 459c b0bd 2c65 583e dc55 ac3d
000003a0: 9214 e63d 6195 1c3e 39ba 043f 2922 263f
000003b0: 88b8 a8bd 9d09 053f 6af5 d93e 3e42 8ebc
000003c0: 8225 083e a9e8 943e 79bb 003b 2a8d 80be
000003d0: cfef fabd 361a 1cbe 601a 2c3e 554e f23d
000003e0: 6258 f8be 6076 91bd 6d58 05bf 0080 b4be
000003f0: 900b acbe 4768 6e3e 02ee 3cbf 987a 9ebe

model.2.bias f4 [16]
0.25872543 0.21919258 0.29619718 -0.013777281 0.023996353 0.35799104 0.370262 0.1751449
0.21012862 0.17751856 0.15834908 0.4852661 -0.027407229 0.090207085 0.25584117 0.38331607
00000000: a977 843e 0574 603e 28a7 973e 1bba 61bc
00000010: 0094 c43c 9a4a b73e fb92 bd3e 2f59 333e
00000020: f52b 573e 6dc7 353e 4326 223e cc74 f83e
00000030: 2085 e0bc 7ebe b83d 9dfd 823e 0142 c43e

model.4.weight f4 [16, 16]
0.1850117 0.30121285 -0.036216177 0.16292813 0.18700558 0.392184 0.59238553 -0.2998312
0.28168437 0.62514144 0.16319925 0.76920515 -0.0102582965 0.40431178 0.35631 0.5976008
-0.0077874786 -0.4083632 -0.13363369 0.4869086 0.21013893 -0.03828834 -0.097625725 0.51608187
0.37795427 -0.0064916494 0.2737078 -0.46710923 0.16749182 -0.1512142 0.14302625 -0.21682031
0.1708375 -0.29660344 0.0089114 0.38273743 0.035564728 -0.19677512 -0.070105836 0.02965937
0.107455514 -0.4212015 0.50436616 -0.4191761 0.19330424 -0.47491062 -0.060750365 -0.15791833
-0.084081665 0.97038627 -0.016242225 -0.51805514 -0.1844442 0.41870585 0.6640778 -0.14624073
-0.5601771 0.800604 -0.9962996 0.81184167 -0.48522696 0.683164 -0.208241 0.7501171
-0.6582232 0.8961662 -0.24964508 -1.9143661 -0.8846658 0.5337393 0.6697297 -0.9122409
-2.0600684 0.66867137 -2.275021 0.87502605 -1.5527804 0.98540205 0.023203317 0.9729038
0.39428532 -0.29126194 0.26790375 0.5102813 0.40630734 -0.09375944 -0.03144025 0.61057925
0.2884775 -0.25082403 0.41786996 -0.6168132 0.41919258 -0.2628742 0.12990005 -0.14812079
0.17542332 -0.16447526 -0.059037805 0.48009154 0.36423174 -0.21410802 -0.3705278 0.437686
0.41655633 -0.43312955 0.05644289 -0.23213182 0.12163718 -0.08589618 0.2770728 -0.09956761
0.18356958 -0.5181651 0.3811103 0.5824248 0.53567207 -0.18545672 -0.09379683 0.62255156
0.2894384 -0.18081348 0.44994015 -0.64581007 0.2420425 0.14457293 0.26928532 -0.23509315
0.2580383 -0.31234923 -0.071841 0.5536219 0.28859755 -0.22046101 -0.2359286 0.54922384
0.34291 -0.36294338 0.06975243 -0.5164998 0.35196126 0.0651506 0.16001983 -0.33156148
0.30048543 0.04522529 0.37291107 0.41729355 -0.047249794 0.3857108 0.28030682 0.003963486
0.10756473 0.27108166 -0.0348343 0.37290633 0.17320698 0.36203054 0.33478522 0.35208723
-0.008926114 0.24621071 0.28106797 0.14111057 0.3750606 0.48218367 0.31608498 0.11855008
-0.124114856 0.3056366 -0.0037555438 0.33403084 0.24007471 0.32859677 0.07310601 0.31902274
0.012811411 -0.09789021 0.2579865 0.60964894 0.46077797 0.08989598 -0.2720347 0.38030168
0.4422147 -0.34478512 0.06331977 -0.47687104 0.37869316 -0.35112202 0.37217483 -0.32453102
-0.011277631 -0.28367946 0.26193994 0.38587645 0.17732981 -0.17129005 -0.15165092 0.39180812
0.55750763 -0.32833558 0.3556841 -0.4221299 0.17899004 -0.4366215 0.120537736 -0.17474814
0.77402556 0.02131167 0.40184864 0.99516875 0.9299646 0.17514871 -0.2904323 0.8856926
0.94325 0.000484724 1.4407835 -0.36121976 0.6357549 -0.12699781 0.5940423 -0.24004193
-0.114490524 -0.36442515 0.14267147 0.5939641 0.33439353 -0.22819142 0.042582236 0.47192508
0.21624649 -0.002353423 0.18064286 -0.5080589 0.44634137 -0.18129404 0.30312574 -0.4185591
0.26013005 0.7138593 0.16155002 -0.13657801 0.14027797 0.6215544 0.5430483 -0.01899966
0.10380262 0.38257778 0.28797895 0.26504585 0.10412445 0.4700385 0.13817377 0.3487457
00000000: b573 3d3e 9238 9a3e 6a57 14bd a2d6 263e
00000010: 647e 3f3e 57cc c83e 94a6 173f 7a83 99be
00000020: ef38 903e 4509 203f b41d 273e a1ea 443f
00000030: 6a12 28bc f401 cf3e 446e b63e 5efc 183f
00000040: 1b2e ffbb fb14 d1be 45d7 08be 164c f93e
00000050: a92e 573e 3cd4 1cbd ffef c7bd f11d 043f
00000060: 3983 c13e e7b7 d4bb 6e23 8c3e f128 efbe
00000070: fa82 2b3e e5d7 1abe 7975 123e 2506 5ebe
00000080: 07f0 2e3e 68dc 97be 1f01 123c 29f6 c33e
00000090: 52ac 113d 6b7f 49be a693 8fbd 35f8 f23c
000000a0: a311 dc3d b9a7 d7be 241e 013f 409e d6be
000000b0: 8cf1 453e 7c27 f3be 60d5 78bd 58b5 21be
000000c0: 0233 acbd 3c6b 783f 6a0e 85bc 439f 04bf
000000d0: f1de 3cbe 9d60 d63e 0101 2a3f 21c0 15be
000000e0: c467 0fbf 62f4 4c3f 7e0d 7fbf dbd4 4f3f
000000f0: ab6f f8be d6e3 2e3f 213d 55be ad07 403f
00000100: 5181 28bf 266b 653f f6a2 7fbe f309 f5bf
00000110: 7579 62bf 24a3 083f 6873 2b3f 9f88 69bf
00000120: 29d8 03c0 0c2e 2b3f f299 11c0 b501 603f
00000130: 82c1 c6bf 4f43 7c3f e214 be3c 3910 793f
00000140: c4df c93e 4920 95be ae2a 893e cca1 023f
00000150: 8407 d03e f304 c0bd 7ec7 00bd ec4e 1c3f
00000160: 53b3 933e 026c 80be 0df3 d53e 78e7 1dbf
00000170: 69a0 d63e 7297 86be 8504 053e faac 17be
00000180: 2ca2 333e 346c 28be a0d1 71bd 8fce f53e
00000190: 957c ba3e 223f 5bbe d2b5 bdbe 6118 e03e
000001a0: df46 d53e 28c3 ddbe a930 673d f7b3 6dbe
000001b0: ea1c f93d 56ea afbd 7cdc 8d3e 1aea cbbd
000001c0: aaf9 3b3e 78a6 04bf e420 c33e cb19 153f
000001d0: ce21 093f 5ee8 3dbe 8d18 c0bd 8a5f 1f3f
000001e0: 4531 943e 2b27 39be 8e5e e63e cf53 25bf
000001f0: fdd9 773e ed0a 143e c4df 893e 42bc 70be
00000200: 991d 843e 3dec 9fbe 6021 93bd 2aba 0d3f
00000210: 0fc3 933e 88c0 61be 4497 71be ef99 0c3f
00000220: e691 af3e b7d3 b9be 5dda 8e3d 5539 04bf
00000230: 4434 b43e ae6d 853d 3ddc 233e 6dc2 a9be
00000240: 3ad9 993e 273e 393d 33ee be3e 80a7 d53e
00000250: 0089 41bd e37b c53e 6084 8f3e 21e0 813b
00000260: e64a dc3d 37cb 8a3e 69ae 0ebd 94ed be3e
00000270: 2c5d 313e 115c b93e f868 ab3e c744 b43e
00000280: d63e 12bc a91e 7c3e 24e8 8f3e 4a7f 103e
00000290: f107 c03e c7e0 f63e e4d5 a13e 62ca f23d
000002a0: ee2f febd 677c 9c3e 921f 76bb 1706 ab3e
000002b0: 25d6 753e d63d a83e 9bb8 953d f356 a33e
000002c0: f4e6 513c aa7a c8bd ce16 843e f411 1c3f
000002d0: 17eb eb3e 621b b83d 2248 8bbe e7b6 c23e
000002e0: f769 e23e ad87 b0be ccad 813d 7128 f4be
000002f0: 12e4 c13e 44c6 b3be b38d be3e ee28 a6be
00000300: d0c5 38bc 6f3e 91be fe1c 863e 9991 c53e
00000310: f295 353e a966 2fbe 614a 1bbe 139b c83e
00000320: d2b8 0e3f 9a1b a8be 3a1c b63e 6921 d8be
00000330: 2a49 373e da8c dfbe 7ddc f63d 2df1 32be
00000340: 8a26 463f d095 ae3c 1bbf cd3e 61c3 7e3f
00000350: 2912 6e3f 2f5a 333e 8bb3 94be c0bc 623f
00000360: d578 713f 8e22 fe39 986b b83f ccf1 b8be
00000370: d5c0 223f b70b 02be 2813 183f 8dcd 75be
00000380: 027a eabd ef95 babe 7818 123e 080e 183f
00000390: a135 ab3e 03ab 69be b66a 2e3d 2aa0 f13e
000003a0: b86f 5d3e e33b 1abb 71fa 383e 2610 02bf
000003b0: db86 e43e 25a5 39be 4c33 9b3e 614d d6be
000003c0: c42f 853e 7cbf 363f 5e6d 253e 1bdb 0bbe
000003d0: 07a5 0f3e 301e 1f3f 3705 0b3f 2da5 9bbc
000003e0: 7896 d43d 3ce1 c33e fa71 933e 17b4 873e
000003f0: 333f d53d e3a8 f03e 6d7d 0d3e cc8e b23e

model.4.bias f4 [16]
0.5653526 0.040124703 -0.287494 0.51100963 0.42880797 -0.012058676 -0.28218538 0.11047749
0.022880154 0.37451065 0.37273708 -0.031763624 -0.27590677 0.46326616 0.05336088 0.5163974
00000000: f3ba 103f cd59 243d 6a32 93be 87d1 023f
00000010: b88c db3e c191 45bc 9a7a 90be 0642 e23d
00000020: 296f bb3c dcbf bf3e 65d7 be3e 931a 02bd
00000030: a743 8dbe 3931 ed3e f090 5a3d 9f32 043f

model.6.weight f4 [16, 16]
-0.41785663 0.34655038 0.5935961 -0.15461315 0.0018471999 0.2168755 0.39557198 0.57557625
0.27204022 -0.64958423 -0.60402834 0.5060531 0.34923434 -0.16324438 0.4157249 -0.49288404
-0.155793 0.29987973 -0.12051142 -0.16819122 -0.783345 0.45500773 0.103133865 0.13551931
0.13462505 -0.14468975 -0.22252858 0.19186004 0.12569448 0.18333821 0.1064694 -0.06776352
-0.15421633 -0.14709146 0.0058072847 -0.36240205 -1.0530592 0.37039194 0.0007800652 0.28699645
-0.2380041 0.14407401 -0.25024503 -0.0045532784 0.19686262 -0.03386021 0.17922859 -0.16633329
-0.5238272 0.46969813 0.43818602 -0.023549512 0.10066131 0.259457 0.39204875 0.4581537
0.40696362 -0.29723704 -0.5501524 0.14152703 0.25691554 -0.01120953 0.22389501 -0.6325101
-0.3719985 -0.07705898 -0.52560705 -0.5924409 -1.3571774 0.38895318 0.16828924 0.5852716
-0.027108459 0.0835371 -0.14083897 0.49343774 -0.13948353 0.50483316 0.21631959 -0.26103655
-0.11196334 -0.26103887 -0.28892553 -0.48724717 -0.933157 0.28026053 0.007344232 0.616338
0.14387111 0.23355971 0.25508967 0.10446406 -0.42216983 0.61956555 -0.09762543 -0.13956814
-0.47575974 -0.07229583 0.05417806 -0.45817626 0.04023826 -0.025395477 0.017612344 -0.0887391
0.22841592 -0.43655938 -0.35352132 0.041457437 0.25231922 0.11906905 -0.12973306 -0.2342482
-0.7423064 0.35295644 0.19157134 -1.4488709 -0.044791806 0.57415754 0.5710721 0.38268432
0.58186865 -0.4420839 -0.22738059 0.4891537 0.3415499 0.519848 0.30412987 -0.40616944
0.24626926 -0.90518594 -0.38502166 -0.41909045 -0.5255288 -0.33281264 -0.52748686 -0.14988758
-0.6641478 0.5369572 0.12398503 -0.5402474 -0.95522416 0.54667133 -0.49594316 0.32822666
-0.18785775 0.093286276 0.08973685 -0.1827529 0.31992778 -0.04653776 -0.095320754 0.016269926
0.15885757 -0.2306966 -0.41654655 0.031604767 -0.10197538 0.091646075 0.053860515 -0.41108337
0.26486942 -1.0252855 -0.34591493 -0.60328275 -1.0194691 -0.5476365 -0.5112273 0.014860408
-0.53285795 0.080799766 0.4295556 -0.5021071 -0.22700131 0.6003276 -0.45002553 0.3460824
-0.36672837 0.22821355 0.61426425 0.19217029 0.12202815 0.4108843 0.29383084 0.09494793
0.39868408 -0.28136522 -0.6511018 0.034116812 0.52741516 0.016707009 0.40453067 -0.5785484
-0.23615664 0.008865881 0.24441242 -0.95906085 -0.65873146 0.24162436 0.42039737 0.66201895
0.41788378 -0.06083129 -0.2283631 0.3756401 0.36362392 0.002949815 0.57984537 -0.5375558
-0.5192605 0.28256795 0.34027037 -0.12631679 -0.041978605 0.24737935 0.3288932 0.41427487
0.31157175 -0.47928482 -0.41762063 0.22767505 0.42795318 0.20611578 -0.029318817 -0.66855836
-0.1512272 0.41362596 0.27291906 0.12575197 0.19071773 0.2885868 0.18360184 0.31806663
0.30029774 -0.39119402 -0.25506663 0.4140529 0.4295261 0.14665312 0.05133274 -0.25850224
-0.46579146 0.28880677 0.25352633 -1.1964048 -0.2258475 0.51459396 0.5161919 0.41790712
0.7739409 -0.3273341 -0.21545961 0.3631997 0.75767386 0.13114299 0.6507436 -0.107830115
00000000: 4ef1 d5be 0d6f b13e eaf5 173f e952 1ebe
00000010: be1d f23a 9c14 5e3e 6988 ca3e f758 133f
00000020: db48 8b3e 274b 26bf 9aa1 1abf b28c 013f
00000030: d8ce b23e 8929 27be e5d9 d43e 4c5b fcbe
00000040: 3388 1fbe d689 993e b1ce f6bd 523a 2cbe
00000050: 4c89 48bf c6f6 e83e d937 d33d 93c5 0a3e
00000060: 26db 093e 8d29 14be 88de 63be f576 443e
00000070: 0eb6 003e 03bd 3b3e a10c da3d 9ac7 8abd
00000080: e3ea 1dbe 259f 16be 094b be3b c38c b9be
00000090: a5ca 86bf 03a4 bd3e 4a7d 4c3a 33f1 923e
000000a0: 59b7 73be 2388 133e 1e20 80be ab33 95bb
000000b0: 5b96 493e 01b1 0abd b387 373e 4653 2abe
000000c0: 8a19 06bf 467c f03e eb59 e03e e8ea c0bc
000000d0: 8427 ce3d 8cd7 843e 9dba c83e 1f93 ea3e
000000e0: 895d d03e 742f 98be cad6 0cbf 76ec 103e
000000f0: 6f8a 833e 2da8 37bc bc44 653e 2fec 21bf
00000100: 9676 bebe 19d1 9dbd 2f8e 06bf 35aa 17bf
00000110: fdb7 adbf df24 c73e 0454 2c3e 5cd4 153f
00000120: 8f12 debc 8015 ab3d 1738 10be dfa3 fc3e
00000130: c5d4 0ebe bf3c 013f e282 5d3e 95a6 85be
00000140: 094d e5bd e3a6 85be 0cee 93be 7678 f9be
00000150: 61e3 6ebf 4f7e 8f3e e2a7 f03b 54c8 1d3f
00000160: f352 133e 472a 6f3e 1d9b 823e 41f1 d53d
00000170: a526 d8be d99b 1e3f d7ef c7bd f3ea 0ebe
00000180: c896 f3be d60f 94bd d0e9 5d3d 1496 eabe
00000190: e0d0 243d 2d0a d0bc c347 903c d8bc b5bd
000001a0: dde5 693e b684 dfbe bf00 b5be 46cf 293d
000001b0: fc2f 813e 79da f33d bed8 04be c3de 6fbe
000001c0: cb07 3ebf b5b6 b43e 472b 443e 9a74 b9bf
000001d0: 9d77 37bd fdfb 123f c831 123f 33ef c33e
000001e0: 58f5 143f d258 e2be 75d6 68be 5b72 fa3e
000001f0: a1df ae3e c214 053f e9b6 9b3e 71f5 cfbe
00000200: 022e 7c3e 44ba 67bf 8f21 c5be 0693 d6be
00000210: 0e89 06bf 6b66 aabe 6109 07bf 217c 19be
00000220: 9705 2abf 0776 093f ddeb fd3d a74d 0abf
00000230: 9289 74bf a7f2 0b3f 43ec fdbe 530d a83e
00000240: c85d 40be e00c bf3d f4c7 b73d 9423 3bbe
00000250: 93cd a33e 619e 3ebd 8737 c3bd 8248 853c
00000260: 8fab 223e bb3b 6cbe 9745 d5be 0074 013d
00000270: 78d8 d0bd f0b0 bb3d d89c 5c3d 8579 d2be
00000280: f79c 873e 8e3c 83bf c31b b1be bd70 1abf
00000290: f77d 82bf e831 0cbf cbdf 02bf 1279 733c
000002a0: 6169 08bf 597a a53d b6ee db3e 178a 00bf
000002b0: 0873 68be 12af 193f bf69 e6be b631 b13e
000002c0: d2c3 bbbe d0b0 693e 6c40 1d3f 4ac8 443e
000002d0: e5e9 f93d 6d5f d23e ff70 963e 0f74 c23d
000002e0: 5220 cc3e 1a0f 90be 9cae 26bf 12be 0b3d
000002f0: ae04 073f 23dd 883c a51e cf3e bf1b 14bf
00000300: 0cd3 71be 3342 113c 4047 7a3e 0385 75bf
00000310: a0a2 28bf 606c 773e 533e d73e 137a 293f
00000320: ddf4 d53e 3b2a 79bd 04d8 69be e653 c03e
00000330: ea2c ba3e af51 413b bf70 143f 429d 09bf
00000340: 42ee 04bf bfac 903e eb37 ae3e 3059 01be
00000350: c2f1 2bbd 0351 7d3e b164 a83e d61b d43e
00000360: 5586 9f3e d264 f5be 5fd2 d5be a623 693e
00000370: ae1c db3e 0410 533e 042e f0bc a426 2bbf
00000380: 4edb 1abe c8c6 d33e 0cbc 8b3e 20c5 003e
00000390: 824b 433e a6c1 933e 1f02 3c3e a1d9 a23e
000003a0: a0c0 993e 954a c8be 1898 82be befe d33e
000003b0: d8ea db3e 3c2c 163e 4742 523d 685a 84be
000003c0: 387c eebe 7bde 933e 34ce 813e cb23 99bf
000003d0: 9144 67be 6ebc 033f 2725 043f ecf7 d53e
000003e0: fe20 463f 5698 a7be 72a1 5cbe 50f5 b93e
000003f0: eaf6 413f 594a 063e 2297 263f 09d6 dcbd

model.6.bias f4 [16]
-0.05067313 -0.032631174 0.22124591 -0.39879096 0.14229278 0.17270137 -0.12196063 -0.21888803
0.2157408 -0.23189774 0.09730662 -0.12513952 -0.22993806 -0.2692517 -0.33111456 -0.23984736
00000000: a18e 4fbd 44a8 05bd 4a8e 623e 542e ccbe
00000010: 33b5 113e a1d8 303e 7fc6 f9bd 2f24 60be
00000020: 28eb 5c3e 9a76 6dbe b148 c73d 9324 00be
00000030: e274 6bbe 5cdb 89be d987 a9be 8c9a 75be

model.8.weight f4 [16, 16]
0.5335537 0.72183186 0.53375334 0.4168295 -0.3589075 -0.8468943 0.4423947 0.80549574
-0.031758044 0.26837456 -1.8198603 0.60923266 0.8749754 0.53810394 0.46573356 0.4076437
0.087548465 -0.15542476 0.18509516 -0.16716051 -0.22294661 -0.029833589 0.09066975 0.064511776
-0.7441403 0.02949628 0.27858675 0.20168461 0.39758858 0.14561805 0.16743545 0.10458962
-0.17413628 0.0033339683 0.14049578 -0.5706964 0.18822224 -0.23394215 -0.37893093 0.36929917
-1.3643512 -0.44039986 -1.3989756 0.106568016 0.38530403 -0.21446283 -0.045263354 0.34510925
0.27778813 0.23918086 -0.034566604 0.39293754 -0.13339128 -0.18545885 -0.217186 0.40078962
0.1644411 -0.053372614 0.33776093 0.27044865 -0.03816825 0.18110569 0.37126598 0.1780301
0.27142224 -0.17045105 0.016305119 0.14727634 0.32893205 -0.08968252 -0.3728225 0.4738527
0.017755562 -0.2525208 -1.0407884 0.2355166 -0.08520726 -0.0073722904 -0.25283578 0.47653443
0.23155674 0.10529475 0.18860897 -0.5338122 0.25358805 -0.30304626 -0.2356842 0.37138274
-1.3938849 -0.27064353 -1.3580785 0.04371384 0.09188144 -0.1282216 -0.10842187 0.36322963
0.23121123 0.14791341 0.30715802 0.37871987 -0.3233891 -0.20334311 0.04265568 0.08319573
-0.15057155 0.16466653 0.3345811 0.40147418 0.057078816 0.47115636 0.54721904 -0.09901991
0.31130347 0.2544259 -0.069868356 0.5080503 -1.5419647 -0.30041003 0.20146589 0.24416247
0.18498144 0.13775629 0.05322224 0.36339167 0.13619179 0.2960101 0.25780103 0.14060497
0.28878272 0.30685556 -0.141399 0.048172068 -0.40812466 -0.22805214 0.19813827 0.43137193
0.0018512246 0.40334114 -0.01544758 0.1485245 0.21643253 0.33300653 0.15638922 0.3148431
-0.16561116 -1.1303986 -0.817186 -0.33776593 -0.69073975 -0.09994746 0.08302388 -2.4415145
0.16365948 0.08740663 -0.037767667 -0.25809667 -1.099818 -0.058643907 -0.56320655 -2.4274635
0.22589712 -0.18122707 0.32151714 -0.37615234 -0.039648086 0.28477556 -0.36102968 0.48189783
0.2865295 -0.056929003 0.2105829 -0.06358115 0.17901301 0.1331667 -0.22476822 0.17933582
0.042163134 0.4083659 0.17529306 0.20435594 0.25479326 0.008755943 0.17746103 -0.033780266
-0.012894894 -0.07456676 0.031304292 0.2839948 0.35769224 0.41127464 0.1691181 0.21357335
-0.32118654 -1.1743847 -1.0686826 -0.4011569 0.2021612 0.22933127 -0.05338199 0.30358714
-0.22863166 0.04060923 0.19754352 -0.29406825 -1.3833876 -0.48855606 -1.1440451 -0.8294708
0.064388186 0.16833639 -0.049951725 -0.1617239 -0.14366955 -0.21959276 0.10047152 0.13163517
-0.009210588 0.0620362 0.09332228 -0.0882371 0.24991235 0.1250466 -0.11905313 0.2796704
0.04560684 -0.5023195 -0.25050926 0.06752657 -0.18162683 0.09238806 -0.024397813 -1.3423762
0.30063948 0.14532426 0.46793094 -0.2005113 -0.9565252 0.24624434 -0.14313471 -1.0724709
-0.27742347 -1.1687057 -1.0075481 0.028464012 -0.4890095 0.18460007 0.17325759 -1.4411788
-0.20026219 -0.0325402 0.16785577 -0.36543924 -1.1459718 -0.0988859 -0.8509031 -1.4143898
00000000: fa96 083f f9c9 383f 0fa4 083f ad6a d53e
00000010: b9c2 b7be 11ce 58bf 8f81 e23e f834 4e3f
00000020: b914 02bd 6468 893e 2ff1 e8bf acf6 1b3f
00000030: 63fe 5f3f 2ec1 093f a174 ee3e adb6 d03e
00000040: 9c4c b33d ab27 1fbe 9689 3d3e 202c 2bbe
00000050: 1e4c 64be 9265 f4bc 10b1 b93d c01e 843d
00000060: fb7f 3ebf 2fa2 f13c eca2 8e3e 6986 4e3e
00000070: bb90 cb3e e61c 153e 3374 2b3e 1533 d63d
00000080: c850 32be b57e 5a3b 20de 0f3e 2919 12bf
00000090: 55bd 403e 888e 6fbe 3c03 c2be c814 bd3e
000000a0: 0fa3 aebf 177c e1be a211 b3bf 5540 da3d
000000b0: 9246 c53e 259c 5bbe 1166 39bd 29b2 b03e
000000c0: 3f3a 8e3e d4eb 743e b695 0dbd 1c2f c93e
000000d0: b997 08be ede8 3dbe 0266 5ebe 4c34 cd3e
000000e0: 3f63 283e 3e9d 5abd 00ef ac3e 3f78 8a3e
000000f0: 5056 1cbd c573 393e 9316 be3e 864d 363e
00000100: dbf7 8a3e b88a 2ebe 5092 853c 9ccf 163e
00000110: c869 a83e 78ab b7bd 97e2 bebe d29c f23e
00000120: 1d74 913c 684a 81be 8e38 85bf 432b 713e
00000130: 2581 aebd 4193 f1bb b173 81be 52fc f33e
00000140: 361d 6d3e c6a4 d73d b622 413e eba7 08bf
00000150: 4bd6 813e e128 9bbe 3357 71be e125 be3e
00000160: d26a b2bf ca91 8abe 84d5 adbf 490d 333d
00000170: 562c bc3d 864c 03be 490c debd 3cf9 b93e
00000180: a3c2 6c3e 9d76 173e d143 9d3e 92e7 c13e
00000190: 4293 a5be 2d39 50be b9b7 2e3d 8662 aa3d
000001a0: 6e2f 1abe 589e 283e 374e ab3e 068e cd3e
000001b0: 7acb 693d 683b f13e 8c16 0c3f f3ca cabd
000001c0: 2b63 9f3e 1d44 823e 2417 8fbd 960f 023f
000001d0: 195f c5bf 58cf 99be 134d 4e3e ba05 7a3e
000001e0: c66b 3d3e fc0f 0d3e 90ff 593d 790e ba3e
000001f0: dc75 0b3e a38e 973e 7ffe 833e c0fa 0f3e
00000200: 54db 933e 2c1c 9d3e e6ca 10be 1350 453d
00000210: b7f5 d0be 8086 69be c2e4 4a3e c8dc dc3e
00000220: caa4 f23a bb82 ce3e d917 7dbc ce16 183e
00000230: 7da0 5d3e d57f aa3e 7f24 203e 1d33 a13e
00000240: f995 29be e7b0 90bf 1a33 51bf a8ef acbe
00000250: 52d4 30bf 41b1 ccbd 6d08 aa3d c641 1cc0
00000260: 5a96 273e 3f02 b33d 45b2 1abd 3f25 84be
00000270: d6c6 8cbf 9834 70bd 4e2e 10bf 905b 1bc0
00000280: 9351 673e 9793 39be e59d a43e 0a97 c0be
00000290: 0866 22bd 1ace 913e e2d8 b8be 50bb f63e
000002a0: ffb3 923e 632e 69bd 0ba3 573e d536 82bd
000002b0: 304f 373e da5c 083e a429 66be cfa3 373e
000002c0: 40b3 2c3d 5615 d13e 0680 333e af42 513e
000002d0: 4374 823e 1675 0f3c 58b8 353e 2d5d 0abd
000002e0: 1b45 53bc 75b6 98bd ee38 003d c467 913e
000002f0: 7023 b73e 9792 d23e 4c2d 2d3e f9b2 5a3e
00000300: 9072 a4be 3d52 96bf 97ca 88bf 7064 cdbe
00000310: 5803 4f3e d1d5 6a3e 13a7 5abd c66f 9b3e
00000320: 6b1e 6abe dd55 263d d948 4a3e 1d90 96be
00000330: d812 b1bf 0524 fabe 1270 92bf 3358 54bf
00000340: f4dd 833d 6060 2c3e 2e9a 4cbd f39a 25be
00000350: 1c1e 13be eddc 60be 03c4 cd3d 5fcb 063e
00000360: 02e8 16bc ac19 7e3d c01f bf3d a7b5 b4bd
00000370: 06e9 7f3e 370c 003e 21d2 f3bd f530 8f3e
00000380: 3dce 3a3d 0398 00bf c042 80be 5f4b 8a3d
00000390: 62fc 39be f435 bd3d ecdd c7bc fcd2 abbf
000003a0: 6bed 993e e2cf 143e a594 ef3e d652 4dbe
000003b0: d6de 74bf 7a27 7c3e e891 12be ba46 89bf
000003c0: 730a 8ebe 2698 95bf 56f7 80bf 5c2d e93c
000003d0: 745f fabe cd07 3d3e 706a 313e 8c78 b8bf
000003e0: 8811 4dbe df48 05bd 62e2 2b3e da1a bbbe
000003f0: 34af 92bf b184 cabd c9d4 59bf ba0a b5bf

model.8.bias f4 [16]
0.064754754 0.4111694 -0.033257306 -0.37140152 0.3888965 -0.017753074 -0.4701416 -0.4454585
-0.42810017 0.013874048 0.3337275 -0.39988357 -0.062440496 0.35687077 0.46094513 0.060280718
00000000: 249e 843d cc84 d23e d038 08bd 5728 bebe
00000010: 711d c73e e56e 91bc 66b6 f0be 2313 e4be
00000020: f22f dbbe fa4f 633c 55de aa3e 8abd ccbe
00000030: 9bc1 7fbd c4b7 b63e 0001 ec3e eae8 763d

model.10.weight f4 [16, 16]
0.32355565 0.32634166 0.047727756 -0.28398755 0.4125912 0.15833119 -0.056909967 0.05167738
-0.19440992 1.2012398 0.13886458 -0.06965816 0.38809985 0.1972486 0.2676191 0.68164176
0.2555447 0.12627755 -0.13549112 -0.029848445 0.17395869 0.061659895 0.02924388 -0.14524832
-0.15907855 1.0213774 0.057584547 0.12669572 0.084426366 0.12922089 0.033583477 0.2502458
0.045734864 0.18504672 -0.3666561 0.14522807 0.48649204 -0.5792948 -0.27234337 0.7453472
0.028006673 1.3786793 0.36872867 -0.4566616 0.6039623 -0.19182087 0.23847978 0.53120404
-0.61321783 -0.23356809 0.33595663 -0.11607562 -0.64371103 0.3277942 0.021521432 -0.5739423
-0.26890132 -0.60951775 -0.21175955 0.0042549684 -0.5971189 0.06501451 0.26439208 -0.4554321
0.28377807 0.08519713 -0.3022497 0.38740528 0.000977561 -0.23761155 0.37766775 -0.01834852
0.370255 -0.42430228 0.18366787 0.15689582 0.25289816 -0.22038405 -0.27179173 -0.088808924
0.1692475 0.14480996 -0.14195777 0.3695034 -0.341116 -0.0976255 0.46994224 0.15474066
0.055161364 -0.5635447 -0.014185131 0.4061446 -0.12747857 -0.07504354 -0.032048516 -0.21618976
-0.059845503 -0.46981514 0.29412687 0.20836493 -0.4494221 0.47682795 -0.3076282 -0.45259735
-0.337151 -0.6160582 -0.024773553 -0.0996135 -0.4962736 0.43458968 0.040178668 -0.39904746
-0.28058517 0.061849236 0.6345614 0.1825295 -0.4010644 0.2998989 -0.58477205 -0.8089012
-0.37581134 -0.9132765 0.29855764 -0.16753277 -0.5793955 0.0031504368 0.10906838 -0.27375984
0.13769066 -0.043865547 -0.07373971 0.19111574 0.119847424 0.05730911 0.34223017 0.34258574
0.38117597 0.13965234 -0.1424846 0.34285432 0.09946101 -0.102854736 -0.545373 -0.17767671
0.2704924 0.05459539 -0.08994092 -0.03165176 0.19324833 -0.2412883 -0.2252004 0.1631634
0.09769713 0.9532793 0.017103167 -0.23875797 0.22935458 0.4967677 0.43106735 0.3073546
-0.5400007 -0.50397927 0.66949725 0.04004189 -0.4134776 0.67684144 -0.34633878 -0.50264555
-0.16632801 -0.59951377 -0.056025147 -0.49655136 -0.42587617 0.07931504 0.045267913 -0.552383
-0.23137295 -0.13441588 0.5216397 -0.16438812 -0.39152682 0.45854476 -0.23882319 -0.32904726
0.015514368 -0.60267663 -0.072736956 0.060116448 -0.64765227 0.0877855 0.15314023 -0.24737863
-0.8647429 -0.5655739 0.7720667 0.0011472199 -0.10193685 0.4213416 -0.30983314 -0.98723453
-0.41002533 -0.9022882 0.17450209 -0.2204612 -0.34293494 -0.04116617 0.21779719 -0.5126577
0.106509335 -0.1326232 0.25439835 0.33670855 -0.17556652 0.17180872 0.14122427 -0.17902325
0.055731248 -0.8278859 0.25452608 0.35718194 -0.042459913 -0.1197326 -0.16811007 -0.1674673
-0.7345336 -0.1348355 0.6189589 0.0803864 -0.84418154 0.59071136 -0.80300623 -1.1926883
-0.5395514 -1.0470775 0.066480026 -0.62490934 -0.7293557 0.34339857 0.37174898 -0.45829517
-0.4530598 0.013220208 0.6579676 -0.017646031 -0.43801874 0.55853134 -0.16788912 -0.7498345
-0.32553348 -0.82747155 0.19312026 -0.10175399 -0.33007807 0.15714206 0.32903087 -0.6076436
00000000: 16a9 a53e 4116 a73e 2e7e 433d d166 91be
00000010: 273f d33e 9221 223e 6d1a 69bd a9ab 533d
00000020: 6513 47be 3ac2 993f 8432 0e3e f0a8 8ebd
00000030: 06b5 c63e 89fb 493e 5f05 893e 1380 2e3f
00000040: c1d6 823e e74e 013e 2fbe 0abe ba84 f4bc
00000050: 3a22 323e 168f 7c3d dd90 ef3c fabb 14be
00000060: 7de5 22be 7fbc 823f c6dd 6b3d 86bc 013e
00000070: bbe7 ac3d 7b52 043e d48e 093d 3820 803e
00000080: 7b54 3b3d e37c 3d3e 59ba bbbe abb6 143e
00000090: 7c15 f93e aa4c 14bf 9770 8bbe 13cf 3e3f
000000a0: 406e e53c 9078 b03f 01ca bc3e 8dcf e9be
000000b0: 469d 1a3f b16c 44be 0b34 743e fdfc 073f
000000c0: d8fb 1cbf 792c 6fbe 8202 ac3e 0eb9 edbd
000000d0: 3fca 24bf a4d4 a73e b74d b03c e2ed 12bf
000000e0: 6fad 89be 5b09 1cbf 7fd7 58be 436d 8b3b
000000f0: c9dc 18bf 5426 853d 665e 873e 652e e9be
00000100: 5c4b 913e d57b ae3d 79c0 9abe fc59 c63e
00000110: 8121 803a 7150 73be ab5d c13e a34f 96bc
00000120: 1092 bd3e 263e d9be 6e13 3c3e 4ca9 203e
00000130: de7b 813e 5bac 61be 4928 8bbe 74e1 b5bd
00000140: 374f 2d3e 1049 143e 615d 11be 8d2f bd3e
00000150: c2a6 aebe e1ef c7bd 459c f03e 5674 1e3e
00000160: e2f0 613d 7744 10bf c068 68bc 2ff2 cf3e
00000170: be89 02be 6db0 99bd 4e45 03bd d960 5dbe
00000180: 8f20 75bd 9c8b f0be cc97 963e 9e5d 553e
00000190: a71a e6be cb22 f43e 7281 9dbe d7ba e7be
000001a0: 0e9f acbe fdb5 1dbf e8f1 cabc 2a02 ccbd
000001b0: 9317 febe 8a82 de3e 6392 243d f34f ccbe
000001c0: dca8 8fbe a055 7d3d 9e72 223f 03e9 3a3e
000001d0: 5058 cdbe 598c 993e 9fb3 15bf 2614 4fbf
000001e0: 586a c0be 7dcc 69bf 8cdc 983e b68d 2bbe
000001f0: 4353 14bf 8f77 4e3b 3e5f df3d 402a 8cbe
00000200: c8fe 0c3e 5cac 33bd d804 97bd d8b3 433e
00000210: 9172 f53d f5bc 6a3d cb38 af3e 6667 af3e
00000220: 7f29 c33e 0601 0f3e 7ce7 11be 9a8a af3e
00000230: 37b2 cb3d 81a5 d2bd 919d 0bbf e2f0 35be
00000240: fb7d 8a3e 6a9f 5f3d f232 b8bd 47a5 01bd
00000250: e4e2 453e 4814 77be ef9a 66be 4e14 273e
00000260: 6f15 c83d 1d0a 743f f11b 8c3c f87c 74be
00000270: eddb 6a3e 5658 fe3e dcb4 dc3e 955d 9d3e
00000280: 7c3d 0abf c904 01bf 2c64 2b3f f702 243d
00000290: 56b3 d3be 7b45 2d3f 5153 b1be 61ad 00bf
000002a0: e451 2abe bc79 19bf a07a 65bd fb3b febe
000002b0: 710c dabe ec6f a23d d96a 393d f968 0dbf
000002c0: 08ed 6cbe 51a4 09be 2e8a 053f 5c55 28be
000002d0: 3476 c8be 61c6 ea3e 118e 74be e278 a8be
000002e0: fa2f 7e3c 0449 1abf 1df7 94bd aa3c 763d
000002f0: 8acc 25bf e2c8 b33d cbd0 1c3e d350 7dbe
00000300: ca5f 5dbf 73c9 10bf 2aa6 453f 505e 963a
00000310: 44c4 d0bd 16ba d73e 73a2 9ebe 67bb 7cbf
00000320: d7ee d1be 5cfc 66bf adb0 323e 95c0 61be
00000330: 2b95 afbe dc9d 28bd 3a06 5f3e 893d 03bf
00000340: 9121 da3d 60ce 07be 8040 823e 1065 ac3e
00000350: b6c7 33be a0ee 2f3e 189d 103e df51 37be
00000360: 7346 643d 55f0 53bf 3e51 823e 8de0 b63e
00000370: 72ea 2dbd 5e36 f5bd 0c25 2cbe 8c7c 2bbe
00000380: 650a 3cbf 5112 0abe 1774 1e3f a0a1 a43d
00000390: 481c 58bf dc38 173f d191 4dbf 03aa 98bf
000003a0: 0a20 0abf a306 86bf ae26 883d 0ffa 1fbf
000003b0: 0eb7 3abf f0d1 af3e e255 be3e aaa5 eabe
000003c0: 74f7 e7be 9299 583c 9170 283f 698e 90bc
000003d0: fe43 e0be e9fb 0e3f 20eb 2bbe 27f5 3fbf
000003e0: 53ac a6be 2dd5 53bf 51c1 453e 6564 d0bd
000003f0: feff a8be d9e9 203e bc76 a83e 888e 1bbf

model.10.bias f4 [16]
0.23659776 0.31863576 0.18898508 0.22281624 -0.41103834 -0.15729092 -0.038474087 -0.065381266
-0.25130242 0.23449269 0.20208327 0.03383283 0.12928732 0.118416786 0.07932497 0.059829153
00000000: af46 723e 3a24 a33e 4e85 413e f129 643e
00000010: 9e73 d2be df10 21be 0197 1dbd 9de6 85bd
00000020: b6aa 80be da1e 703e ebee 4e3e 4b94 0a3d
00000030: e563 043e 8084 f23d 2175 a23d 6a0f 753d

model.12.weight f4 [1, 16]
0.39218894 0.11304541 0.5468806 -0.8803005 -0.19537583 -0.19380228 -1.5636649 -0.6229418
-0.18641125 0.19643065 -1.0868263 -0.9479799 -1.1076453 -0.119264744 -1.249582 -0.56776667
00000000: fdcc c83e 5a84 e73d 5e00 0c3f 605b 61bf
00000010: 9a10 48be 1b74 46be 2c26 c8bf 1d79 1fbf
00000020: 97e2 3ebe 1e25 493e 201d 8bbf d0ae 72bf
00000030: 52c7 8dbf 1341 f4bd 4ef2 9fbf 2859 11bf
