best_model_1_dim3.pt (torch, 7724 bytes, 5 tensors)

model.0.weight f4 [32, 3]
-1.3487236 -0.039195415 0.022770219 -1.9205807 -0.04879046 2.127548 1.7007345 1.9692584
1.181092 -0.95670676 -0.79109883 0.32809743 3.0403972 -1.673311 1.4678109 -0.7190417
-0.044563655 -1.4637138 -0.008811637 -2.130135 0.0010342137 -0.020728832 -2.046933 0.012328867
0.74980265 1.338866 -1.7399206 -0.532526 1.9554695 -1.9771142 -2.4635057 2.8323157
0.5675531 -1.9605534 -3.6178842 0.113386646 1.7899798 -2.157692 -0.07782122 0.017526697
0.01929838 -2.3969681 -1.8536093 -2.202666 -1.0146861 2.2310073 1.182252 1.7244912
-2.6604173 -0.16944093 -2.1992059 -2.0150259 0.025900535 0.016159737 -0.013153879 -0.79078645
-0.029042752 -1.99098 -0.01015813 -0.009979222 0.011276963 -0.8717971 0.03158667 0.002906824
2.117952 -0.003977427 1.5529727 -0.539385 -1.6315862 -0.8115525 -2.8899066 -0.069405295
0.006748666 0.88689286 0.00070023915 -0.350118 -0.021409191 -4.3892283 1.5747424 -0.016508874
0.056030072 1.3178809 2.6013465 1.0220422 -1.3648654 -0.06585234 2.5312192 -2.1371248
-0.04364408 -0.011941694 0.3928539 -1.9777598 0.18713069 1.4163086 -3.101348 0.11323787
00000000: faa2 acbf 5f8b 20bd 9c88 ba3c 97d5 f5bf
00000010: 81d8 47bd bf29 0840 abb1 d93f a910 fc3f
00000020: 062e 973f bcea 74bf 7485 4abf 63fc a73e
00000030: de95 4240 0e2f d6bf 3ae1 bb3f 1e13 38bf
00000040: 6188 36bd f95a bbbf af5e 10bc 2254 08c0
00000050: 748e 873a 83cf a9bc f300 03c0 04ff 493c
00000060: 11f3 3f3f f65f ab3f b8b5 debf a053 08bf
00000070: d34c fa3f 1412 fdbf 14aa 1dc0 a944 3540
00000080: 294b 113f 6af3 fabf 6a8b 67c0 4237 e83d
00000090: 0f1e e53f a017 0ac0 bb60 9fbd 2694 8f3c
000000a0: a317 9e3c ed67 19c0 1243 edbf 7bf8 0cc0
000000b0: 3ce1 81bf d3c8 0e40 0954 973f 21bc dc3f
000000c0: 4744 2ac0 ec81 2dbe cabf 0cc0 2ff6 00c0
000000d0: 5c2d d43c 6d61 843c 5e83 57bc fb70 4abf
000000e0: 11eb edbc 6fd8 febf 496e 26bc e47f 23bc
000000f0: 03c3 383c 182e 5fbf 0661 013d 6a80 3e3b
00000100: 878c 0740 1355 82bb cfc7 c63f 2315 0abf
00000110: d1d7 d0bf e8c1 4fbf 3bf4 38c0 5d24 8ebd
00000120: ea23 dd3b 690b 633f 4190 373a ab42 b3be
00000130: 5462 afbc 8f74 8cc0 2991 c93f 9e3d 87bc
00000140: ca7f 653d 52b0 a83f 767c 2640 47d2 823f
00000150: e9b3 aebf 97dd 86bd 7fff 2140 a7c6 08c0
00000160: 23c4 32bd 18a7 43bc 2524 c93e 3c27 fdbf
00000170: 309f 3f3e 9a49 b53f 7c7c 46c0 42e9 e73d

model.0.bias f4 [32]
-1.1584103 2.1812549 -1.2105746 1.3783858 0.8909827 1.2838299 -0.6183089 -0.29879308
0.5159714 1.1778159 0.45664933 -0.25442386 -0.35367036 -1.0402898 1.3239276 1.8599747
-1.1844168 1.1460861 -0.6791508 1.4169803 -0.74467874 -0.30016714 2.0289652 0.73251903
-0.76141435 -0.3156257 1.3419316 -0.7100628 -1.0301353 -1.286022 1.1618114 -0.9930574
00000000: ca46 94bf ae99 0b40 1cf4 9abf f26e b03f
00000010: 7117 643f 8a54 a43f 7e49 1ebf 68fb 98be
00000020: b416 043f acc2 963f f1cd e93e d843 82be
00000030: 4814 b5be 3728 85bf 7676 a93f a713 ee3f
00000040: f89a 97bf f3b2 923f d4dc 2dbf 9c5f b53f
00000050: 44a3 3ebf 82af 99be 91da 0140 5e86 3b3f
00000060: 0dec 42bf b199 a1be 6ac4 ab3f adc6 35bf
00000070: 79db 83bf 5e9c a4bf 3cb6 943f 0339 7ebf

model.2.weight f4 [32, 32]
0.5216042 -0.149713 -1.4602417 0.42788506 0.16242287 0.0047247247 0.036325037 0.96254957
-0.97276294 -0.8587173 -1.4670674 0.97311074 0.019716412 1.7908075 0.1292785 0.20317721
-0.082371294 -0.3292073 -0.46683574 0.22665595 -0.62848616 1.7816484 0.26606548 0.2729617
-0.5990157 -0.050665013 -0.12245775 0.1847837 -0.4231283 1.4891818 0.38669232 0.38247544
-1.3798298 -0.40626192 -0.48696268 -0.09318696 0.46586734 -0.16045833 0.6743616 -0.081008546
-0.5509325 -0.29504108 1.1673309 0.68014324 1.0110881 0.042792715 0.30783245 -0.5245196
0.12657738 -0.20330884 -1.099601 0.20366019 -1.2995973 -0.29745844 -0.7843263 -0.31113398
-0.16362897 0.37899637 -1.406894 -0.20763071 -0.15331304 2.1882913 -0.21851264 1.7835023
1.5811782 -0.0049575125 0.2573964 -0.14734 -0.3887503 0.15611869 1.5240663 -0.35439128
0.3642318 0.49288523 -0.21691148 0.8089149 -0.0458049 -0.22884743 -0.057972126 0.26552016
0.56964654 0.07508277 0.77078676 0.30748343 1.0399228 -0.98718894 -0.10555456 -0.59453934
1.6471187 -0.4368561 -0.017931433 -0.28892967 -0.106927715 0.6224332 -0.64921165 1.8879482
-0.94959706 -0.6720194 -0.93294233 -0.60313916 -0.16531073 -0.50345767 -0.1113738 0.22923769
0.10939711 -0.34733155 -0.67373 0.14114144 0.61759967 1.3458234 -0.1884998 -0.5651588
-0.18471612 -1.0149195 -0.5237289 -0.39239505 -0.41278476 0.6828721 -0.1104581 -0.65829015
-0.69907814 0.4939572 -0.40549684 -0.57456416 -1.0560298 -1.4459351 0.07609424 0.11161128
0.74355114 -1.1012977 -0.3876262 -0.63898224 -0.008941671 0.19744536 0.43850082 -1.234552
0.52261376 0.5225186 -0.48124516 0.30000103 0.5251652 -1.4515332 0.47229677 -0.84801006
0.6646031 0.36509916 1.0412514 -0.3472868 -0.24653171 0.72389054 0.29049784 -0.09595788
2.2223341 1.5551294 -0.30661055 -0.44233608 -0.50772166 -0.83067495 -0.26673886 0.20323612
0.119428314 -0.14059897 0.36963665 -1.350617 0.31752878 -0.1450008 -0.40529266 -0.7544993
0.32555538 0.29536387 1.1616942 0.113990426 2.5368946 0.0058024507 -0.39885128 -0.062860504
-0.22331408 0.18311542 -0.14830048 -0.82345045 0.0036878008 1.1697226 -0.34925163 -0.04146908
1.2290558 -0.01777945 -0.3505058 -0.09073473 -0.08755169 -0.050364614 -0.68811876 -0.10043834
-0.56683826 0.08214019 -0.09994233 -0.13608733 -0.7103549 0.016099919 -3.4247153 0.597802
0.057599664 -0.016493104 -0.8539105 0.69944304 0.12996164 0.20197748 -0.70202345 0.26540998
-0.24160042 -0.8559989 0.44262776 1.0360852 0.42023307 0.6191277 0.2535845 0.07445664
4.015213 -0.0057778596 0.27591583 -0.5579188 0.011947009 -0.1690435 0.23119314 0.27330613
0.2965499 -0.1881078 0.31869376 0.046303965 0.1664191 -0.04425354 0.060618833 0.4910956
0.47360057 0.055780243 0.0071080253 0.24281001 0.57260084 1.7417117 0.42272645 -0.16882306
0.3697985 -0.34272283 -0.6784102 0.3120581 -0.4893939 0.23011781 0.26529783 -0.20669861
-1.0190614 0.38448587 -0.2820458 0.050696444 1.1259052 -1.9458207 0.4058005 -0.044434126
00000000: da87 053f 5d4e 19be 33e9 babf c013 db3e
00000010: 2e52 263e ddd1 9a3b 90c9 143d a669 763f
00000020: fe06 79bf e6d4 5bbf ddc8 bbbf c91d 793f
00000030: 5084 a13c 2e39 e53f 9561 043e b00d 503e
00000040: 48b2 a8bd dc8d a8be 1805 efbe 7f18 683e
00000050: 78e4 20bf 0e0d e43f bc39 883e a3c1 8b3e
00000060: 1859 19bf 1e86 4fbd 21cb fabd f037 3d3e
00000070: 46a4 d8be 829d be3f 89fc c53e d2d3 c33e
00000080: 439e b0bf 9001 d0be 2c53 f9be ced8 bebd
00000090: 2a86 ee3e 304f 24be f6a2 2c3f cfe7 a5bd
000000a0: ea09 0dbf a00f 97be 196b 953f de1d 2e3f
000000b0: 566b 813f 6a47 2f3d 379c 9d3e eb46 06bf
000000c0: 809d 013e 3130 50be babf 8cbf 4c8c 503e
000000d0: 3459 a6bf 794c 98be 9cc9 48bf f44c 9fbe
000000e0: 5a8e 27be d00b c23e 1a15 b4bf 259d 54be
000000f0: 18fe 1cbe f70c 0c40 c7c1 5fbe ce49 e43f
00000100: 0c64 ca3f a172 a2bb 76c9 833e 4ce0 16be
00000110: 480a c7be 94dd 1f3e 9b14 c33f c672 b5be
00000120: 977c ba3e 745b fc3e 0b1e 5ebe 0c15 4f3f
00000130: eb9d 3bbd fb56 6abe 2e74 6dbd 42f2 873e
00000140: 5bd4 113f ffc4 993d 4852 453f 786e 9d3e
00000150: 311c 853f 6ab8 7cbf fd2c d8bd bb33 18bf
00000160: c9d4 d23f 9aab dfbe f1e4 92bc 97ee 93be
00000170: ebfc dabd c857 1f3f bc32 26bf 49a8 f13f
00000180: cb18 73bf 7709 2cbf 4fd5 6ebf 5467 1abf
00000190: 3747 29be 9ae2 00bf f217 e4bd 49bd 6a3e
000001a0: 980b e03d 71d5 b1be 9279 2cbf 6287 103e
000001b0: 031b 1e3f f143 ac3f 1706 41be 3fae 10bf
000001c0: 3926 3dbe e2e8 81bf 1913 06bf 01e8 c8be
000001d0: 8658 d3be b5d0 2e3f db37 e2bd b485 28bf
000001e0: c9f6 32bf f5e7 fc3e 489d cfbe a316 13bf
000001f0: fc2b 87bf 6714 b9bf 4cd7 9b3d 7494 e43d
00000200: 5e59 3e3f 53f7 8cbf f176 c6be 5794 23bf
00000210: 1680 12bc 1e2f 4a3e 2e83 e03e cd05 9ebf
00000220: 04ca 053f c7c3 053f c465 f6be bc99 993e
00000230: 3a71 063f d7cb b9bf e2d0 f13e 3017 59bf
00000240: 6e23 2a3f 47ee ba3e ba47 853f 93cf b1be
00000250: cf72 7cbe e450 393f 22bc 943e 9185 c4bd
00000260: b93a 0e40 7b0e c73f 0ffc 9cbe e079 e2be
00000270: 0cfa 01bf 1da7 54bf ff91 88be 211d 503e
00000280: d596 f43d 2df9 0fbe 0441 bd3e 05e1 acbf
00000290: 2293 a23e 177b 14be 8582 cfbe de26 41bf
000002a0: 32af a63e ef39 973e 65b2 943f d073 e93d
000002b0: 7b5c 2240 7c22 be3b 3c36 ccbe 02bd 80bd
000002c0: 72ac 64be 9c82 3b3e 15dc 17be a6cd 52bf
000002d0: 08af 713b 78b9 953f 1cd1 b2be 7bdb 29bd
000002e0: b351 9d3f 36a6 91bc 7f75 b3be 21d3 b9bd
000002f0: 4d4e b3bd 204b 4ebd 8d28 30bf 9eb2 cdbd
00000300: 501c 11bf 1e39 a83d 90ae ccbd 7a5a 0bbe
00000310: d2d9 35bf fae3 833c 892e 5bc0 8d09 193f
00000320: a0ed 6b3d 8c1c 87bc e199 5abf b30e 333f
00000330: aa14 053e 2fd3 4e3e cfb7 33bf d1e3 873e
00000340: 1a66 77be be22 5bbf 1ba0 e23e 719e 843f
00000350: ca28 d73e 277f 1e3f d4d5 813e b97c 983d
00000360: a07c 8040 3354 bdbb d744 8d3e c4d3 0ebf
00000370: 63bd 433c bd19 2dbe e5bd 6c3e c8ee 8b3e
00000380: 63d5 973e 559f 40be d42b a33e 3aa9 3d3d
00000390: c569 2a3e 3343 35bd 744b 783d e270 fb3e
000003a0: c67b f23e d379 643d 70ea e83b 30a3 783e
000003b0: f895 123f 69f0 de3f 9a6f d83e f4df 2cbe
000003c0: 3b56 bd3e 5e79 afbe 4aac 2dbf 14c6 9f3e
000003d0: d691 fabe 01a4 6b3e 1ed5 873e cda8 53be
000003e0: 9b70 82bf 55db c43e 4f68 90be 13a7 4f3d
000003f0: a91d 903f a710 f9bf 15c5 cf3e 8f00 36bd

model.2.bias f4 [32]
0.14945522 -0.5748976 -0.14710268 -0.21882066 -0.20566997 -0.5801046 -0.038445685 -0.21136087
-0.19193925 0.34796175 -0.089066856 -0.79137367 0.6341463 -0.4922161 -0.020677753 0.23159759
-0.3456064 -0.079820655 0.0860312 -0.8889329 -0.40322515 0.10980448 0.099884965 -0.15839918
-0.06052081 0.09718937 -0.095162675 -0.5595643 -0.17143111 -0.84233505 0.5735197 0.106398866
00000000: ca0a 193e 7d2c 13bf 16a2 16be 8612 60be
00000010: 269b 52be bc81 14bf 3979 1dbd fc6e 58be
00000020: b98b 44be 0b28 b23e af68 b6bd 7797 4abf
00000030: 6957 223f c003 fcbe 6464 a9bc eb27 6d3e
00000040: 52f3 b0be 0379 a3bd 2031 b03d 1b91 63bf
00000050: 8773 cebe 2ce1 e03d 7d90 cc3d 6533 22be
00000060: abe4 77bd 380b c73d a6e4 c2bd 9b3f 0fbf
00000070: a38b 2fbe 45a3 57bf 30d2 123f a6e7 d93d

model.4.weight f4 [1, 32]
1.1266452 3.0257494 -3.2942953 0.83300513 -2.1437833 -3.9054472 2.0244634 1.2981161
2.2769406 -2.1622474 2.88289 -1.9243664 -1.6987693 -1.1854699 1.4381198 -1.9977111
2.2532582 1.8864887 2.0263278 -2.324939 -1.1850731 1.4924992 1.12684 2.0593708
-1.3772409 1.048623 -1.845842 -2.4331455 3.7677839 -2.8679628 -1.4910438 0.97205764
00000000: e935 903f e1a5 4140 bcd5 52c0 d33f 553f
00000010: bf33 09c0 d9f2 79c0 cf90 0140 ab28 a63f
00000020: 65b9 1140 4362 0ac0 4581 3840 a351 f6bf
00000030: 4671 d9bf 7abd 97bf 4f14 b83f ffb4 ffbf
00000040: 6235 1040 7678 f13f 5baf 0140 cdcb 14c0
00000050: 7ab0 97bf 370a bf3f 4b3c 903f bbcc 0340
00000060: 6e49 b0bf 4739 863f 8d44 ecbf a8b8 1bc0
00000070: 5f23 7140 b48c 37c0 86da bebf c5d8 783f
