best_model_1_dim2.pt (torch, 7532 bytes, 5 tensors)

model.0.weight f4 [32, 2]
000000 28 0a 0f 40 d7 7c 44 40 d6 a3 03 be 2f 04 64 3e
       2.234995 3.0701196 -0.12855467 0.22267221
000010 b9 71 13 3f 19 8f 81 3e dc cb 0a 3f a4 f1 67 be
       0.575954 0.25304487 0.54217315 -0.22650772
000020 8e 5a a1 3e e1 47 2a bf 9c f2 2d 40 e1 8e 0c 40
       0.315144 -0.6651593 2.7179327 2.1962206
000030 d1 a4 32 40 36 0f 2f 40 fe e2 45 c0 d0 f1 57 40
       2.7913096 2.7353034 -3.0919795 3.374134
000040 38 46 8e be b0 fa 42 40 26 2a 86 bf 95 9b a6 3f
       -0.27787948 3.0465508 -1.0481613 1.301623
000050 db 86 eb be e6 f5 c1 bd 1d c8 1c c0 6c 88 1b c0
       -0.46001324 -0.094707295 -2.449714 -2.4302015
000060 07 d7 b0 3f d6 19 89 40 4c c0 3b c0 f4 9f 82 3f
       1.3815621 4.284404 -2.9336119 1.0205064
000070 9c 68 60 c0 80 c0 7d c0 d1 86 ab 3f 85 b8 8d 3f
       -3.5063848 -3.9648743 1.3400518 1.1071936
000080 de 13 95 c0 a8 81 e3 3f 64 c4 4e bf 90 14 7f 40
       -4.658675 1.7773943 -0.8076842 3.98563
000090 35 58 c6 be a8 04 5b c0 8e 29 58 40 0b dd ed 3f
       -0.38739172 -3.4221592 3.3775363 1.8583082
0000a0 68 21 04 40 b5 8c 1c c0 a9 1f cd be 92 a6 f7 3d
       2.064539 -2.446088 -0.40063217 0.12092318
0000b0 50 6b 37 40 2f fe 84 3f 66 94 82 3f 32 4d 9f c0
       2.8659248 1.0390071 1.0201538 -4.9781733
0000c0 9c 6a f0 bf ef 44 7d 40 f5 d1 63 40 86 04 b5 bf
       -1.8782535 3.9573324 3.5596898 -1.4142005
0000d0 e3 1e 9f 40 f0 a2 25 bf 53 8a 86 c0 58 c1 15 40
       4.9725204 -0.6470175 -4.2043853 2.3399258
0000e0 32 25 75 bf 30 0e a1 3f 75 a9 58 40 b2 f7 55 c0
       -0.9575988 1.2582455 3.3853428 -3.3432431
0000f0 04 8c 57 c0 36 30 52 c0 f8 5e 6b c0 9c 4f 5c bf
       -3.3679209 -3.2841926 -3.6776714 -0.86058974

model.0.bias f4 [32]
000000 70 0d 80 bf 58 30 91 40 78 56 1a 40 03 34 61 40
       -1.0004101 4.5371513 2.4115276 3.5187995
000010 8d 4b 84 40 90 fa 2a bf 25 aa 70 bf 10 e2 85 bf
       4.1342225 -0.6678858 -0.9400962 -1.0459614
000020 c5 95 24 bf a0 c1 36 40 e4 89 1e 40 c9 07 47 bf
       -0.6429103 2.855568 2.4771662 -0.77746254
000030 c0 da bc bf 55 ba 0c bf 47 87 6c bf e5 e3 5d 40
       -1.4754257 -0.5497182 -0.92393917 3.4670346
000040 e9 77 8a bf eb 1e 40 bf 5e ed 40 bf ff 4a a6 bf
       -1.0817844 -0.7504718 -0.75362194 -1.2991637
000050 6c be 47 bf ea 1a 08 40 02 44 0a bf f1 7f ca bf
       -0.78024936 2.1266427 -0.5401002 -1.5820295
000060 ed 08 ae bf ef bf 27 bf 79 b0 bd bf 66 2c 11 c0
       -1.3596474 -0.6552724 -1.481948 -2.2683349
000070 62 56 6f 40 e0 bf be bf aa 5a 15 c0 bd cc 6c bf
       3.7396474 -1.4902306 -2.3336587 -0.92499906

model.2.weight f4 [32, 32]
000000 39 e5 60 3d 16 87 a7 3c 8d d5 4e be 41 06 40 be
       0.054906104 0.020450156 -0.2019865 -0.18752386
000010 e4 e9 9b be 40 dc 11 bf 4a 35 84 bf 04 96 2d 3e
       -0.30451882 -0.569767 -1.0328763 0.16951758
000020 1c d1 ff 3d da 8d d3 bd c8 9e ca bd fa 0c 0a 3e
       0.12491056 -0.103297904 -0.09893566 0.13481513
000030 85 35 c0 3e 52 4b 2c 3e ad 81 65 be 0c 0b 2a be
       0.37540832 0.16825607 -0.22412749 -0.16605777
000040 5b d6 ba 3e 01 d7 a4 3d 6b a8 0b bf 4a b5 43 be
       0.36491665 0.08048821 -0.5455386 -0.19112125
000050 11 4e ec 3d 14 8a a6 be 3a 49 b9 3c da c7 3f bc
       0.115383275 -0.3252722 0.022617925 -0.011705363
000060 34 a2 a6 3d 76 b0 e5 bc 05 98 05 be a7 08 b3 3e
       0.081364065 -0.028038245 -0.13046272 0.3496754
000070 bb 77 b1 bd ce 30 82 be 76 ff a4 bf b3 21 40 ba
       -0.08665415 -0.2542786 -1.289046 -0.00073292403
000080 e8 0c b9 3f 74 7b bb be 37 e6 d9 be 6a 60 e1 be
       1.4457064 -0.36617625 -0.42558452 -0.4401887
000090 e8 4b 08 bf a1 ac a2 3f 9c 3f 9e 3f c1 c0 a3 3f
       -0.53240824 1.2708932 1.2363162 1.2793199
0000a0 74 84 94 3f 74 f4 83 be 2a a0 f2 be 5f c2 c6 3f
       1.1602921 -0.2577244 -0.4738782 1.5528067
0000b0 2c b3 ba 3f 98 1d a2 3f 9e a5 bc 3f bb ff 1c bf
       1.4585929 1.2665281 1.4738042 -0.61327714
0000c0 75 dc aa 3f 49 95 b9 3f ea 66 ae 3f a5 e4 b6 3f
       1.3348528 1.4498683 1.3625157 1.4288527
0000d0 1d 16 df 3f a6 a6 9d be fd 0f 78 3f d2 97 d6 3f
       1.7428623 -0.30791205 0.96899396 1.6765082
0000e0 eb fe bb 3f a9 83 b4 3f 13 9f c8 3f 9d e7 b6 3f
       1.468717 1.410268 1.5673546 1.4289433
0000f0 8e be 0d bf bc fc e2 3f 96 ff e9 3f c0 92 cc 3f
       -0.5536889 1.7733378 1.8281124 1.5982285
000100 61 c2 c4 3e 4e f8 28 bc ea f5 9c 3d 95 35 85 be
       0.3842955 -0.010313107 0.07664092 -0.26017442
000110 75 75 11 3d 6a 3f e3 3e ba 52 fc 3e af 18 fb 3e
       0.035512406 0.4438432 0.49281865 0.4904227
000120 5d 17 13 3f 2e 8a c2 bc 33 95 20 3d 98 69 15 3f
       0.57457525 -0.02374753 0.039204787 0.5836425
000130 36 e1 1c 3f 55 7c 9e 3e 7e af dc 3e 17 e8 5f be
       0.61281145 0.30954233 0.4310264 -0.21865879
000140 6c a8 03 3f 09 6d c6 3e f5 22 f5 3e bf ba ce 3e
       0.51428866 0.38755062 0.47878233 0.4037685
000150 9f 41 0b 3f 60 e3 34 3d 7a 1f 00 3f d0 b0 02 3f
       0.54397005 0.044162154 0.5004803 0.51051044
000160 fe 83 d7 3e 09 14 00 3f 7a d0 01 3f e5 24 36 3f
       0.4209289 0.5003057 0.50708735 0.71150047
000170 a5 61 2e be 87 48 39 3f cf 49 44 3f 7a 37 04 3f
       -0.17029436 0.7237629 0.7667512 0.5164715
000180 21 36 ce 3e 52 4c 6f be 54 da 91 be d4 89 f0 bd
       0.40275672 -0.23368958 -0.28486884 -0.11745039
000190 8f 99 73 be c7 33 b0 3e 71 07 52 3e 80 25 9d bf
       -0.23789047 0.34414503 0.20510651 -1.2277069
0001a0 9a 9e de 3e fa a3 7c be e8 c0 47 be ea 59 d6 3e
       0.43480378 -0.24671927 -0.19507182 0.41865474
0001b0 e5 88 05 3f f1 5b 74 3c 1d f4 ad 3e 99 ec a0 be
       0.5216201 0.014914499 0.33975306 -0.3143051
0001c0 b7 f4 b0 3e 33 c9 f1 3e 1f 4e 8b 3e 9e a0 02 3f
       0.34561703 0.47223815 0.2720804 0.5102633
0001d0 f8 50 ad 3e 78 f4 a8 be 03 87 78 3e ab 0f ec 3e
       0.33850837 -0.32999015 0.24270253 0.46105704
0001e0 cd 29 b0 3e 30 d7 e0 3e a2 97 97 3e 8f 14 ba bf
       0.3440689 0.43914175 0.29607874 -1.4537524
0001f0 65 03 a4 be 0a 00 f2 3e 5d ee be 3e 90 3c 20 3f
       -0.3203384 0.47265655 0.37291232 0.6259241
000200 53 f7 b1 3e f4 68 75 3d 2b 8d 39 bd a1 f2 27 3e
       0.34759006 0.059914544 -0.045300644 0.1640115
000210 8a e6 3e 3e 05 3b a1 3e 50 b9 9a 3e 3d 18 a7 3e
       0.18642631 0.3149034 0.30219507 0.3263568
000220 fa 1c 27 3f 5d 0e 19 be ba bd d7 bd 41 bb 37 3f
       0.6527859 -0.14946885 -0.10534234 0.717701
000230 2a 5a 2f 3e 7d 0d 17 3f be ff ce 3e cd 8f 29 3e
       0.17124239 0.59004956 0.4042949 0.16558762
000240 4e 47 b9 3e d6 30 01 3f 51 d5 f0 3e 4f 1e 99 3e
       0.36187214 0.5046514 0.47037748 0.29905936
000250 b3 5b 4c 3f 7a 61 1b be b2 99 cd 3e 2e ae 15 3f
       0.7982742 -0.15173903 0.40156323 0.584689
000260 b5 78 5c 3e 7d 90 ad 3e 01 e6 f3 3e 44 dc 18 3e
       0.21530421 0.33899298 0.47636417 0.14927775
000270 9f 04 0e bd 47 bf 29 3e 8f 17 ae 3e 7d 06 af 3e
       -0.034672376 0.16576873 0.3400235 0.34184638
000280 fa 91 d7 3e b4 e6 05 3e 72 ec 6e 3d 56 3c 53 3d
       0.4210356 0.13076288 0.05833096 0.051571213
000290 a0 a0 67 3d d8 50 a9 3e 5a ad 9a 3e ae 27 d7 3e
       0.05654967 0.3306949 0.30210382 0.4202246
0002a0 98 0b 22 3e c3 82 70 bd 40 0f 48 3e 42 f4 0c 3f
       0.15824735 -0.058718454 0.19537067 0.5506021
0002b0 c9 f4 d9 3e c2 2f 11 3f 1d ef a9 3e 2f 09 7b bd
       0.4256957 0.567135 0.3319024 -0.061288055
0002c0 2a ca 96 3e 52 a7 bb 3e f7 e8 1d 3f 4b 16 43 3d
       0.29451114 0.36651093 0.616836 0.047628682
0002d0 cf 79 0d 3f c6 93 ba 3d f5 57 0f 3f 39 19 fc 3e
       0.5526399 0.09110217 0.55993587 0.49237993
0002e0 04 9f d8 3e 01 a3 12 3f 41 66 e4 3e 88 1b bd 3e
       0.4230882 0.57279974 0.44609264 0.36935067
0002f0 e4 13 0f bd 15 95 56 3e c7 3a ad bc a3 8d cf 3e
       -0.03493108 0.20955308 -0.021146191 0.40537748
000300 c6 62 f6 bf 88 c5 59 3f b0 03 66 3f 49 d2 82 3f
       -1.9248893 0.85067034 0.89849377 1.0220424
000310 3b 9d 37 3f 40 b1 9c bf 28 9a fb bf 61 19 d0 bf
       0.7172429 -1.2241592 -1.965642 -1.6257745
000320 52 40 b1 bf d5 3e 43 3f 46 db 65 3f 64 7b db bf
       -1.3847754 0.7626775 0.8978771 -1.7147031
000330 a5 90 f0 bf a7 79 aa bf 50 c2 f6 bf 3d 0e 46 3f
       -1.8794142 -1.3318375 -1.927805 0.77365476
000340 20 68 fd bf 7c e6 12 c0 2e 4b ef bf 73 25 fa bf
       -1.9797401 -2.2953176 -1.8694818 -1.9542679
000350 f2 19 0f c0 d8 3b 6d 3f eb d3 9e bf 60 34 07 c0
       -2.2359586 0.9266944 -1.2408422 -2.1125717
000360 93 41 e7 bf 27 55 fb bf 21 41 00 c0 7f de 01 c0
       -1.8066887 -1.9635361 -2.0039752 -2.029205
000370 6a fa 43 3f 4a cc 0f c0 25 22 2d c0 f1 f5 11 c0
       0.76553977 -2.2468438 -2.705209 -2.280636
000380 a1 63 87 3e 81 85 0d 3e 45 64 cb bd b9 f5 b1 3d
       0.26443198 0.13820459 -0.09931234 0.08689446
000390 a9 be df 3b 24 3a 94 3e c9 e6 9c 3e 76 99 06 3f
       0.0068281484 0.28950608 0.30644825 0.5257791
0003a0 05 b8 92 3e 69 26 18 3e ff 80 4c 3e 81 11 b5 3e
       0.2865602 0.14858402 0.19971083 0.35364917
0003b0 32 1b 8d 3e fd ff bf 3e 0d 48 74 3e 60 72 27 bd
       0.2755981 0.3749999 0.2385561 -0.04088056
0003c0 1f 3d 74 3e e9 d1 f6 3e 5e 18 29 3f 58 0f 8d 3e
       0.23851441 0.48207024 0.66052806 0.2755077
0003d0 3f a7 f5 3e f9 f7 0d be 1e b1 cd 3e 55 ff 08 3f
       0.4797916 -0.13864125 0.40174192 0.53514606
0003e0 0f 05 be 3e 41 33 0e 3f ca 09 15 3f ce 67 db 3e
       0.37113234 0.5554696 0.5821806 0.42852634
0003f0 58 49 24 3d 6a fc ca 3e a5 4d bf bc 88 4e 04 3f
       0.04010901 0.39645702 -0.023352453 0.5168233

model.2.bias f4 [32]
000000 27 68 1f be 73 c2 a4 be 7c a2 6f 3c 64 15 99 be
       -0.15567075 -0.32179603 0.014626142 -0.29899132
000010 51 c8 23 3d e2 72 71 3d 21 50 4b 3f 94 a5 33 3e
       0.03998596 0.05894745 0.7941914 0.17543632
000020 c9 c3 ec bd 05 b0 17 bd 8a a1 9a 3e 93 03 af bd
       -0.115607806 -0.0370331 0.3020137 -0.085456036
000030 c7 fe da bd f3 ae 65 be 8b 05 44 3e 71 bb 33 3f
       -0.10693126 -0.22430019 0.1914274 0.7020789
000040 c3 c8 0e be f0 15 92 be 87 10 99 3d 97 8c 0a bb
       -0.13943772 -0.28532362 0.074738555 -0.0021140927
000050 ef 85 7a bd 60 08 b4 3e 47 e5 da be 93 ec 3b be
       -0.061162885 0.3516264 -0.4275305 -0.18351965
000060 e8 9f 8f be 54 5b 0d 3e 8f 83 2d 3f 59 55 4a bd
       -0.28051686 0.1380437 0.6777887 -0.0493978
000070 ea e0 df 3d 74 06 67 bf 57 b8 7e 3d 7c a4 48 be
       0.10931571 -0.9024422 0.06218752 -0.19593996

model.4.weight f4 [1, 32]
000000 a1 69 a9 be 4a 6a ce 3f 62 58 03 3f 5d de 13 3f
       -0.330884 1.6126187 0.51306736 0.57761174
000010 6e ab 0d bf 62 9c e1 be d7 b8 80 3f bc 29 89 be
       -0.55339706 -0.44064623 1.0056409 -0.26789653
000020 a3 81 d6 be 80 99 2d 3f 70 af 71 bf 8a 1b fd be
       -0.4189578 0.6781235 -0.9440832 -0.49435073
000030 20 0d 4d 3f e4 3a 48 3f 56 e1 8d be ee a3 62 3f
       0.8009815 0.7821486 -0.2771098 0.88531387
000040 de d1 f2 be ab 68 dd 3e 63 44 25 3f b7 07 4b 3f
       -0.4742574 0.43243918 0.64557475 0.79308647
000050 14 6c a3 3e d7 cd 69 bf a9 ef 8b 3f af e5 85 3f
       0.31918395 -0.9132971 1.0932513 1.0460719
000060 95 25 21 3f 6c 4d 94 be cb 79 70 bf 30 dc f1 be
       0.6294797 -0.28965318 -0.9393584 -0.47238302
000070 c9 c5 94 be 98 28 25 c0 9a 13 f7 be 51 1b 8d bf
       -0.29057148 -2.5806026 -0.48257142 -1.1023961
