best_model_1_dim3.pt (torch, 7724 bytes, 5 tensors)

model.0.weight f4 [32, 3]
0	0xbecc4544	-0.39896595
1	0xc059cd1c	-3.403144
2	0xbf1b635e	-0.606985
3	0x3fbf68f4	1.4953904
4	0xbff46526	-1.9093368
5	0xc0451be7	-3.079828
6	0xc0317d2b	-2.7732646
7	0x3f0e2fda	0.55541766
8	0x3f6ee3d3	0.9331638
9	0x40408475	3.0080845
10	0x3fb2c2f2	1.3965743
11	0x3ed08faa	0.40734607
12	0xbdf15d2e	-0.11785351
13	0xbdbdf93a	-0.09276052
14	0x3e20db41	0.15708639
15	0x3eb2ec11	0.3494573
16	0x405aea86	3.4205642
17	0x3f2ea99f	0.6822757
18	0xc02f59f7	-2.739866
19	0x3fbaba09	1.4588023
20	0xc01fe209	-2.498171
21	0x3fd85144	1.68998
22	0x3fc466b6	1.5343845
23	0x403f525a	2.9894013
24	0xc0451554	-3.0794268
25	0xbd530534	-0.051518634
26	0xbee383d2	-0.44436508
27	0x402a6524	2.6624231
28	0xbfade0ad	-1.3584191
29	0x40176f0b	2.3661525
30	0xbdf513c5	-0.11966661
31	0xbe964dc1	-0.29356197
32	0x3ea95b1e	0.3307733
33	0xbd92e09b	-0.07171746
34	0x3e4ef40d	0.20210285
35	0xbd3825ca	-0.044957913
36	0xbfbfe2e9	-1.4991122
37	0xbfd71c08	-1.680543
38	0xc01ad738	-2.419386
39	0x403ed039	2.981459
40	0xbf299fde	-0.6625956
41	0xbf19b988	-0.60048723
42	0xc006e413	-2.1076705
43	0xbf753ac8	-0.9579282
44	0x40326b35	2.7877934
45	0xbe84a820	-0.2590952
46	0x4041de14	3.0291796
47	0xc0113ded	-2.2694046
48	0xc0021786	-2.0326858
49	0xbfdb152f	-1.711584
50	0x4006b5c6	2.1048446
51	0xbe60b38e	-0.21943495
52	0xbce8da2d	-0.028424347
53	0x3ecfc853	0.40582523
54	0x40194756	2.394979
55	0xc0446156	-3.068441
56	0xbe961bab	-0.29317984
57	0xbe88e562	-0.26737505
58	0xba99f48f	-0.0011745858
59	0x3ea6f577	0.3260915
60	0x4010af9f	2.260719
61	0x3fb4bff6	1.4121082
62	0xc027fff5	-2.6249974
63	0xc03bf1a9	-2.9366248
64	0xbffe70ec	-1.9878211
65	0xbea243b3	-0.31692275
66	0xbcdc4987	-0.02689053
67	0xbdbee862	-0.09321667
68	0x3f582e5c	0.8444574
69	0xbfc99b85	-1.5750586
70	0xbf8dfa38	-1.1091986
71	0xc031da9c	-2.7789679
72	0xbd917888	-0.07103068
73	0x3e79c67e	0.24392125
74	0xbe4fcea2	-0.20293668
75	0x3e9a35fd	0.30119315
76	0xc050a454	-3.2600298
77	0x401cb8a8	2.4487705
78	0xbfcc5b52	-1.5965369
79	0x40057e60	2.0858383
80	0x40569998	3.3531246
81	0xbe824c88	-0.25449014
82	0x3bbb7f7c	0.0057219844
83	0x3d0c3007	0.03422549
84	0xc017e004	-2.3730478
85	0x403863ce	2.8810916
86	0x3e960870	0.29303312
87	0x3e7dc701	0.24782945
88	0xbe03fe4c	-0.12889975
89	0x3f4f4ccf	0.80976576
90	0x3e10e18b	0.14148538
91	0xbef6ec70	-0.48227262
92	0x406dbb16	3.7145438
93	0x4008745b	2.1321018
94	0x402ff496	2.7493033
95	0xbe864aa1	-0.26228812

model.0.bias f4 [32]
0	0xbf422af5	-0.758468
1	0xbf680284	-0.9062884
2	0xbf15ccb3	-0.5851547
3	0xbf108b81	-0.56462866
4	0x4013fbcb	2.3122432
5	0xbf3ace90	-0.7297144
6	0xbf5afa9a	-0.8553864
7	0xbf879a8c	-1.0594039
8	0xbee0baef	-0.4389262
9	0xbf632e2e	-0.8874234
10	0x401513e3	2.3293388
11	0x403f9d20	2.9939651
12	0xbef8faea	-0.48628932
13	0xbf10055b	-0.5625817
14	0xbf27c6f2	-0.6553794
15	0xbf564a4f	-0.83707136
16	0xbf4bee73	-0.7966072
17	0x4028b3d7	2.6359766
18	0xbf31c042	-0.6943399
19	0x4029d859	2.6538298
20	0xbf867828	-1.0505419
21	0xbf444bd0	-0.7667818
22	0x4026efa3	2.6083763
23	0xbf4f263b	-0.8091771
24	0x4002e856	2.0454307
25	0xbf61a86a	-0.88147604
26	0xbf57ee38	-0.8434787
27	0x400e6ec9	2.2255118
28	0xbf571778	-0.84020185
29	0x4035cca8	2.8406162
30	0xbcc9f753	-0.024654066
31	0xbea5aaee	-0.32356972

model.2.weight f4 [32, 32]
0	0x3cd7b4ed	0.02633139
1	0x3d9fe605	0.078075446
2	0xbd34adaa	-0.04411093
3	0xbe640878	-0.22268856
4	0x3e22b1e8	0.15888178
5	0xbdc0855d	-0.09400437
6	0xbe1159b1	-0.14194371
7	0xbe47bb85	-0.19505127
8	0x3d99209e	0.07476924
9	0xbc5bc192	-0.01341285
10	0x3e1afe1f	0.15136002
11	0x3e1d3143	0.15350823
12	0xbe03cf3e	-0.12872025
13	0xbe2bb9d0	-0.167701
14	0xbe7f3786	-0.24923524
15	0xbd6b6861	-0.05747259
16	0xbd9de7c6	-0.07710223
17	0xbdf44a62	-0.1192825
18	0xbe14feee	-0.14550373
19	0xbdd04e43	-0.10171177
20	0xbeae8b33	-0.34090576
21	0x3d70c2da	0.058779575
22	0xbd746cb5	-0.059673984
23	0x3ccf25c8	0.02528657
24	0xba8dbff4	-0.0010814653
25	0xbe3c74e2	-0.18403962
26	0xbdb74443	-0.08948567
27	0x3e28d135	0.16486056
28	0xbe0ae184	-0.1356259
29	0x3e306d5d	0.17229219
30	0xbd41adc7	-0.047284868
31	0xbc050342	-0.0081184525
32	0xbdbbc4d1	-0.09168399
33	0xbcb9cbba	-0.022680152
34	0xbe1515c8	-0.1455909
35	0xbc1a0163	-0.009399745
36	0xbd8f77e1	-0.07005287
37	0x3e06be1b	0.13158457
38	0x3e4f7523	0.20259528
39	0x3e56a2b0	0.20960498
40	0xbd9184f0	-0.07105434
41	0xbc0ae558	-0.008477531
42	0x3db2c9b8	0.08729881
43	0xbca5d59d	-0.02024346
44	0x3d967e57	0.07348316
45	0xbe0deb58	-0.13859308
46	0xbe7d1dfb	-0.24718468
47	0xbc63ccbd	-0.013903794
48	0xbdd13053	-0.10214295
49	0x3db8ac6d	0.090172626
50	0x3e848257	0.2588069
51	0xbe2071c4	-0.15668398
52	0xbdbafde1	-0.09130455
53	0x3e69ef08	0.2284509
54	0xbc6bd6b6	-0.014394453
55	0xbca744c8	-0.02041854
56	0x3df4dc31	0.11956061
57	0xbe98a537	-0.2981355
58	0xbe805e3e	-0.250719
59	0xbe259ff8	-0.16174304
60	0x3d742508	0.05960563
61	0xbc338d03	-0.010958913
62	0x3d287fef	0.041137632
63	0x3e1dfcd7	0.15428482
64	0xbe4a7327	-0.1977049
65	0xbdc859a4	-0.097827226
66	0xbe9293f9	-0.2862852
67	0xbe1edb52	-0.15513352
68	0xbdb7fa47	-0.089832835
69	0xbee208d4	-0.4414736
70	0xbec735f7	-0.3890836
71	0xbe02ba57	-0.12766396
72	0xbe9f48df	-0.31110284
73	0xbe149896	-0.14511332
74	0xbc1b6abb	-0.009485896
75	0x3d064842	0.032783754
76	0xbe37d846	-0.17953596
77	0x3e0f3c40	0.13987827
78	0xbe288f2c	-0.16460866
79	0xbddae28f	-0.10687744
80	0xbd8ca5a4	-0.06867531
81	0x3e37aede	0.179378
82	0xbd804c2c	-0.06264529
83	0x3e20c582	0.15700343
84	0xbe832ef9	-0.25621775
85	0xbeaa586b	-0.33270583
86	0x3e23f7bd	0.16012473
87	0xbd105111	-0.03523356
88	0x3d8af2f8	0.06784624
89	0xbde65fa0	-0.11248708
90	0xbe5e3f23	-0.21703772
91	0x3e44eb99	0.19230498
92	0xbec48bfe	-0.38388056
93	0xbd25b261	-0.04045332
94	0xbeaad2a7	-0.3336384
95	0xbe9e50f4	-0.30921137
96	0xbe05592b	-0.13022296
97	0xbe0fc472	-0.14039782
98	0x3d3b57ea	0.04573814
99	0xbde40334	-0.111334234
100	0xbd6ef2f3	-0.058337163
101	0xbd9d0010	-0.076660275
102	0x3e0f5ec0	0.14000988
103	0xbe3dc9d8	-0.18534029
104	0x3e7b477a	0.24538985
105	0xbd8babe8	-0.06819898
106	0x3dfd579d	0.123702265
107	0x3c5fbd96	0.013656041
108	0x3c1928b8	0.009348087
109	0x3eece14e	0.46265644
110	0x3e6d91c7	0.23200141
111	0x3e86c861	0.26324752
112	0x3d328316	0.043582045
113	0xbda8bf23	-0.082395814
114	0x3eab5ba8	0.33468366
115	0x3d5e20e7	0.054230597
116	0xbf03e6a8	-0.5152383
117	0x3da207d9	0.07911653
118	0xbcf70691	-0.030154498
119	0xbdeb11d2	-0.11478008
120	0xbda8f225	-0.082493104
121	0xbb9262de	-0.0044673523
122	0x3e814f19	0.2525566
123	0xbe04fc07	-0.12986766
124	0x3e971193	0.29505596
125	0xbdc925f5	-0.09821693
126	0xbeded5f6	-0.43522614
127	0x3de169ff	0.11006545
128	0xbed7f6a3	-0.42180356
129	0xbe86fef7	-0.26366398
130	0xbdc5a7c9	-0.09651143
131	0xbeafc6a3	-0.34331235
132	0xbc3a15e9	-0.011357763
133	0xbe2d6dc1	-0.16936399
134	0xbe69cd7d	-0.22832294
135	0xbe51fa38	-0.20505607
136	0xbd8a74eb	-0.067605816
137	0xbe47097b	-0.1943721
138	0xbc910c4a	-0.017706055
139	0x3e1345d9	0.14382114
140	0xbe647a0b	-0.2231218
141	0xbeb9f4a9	-0.36319473
142	0xbe9debd9	-0.30844
143	0xbe919056	-0.28430432
144	0x3c8f9d17	0.017530961
145	0x3de5c954	0.11220041
146	0xbe20488d	-0.15652676
147	0x3dda991f	0.10673737
148	0xbeba675d	-0.36406985
149	0xbdf0eb07	-0.11763578
150	0x3d67a532	0.056554027
151	0xbe825003	-0.2545167
152	0x3e68b062	0.22723535
153	0xbe85a367	-0.2610123
154	0xbe295505	-0.16536339
155	0xbd94dfef	-0.072692744
156	0xbdb84ca3	-0.08998992
157	0x3e1a2b36	0.15055546
158	0xbeb92bc2	-0.36166197
159	0xbdb0aa08	-0.08626181
160	0xbe8dee4c	-0.2772087
161	0xbe5ad0d5	-0.21368726
162	0x3e87cfa5	0.26525608
163	0x3e9af7e0	0.3026724
164	0x3d4fd3b0	0.05073899
165	0xbe32db55	-0.17466481
166	0xbb88f18d	-0.0041791857
167	0xbb6baaf5	-0.0035960053
168	0x3e5e401c	0.21704143
169	0x3e0a1fa7	0.13488637
170	0xbe1378e0	-0.14401579
171	0x3e2d0667	0.16896974
172	0x3e7a0f63	0.24419932
173	0x3e8a8109	0.2705157
174	0x3e768b8a	0.24076667
175	0xbd90abf4	-0.070640475
176	0x3e0a0c1e	0.13481185
177	0x3e34ca09	0.17655195
178	0xbee51083	-0.4473916
179	0xbdf75721	-0.120771654
180	0x3e72fa1c	0.23728222
181	0x3df59ded	0.119930126
182	0xbe1a1c68	-0.15049899
183	0x3e554dd5	0.20830472
184	0xbd3ad809	-0.045616183
185	0x3d006479	0.03134582
186	0x3b0996f1	0.002099451
187	0xbc07a26c	-0.0082784705
188	0x3d0a76b3	0.033804607
189	0xbb899c45	-0.004199537
190	0x3cca2f25	0.024680683
191	0xbb9f3683	-0.004858793
192	0xbdd4abb1	-0.1038431
193	0xbe888cb2	-0.26669842
194	0xbebbd587	-0.36686346
195	0xbe34b073	-0.17645435
196	0x3e687892	0.22702244
197	0xbef41a54	-0.47676337
198	0xbe7cdf09	-0.24694456
199	0xbeb843ee	-0.35989326
200	0xbde34e13	-0.11098876
201	0xbedaeb5f	-0.427577
202	0x3e21f9a3	0.15817885
203	0x3c9f5e03	0.019454008
204	0xbed0396a	-0.40668803
205	0xbecdae8b	-0.40172228
206	0xbee71ad2	-0.4513765
207	0xbebee54d	-0.37284318
208	0xbea306cf	-0.31841132
209	0x3e2b6968	0.16739428
210	0xbe99b9d6	-0.30024594
211	0x3d8121d0	0.06305277
212	0xbe6a36ae	-0.22872421
213	0xbe7af1f0	-0.24506354
214	0x3e9cdac0	0.30635643
215	0xbe96d625	-0.29460254
216	0x3e608570	0.21925902
217	0xbe758719	-0.23977317
218	0xbe5a2937	-0.21304785
219	0x3c3ea98b	0.011637102
220	0xbe61d240	-0.2205286
221	0x3d44a09d	0.048004735
222	0xbde8081a	-0.1132967
223	0xbe839bed	-0.257049
224	0x3e3bfa38	0.1835717
225	0xbe368a09	-0.17826094
226	0x3d41b720	0.047293782
227	0x3e82e470	0.2556491
228	0x3e0adbb6	0.13560376
229	0xbec65c0c	-0.387421
230	0x3d677a1f	0.056512948
231	0x3e9f945a	0.3116787
232	0xbe73f80f	-0.23825096
233	0x3db46bae	0.08809601
234	0xbd420d6a	-0.047376074
235	0xbe2af478	-0.1669482
236	0x3deb6277	0.1149339
237	0xbee7661a	-0.45195085
238	0x3e1ccea3	0.153132
239	0x3dff54d3	0.12467351
240	0x3e888f5f	0.26671883
241	0xbc7ffc0e	-0.015624059
242	0xbe8429ad	-0.25813046
243	0xbe421304	-0.18952566
244	0x3e6f486d	0.23367472
245	0xbc420546	-0.011842078
246	0xbd63a1da	-0.055574276
247	0x3d807d4e	0.062739
248	0xbe171f43	-0.14758019
249	0x3e05d0cd	0.13067932
250	0xbdf6ff7d	-0.12060449
251	0xbc4c6617	-0.012475512
252	0xbe4023b3	-0.18763618
253	0xbad1d2b8	-0.0016008234
254	0x3d832e3b	0.06405302
255	0xbe0c1962	-0.13681558

model.2.bias f4 [32]
0	0x3e430915	0.19046433
1	0xbe24dd52	-0.16100052
2	0x3e24334a	0.1603519
3	0xbb49ba23	-0.0030781112
4	0x3db2edc1	0.08736754
5	0x3d8219ae	0.06352554
6	0x3ddcf7da	0.107894614
7	0xbd98238c	-0.07428655
8	0x3e0c9bd4	0.13731319
9	0x3f9106d2	1.1330206
10	0x3db826f0	0.08991802
11	0x3d22a4b7	0.039707866
12	0x3e614b3d	0.22001357
13	0x3e21250c	0.15736789
14	0x3ccfe1ee	0.025376286
15	0xbf3cb16a	-0.7370821
16	0x3e03e328	0.12879622
17	0xbe8f8be7	-0.28036425
18	0x3e108141	0.14111806
19	0xbd951f84	-0.07281402
20	0x3e8df05d	0.27722445
21	0x3e8c901d	0.274537
22	0xbd1bc5a7	-0.038030293
23	0x3d8d1bf1	0.06890095
24	0xbd288be7	-0.041149046
25	0xbdcbacb5	-0.099450506
26	0xbfa84644	-1.3146443
27	0x3dac8fd8	0.084258735
28	0x3ec04ec0	0.3756008
29	0x3e43ad98	0.1910919
30	0xbd1a7bd8	-0.037715763
31	0x3e97d7c4	0.29656804

model.4.weight f4 [1, 32]
0	0xbe0efde3	-0.13964038
1	0x3e60334c	0.21894568
2	0xbf0a049f	-0.539133
3	0x3e026824	0.12735039
4	0xbf5cfbc6	-0.86321676
5	0x3e04d6d6	0.12972578
6	0xbf4d7ee5	-0.8027175
7	0x3e6f5d98	0.23375547
8	0x3e89b2b3	0.2689415
9	0x3fc13fd6	1.5097606
10	0x3e3bc7ae	0.1833789
11	0xbf081151	-0.5315142
12	0xbfad87fa	-1.3557122
13	0xbe7530a4	-0.23944336
14	0x3edb1b24	0.42794144
15	0xc0c838fc	-6.256956
16	0x3d8ad892	0.06779589
17	0x3f910e44	1.1332479
18	0x3d7ccd1f	0.061719056
19	0xbe9bbb94	-0.30416548
20	0xbef46019	-0.47729567
21	0xbf6fc493	-0.93659323
22	0x3e896dc8	0.2684157
23	0x3ea54757	0.3228099
24	0x3e14f3ae	0.14546081
25	0x3e9fcf31	0.31212762
26	0x407ac92b	3.9185283
27	0x3daa767c	0.0832338
28	0xbfadc56a	-1.3575871
29	0x3e957529	0.2919095
30	0x3acbdd62	0.0015553648
31	0xbf98842e	-1.1915338
