best_model_2_dim1.pt (torch, 12216 bytes, 7 tensors)

model.0.weight f4 [32, 1]
0	0x3ee27a3a	0.44233876
1	0xc00e821f	-2.226692
2	0x400872fe	2.1320186
3	0xbdf7b6a9	-0.120953865
4	0x3fd522fe	1.6651304
5	0xbd54259a	-0.051793672
6	0x3ff1919f	1.8872565
7	0x3ff098b7	1.8796605
8	0xc0136441	-2.302994
9	0xbf442047	-0.7661175
10	0x3fc71b6a	1.5555241
11	0xbe414799	-0.18874969
12	0x3e129d46	0.14317808
13	0x3f059fcc	0.52196956
14	0xbe1a4d1b	-0.15068476
15	0x3f06a494	0.52594876
16	0x3ed62d15	0.4183127
17	0xbff4670a	-1.9093945
18	0x4005fc6b	2.0935314
19	0x3d1b4a63	0.037912738
20	0x3f3762c5	0.71635085
21	0x3fe06945	1.7532126
22	0xc01ca618	-2.4476376
23	0x3f91401a	1.1347687
24	0x3fcd4be4	1.6038785
25	0x3ffcc9eb	1.974912
26	0x3fbb6785	1.4640967
27	0x3fd15b06	1.6355903
28	0xc00e2d0a	-2.221499
29	0x3d4b1df2	0.049589105
30	0xc01bd04f	-2.4345891
31	0x3f07f304	0.5310519

model.0.bias f4 [32]
0	0x400571d4	2.0850725
1	0xbf221b83	-0.6332323
2	0xbef29b58	-0.47384143
3	0x3fd0c21b	1.6309236
4	0xbef575d7	-0.47941467
5	0x3fa57f6b	1.292951
6	0xbf005d47	-0.5014233
7	0xbf1289ce	-0.57241523
8	0xbee07a93	-0.43843517
9	0x4013ffee	2.3124957
10	0xbeb88188	-0.36036325
11	0x3fe8222d	1.813543
12	0x3f816308	1.0108347
13	0x3fe32dcb	1.774835
14	0x3fbe1aba	1.4851906
15	0x3fdc2819	1.7199737
16	0x40022a2b	2.0338237
17	0xbed0c3eb	-0.40774474
18	0xbf1a28c6	-0.60218465
19	0x3f8c9356	1.0982463
20	0x3ff5478e	1.9162462
21	0xbeef7ace	-0.4677338
22	0xbf3abdcb	-0.7294585
23	0xbf0bd542	-0.5462228
24	0xbee50943	-0.4473363
25	0xbedd43b9	-0.4321573
26	0xbefbcbca	-0.49178916
27	0xbee8023a	-0.453142
28	0xbeede4a8	-0.46463513
29	0x3f7909e9	0.97280747
30	0xbf456cda	-0.7711922
31	0x4011ca33	2.2779663

model.2.weight f4 [32, 32]
0	0x3dbfad4f	0.09359228
1	0xbc825cd2	-0.0159134
2	0x3d15f6e4	0.036612406
3	0x3d764fa0	0.06013453
4	0x3dc8087a	0.09767242
5	0x3e00e38f	0.12586807
6	0xbcfd3894	-0.030910768
7	0xbe403812	-0.18771389
8	0xbb573a1a	-0.0032841028
9	0x3e4fbb1f	0.20286225
10	0xbcb673b9	-0.022271978
11	0x3df284d9	0.11841745
12	0x3e8a50c1	0.27014735
13	0x3e8351ed	0.25648442
14	0x3e82b509	0.25528744
15	0x3da671f9	0.08127207
16	0x3e14eb3e	0.14542863
17	0xbe684b0c	-0.22684878
18	0xbdf7b291	-0.12094606
19	0x3dd6780b	0.10472115
20	0x3e023266	0.12714538
21	0xbde31388	-0.1108771
22	0xbe4538de	-0.19259974
23	0xbe97db3f	-0.2965946
24	0x3d0097e6	0.03139486
25	0xbe08ce74	-0.13360006
26	0x3cc64fef	0.024208037
27	0xbe21b6f9	-0.15792455
28	0x3dd05b42	0.10173656
29	0x3e6a14d0	0.22859502
30	0xbdf3f461	-0.11911846
31	0x3e91e849	0.28497532
32	0x3b886d4a	0.004163419
33	0x3d41e54e	0.047337823
34	0x3e117994	0.14206535
35	0x3dc1dbd7	0.09465759
36	0xbdaace8f	-0.08340179
37	0x3e25f195	0.16205437
38	0xbd1353f2	-0.03596873
39	0x3ddafbff	0.10692596
40	0x3e96fbf5	0.29489103
41	0x3e7d9d40	0.24767017
42	0x3d4f022a	0.050539173
43	0x3e499c4f	0.19688533
44	0x3dff5936	0.124681875
45	0x3e00a2de	0.12562129
46	0x3e1640a8	0.14673102
47	0x3e597bf8	0.21238697
48	0x3e4fb760	0.20284796
49	0x3def1c20	0.11675286
50	0x3dca8cfa	0.098901704
51	0x3e0d69c3	0.13809876
52	0x3e11ddfb	0.14244835
53	0x3e06845a	0.13136426
54	0xbb441c65	-0.002992415
55	0xbd50a90a	-0.05094246
56	0xbd6eddae	-0.05831688
57	0xbe12de07	-0.14342509
58	0xbe743fbe	-0.2385244
59	0xbd265bcf	-0.0406149
60	0x3e8cf35c	0.27529418
61	0x3c9f359a	0.019434739
62	0x3e28347f	0.16426276
63	0x3e545fa4	0.20739609
64	0xbf60cf5b	-0.878164
65	0x4008d289	2.13785
66	0x3fa0d749	1.25657
67	0xbf82f8a2	-1.0232127
68	0x3fb63c64	1.423718
69	0xbf830bd1	-1.0237981
70	0x3fb6feac	1.429647
71	0x4001e67b	2.0296924
72	0x3fc6e9fc	1.5540156
73	0xbec5d82b	-0.38641486
74	0x3fc725ef	1.5558451
75	0xbf0d6db6	-0.5524553
76	0xbf2a0e79	-0.66428334
77	0xbf6901aa	-0.91018164
78	0xbf297e79	-0.66208607
79	0xbeefa5bb	-0.4680613
80	0xbf3fe5cd	-0.74960023
81	0x3fa58319	1.2930633
82	0x3fce542d	1.6119438
83	0xbf5710ed	-0.840102
84	0xbe89609e	-0.26831526
85	0x3fe050d0	1.7524662
86	0x3ffa30cc	1.9546142
87	0xbd0bb323	-0.034106385
88	0x3fc69e4c	1.5517058
89	0x3f59d74a	0.8509413
90	0x3fb3766b	1.4020513
91	0x3fd1e3db	1.6397661
92	0x3fac5242	1.3462603
93	0xbf63a926	-0.88929975
94	0x3ff6e531	1.9288694
95	0xbf3af3fe	-0.7302855
96	0x3e011f70	0.12609649
97	0x3c6a40e3	0.014297697
98	0x3dbba3bb	0.091620885
99	0x3d8b6353	0.06806054
100	0x3e4299ca	0.19003978
101	0x3e9b23cc	0.30300748
102	0xbd98ddfa	-0.07464214
103	0x3d7be248	0.061495095
104	0x3e97317a	0.29529935
105	0x3db9ec9c	0.09078333
106	0x3e9361d2	0.28785568
107	0x3eaa62c3	0.33278474
108	0x3dcc46db	0.09974452
109	0xbbd130ff	-0.0063840146
110	0x3e7a13a2	0.24421552
111	0x3e5f0b96	0.21781763
112	0x3e975325	0.29555622
113	0x3decd20c	0.11563501
114	0x3e7ee3e4	0.24891621
115	0xbbb79bfa	-0.0056033107
116	0x3e1eb593	0.15498953
117	0x3e2b8dd2	0.16753319
118	0x3e750a73	0.23929767
119	0x3ccade5c	0.024764232
120	0x3d88d08b	0.066804014
121	0x3caaed86	0.020865213
122	0xbd04c8c6	-0.032418035
123	0x3e323c59	0.17405833
124	0x3e0f71ed	0.14008303
125	0x3e619635	0.22029956
126	0x3df13e7c	0.11779496
127	0x3e0b0fce	0.13580248
128	0xbd3833f8	-0.044971436
129	0x3f167909	0.58778435
130	0x3e59b117	0.2125896
131	0xbc5ba964	-0.013407085
132	0x3ee01a50	0.43770075
133	0x3d4dc6de	0.050238483
134	0x3e85f87c	0.2616614
135	0x3f053056	0.5202688
136	0x3e946eb4	0.2899071
137	0x3d83344a	0.06406458
138	0x3f1b16b1	0.605815
139	0xbd07a609	-0.033117328
140	0x3c7cb84e	0.015424801
141	0xbe5a7f2d	-0.21337576
142	0xbdee688e	-0.11641036
143	0xbd8da68b	-0.06916531
144	0xbe461cc5	-0.19346912
145	0x3f1041a5	0.56350166
146	0x3eee3e6b	0.46531996
147	0xbd97aefd	-0.07406423
148	0x3e429821	0.19003345
149	0x3e52cb16	0.20585284
150	0x3eed5cff	0.46360013
151	0x3ee6c52c	0.45072305
152	0x3f0286fd	0.50987226
153	0x3ea397c7	0.31951734
154	0x3e5f89da	0.2182993
155	0x3e91fd6f	0.28513667
156	0x3f0af447	0.5427899
157	0xbd1b14cc	-0.03786163
158	0x3f12ab9e	0.5729312
159	0xbe2226b8	-0.15835083
160	0x3e7e845e	0.24855182
161	0xc014d8db	-2.3257358
162	0xbfa2a0ea	-1.2705357
163	0x3e40a1ef	0.18811773
164	0xc0053449	-2.0813162
165	0x3e816151	0.2526956
166	0xc013c6b1	-2.3090022
167	0xbff43279	-1.9077903
168	0xc009a9bb	-2.1509845
169	0x3e560b59	0.20902766
170	0xbf9eb5f1	-1.2399274
171	0x3ebac8bc	0.36481273
172	0x3edcea5b	0.4314755
173	0x3ef631e5	0.48084942
174	0x3e696ec8	0.22796166
175	0x3eb152e2	0.34633547
176	0x3f0a7596	0.5408567
177	0xc0286278	-2.63101
178	0xbfee79b3	-1.863089
179	0x3e91e204	0.2849275
180	0x3e737d44	0.23778254
181	0xbfd70274	-1.6797624
182	0xc008bb52	-2.1364331
183	0xbf8bbceb	-1.0917028
184	0xbfed68cb	-1.8547605
185	0xbf728141	-0.94728476
186	0xc045989b	-3.0874393
187	0xbfde200e	-1.7353532
188	0xc0010fd2	-2.0165906
189	0x3ec04437	0.37552044
190	0xc01ab5bd	-2.4173424
191	0x3ef88e04	0.4854585
192	0xbeab5ff4	-0.33471644
193	0x3f6ee8d3	0.9332401
194	0x3ede89d1	0.4346452
195	0xbedc639d	-0.4304475
196	0x3f46499b	0.77456063
197	0xbede8899	-0.4346359
198	0x3f02b069	0.5105043
199	0x3f0bcf1c	0.546129
200	0x3f1d0c88	0.61347246
201	0xbe4b2f6b	-0.19842307
202	0x3f649301	0.8928681
203	0xbed72a54	-0.4202448
204	0xbe9e0a90	-0.30867434
205	0xbedfd241	-0.43715099
206	0xbe875c0c	-0.26437414
207	0xbe35c7e5	-0.17752035
208	0xbebef893	-0.37299022
209	0x3f58c57e	0.8467635
210	0x3f4251c2	0.75906
211	0xbed95696	-0.42448872
212	0xbea30d7c	-0.31846225
213	0x3ee75dda	0.4518879
214	0x3f6e2cca	0.9303709
215	0x3f8265bc	1.0187297
216	0x3efd48d7	0.49469635
217	0x3f0915da	0.5354897
218	0x3f5819fd	0.84414655
219	0x3f24aca6	0.6432594
220	0x3f163b26	0.58684003
221	0xbeb211dc	-0.3477925
222	0x3f79f611	0.9764109
223	0xbe3a559d	-0.18196721
224	0xbda9bbea	-0.08287795
225	0x3f523c80	0.82123566
226	0x3e983837	0.2973039
227	0x3d10e022	0.03537
228	0x3f1618b1	0.58631426
229	0x3c8c58d2	0.017132197
230	0x3e98e649	0.29863194
231	0x3ef086c5	0.4697782
232	0x3f1042fb	0.56352204
233	0x3e05ef8b	0.1307966
234	0x3ea66a62	0.3250304
235	0xbd089983	-0.033349525
236	0xbd163dd8	-0.036680073
237	0xbd694f88	-0.056960613
238	0xbd477378	-0.048694104
239	0xbd921797	-0.07133406
240	0x3d2c72f0	0.0421018
241	0x3f11f0d1	0.5700808
242	0x3eb2d281	0.34926227
243	0x3df4b781	0.11949063
244	0xb9cd8c0a	-0.00039204984
245	0x3ee72c47	0.45150968
246	0x3f1bcfcd	0.60863954
247	0x3ed836a9	0.42229202
248	0x3ed68910	0.41901445
249	0x3ea4df63	0.3220168
250	0x3f2d5677	0.6771006
251	0x3eac8776	0.33697098
252	0x3eb17600	0.3466034
253	0xbe3f679a	-0.18691865
254	0x3f0141d3	0.50491065
255	0x3cf9693f	0.030445693

model.2.bias f4 [32]
0	0x3e8245e5	0.2544395
1	0x3e23a1c0	0.15979671
2	0xbf5dea2c	-0.8668544
3	0xbc9903c5	-0.018678555
4	0xbe19aba5	-0.15006883
5	0x3e8c5127	0.27405664
6	0xbe618e2d	-0.22026892
7	0xbe379024	-0.17926079
8	0x3db00fb7	0.08596747
9	0x3ed02acc	0.4065765
10	0x3d3c2773	0.04593606
11	0x3ecee5ba	0.40409642
12	0x3ee316ba	0.44353276
13	0x3e507d18	0.2036022
14	0xbf5675b3	-0.83773345
15	0xbcde47bb	-0.027133813
16	0x3e8892a0	0.26674366
17	0x3d577506	0.052601837
18	0xbe88965f	-0.26677224
19	0xbeffaf15	-0.49938264
20	0x3e7bd222	0.24591878
21	0x3f689ab8	0.9086108
22	0x3e530782	0.20608333
23	0x3e52d019	0.20587195
24	0xbb56f29e	-0.003279842
25	0xbe9989ad	-0.2998785
26	0x3d6801f3	0.056642484
27	0x3e356c08	0.17716992
28	0xbd87c964	-0.06630209
29	0x3ede9483	0.4347268
30	0xbe8ee949	-0.27912357
31	0x3e2c5c68	0.16832125

model.4.weight f4 [32, 32]
0	0xbe257e00	-0.16161346
1	0xbdfe1ca0	-0.124078035
2	0xbe33f342	-0.17573264
3	0xbe0abec0	-0.13549328
4	0x3d5336b3	0.051565837
5	0xbd878240	-0.0661664
6	0x3e8145c9	0.25248554
7	0x3e2e393f	0.17014025
8	0xbe3a60ca	-0.18200985
9	0x3d8ccdef	0.06875216
10	0x3df8ab12	0.12142004
11	0xbd6f0e58	-0.05836329
12	0x3de80adb	0.113301955
13	0xbe075afc	-0.13218302
14	0x3e1411d6	0.14459929
15	0x3e1d771e	0.15377471
16	0xbdf0ba3b	-0.11754271
17	0xbd9014c1	-0.070352085
18	0xbd0e9cc3	-0.03481747
19	0x3e01e84b	0.12686269
20	0x3ddb9d92	0.107234135
21	0xbe858a44	-0.2608205
22	0xbde46273	-0.1115159
23	0x3cb21645	0.021739135
24	0xbcdcbc3c	-0.026945226
25	0x3e4003e0	0.18751478
26	0x3d88a29e	0.06671642
27	0x3d80af1a	0.06283398
28	0xbd5836ec	-0.052786753
29	0x3d152dbd	0.036420573
30	0x3e6008f9	0.21878423
31	0x3ce9a084	0.028518923
32	0xbd84a9b8	-0.06477684
33	0x3e1cb0ec	0.15301865
34	0xbe8f47d1	-0.2798448
35	0x3e16c5b2	0.14723852
36	0x3dcf0388	0.101080954
37	0x3e0229ba	0.1271123
38	0x3e4c81cd	0.1997139
39	0x3db80282	0.08984853
40	0x3c7643dd	0.015030828
41	0xbd1ea8e6	-0.038735293
42	0xbdc445f4	-0.09583655
43	0x3db5eeff	0.088834755
44	0x3df01c3a	0.11724134
45	0x3dc8656d	0.097849704
46	0x3eb30a05	0.34968582
47	0xbdba53c8	-0.09098011
48	0xbd0694a3	-0.032856595
49	0x3d2524a0	0.04031813
50	0xbe0618e7	-0.13095437
51	0x3e151403	0.14558415
52	0xbccb798e	-0.024838235
53	0xbd62b291	-0.055346075
54	0x3e14462e	0.14479896
55	0x3db1926f	0.08670508
56	0xbd447b8e	-0.047969393
57	0x3e35bee2	0.17748597
58	0x3e0bd474	0.13655263
59	0x3d5fe501	0.054661755
60	0xbcbdecd0	-0.02318421
61	0x3dd0c1b4	0.10193196
62	0xbdac80d4	-0.084230095
63	0xbcba0f0a	-0.02271225
64	0xbe18b208	-0.14911664
65	0x3dc4513c	0.09585807
66	0xbd3ac5db	-0.045598846
67	0xbe289c71	-0.16465928
68	0x3daffaed	0.08592782
69	0xbc5abd9f	-0.013350873
70	0x3d99dcf9	0.0751285
71	0x3eab81f9	0.334976
72	0xbe068dae	-0.13139984
73	0xbda2fce7	-0.079583935
74	0x3d3f13c2	0.046649702
75	0x3e024992	0.12723377
76	0xbe1af923	-0.151341
77	0xbe1a15ce	-0.1504738
78	0x3f0fbcda	0.5614754
79	0x3e8bd2b3	0.27309188
80	0x3d450705	0.048102397
81	0x3e067d47	0.13133727
82	0x3e6c4e19	0.23076667
83	0x3e932e68	0.28746343
84	0xbe41a890	-0.18911958
85	0xbd1b2ae6	-0.037882708
86	0xbcf368bb	-0.029713025
87	0x3ddafed6	0.10693137
88	0x3df997fc	0.12187192
89	0x3df723a7	0.12067347
90	0x3d4c9570	0.049947202
91	0xbe474eaf	-0.19463609
92	0x3d95485b	0.07289191
93	0xbceb53e1	-0.02872652
94	0x3e24add6	0.16081938
95	0xbe1a23aa	-0.15052667
96	0x3cc7f661	0.024409475
97	0xbd393b86	-0.04522278
98	0x4074bb11	3.8239176
99	0xbe358813	-0.1772769
100	0x3c860064	0.016357608
101	0x3e86f42e	0.2635817
102	0x3f0a1870	0.5394354
103	0x3bc8c526	0.0061270176
104	0x3e931781	0.2872887
105	0xbe375848	-0.1790477
106	0x3cd6cb06	0.026219856
107	0x3d8809cf	0.06642496
108	0xbe862035	-0.26196447
109	0xbe4ede71	-0.20202042
110	0x3e7860b4	0.2425564
111	0x3e3d633a	0.18494883
112	0xbe4ea977	-0.20181833
113	0xbdbd5995	-0.09245602
114	0x3e9175af	0.28410098
115	0x3e07df3e	0.13268754
116	0xbdba9366	-0.09110145
117	0xbe8a4a71	-0.2700992
118	0x3e402f6f	0.18768094
119	0xbdd3ad42	-0.10335781
120	0x3eb07d32	0.34470516
121	0x3e5d18ff	0.21591567
122	0x3c59b21b	0.013287093
123	0xbe882756	-0.2659251
124	0xbe0b68f0	-0.13614249
125	0x3e958c41	0.29208568
126	0x3e9d31e6	0.30702132
127	0xbb449e0f	-0.0030001437
128	0xbc4a3b7d	-0.012343285
129	0xbe1fca27	-0.15604459
130	0x3f1967c4	0.5992396
131	0x3e42b75a	0.19015256
132	0x3cbe37ff	0.02322006
133	0x3d6e0562	0.058110602
134	0x3e806f00	0.25084686
135	0xbbe2881b	-0.0069131977
136	0x3e0cb99a	0.13742676
137	0xbd943c53	-0.072380684
138	0x3e35a435	0.17738421
139	0x3e2c7988	0.16843235
140	0xbe0aecef	-0.13566945
141	0xbe56d5d7	-0.20980011
142	0x3dcd8304	0.10034755
143	0x3d939633	0.072063826
144	0x3dd5640e	0.104194745
145	0x3c8ecc32	0.017431352
146	0xbc262b3d	-0.010142145
147	0x3daa7bff	0.08324432
148	0xbdadbdf9	-0.084835
149	0xbd0d508a	-0.034500636
150	0x3de33815	0.11094681
151	0x3da9f6ea	0.08299048
152	0xbd84bfdb	-0.06481906
153	0x3e39eb75	0.18156226
154	0x3e6d7200	0.23188019
155	0x3d8ee996	0.06978147
156	0x3ddcdde1	0.107845075
157	0x3e267af0	0.16257834
158	0x3e143554	0.14473468
159	0xbda63090	-0.08114731
160	0xbdb4ec04	-0.08834079
161	0x3da904c9	0.08252866
162	0xbe860a64	-0.26179802
163	0x3e436cb5	0.19084437
164	0x3df1123f	0.11771058
165	0xbfd52d59	-1.6654464
166	0x3e520f5a	0.20513669
167	0x3e1168d0	0.14200139
168	0xbd3169ea	-0.0433139
169	0x3dee579a	0.116378024
170	0x3dd337ea	0.10313399
171	0xbe8ca47c	-0.27469242
172	0xbb8b65c6	-0.0042540757
173	0x3c4ef832	0.012632417
174	0x3eb183bb	0.34670815
175	0x3eac4a1b	0.33650288
176	0x3ddfca79	0.109272905
177	0x3deac10a	0.114626005
178	0xbd06dcbf	-0.032925364
179	0xbb1c098e	-0.0023809406
180	0x3cf1036c	0.029420577
181	0x3dc9509e	0.0982983
182	0x3e23cf52	0.15997055
183	0x3d752809	0.059852634
184	0x3e2ca229	0.16858734
185	0x3de19ec2	0.11016609
186	0x3e01f0d2	0.12689522
187	0x3e58cfb8	0.21172988
188	0x3d9648f7	0.07338136
189	0xbfca3ac0	-1.5799179
190	0xbcde39b9	-0.027127134
191	0x3e8b3a97	0.27193138
192	0x3d91afa2	0.071135774
193	0x3db84891	0.08998216
194	0x3ed66be6	0.41879195
195	0x3d65c584	0.05609657
196	0xbd3775b6	-0.044789992
197	0xbdfcd0e2	-0.12344529
198	0x3e97e7af	0.29668948
199	0x3e92d67e	0.2867927
200	0x3d37b521	0.044850472
201	0xbc5539d4	-0.013014276
202	0x3e3f9be7	0.18711816
203	0x3d2bee06	0.041975044
204	0xbde80f33	-0.11331024
205	0xbe1221e2	-0.14270738
206	0x3dcb0e3d	0.09914825
207	0x3dfddb54	0.12395349
208	0x3bde0a61	0.0067761396
209	0xbd8e0535	-0.06934587
210	0x3e0d3f58	0.13793695
211	0x3d95e843	0.07319691
212	0xbc7d51aa	-0.015461365
213	0x3d2df4cf	0.042469796
214	0x3e53ffcc	0.20703048
215	0x3e9dab5a	0.30794793
216	0x3e124c9a	0.14287034
217	0x3ca34999	0.019932555
218	0x3e80c71f	0.25151917
219	0x3e352263	0.17688899
220	0x3e55a340	0.20863056
221	0x3d8a2f83	0.067473434
222	0x3e41481e	0.18875167
223	0x3d2198f2	0.0394525
224	0x3e78b03f	0.24285983
225	0x3e4031ec	0.18769044
226	0x3e547831	0.20748974
227	0x3df72928	0.12068397
228	0xbf3092ec	-0.68974185
229	0xbea7fba7	-0.32809183
230	0xbf291b0c	-0.66056895
231	0xbed7f7fc	-0.42181385
232	0xbe9896ac	-0.29802454
233	0x3d4e3604	0.050344482
234	0xbf029c64	-0.51019883
235	0xbdc815a1	-0.097697504
236	0x3e046dfb	0.12932579
237	0x3e11dddd	0.1424479
238	0xc04a96ef	-3.1654623
239	0xbf306275	-0.68900234
240	0x3d9dfdff	0.077144615
241	0x3d99368f	0.07481109
242	0x3f43abe8	0.76434183
243	0x408ed0b4	4.4629765
244	0x3da4f31c	0.08054182
245	0x3e6515f0	0.2237165
246	0x3e8a9984	0.27070248
247	0x3eb12b2c	0.3460325
248	0xbebe1413	-0.3712469
249	0xc01cc13d	-2.4492943
250	0xbed4c852	-0.41559082
251	0x3ce3c881	0.027805569
252	0xbf3bff65	-0.73436576
253	0xbe4820fb	-0.19543831
254	0x3ef1248e	0.47098202
255	0x3e3cec9f	0.18449639

model.4.bias f4 [32]
0	0xbe1926d1	-0.14956214
1	0xbe2ab2d3	-0.16669779
2	0xbd7834b2	-0.06059713
3	0x3d9f8cd7	0.07790535
4	0x3d2055eb	0.039144438
5	0x3e4986c4	0.19680315
6	0xbe0ec0a9	-0.13940682
7	0xbd686e85	-0.056746025
8	0x3e05b60f	0.13057731
9	0x3d92a9ec	0.07161316
10	0xbd489be1	-0.048976783
11	0x3d9824cd	0.07428894
12	0x3dc03e44	0.09386876
13	0x3dc70001	0.097167976
14	0xbe3d1930	-0.1846664
15	0xbde79b1f	-0.11308884
16	0x3dfc9f64	0.12335089
17	0x3e69c7c4	0.22830111
18	0xbe3a082b	-0.18167178
19	0x3d5dfc12	0.05419547
20	0x3c827deb	0.015929183
21	0x3e576925	0.21036203
22	0xbe08f28b	-0.13373773
23	0xbd15411c	-0.036439046
24	0xbe2ad074	-0.16681081
25	0xbca5acfc	-0.020224087
26	0xbe48bfde	-0.19604442
27	0x3dd7aa39	0.10530514
28	0x3e2d8c1a	0.16947976
29	0x3de44179	0.111453004
30	0xbde64841	-0.1124425
31	0x3db084ef	0.08619105

model.6.weight f4 [1, 32]
0	0xbe8fefe7	-0.28112718
1	0xbe9cac3d	-0.30600157
2	0xbec9b001	-0.39392093
3	0x4025806e	2.5859637
4	0x3e527d25	0.20555551
5	0xbecf1003	-0.40441903
6	0x3e825f71	0.2546344
7	0x3f9fa2dc	1.2471576
8	0xbf00cc7c	-0.5031202
9	0xbed0f830	-0.40814352
10	0xbe871f04	-0.2639085
11	0xbe961f16	-0.29320592
12	0xbe719795	-0.2359298
13	0x3fadf87d	1.3591458
14	0xbf0a9ad9	-0.5414253
15	0xbf04dd7b	-0.5190045
16	0x3e5a211c	0.21301693
17	0xbe938e7d	-0.28819647
18	0x3fac4169	1.3457462
19	0x3f167d9f	0.5878543
20	0xbead60ea	-0.33863002
21	0x3e3efb25	0.18650492
22	0xbed69d25	-0.41916767
23	0xbfa2aad2	-1.270838
24	0xbeafa053	-0.34302005
25	0x3f025a56	0.5091909
26	0xbed3d823	-0.41375837
27	0x3f22e572	0.63631356
28	0xbee858d6	-0.45380276
29	0xbeb86413	-0.3601385
30	0xbe98ec54	-0.29867804
31	0x3f2cfaa5	0.67569953
