best_model_5_dim3.pt (torch, 26912 bytes, 13 tensors)

model.0.weight f4 [32, 3]
000000 4f e8 7c bf 68 58 76 bf 74 37 02 3e 6b 5a 97 3f
       -0.98791975 -0.9622865 0.12716466 1.1824468
000010 02 d0 0c 3f 9d 77 6c be d0 99 18 3f 84 25 27 bf
       0.55004895 -0.23092504 0.596097 -0.6529162
000020 96 40 85 bf f9 ec 5d 3f a7 56 60 bf 32 93 6e 3f
       -1.0410335 0.86689717 -0.8763222 0.9319335
000030 ba 82 c6 3e 53 b9 24 3f 96 f2 c0 3d 8d 4b 8a be
       0.3877161 0.6434528 0.094212696 -0.27010766
000040 e6 9e 56 3e a7 ff 55 3c 4a 55 a5 3f 5b 8e 0c 3f
       0.20959052 0.013061441 1.2916653 0.5490472
000050 56 63 19 be 8e 8a ab 3e 33 0a b1 be 02 dd db 3f
       -0.149793 0.33504146 -0.34578094 1.7176821
000060 38 9a 2a bf b5 ad 77 3e 3c a1 69 be 68 b7 ff bc
       -0.6664157 0.24187358 -0.22815412 -0.031215385
000070 3c 9e 27 bf ec 0b 38 3e f5 6e 9e 3f 67 8f 9f 3f
       -0.6547582 0.17973298 1.2377611 1.2465638
000080 cb 5d 57 3d 5e 4f 50 3f 83 4f 8d 3f ae dd 07 3f
       0.052579682 0.81371105 1.103989 0.5307263
000090 1c 96 96 3f 46 29 e6 be fe 25 e7 3c c9 02 99 be
       1.176456 -0.44953364 0.028216358 -0.29884937
0000a0 24 d4 9f 3e 31 c3 33 bf 65 63 a0 bf 6f 91 8d 3f
       0.31216538 -0.70219713 -1.2530333 1.1060008
0000b0 96 fe 5c be c9 cb 86 bf 80 53 7d 3f 11 a6 20 bf
       -0.21581492 -1.053094 0.98955536 -0.627534
0000c0 82 76 e6 bd 05 ae cb 3d 91 73 a6 3f a7 c4 10 bf
       -0.11253072 0.09945301 1.3004018 -0.5655007
0000d0 9c ba 4b be 9c f3 98 3f 30 77 be bf b8 63 cb 3f
       -0.19895405 1.1949344 -1.4880123 1.5889807
0000e0 0c d5 e1 bc b5 0c df be 76 33 03 3f fc 30 ba 3f
       -0.027567409 -0.43564382 0.512504 1.4546199
0000f0 82 12 6c bd 49 b8 e7 3e 25 f6 cf be 23 bb 9a bf
       -0.057634838 0.45257786 -0.4061748 -1.208836
000100 d2 06 fc be f4 71 85 3e ac c7 58 3f 83 0f 43 bf
       -0.49223953 0.26063502 0.84679675 -0.76195544
000110 c7 00 de bd 26 a1 a1 bd 55 c6 0d 3f 95 cd 7a 3f
       -0.10839992 -0.07892065 0.55380756 0.97969943
000120 3f 8d 70 be df b4 21 3e b9 17 b7 bf 4f 98 97 bf
       -0.23491381 0.15791653 -1.4304115 -1.1843356
000130 5e 90 aa 3f 33 01 37 bf e5 3b 9b 3f bc d7 88 bf
       1.3325307 -0.71486205 1.2127653 -1.0690837
000140 42 ad ff be 3c d7 89 bf 49 d6 b5 bf 9a c0 e0 3c
       -0.49936873 -1.0768809 -1.420602 0.02743559
000150 3b 71 72 bf 72 30 6e 3f 82 8f ea be 24 23 e5 bd
       -0.94704026 0.9304267 -0.45812613 -0.11188343
000160 55 c3 a4 bf 8b b8 49 be b2 95 ad 3d ef 14 d5 be
       -1.2872111 -0.19699304 0.08475818 -0.41617534
000170 a8 d6 7d bf d5 9b 71 3c f3 e6 a0 3c 1d 4b 0c 40
       -0.99155664 0.014746626 0.019641375 2.1920846

model.0.bias f4 [32]
000000 b2 2b 88 bd 66 8f d1 be fc 11 92 3d 09 d7 dd bc
       -0.06648959 -0.40929717 0.071323365 -0.027080076
000010 7a 3f dc be 24 d4 81 3e 54 3d 2e bd 51 d9 96 be
       -0.4301718 0.25357163 -0.042538956 -0.29462674
000020 0d b7 54 3f 4a 38 b8 3e 6b a1 2a be df ae 90 be
       0.83091813 0.35980445 -0.16663139 -0.28258416
000030 97 2d be 3e e0 93 c9 3e e2 d8 6b be 59 f7 11 3d
       0.37144157 0.39370632 -0.23031953 0.03563628
000040 45 58 c8 be 5d cf 92 be e5 c5 13 be 5f 61 fd be
       -0.39129844 -0.2867383 -0.1443096 -0.4948835
000050 25 b2 12 3f b8 4a de be dc 24 16 be 48 22 0a bf
       0.57303077 -0.4341638 -0.14662498 -0.5395856
000060 e5 49 22 3d 4b 27 ea 3e 97 f0 a5 be 85 e2 44 be
       0.039621253 0.45733103 -0.32410118 -0.19227035
000070 c2 4b 0a bf a4 c2 b2 bd 78 1f f5 3e e5 2e 1b be
       -0.5402185 -0.08728531 0.4787557 -0.15154608

model.2.weight f4 [32, 32]
000000 38 e3 1e bf 17 71 c6 be 6b 59 e2 3d 2f 60 7f be
       -0.6206546 -0.38758156 0.110522114 -0.24939035
000010 f3 1c 2d bd 89 3f d5 bc 41 cd 22 be 0b d0 c6 be
       -0.042263936 -0.026031272 -0.1589861 -0.388306
000020 e2 f8 0f be 3c 9b ca 3d c5 80 76 bf a8 7f 13 bf
       -0.14059785 0.0989289 -0.96290237 -0.5761666
000030 90 e3 67 3e 8f 83 2c 3e a4 54 8b 3e 51 3f 27 3d
       0.22645402 0.1684706 0.27213013 0.040831868
000040 ea 16 69 3e 7a 44 6c be 3d 0b 0b 3f db f8 bc 3e
       0.22762647 -0.23072997 0.54314023 0.36908612
000050 0a 52 ad 3d a9 c8 b3 be 51 f6 31 3f bb 3d 14 3d
       0.08462913 -0.3511403 0.69516474 0.036191683
000060 12 8a 88 be 3b 6e 02 be 8e 6c 69 3f 39 06 19 bf
       -0.2666784 -0.12737362 0.91181266 -0.5977512
000070 6d 33 53 3e 81 58 09 3d f7 70 df 3b 56 e5 1d be
       0.20625086 0.03353167 0.0068188864 -0.15419516
000080 e1 d2 14 3f e7 6c eb 3e 23 a2 37 3f bb b2 78 be
       0.58134276 0.45981523 0.71731776 -0.2428693
000090 ef 0e 82 3e e7 fb 34 bf 31 41 5d 3f d1 b0 6d 3f
       0.25402018 -0.7069687 0.864276 0.92847925
0000a0 7b 6d 34 bf ef 6b 02 3e 95 46 f0 3e 18 b0 4a 3f
       -0.70479554 0.12736486 0.4692885 0.7917495
0000b0 3d bc dc 3e 16 3f c0 be e6 f5 1f bd c1 3a 3b bf
       0.43112364 -0.3754813 -0.039052866 -0.73136526
0000c0 fc c2 9e 3f 8e 8f 89 3f fc 52 53 3d c5 1f 89 3f
       1.2403255 1.0746934 0.051592812 1.071282
0000d0 b5 c2 1f bf 2c eb e3 3e af a6 6d 3e 4b 24 73 3f
       -0.62406474 0.4451536 0.23208116 0.94977254
0000e0 c4 03 3c 3e 99 a9 c5 be f1 59 c3 3e 4a ef 41 3f
       0.18360811 -0.38605955 0.38154557 0.7575575
0000f0 48 ee 0a be 0d cf 5a 3f 31 22 76 3e 35 c9 7e 3f
       -0.1356746 0.85472184 0.2403648 0.9952577
000100 28 8c 12 bd f8 db a5 3e 7f 64 48 3e 07 62 9f 3d
       -0.035778195 0.32394385 0.19569586 0.07782369
000110 1c 93 41 3d 01 61 f0 bd 1a 6a d9 3d 8c 10 a4 3e
       0.047259435 -0.11737252 0.106159404 0.32043874
000120 f6 ad 36 3d 2d 23 3a 3d a6 7f 66 bc 8c 61 a8 3d
       0.044599496 0.045443702 -0.01406852 0.082217306
000130 29 8b 34 3e 68 fe 97 3e 72 19 8c bd 58 ff 20 3e
       0.1763121 0.29686284 -0.06840791 0.15722406
000140 44 ea c1 3d 59 7c 2e 3e 31 fb 58 bd 31 0a 99 be
       0.09468511 0.17039622 -0.05297393 -0.29890588
000150 3f a3 06 bd 1c a9 f2 3c e4 dd ec bb c5 3e 53 bd
       -0.032870527 0.029621653 -0.0072286 -0.051573534
000160 37 2c f1 3e b2 a0 49 3e b5 5a 71 bd 39 e7 02 3e
       0.47104046 0.19690207 -0.058924396 0.12783517
000170 c8 ac 58 3e 01 6e 86 3c fa 7a aa 3e 3a e7 7a 3d
       0.21159661 0.016409876 0.3329695 0.06125567
000180 ce d2 72 be 15 5a 94 3e be d9 30 3e 72 fa b6 3d
       -0.23713228 0.28974977 0.17270562 0.089344874
000190 0b 62 b8 be 64 95 2f be c6 bc 4b 3e f7 6b 1b be
       -0.360123 -0.17146832 0.1989623 -0.15177904
0001a0 5e f8 f9 3c f7 c8 c6 3d c1 70 0b 3e b7 a9 08 bf
       0.030513939 0.097063 0.13617231 -0.53383964
0001b0 56 8c f5 3e 57 ff 11 3e bb 72 5b 3d c5 dc 4e 3e
       0.4795863 0.1425756 0.053576212 0.20201404
0001c0 ab 01 c5 be 09 d7 07 bf dd 6b 65 be 3c ea fc be
       -0.38477835 -0.5306249 -0.22404428 -0.49397457
0001d0 87 7b bc bd cc a1 1b bf ae fb e6 3e 9a 53 a9 be
       -0.092032485 -0.6079376 0.4511389 -0.33071595
0001e0 d7 59 ed 3e 4d a2 72 bc 87 c7 1c 3f 7a 92 b6 3e
       0.46357605 -0.014809203 0.61241955 0.35658628
0001f0 6b 19 ed 3d 64 aa fc 3e f5 25 c8 3d ad f1 3d bf
       0.11577114 0.49348748 0.09772865 -0.7419689
000200 09 0c ac bc d3 c6 ec be c5 07 12 bf 55 84 48 bf
       -0.021001833 -0.4624544 -0.57043105 -0.7832692
000210 3b 87 83 be 05 14 5e 3e be 04 01 bf 4b eb 41 bd
       -0.2568911 0.21687324 -0.5039786 -0.047343533
000220 4f 84 8f 3e 68 5e 8e bd e8 94 2d 3e c3 79 18 be
       0.2803063 -0.069516 0.16951334 -0.14890198
000230 25 2f 8c be d7 c0 95 3c 55 47 25 bf 17 07 0c bf
       -0.27379718 0.01828043 -0.6456197 -0.5469832
000240 53 04 a2 bd 6d 33 4c 3d a1 0c 0f bf d3 30 de be
       -0.07910981 0.04985373 -0.55878645 -0.43396625
000250 60 26 31 3e d6 d4 54 bd c4 23 3a bf 18 aa b7 be
       0.17299795 -0.05196079 -0.72710824 -0.3587196
000260 cf f3 45 be b8 0a 92 be a9 1b 0f bf d8 da 8d be
       -0.19331287 -0.28523803 -0.5590158 -0.27706027
000270 93 87 bd be 08 e4 37 bf 44 6e 16 be 22 ff 80 bc
       -0.37017497 -0.71832323 -0.146905 -0.015746657
000280 20 3a 7b bd 3d 4a 88 3e a9 95 f0 3d f2 db bd 3d
       -0.06133473 0.2661914 0.117472954 0.09270467
000290 02 57 0a 3d 17 83 3b 3e ba e7 34 3e af 61 1b ba
       0.033774383 0.18311726 0.17666522 -0.0005927337
0002a0 f7 c4 b7 3e 97 3b 6c 3b 18 c9 a8 bd 5b 80 35 3e
       0.3589246 0.003604626 -0.082414806 0.17724745
0002b0 40 43 4a 3d 68 2b 19 3e df d1 11 3e 4e 79 35 3e
       0.04938054 0.14957964 0.14240216 0.17722055
0002c0 51 d9 81 3e e1 30 38 3f 31 27 93 3e 27 87 22 3f
       0.25361112 0.71949583 0.28740838 0.63487476
0002d0 09 f9 3d 3e 46 05 dc 3e 7e 68 84 3d 64 33 90 3e
       0.1855203 0.42972773 0.06465243 0.28164208
0002e0 92 d7 55 be 4c ca 8b 3e 0d 5e 84 3f 3f 53 0c bc
       -0.20883015 0.27302778 1.0341202 -0.008564769
0002f0 a8 db 75 3e f8 81 00 be 6e eb 19 3c 7b 61 00 3f
       0.24009573 -0.12549579 0.00939451 0.50148743
000300 7e 64 1e be 4f 3c 78 be 7e 19 f8 be 1b c3 ad 3e
       -0.15468022 -0.24241756 -0.4845695 0.33937916
000310 e7 51 f2 3d d6 9b 0c 3e c7 95 62 be 80 e4 96 3e
       0.11832028 0.13731322 -0.22127448 0.29471207
000320 93 2f c8 3d 8c c9 df bd 81 17 ab be b7 e9 cc 3d
       0.09774699 -0.10927114 -0.3341637 0.10005515
000330 03 ac 27 be e4 1b 16 bd 8d b2 2d 3e 03 b6 66 3e
       -0.16374211 -0.036647692 0.16962643 0.2253037
000340 a9 2c 81 3e 1f 3e eb 3e 19 a5 17 bc 3e 42 06 3e
       0.25229385 0.45945832 -0.009255671 0.13111207
000350 b1 0e 41 3c 6b e4 69 3d 3e ed 1e 3e 5b 06 36 3e
       0.011783288 0.057102602 0.15520188 0.17775862
000360 ef 39 f8 3e 6e ec 4a 3e 6a c6 55 3e 94 5d be be
       0.484817 0.19816753 0.2087647 -0.3718077
000370 6e a0 4f 3e 95 06 33 be 1f e6 47 be b8 34 c9 3e
       0.20276043 -0.1748298 -0.19521378 0.39298034
000380 52 26 be 3d 8d 11 9b 3e 89 44 f7 3c d4 2b 8a bd
       0.09284653 0.30286828 0.030184047 -0.06746641
000390 74 3c d4 be a6 f6 04 be b4 c1 77 3d e4 3d 97 3e
       -0.41452372 -0.12984714 0.060487464 0.29539406
0003a0 30 f8 1a 3e 29 54 7c 3e 0e d5 f5 3d 24 f7 27 bc
       0.15133739 0.2464148 0.120035276 -0.010251794
0003b0 d3 aa 65 3e bd b8 77 3e 17 af 35 be b5 9e d7 3d
       0.22428446 0.24191566 -0.17742573 0.10528318
0003c0 c2 dd 4d bc ac 87 19 3e c8 8d e1 3d cb c6 43 be
       -0.012565078 0.14993161 0.11013371 -0.19118802
0003d0 ef 89 3e 3e c6 be 0b be ff db 05 be 8a 15 a4 be
       0.18607305 -0.13646993 -0.13072203 -0.32047683
0003e0 22 af 09 3f b3 24 a8 3d 8c de 9b 3c 3b 5b 85 bd
       0.53782856 0.08210125 0.019027017 -0.065115415
0003f0 8c 99 a2 bc e8 5d 69 3e e4 00 39 3d 97 da da 3d
       -0.019848607 0.22789729 0.045166865 0.10686224

model.2.bias f4 [32]
000000 18 11 14 3c ba 1c 6f be b8 c6 86 3d 70 cc db 3d
       0.009037279 -0.23350802 0.06580871 0.10732353
000010 59 4b dd 3d b0 a4 8b bd 63 19 df bd c4 81 96 3e
       0.10805387 -0.06818521 -0.10893514 0.29395878
000020 87 36 8d 3e 2d de 16 3e 7d 36 8e 3e 78 34 54 bc
       0.27580664 0.14733191 0.27775946 -0.012951963
000030 97 8c 87 bc 5f 3c 80 3e 0a ab 3d 3e b9 c9 4d 3d
       -0.01654653 0.2504606 0.18522277 0.050241206
000040 a8 2f 55 bb e8 02 ba 3d f7 6f 58 be 83 0a ed bd
       -0.0032529626 0.090825856 -0.21136461 -0.115742706
000050 be fb 70 3c c3 7c 12 3d cc 87 95 3e 7b f2 46 3c
       0.0147084575 0.035763513 0.29205167 0.012142773
000060 6f d6 26 3e b4 9b c3 3d e6 b8 7e 3e ba 4a b2 3e
       0.16292737 0.095511824 0.2487522 0.34822637
000070 93 64 5a 3d f6 fe 12 3e a2 a3 3d 3e f9 a0 df 3d
       0.05331857 0.14355072 0.18519452 0.10919375

model.4.weight f4 [32, 32]
000000 d9 d3 68 be fa be 16 3e 8b 1f 72 be 2f e4 2a bd
       -0.22737063 0.1472129 -0.23644845 -0.04172152
000010 bb a2 df bd 8f 08 81 bd ee f8 9a bc 3f 4a 28 3e
       -0.1091971 -0.063004605 -0.018917527 0.16434573
000020 da 11 b2 3e 3b ca fa bb 05 3d df 3e d4 09 8c bd
       0.34779245 -0.0076535023 0.43601242 -0.06837812
000030 bd cb 0d bf 8f 68 63 bd 34 dd 25 3f db 7e 6e bd
       -0.55389005 -0.055519637 0.64790654 -0.058226448
000040 6f ce 1a be 80 91 a5 be 38 40 8c 3e fa 09 24 be
       -0.1511781 -0.3233757 0.27392745 -0.16019431
000050 39 7f 0d 3f 0f e0 b1 be d0 10 8a be 52 d8 23 3e
       0.5527225 -0.34741256 -0.26965952 0.16000488
000060 1f c7 46 3e a3 de 0e 3f 2c ba dd 3e 37 88 56 3e
       0.19411896 0.55808467 0.433061 0.209504
000070 51 03 52 be a7 f2 a2 bc ec 3f 37 3e c9 90 a1 3e
       -0.20509078 -0.019891096 0.17895478 0.31555775
000080 76 2f 04 be ed 91 4a bd 0c 38 3b 3d cb da c6 bc
       -0.1290873 -0.049455572 0.045707747 -0.02427425
000090 bb 12 39 be 84 4d 80 3e 06 29 b9 3e 13 35 82 3e
       -0.18073551 0.2505914 0.3616411 0.25431117
0000a0 74 f6 37 3e 64 9c 80 be fe 83 cf be cf ce a2 3d
       0.17965108 -0.25119317 -0.4053039 0.07949602
0000b0 0c 34 37 3e b9 30 60 bf 38 66 97 bf fe 35 e5 3e
       0.17890948 -0.87574345 -1.182807 0.44767755
0000c0 ad e0 a3 be e7 84 7d be a9 ea 98 bd 50 85 1f 3e
       -0.32007352 -0.2475773 -0.07466633 0.15578198
0000d0 c0 0d 9f bc 45 47 2a be 6c 44 d5 bf c7 54 48 bc
       -0.019415736 -0.1662875 -1.6661506 -0.012227244
0000e0 35 8d 89 be 07 db 23 bf 7d 19 0f bd 90 f3 4e 3e
       -0.26865545 -0.64006084 -0.034936417 0.20210099
0000f0 4c 2e b0 3d ee 39 d0 3d ef 37 60 3e e6 aa 9f be
       0.086025804 0.10167299 0.21896337 -0.31185073
000100 f3 79 52 be 8b 63 0c bf 38 1e 57 bd 89 9a 46 3e
       -0.20554332 -0.5483939 -0.052519053 0.19394888
000110 24 3a 2e bf c0 d3 f6 3d be f1 2f 3e 7f 6f ad 3d
       -0.68057466 0.12052107 0.17182061 0.08468532
000120 a2 dc 9f 3e 3a 21 9f 3d 00 6d c2 be fa 19 69 3c
       0.31223017 0.07770009 -0.37973785 0.014227385
000130 b2 30 79 3e d3 f3 e9 3d 06 fc 98 be 56 c9 45 3e
       0.24334982 0.11423459 -0.2987978 0.19315085
000140 e8 51 58 3d fd fa ba be ba b5 20 bd 07 44 37 bd
       0.052812487 -0.36519614 -0.039235808 -0.04474261
000150 a0 11 80 be 58 60 1a 3e 14 c6 a1 bd e5 a2 4b be
       -0.25013447 0.15075815 -0.078991085 -0.19886358
000160 39 1a 81 3b 97 8b 23 be 61 eb 81 be 20 94 54 3e
       0.0039398936 -0.15971218 -0.25374892 0.2075963
000170 0f 87 aa bd 52 64 32 3e 15 c5 0e 3e 47 d2 0f be
       -0.08326542 0.17421082 0.13942368 -0.14045058
000180 f7 48 a9 3e 87 e2 03 be 0b 7d e5 be 38 c7 e9 bd
       0.3306348 -0.12879382 -0.44821963 -0.11414951
000190 c9 10 af bd 9d 9d 8f bc 13 7c 15 be c2 0f b8 bd
       -0.085481234 -0.01753121 -0.14598112 -0.089873806
0001a0 5a e7 0e 3f 36 e5 20 3e c0 54 3c 3e b2 f3 a3 be
       0.55821764 0.15712437 0.18391705 -0.32021862
0001b0 ae 9d 97 be 40 c5 9d 3e 2a 2a 81 3f 5d fa 07 bf
       -0.29612488 0.30814552 1.0090992 -0.531164
0001c0 1b 71 00 3f 1d cf 2b be e2 32 e4 be 96 e8 c9 bd
       0.50172585 -0.16778226 -0.4457007 -0.09858815
0001d0 5b 5e 05 3f ad 39 0a 3e b5 93 6e 39 81 08 04 3e
       0.520971 0.13498564 0.00022752474 0.12893869
0001e0 ca f1 36 3e 96 31 8e 3e 90 2b a6 3e d3 86 2f bd
       0.17865673 0.27772206 0.3245511 -0.042853188
0001f0 4f 09 1e 3e 60 98 73 3d 31 2f 19 bd 08 e5 80 3e
       0.15433238 0.059471488 -0.03739852 0.25174737
000200 7f c8 40 bf 20 a6 cc 3e 29 e7 a5 3e 97 43 95 3e
       -0.7530593 0.39970493 0.32402924 0.2915313
000210 6c 5f e9 be a5 c3 25 bd ac e4 22 be a6 3b 36 3e
       -0.45580614 -0.040469784 -0.15907544 0.17796192
000220 68 75 d9 3e 8b fd bf be 08 46 5c 3e de ca 96 bc
       0.42472386 -0.37498125 0.2151109 -0.018407281
000230 db 5e cb 3e e5 4e cc 3e c6 c8 a8 3e 93 7b dd 3e
       0.39720806 0.39903942 0.32965678 0.43258342
000240 12 96 78 3e 28 63 7c bf 8f d8 2a 3f 32 26 00 bf
       0.24275997 -0.985888 0.6673669 -0.5005828
000250 e8 51 27 3e 27 9a a9 3d f3 86 e6 3e b2 11 d1 3b
       0.16339839 0.08281355 0.45024833 0.0063802833
000260 1b 43 46 3d 58 cc 5e 3e 83 18 2a 3e 11 b4 ae bd
       0.04840384 0.21757638 0.16610913 -0.08530439
000270 d2 8b 7f bd e6 54 3b be f6 3b d8 bc 83 c6 34 be
       -0.062389202 -0.18294105 -0.02639578 -0.17653851
000280 45 47 cc 3d 42 db 7e 3d f2 c9 61 bd 00 2c 16 3f
       0.09974531 0.06222082 -0.05512423 0.5866089
000290 30 f7 2e bd f0 cc 0c 3e 86 25 78 bd 69 3b db 3e
       -0.042716205 0.13750052 -0.06058266 0.42818764
0002a0 f0 20 21 bf ac 37 8d be 8a 0f d1 3e 35 83 da bd
       -0.62940884 -0.27581537 0.40832168 -0.10669557
0002b0 22 65 99 be 9a 00 da 3e 4c 5b 62 bf 30 8a 6b bd
       -0.2995997 0.42578584 -0.8842056 -0.057504833
0002c0 ca 84 84 bc 64 12 40 3f 41 8e c2 be 4d 9f 90 bd
       -0.0161766 0.7502806 -0.37999156 -0.07061634
0002d0 8c a1 46 3e a1 ef ac bd 72 98 81 3e 95 de 1b 3f
       0.19397563 -0.08444143 0.2531162 0.6088651
0002e0 1c f6 5a be a5 a3 94 be 36 1e a6 3d f1 fd 2b 3e
       -0.21382946 -0.290311 0.08111231 0.1679609
0002f0 14 30 15 ba ab e3 7f 3e c7 ae f4 3e ea dd a6 be
       -0.0005691063 0.24989192 0.47789595 -0.32591182
000300 dc 39 da be 2a c0 10 3e 36 37 58 3d 7f 8d f5 bc
       -0.42622268 0.14135805 0.05278703 -0.029974697
000310 9b 53 ef bd 0b d3 08 3e f2 55 3b be 0b 8b 58 3e
       -0.11685868 0.13361757 -0.18294504 0.2114679
000320 3d fa 6f be af 26 29 3c 3f 74 bd 3e 60 95 d2 bd
       -0.23435302 0.010324164 0.3700275 -0.10282397
000330 36 85 c2 bd e8 a0 bf 3d 74 78 5a be cc 98 66 3d
       -0.09498064 0.09356862 -0.21335012 0.056298062
000340 01 85 32 be d1 c0 01 3f fe ee c9 bd e7 b5 0a bf
       -0.1743355 0.5068484 -0.09860037 -0.5418381
000350 72 28 66 3e 62 8f 11 be 38 f3 f5 bc 7a 9b d2 be
       0.22476366 -0.14214852 -0.030023202 -0.41134244
000360 d0 61 bb 3e f0 b0 b0 3e 42 35 2f bd 1f 45 da 3e
       0.36598063 0.34509993 -0.0427754 0.4263086
000370 20 f0 3c 3e 24 b8 aa 3c 9b 36 e2 3d e4 05 81 3e
       0.18450975 0.020839758 0.110455714 0.25199807
000380 d3 5c 8a be c9 37 fe be 4d 47 b6 3e 43 be a9 3d
       -0.27023944 -0.49651936 0.35601273 0.08288243
000390 86 f4 23 3b a0 b5 8b 3d 95 e5 91 3d 0e 8a 50 3e
       0.0025017573 0.068217516 0.071238674 0.20365164
0003a0 0e 82 89 3d f0 20 cd 3d f0 b3 0d be 33 99 ca 3e
       0.06714259 0.10016048 -0.13838172 0.39570007
0003b0 a5 5d ad 3d 3b 05 0e 3d e3 c5 d7 be e3 d4 81 3e
       0.08465127 0.034672957 -0.42143163 0.25357732
0003c0 c4 c9 39 bd a9 67 0b bf c7 50 0f 3f 7c 27 c5 3d
       -0.045358434 -0.5445505 0.5598263 0.09626672
0003d0 0a d8 7d bd ca e4 7a 3e 22 ba 5f 3d bc d9 c3 bd
       -0.06197361 0.24501339 0.05462087 -0.09563014
0003e0 08 b6 63 bd 94 78 47 3d 22 e4 06 3e a1 69 41 bc
       -0.05559352 0.048698977 0.13172963 -0.011804969
0003f0 9b 94 d8 3d 20 50 b1 3d 2f 3c 58 3d 5d 51 7f 3e
       0.10575219 0.08657861 0.05279177 0.24933381

model.4.bias f4 [32]
000000 0f d1 18 3e 6d a8 97 3d 5a a7 e4 3d 46 d6 a8 3b
       0.149235 0.074051715 0.11164732 0.0051524965
000010 eb f9 c2 3e 7a de ed 3d 16 a6 7b 3d bd e1 55 3e
       0.38081297 0.116147 0.06143769 0.20886894
000020 7e b9 43 3e 27 e6 1f 3e 7c 71 32 be 0e 6b bc bd
       0.19113728 0.1561514 -0.17426103 -0.092001066
000030 c0 33 ef 3d db 81 95 bc c1 66 46 3c fa 05 90 bc
       0.116797924 -0.018250396 0.012109459 -0.017580975
000040 2f 42 8f 3e 9d d9 5b bd 8d a9 12 3e 6d 32 f6 3d
       0.27980182 -0.05367433 0.14322491 0.12021337
000050 0a 0a 54 3e 78 d9 24 3d 0e ae 97 3c 6c 70 2c 3e
       0.20706955 0.040246457 0.018515613 0.1683976
000060 b2 a6 45 bc 53 23 d0 3d 72 9d e7 b9 68 2d b5 3d
       -0.012063669 0.101629876 -0.0004417706 0.08846551
000070 ac 9e df 3d e2 a9 a4 3d 6f 7e ba 3d 7e 42 64 3d
       0.10918936 0.08040215 0.091061465 0.055727474

model.6.weight f4 [32, 32]
000000 6c 69 d0 3c b8 d9 95 3e 2a f4 9a 3e 3c 5b 5c be
       0.025440894 0.2926767 0.30264407 -0.21519178
000010 a2 d7 1e 3e b3 5a 8d bd d4 5c 67 be 98 66 a7 3e
       0.15511945 -0.06902065 -0.22594005 0.3269546
000020 f3 05 65 3e e7 32 57 3e 91 85 9a be 1d fa 40 3e
       0.2236555 0.21015511 -0.30180028 0.1884541
000030 fb 02 7d 3c ad 2f a8 3d fe c4 23 bf 37 f8 3e be
       0.015442605 0.082122184 -0.6397246 -0.18649374
000040 98 08 0c 3e d6 92 3d bd 43 0b b0 bd 9d 1b 8c bd
       0.13675153 -0.04628261 -0.08595898 -0.06841204
000050 8c 94 4c bd 0f 98 79 bf 57 4e fd bd d7 ad b6 3c
       -0.049946353 -0.9749765 -0.12368458 0.02229969
000060 8a 6a 1a 3e da b6 72 3e 51 8c 89 bf 25 62 35 be
       0.15079704 0.23702565 -1.0745946 -0.1771322
000070 43 10 4d 3f 42 29 3e 3e 52 f5 b7 3d c6 76 47 3e
       0.8010294 0.18570426 0.08982338 0.19478902
000080 6a 0d bc bc 9a 8f 80 be 93 87 9b be 23 01 dd bd
       -0.022955615 -0.2510956 -0.30376872 -0.107912324
000090 81 10 00 bd 75 4f be 3d 19 69 d8 3d 79 ff 09 be
       -0.03126574 0.09292499 0.10566921 -0.13476361
0000a0 f0 90 97 3e 22 0b a3 3e f1 da a6 be da 3e 93 3c
       0.29602766 0.3184443 -0.32588914 0.017974306
0000b0 72 f0 07 bf 74 8a 77 3e 53 19 fb 3d 94 71 c6 3d
       -0.53101265 0.2417391 0.122606896 0.09689632
0000c0 c8 ce 76 3e ef a1 15 bf 84 5f 10 3e 0f e0 39 bf
       0.24102318 -0.58450216 0.14098936 -0.7260751
0000d0 ae b5 87 3d 42 bc 69 3d b9 83 27 3e 49 8a 23 3b
       0.066264495 0.057064302 0.16358842 0.002495425
0000e0 28 1f 90 3d 81 ca 82 be 13 03 7f 3d 7a e1 2b 3e
       0.070371926 -0.25545123 0.06225879 0.16785231
0000f0 5b f7 01 bf 5d 62 83 be 40 8c 9d 3e 40 a6 13 3e
       -0.5076806 -0.25660983 0.30771065 0.14418888
000100 bf e5 41 bc 3d 54 be 3e 66 53 b8 3e bc 00 22 bf
       -0.011834561 0.37173644 0.36001128 -0.6328237
000110 7b 87 f6 be 83 9f 65 bd 28 c1 24 be 01 74 7a 3e
       -0.48150238 -0.056060325 -0.16089308 0.24458314
000120 6f 20 3f be 14 17 2b be 1b cc 13 bf fa 56 b3 3e
       -0.18664716 -0.16708022 -0.57733315 0.35027295
000130 57 db 22 3f dc e9 16 3b 70 d9 f7 bc b7 73 be 3e
       0.63615936 0.0023027575 -0.03025505 0.37197658
000140 98 a9 2c be 61 52 f6 3e 17 14 3f bb 70 f4 52 3e
       -0.1686157 0.48109725 -0.0029156262 0.20601058
000150 a0 16 5d be ba df 09 bf a9 f7 5a 3e 6e 00 68 bb
       -0.21590662 -0.53857005 0.21383537 -0.0035400647
000160 09 06 29 bd 36 d7 4c 3e 96 17 72 3e a6 2e b7 be
       -0.04126552 0.20003971 0.2364181 -0.35777777
000170 11 1b 3c 3f 29 4e ef 3d 73 9e a1 3e 4f 92 31 3e
       0.734788 0.1168483 0.315662 0.17340969
000180 51 ef 06 3f 1a c2 19 be 28 d6 0d 3e e4 19 cf 3e
       0.5270892 -0.1501545 0.13851225 0.4044944
000190 98 46 3f 3f 21 6f 61 3e 57 c6 5e 3e 90 63 b3 3d
       0.7471709 0.22015049 0.21755348 0.087592244
0001a0 a6 3f 78 3d 9e 97 1e bf b6 02 03 3d ae a8 eb 3d
       0.060607575 -0.619501 0.031985007 0.115067825
0001b0 62 d6 b7 be 9d 78 99 bc 76 db 91 3e 2f 5f 84 be
       -0.3590575 -0.01873427 0.28487748 -0.2585387
0001c0 cf 5f 04 3e dc 86 e8 bd 2d 28 4b be 4a ff a3 3d
       0.12927173 -0.113538474 -0.19839545 0.08007677
0001d0 ab 3e 0d 3f 12 a3 d9 3e 7e 9f 1e bd 43 eb 57 3e
       0.5517375 0.42507225 -0.038726322 0.21085839
0001e0 c1 14 02 bd 38 a8 65 be b7 c6 78 be 36 e8 16 3c
       -0.031758074 -0.22427452 -0.24294554 0.009210637
0001f0 c7 37 e1 be d6 e2 25 3c ac ce 4a bd 9b c2 27 3d
       -0.43987867 0.010124883 -0.049513504 0.040957075
000200 96 25 de bd b4 dc e6 3c 06 a3 ff 3d b1 07 35 be
       -0.10847013 0.028181411 0.12482266 -0.17678715
000210 1c 5b a7 be be 88 7e be f6 23 d7 bd 0c a8 b7 3e
       -0.32686698 -0.2485685 -0.10504906 0.35870397
000220 0b 7b 02 be 6f ef 80 3e 53 15 fd bd b9 d2 94 3e
       -0.1274225 0.25182673 -0.12357583 0.2906702
000230 14 66 a5 bd 8e 6e 61 3e aa 25 91 3e a8 77 bd 3d
       -0.080761105 0.2201483 0.28349048 0.09251338
000240 6a 4c ae bd ad 00 ad bc 44 62 10 3e 7e 02 82 3d
       -0.085106686 -0.021118486 0.14099985 0.063481316
000250 0b ef 8b be 0b 36 2d be ef 2e 99 3e 8c 2c fa bd
       -0.27330813 -0.16915147 0.2991862 -0.12215528
000260 a4 be 16 3e ed d0 ae 3e 6d 68 4a 3e cc 77 62 bd
       0.14721161 0.34143773 0.19766398 -0.05529003
000270 32 48 6d bc 01 82 10 3e 88 d7 4a 3e 1b 35 e7 3d
       -0.014482545 0.14112093 0.19808781 0.11289426
000280 06 f7 be 3c 27 c3 e6 3d bb ee fc 3d 80 67 93 be
       0.02331115 0.11267691 0.12350222 -0.28789902
000290 b0 df c1 3b c1 bc 84 be b8 74 a6 bd be 63 e2 bc
       0.005916558 -0.25925258 -0.08127731 -0.027635451
0002a0 90 af 26 3e 73 56 94 3e a4 1d c4 be 3a bd 6f 3e
       0.1627791 0.28972206 -0.38303864 0.23412028
0002b0 0f cd 33 3d 18 5e d7 3d 89 54 60 3e bc 19 76 3e
       0.04389673 0.10515994 0.21907248 0.24033254
0002c0 33 6e 01 bc aa 88 0a 3e 83 6c 3d 3d 38 60 91 3d
       -0.007899809 0.13528696 0.046246063 0.070984304
0002d0 66 34 44 3d e8 23 88 bd 52 a9 95 3e 66 19 35 be
       0.047901534 -0.066474736 0.29230744 -0.1768547
0002e0 48 73 36 3d 70 24 15 3e a6 6f 89 3e 38 73 7d be
       0.044543535 0.14564681 0.26842993 -0.24750984
0002f0 07 e1 ce 3b a0 ab c6 3d ab bf 34 3e 7f c8 ff 3c
       0.0063134464 0.097007036 0.1765124 0.031223534
000300 a4 ad 8b be 51 45 1a be 16 d5 1e be 4c 8b 49 3d
       -0.27280915 -0.15065505 -0.15510973 0.04920511
000310 62 79 45 be 82 5e 91 3e 39 81 87 3e 80 cc 39 3c
       -0.19284585 0.28392416 0.26465777 0.0113402605
000320 e8 02 95 3e 29 85 24 3f 35 91 0f bc 21 63 3b 3e
       0.2910378 0.64265686 -0.008762647 0.18299533
000330 a6 bc 1a be 70 00 03 3e 28 c4 7a 3c d0 46 aa 3e
       -0.15111026 0.12793136 0.015305556 0.3325715
000340 d6 b4 c2 3d d8 d7 84 3e 7f 49 66 3e 20 0f 69 bd
       0.09507148 0.25945926 0.22488974 -0.05689919
000350 a1 98 c0 be dc 6e 8c bd 6c bc 37 bd ae d9 2a be
       -0.37616447 -0.06857082 -0.044857427 -0.166846
000360 ed a7 89 3e ca 0e 34 3e cc d1 56 3e 4a 1e 19 3e
       0.2688593 0.17583767 0.20978469 0.1495296
000370 07 02 97 be d4 e4 db bd 12 45 de 3e 4f 00 ca 3d
       -0.29493734 -0.10737005 0.4341207 0.0986334
000380 37 84 89 be 44 39 80 3e 45 f2 64 3e f0 bd 38 3d
       -0.26858684 0.2504369 0.22358043 0.045103014
000390 30 b7 93 bd 04 12 69 3e 99 04 44 3e f7 c7 e5 3b
       -0.072126746 0.22760779 0.19142379 0.007012363
0003a0 21 91 4e 3e bd 74 2b 3d 81 ea 89 be 7b 7d de 3d
       0.2017255 0.041859377 -0.26936725 0.10863777
0003b0 82 63 3f bd c6 bb e9 bc b4 be 57 bc 09 02 dc bd
       -0.046725757 -0.02853192 -0.013168026 -0.10742576
0003c0 2b 78 19 3e ef 6d af be 4e 11 2a 3e c2 48 c2 bd
       0.14987247 -0.3426356 0.16608164 -0.09486534
0003d0 de dc 11 bd 5f bc 2f 3e 3b fa 2b 3e 33 4c d8 3d
       -0.035611026 0.17161702 0.16794674 0.10561409
0003e0 c1 73 36 3d e0 41 c2 bd 91 08 8c 3d 84 ff 6d 3d
       0.044543985 -0.09485221 0.068375714 0.058105007
0003f0 da 9b ac 3e 25 6d 32 bc b0 f4 e5 bb 31 1a 72 3d
       0.33712655 -0.01089028 -0.0070176944 0.05910701

model.6.bias f4 [32]
000000 15 34 e5 3d 9e 6e 8d bd 75 1b 46 bd 09 66 be 3e
       0.111915745 -0.06905864 -0.04836603 0.37187222
000010 e8 74 10 be 02 fb e0 3d d8 fd 5c 3c cc 45 f4 3d
       -0.14107096 0.10985376 0.013488255 0.11927375
000020 5e ee 6d 3e 51 10 c1 3d 6d 7a f6 3c 83 38 cd 3e
       0.23235461 0.0942694 0.030087674 0.40082178
000030 e2 ab 2a 3e 30 b5 2d 3e 31 36 55 3e 15 94 6e 3e
       0.1666713 0.16963649 0.20821454 0.23298676
000040 eb c2 67 3e b4 91 89 3d f7 c3 71 3d 2b 12 0c 3c
       0.22632949 0.06717244 0.059024777 0.008549253
000050 32 6a 22 bd 78 8d 0c 3d 3d 7c 6d 3c 2f 04 ac 3e
       -0.039652057 0.034314603 0.014494953 0.33596942
000060 a6 e7 0b bd cb 68 a1 bc d6 04 01 be a4 74 83 bc
       -0.034156464 -0.01970329 -0.12599501 -0.01604683
000070 bb 45 98 bd 00 0f eb bd 91 7a 4e 3e 82 c9 d9 bc
       -0.07435175 -0.114774704 0.20163943 -0.026585344

model.8.weight f4 [32, 32]
000000 c7 42 d8 bd 6d 59 a4 3d db f2 a8 3e b6 64 9a be
       -0.10559612 0.08024869 0.32997784 -0.3015496
000010 50 e5 66 3e be ec ff bb f4 a5 04 bc 96 0e 5b be
       0.22548413 -0.0078102043 -0.008096207 -0.21392283
000020 5c b5 4a be d7 a5 a3 be 57 e7 15 3e 0f a3 d5 be
       -0.19795746 -0.31962463 0.1463903 -0.41725966
000030 d1 37 f0 3d 7d ef 9f be 24 fe 10 3c fe e2 e4 3c
       0.11729396 -0.31237403 0.008849654 0.02794027
000040 a2 a2 bb 3d 7d 4c c3 bd ca 28 58 bd a1 7c 22 be
       0.09161879 -0.09536073 -0.052773274 -0.15867855
000050 ac b0 46 be b8 ff 30 be df 0b 9b bc ad b9 70 be
       -0.19403332 -0.17285049 -0.018926559 -0.2350833
000060 6b 35 49 3e 5a 25 00 3f 7b 72 5b bb ed 9e dc 3d
       0.19649284 0.50056994 -0.0033484984 0.107725
000070 b2 8f ff bd d3 d6 3f be 47 f5 9b 3d 18 96 bf 3e
       -0.124785796 -0.18734293 0.07615142 0.374192
000080 16 5b 79 3d 58 e8 34 3e 33 42 44 be ca 37 fc be
       0.060877882 0.17666757 -0.19165878 -0.49261314
000090 78 cc 4f be aa 9c 19 3e 95 eb ff bd a0 81 9c 3e
       -0.20292842 0.15001169 -0.124961056 0.30567646
0000a0 d8 0d 14 bd 22 09 f4 3c 5b 1f 19 3d 20 72 42 bd
       -0.036146015 0.029789511 0.03738342 -0.04747212
0000b0 b7 d0 d8 3a a3 6b 8a be 8d d8 c3 be c2 a6 3d 3c
       0.0016541694 -0.27035245 -0.38251153 0.011575403
0000c0 c0 9b d5 3d 04 7b f9 3b 2a 10 a0 be df 58 00 bb
       0.104300976 0.0076135416 -0.31262332 -0.0019584221
0000d0 84 75 b0 be 5f 81 6d 3e 61 c1 a8 be 72 e1 19 3e
       -0.34464657 0.23193882 -0.32960036 0.15027407
0000e0 55 33 0a bd b3 51 cf be e8 03 64 3e c4 64 52 3e
       -0.03374036 -0.4049202 0.22267115 0.20546252
0000f0 e4 79 c3 3d d0 71 67 3d 5e c4 8a bd 25 22 f0 bd
       0.09544733 0.056505024 -0.06775735 -0.117252626
000100 0f 3c 50 3e 53 3f 76 3e 73 6b 1d 3f 91 20 1b bf
       0.2033541 0.24047594 0.6149208 -0.6059657
000110 69 ff 86 3e 26 c2 72 3e 13 b6 b9 3d 52 cd 97 3d
       0.26366737 0.23706874 0.09067931 0.074122086
000120 44 41 da be df e5 b2 bc 35 af 8a 3e 32 f4 e0 be
       -0.4262792 -0.021838127 0.27086797 -0.43936306
000130 b8 23 c9 bd 8b 4d ac be bb 10 5c 3d 9d 80 44 3e
       -0.09821266 -0.3365291 0.053726893 0.19189687
000140 a8 d6 eb 3c 20 d3 db bd 74 e4 4b 3e 6e b4 21 3e
       0.02878888 -0.10733628 0.19911367 0.15791485
000150 5e da 83 bd b0 9b 36 bc c5 e7 bc be a4 4d de 3d
       -0.064381346 -0.011145517 -0.36895576 0.108546525
000160 06 14 71 3e 80 e1 bd 3e ac 3e fd bc bf 28 10 3e
       0.23542795 0.37086105 -0.030913673 0.14078043
000170 a2 78 a4 3d b6 b5 67 3e e3 0f ac 3e b9 6b b6 3b
       0.080308214 0.22627911 0.3360587 0.0055670408
000180 2b 56 75 3e 50 69 53 3d 6a 4e 33 bb 87 ec ea be
       0.23958652 0.051614106 -0.002735997 -0.4588358
000190 4a 4f e7 bd 4c 5e b9 3d cd b0 77 3e b9 bc c7 3d
       -0.1129442 0.09051189 0.24188538 0.09752793
0001a0 46 72 41 be f7 8e b0 bd d5 db 5d 3e ad 38 e2 be
       -0.18891248 -0.086210184 0.2166589 -0.44183865
0001b0 aa 96 43 bd dd db 21 be 51 bc b8 be c8 dc 1b 3d
       -0.047751106 -0.15806527 -0.36081174 0.03805235
0001c0 db 94 8b 3c 77 e2 64 3d fb f6 73 be ce a2 e9 3d
       0.017038753 0.055880036 -0.23824684 0.11408006
0001d0 58 e0 b2 bd 78 c4 7a 3e d7 d4 0d be 7c d4 96 bd
       -0.087341964 0.2448901 -0.13850723 -0.07364747
0001e0 ed 17 ed 3d 2b 15 2a be 6f 2d 71 3e af 8d 00 3d
       0.11576829 -0.16609637 0.23552488 0.03138512
0001f0 cd ba 26 3e ed e2 8b 3e 75 79 5a 3d e2 cd 50 be
       0.16282196 0.27321568 0.053338487 -0.20391038
000200 a9 08 c4 3e 58 ae 7d 3b 68 74 5e 3e 3d 85 8a be
       0.38287857 0.0038708653 0.21724093 -0.27054778
000210 11 20 4f bb 15 f3 7e 3d 0d b6 95 bc e6 9d c0 3d
       -0.0031604806 0.06224354 -0.018275285 0.09405117
000220 62 10 02 be 8f fb fe 3d 2a 15 2b 3e 0e c0 94 be
       -0.12701562 0.12450325 0.16707292 -0.29052776
000230 7b b1 ef bc ea e2 81 bd bd a5 00 3e de d6 24 3e
       -0.029259434 -0.063421085 0.12563224 0.1609759
000240 be 12 fa 3d eb 7a 0a bd e1 50 8c 3d 27 56 f1 3c
       0.12210606 -0.03380863 0.06851364 0.029460026
000250 56 6c 08 3e ae 94 63 3e 96 80 f9 bc af 30 6a bd
       0.13322577 0.22224686 -0.030456822 -0.057175335
000260 3e b3 60 3d fc f3 37 be 44 63 66 3d 26 32 1b 3d
       0.05485844 -0.17964166 0.05624701 0.037889622
000270 c3 f3 6d 3e 21 01 2f 3e b5 ef 8d 3e c4 f3 b3 bd
       0.23237519 0.17090274 0.27721944 -0.08786729
000280 25 99 6f 3d 2a d9 78 3e 90 77 0b bd ae 0c f4 bc
       0.05849566 0.24301592 -0.03404957 -0.029791202
000290 ae 72 1d bc 01 c7 2e bc 60 e1 78 bc 54 e0 59 bd
       -0.009609861 -0.010667563 -0.015190452 -0.05319245
0002a0 92 62 27 3d 7d be 1e be 9e 05 73 3e 07 e2 16 bc
       0.04086549 -0.15502353 0.23732612 -0.009209163
0002b0 75 42 0d 3e 1d 66 e7 bd 4b 5f 21 3f 34 ab 89 bd
       0.13794883 -0.112987734 0.6303603 -0.067221075
0002c0 cb e1 cf bf a4 0d fc bd c1 33 2f bf 68 86 39 3d
       -1.6240782 -0.12307289 -0.68438345 0.045294195
0002d0 67 f9 b4 3d 34 95 c8 bd c3 eb 1c be 36 42 02 be
       0.08836632 -0.09794083 -0.15324311 -0.1272057
0002e0 96 83 27 be 6a 7f ab 3d 78 c0 6f 3d f7 c5 0a 3e
       -0.1635879 0.08373912 0.058533162 0.1355208
0002f0 25 43 79 3c 4f d0 b1 bb f4 61 a6 bc 00 29 c6 bc
       0.015213762 -0.0054264436 -0.02031038 -0.024189472
000300 aa 3a 4f 3e c2 3d 3a 3e d7 39 4c 3e dc 56 11 bf
       0.20237222 0.18187621 0.19943939 -0.5677316
000310 1a a9 b5 3d 1e 32 bd 3d 64 a2 b6 3e 7d ee b6 3c
       0.08870144 0.09238075 0.3567077 0.022330517
000320 02 e1 2f be ea b3 80 3d 76 c4 48 3c 23 cf f3 be
       -0.17175677 0.06284316 0.012253871 -0.4761897
000330 b2 ca 8e bd 63 80 bf be 32 e5 77 be 58 73 1a 3e
       -0.06972255 -0.3740264 -0.24208525 0.15083063
000340 ac a3 e0 3d 3c 2c 95 be 8a 82 1b 3e 9b 9a 93 3d
       0.10968718 -0.2913531 0.15186515 0.07207223
000350 4a a5 80 be 24 c1 88 3e 44 c8 09 be a7 83 cd be
       -0.25126106 0.26709855 -0.13455302 -0.40139505
000360 f9 97 47 3e 5a 97 3e be d5 05 60 b9 98 0c ba 3e
       0.19491567 -0.18612424 -0.00021364477 0.36337733
000370 3b 8d 60 3c 6a 71 9a 3e 97 90 d8 3d 29 23 7e 3e
       0.013705547 0.30164653 0.10574453 0.248181
000380 56 5e 3d be db df ab bd 84 fd 8d 3d d2 7b 70 be
       -0.18493018 -0.083923064 0.0693312 -0.23484734
000390 80 df 38 3d 2f 06 f6 3d 67 18 03 3e f9 0b b7 bd
       0.04513502 0.12012898 0.12802278 -0.089378305
0003a0 cb 5b f1 be 3c b9 17 be 19 34 12 3e fb 40 5d be
       -0.47140345 -0.14816755 0.14277686 -0.2160682
0003b0 b1 3d 87 3d fa 24 e6 3d 7b 33 89 bc 5b a4 eb 3c
       0.066035636 0.112375215 -0.01674818 0.028764894
0003c0 86 48 cc bd 44 1a f2 bd 3d 2c 71 bd 1f f4 2b be
       -0.0997477 -0.11821416 -0.05888008 -0.16792344
0003d0 31 c6 3a be 96 95 64 3d d2 1d 2f be 80 e1 04 be
       -0.18239667 0.05580672 -0.1710122 -0.12976646
0003e0 0d c2 4f 3e 98 4b 65 3e f2 26 04 3b d9 63 6e 3e
       0.20288868 0.22392118 0.0020164815 0.23280276
0003f0 99 f0 24 3d a0 a0 b7 bd d7 52 39 3e f6 12 98 3e
       0.040268514 -0.08966184 0.18098007 0.29701966

model.8.bias f4 [32]
000000 d3 c9 ad 3d b6 a8 44 3e 1a 84 29 3d f3 4a b3 3c
       0.084857605 0.19204983 0.041385747 0.021886325
000010 58 6f 96 3d 69 cb 1f 3c 2d b4 3c be de a4 58 3c
       0.07345456 0.009753087 -0.18428107 0.013222901
000020 0f 39 cd bd f3 ee 08 3e a3 13 2d 3e 42 29 57 3d
       -0.10020649 0.13372402 0.16902022 0.05252958
000030 fd 8e 58 be 51 a7 b5 3c 5c e3 49 be cd 2b ef 3d
       -0.21148296 0.02217451 -0.19715637 0.11678276
000040 86 df 48 be c8 ff cc 3d f4 31 87 bd c0 9b 7d 3e
       -0.19616517 0.10009724 -0.06601325 0.24766445
000050 af 61 28 be 1e 9f 5a 3e 56 a7 09 3d 57 62 50 3d
       -0.16443513 0.21349761 0.03360685 0.050875034
000060 68 20 5e 3e a1 b2 cf bd 8f 10 77 bc 55 ef 0a 3e
       0.2169205 -0.10141493 -0.0150796315 0.1356786
000070 28 d6 d9 3d 33 ae 46 bc 56 76 0a bd f5 20 d7 3c
       0.1063655 -0.012126493 -0.03380426 0.026260832

model.10.weight f4 [32, 32]
000000 8e cf ba bd c7 ad 99 be ef b9 4f 3e df f8 a2 3d
       -0.09121619 -0.30015394 0.20285772 0.07957625
000010 99 fd bf 3d 42 87 f3 3d 82 59 21 3c f9 e0 00 be
       0.09374542 0.11891033 0.0098480005 -0.1258582
000020 17 82 3a be b1 49 6e be 62 e8 18 be 77 a1 58 3e
       -0.18213688 -0.23270299 -0.14932397 0.21155344
000030 de 16 eb be 29 1e 12 3e c7 14 ab be 04 30 ef bd
       -0.45915884 0.14269318 -0.3341429 -0.1167908
000040 41 43 8a bf c4 76 3d 3e 76 e4 de 3c b1 35 e1 3d
       -1.0801774 0.18502337 0.027208548 0.10996569
000050 29 e3 7f 3e b5 81 a5 3d 4f 72 a9 3d 2b 84 09 be
       0.24988998 0.0808138 0.08273756 -0.13429324
000060 2c dd 0d be 27 0c 34 3e 44 8b ec 3d 6a f8 3f 3e
       -0.13853902 0.17582761 0.1155 0.18747106
000070 ba 39 27 be 34 f5 d6 be f9 a7 3a be 22 1e 90 be
       -0.16330615 -0.4198395 -0.18228139 -0.2814799
000080 86 53 4a 3d 8c d3 47 be 75 98 40 3e 64 40 c3 3c
       0.04939606 -0.19514292 0.18808158 0.023834415
000090 f4 4b 15 3e 62 3a 6f 3d ab c0 fe 3d 77 38 c2 bd
       0.14579755 0.058405288 0.12439092 -0.09483426
0000a0 6a b2 3d 3d ee 9f a5 be 9b 77 55 be e9 1a 03 3e
       0.046312727 -0.3234858 -0.20846407 0.12803234
0000b0 c4 33 c8 be 63 df 9d 3c b3 0f b6 be 39 65 92 bd
       -0.39101994 0.019271558 -0.35558853 -0.07148213
0000c0 d2 e7 58 bf c5 d5 19 3e b0 23 20 3d be 82 b6 bb
       -0.8472873 0.15022953 0.039096534 -0.005569785
0000d0 26 39 7f 3e 7a b4 42 3e fe 7e 7c 3e 58 d3 d5 bd
       0.24924144 0.19014159 0.24657819 -0.10440701
0000e0 fc c5 10 be a2 17 0d 3e ad e0 68 be 8c e2 42 b9
       -0.14138025 0.13778546 -0.22741957 -0.00018585677
0000f0 58 d9 06 3d 98 c1 9f be ee 6f cd bc 52 98 3a 3d
       0.03292212 -0.31202388 -0.025077786 0.04555542
000100 0f 3b a5 be 4f 79 85 3d f9 49 c9 3c f7 d2 74 be
       -0.3227162 0.065172784 0.024571406 -0.23908602
000110 ab 3a 6a 3e db 6c 65 3d 21 60 21 be a6 08 94 bd
       0.22873943 0.056012016 -0.15759327 -0.07228212
000120 32 80 e7 be dc ca 15 3e 6d ac bd be 01 b1 fc bd
       -0.45214993 0.14628166 -0.37045613 -0.12338448
000130 ba da dc be 5b d7 93 be 56 9e b4 be d5 f8 80 3c
       -0.43135625 -0.2887524 -0.3527705 0.015743652
000140 fc 3c 37 bd de d8 7d be 68 1e e1 3c d3 6d 8c 3e
       -0.044735894 -0.2478976 0.02748032 0.2742754
000150 9d 83 67 be 68 43 9f 3e 25 17 44 3d bb 1d 47 bf
       -0.226088 0.31106114 0.047873635 -0.7777974
000160 78 84 4c be d6 82 91 bd da d7 a6 be 42 a3 0e 3e
       -0.19972408 -0.07105033 -0.32586557 0.13929465
000170 aa 0b 91 bd 71 c2 ca be 13 78 df bd ce 21 ba 3e
       -0.07082303 -0.39601472 -0.10911574 0.36353916
000180 34 1b 49 be 8e 88 93 be 2d 57 cb 3d 71 02 96 3e
       -0.19639283 -0.2881512 0.09928737 0.29298738
000190 40 a4 65 3e f5 64 96 3e 6b e4 8a 3d b4 94 11 be
       0.22425938 0.293739 0.067818485 -0.14216882
0001a0 de 3a 17 be 2e ea 8f bf 12 2f 84 be 26 4c 6e 3d
       -0.1476855 -1.1243341 -0.25817162 0.05817809
0001b0 72 23 1a bf 16 93 21 3e 66 67 96 be a7 c2 3b 3e
       -0.60210335 0.15778765 -0.29375762 0.18335973
0001c0 7b c8 63 be 5c b7 07 3e 75 ca a0 3c 03 7b 31 bb
       -0.22244446 0.1325354 0.019627789 -0.0027081377
0001d0 0c f1 55 3e 8d aa 02 3e b6 e7 82 3e af 96 59 3c
       0.20892733 0.12760372 0.25567406 0.013280555
0001e0 1a a6 4b bd f6 8b 02 bc 68 33 c4 3d fc 09 08 bd
       -0.049718954 -0.00796794 0.095801175 -0.033212647
0001f0 68 7f 15 3e 30 0a b9 3e 39 61 3e be 22 6d 90 be
       0.14599383 0.36140585 -0.18591775 -0.28208262
000200 01 1b 24 3e 5c e8 1f bd 89 8d 91 3d 01 f4 01 3e
       0.16025926 -0.039039955 0.07107074 0.12690736
000210 93 fc 58 3e 27 13 93 3e 4a 1e d6 bd d3 42 09 3e
       0.211901 0.2872555 -0.10454996 0.13404398
000220 68 52 2e 3e b2 f7 37 be 50 34 8a bf fc a8 fa 3b
       0.17023623 -0.17965582 -1.0797215 0.007649539
000230 0e 2c 81 3d f6 ca 92 3d 8c bb e6 3b 3c 9a 4e 3e
       0.06307231 0.07167618 0.0070414003 0.20176023
000240 b7 e3 ac 3e d7 29 2c bd 56 8b 74 ba 92 75 5e be
       0.33767483 -0.04203209 -0.0009328624 -0.21724537
000250 be 78 48 3e d7 7c 06 3e 47 b1 98 3d fa 7f 90 be
       0.1957731 0.1313356 0.07455688 -0.28222638
000260 e7 67 79 be 97 9e 48 3e 6b 87 db b9 e9 2a 1a bd
       -0.24356042 0.19591747 -0.0004187183 -0.03763858
000270 a2 7d a1 3c 8b 47 5c 3f 03 f6 a7 bd 23 f3 93 be
       0.019713227 0.86046666 -0.0820122 -0.28896436
000280 52 6c e7 bd 5f 83 0c 3e c9 6b cb bd b9 de 63 be
       -0.11299957 0.13721989 -0.09932668 -0.2225293
000290 90 fa d2 3d 92 e7 71 3e d7 06 31 be 68 5b f6 bd
       0.10301697 0.23623493 -0.17287765 -0.12029153
0002a0 1a a1 86 bd a1 c4 a1 be a6 83 23 3e 00 c1 8c 3d
       -0.065736964 -0.31595328 0.15968189 0.06872749
0002b0 99 56 24 bf 0f c3 d6 be 40 fe cd be d9 6b 08 be
       -0.6419464 -0.41945693 -0.4023304 -0.1332239
0002c0 c0 c4 19 bf 89 d8 b5 3d f6 10 cd 3d 09 f1 0c be
       -0.6006584 0.088791914 0.10013001 -0.13763823
0002d0 e1 95 c5 bd 29 7f 1a 3e 53 44 3f bc 8c b1 4f be
       -0.09647728 0.1508757 -0.011674005 -0.20282573
0002e0 b3 7f ac 3d f3 35 14 bd 8c 45 c7 be f6 82 a1 3d
       0.08422794 -0.036184262 -0.38920248 0.07886307
0002f0 0f d8 46 be 62 89 89 be f5 fa d1 be ce ab a2 3e
       -0.19418357 -0.26862627 -0.41011778 0.31771702
000300 0a a4 eb 3d 33 e5 46 be a0 ed 94 3a a5 d9 48 bd
       0.11505897 -0.1942337 0.0011362322 -0.049035687
000310 3a 83 ad bd 39 5b dc bc 34 88 96 3d f4 be f7 bd
       -0.08472295 -0.026898967 0.073501974 -0.12096968
000320 d8 4d 0e 3c a1 5c 26 bf 0c 25 a3 bc d9 91 4f 3e
       0.008685552 -0.6498509 -0.019915126 0.2027048
000330 77 f2 34 bf 15 6b 5d 3e f2 a3 e2 be d5 1d 14 be
       -0.7068247 0.2162288 -0.44265705 -0.14464505
000340 ce b7 3e bf a2 80 00 3e bb 6e 1f bc 9e 54 c0 bd
       -0.74499214 0.1254907 -0.00973099 -0.093911394
000350 62 be c1 3d 67 d7 27 3e b3 1e 2c bd 51 27 b9 3d
       0.09460141 0.16390763 -0.042021465 0.09040702
000360 8b 46 b7 3c 9f fa 11 be e9 71 df bd 79 8c 3a be
       0.022372505 -0.1425576 -0.109103985 -0.18217649
000370 ce 1b c7 3d 92 50 16 3d 26 84 31 3e 13 23 b0 3d
       0.097221 0.03669793 0.17335567 0.0860044
000380 9c 76 32 be 98 dd 69 3e 49 49 88 3e 84 5b f7 3c
       -0.17428058 0.22838438 0.26618412 0.030195005
000390 a0 f8 af 3e 9c 55 1b bc 6a 31 a0 be ac 67 8f be
       0.34369373 -0.00948086 -0.312877 -0.28008783
0003a0 75 1b 0a bf 00 35 fb 3d 3e e6 9f be 89 80 aa be
       -0.53948146 0.12265968 -0.31230348 -0.3330119
0003b0 29 91 33 bf 06 2e 43 be bb 34 8f bf 8a fc 71 3d
       -0.7014337 -0.19060525 -1.1187967 0.05907873
0003c0 07 ad c0 be 76 2f 55 be 58 94 99 bc a1 c1 2f 3e
       -0.3763201 -0.20818886 -0.018747494 0.17163707
0003d0 1f fc f8 be 87 4e bf 3e 8c 4f ec 3d d8 16 1c bf
       -0.48629853 0.373646 0.1153861 -0.60972357
0003e0 65 f8 b0 bc 0c 10 39 3c 39 af 4b be 23 c9 ee 3d
       -0.021602819 0.01129533 -0.19891061 0.116594575
0003f0 19 db 9c be a6 97 9f be bb de df be dd 6e ca 3d
       -0.30635908 -0.31170386 -0.43724617 0.09884427

model.10.bias f4 [32]
000000 82 28 56 3e 89 6a 4e 3e ba 4a 20 3e d1 b7 8f ba
       0.2091389 0.20157827 0.15653506 -0.0010964816
000010 33 ba 49 be a3 92 84 3e 5c c8 b2 3b 52 52 91 3e
       -0.19699936 0.25893125 0.0054560136 0.28383118
000020 cc a3 3c bd 26 26 0e be af c1 0c 3c 8a 68 e1 bd
       -0.046054646 -0.1388174 0.0085911 -0.11006267
000030 ff 1b 27 3d 95 cb 9b 3c 52 a9 7e be 0e ba 8c 3e
       0.040798184 0.019017974 -0.24869278 0.27485698
000040 42 e0 fc 3d 3e a5 03 be 2d 0b 08 3d 89 b3 f2 3d
       0.12347461 -0.12856004 0.033213783 0.1185065
000050 46 76 cd 3d 25 2f 01 3d 53 27 14 3e 7b 25 19 3e
       0.100323245 0.0315391 0.14468126 0.14955704
000060 54 c5 b5 3d d1 ac 4b bd 6d 71 d2 bc 66 78 fb bd
       0.08875528 -0.049725357 -0.025688851 -0.122788236
000070 c4 60 44 be 32 3f 17 3d 75 0d 81 bc 41 1c 0c be
       -0.19177538 0.036925502 -0.015753487 -0.13682653

model.12.weight f4 [1, 32]
000000 aa db 94 bd 12 a6 d7 bd ba 3b b8 3e 1d 18 2c be
       -0.0726846 -0.10529722 0.35983068 -0.16806073
000010 c6 fc 02 bd 3d 23 1e bf e0 e7 3a bf be 96 d5 3e
       -0.031979345 -0.6177252 -0.73010063 0.4171657
000020 41 dc e7 be 8c fd 83 bd a9 d7 42 3e f7 16 8d bd
       -0.45285228 -0.064448446 0.1902758 -0.06889146
000030 f3 f3 35 3e b2 85 5a bf ec 9b 5e 3e 12 2a 0b 3f
       0.1776884 -0.8536025 0.21739167 0.5436107
000040 2b 46 18 bf f5 df 44 be a0 c2 32 be 78 cb fc 3e
       -0.5948207 -0.19226058 -0.17457056 0.49373984
000050 5a ad 43 3e 19 bc 8b 3e c8 92 eb 3e 9c 53 7e 3e
       0.19109097 0.27291945 0.46010423 0.24836582
000060 93 93 64 3e b4 6d 13 bf 54 37 4b 3d 69 29 24 3e
       0.2232192 -0.5758927 0.049613312 0.16031422
000070 57 37 56 3f 30 7f 6e 3e 64 4d 0d 3e e3 e0 2a be
       0.8367819 0.23290706 0.13799053 -0.1668735
